neural_network/lightning_logs/version_39/checkpoints/epoch=0-step=1875.ckpt (torch, 218955 bytes, 18 tensors)

layers.0.weight f4 [128, 4]
000000 68 83 91 be 77 3f 4d bd ce 89 66 be 8a 37 2c 3e
       -0.28420568 -0.050109353 -0.22513506 0.16818061
000010 27 a3 01 bf 60 d0 6c be 40 39 9c 3e bb 38 25 bd
       -0.50639576 -0.23126364 0.30512428 -0.040337306
000020 00 81 e6 3d aa 65 e0 be bd a7 45 be 4f 1c d5 be
       0.112550735 -0.43827564 -0.19302268 -0.4162316
000030 c4 29 29 3f f9 ca a8 be 8c 5a db 3d 13 53 71 bc
       0.66079354 -0.32967356 0.1071063 -0.014729279
000040 bb da 01 3e 85 29 ca 3c ca 2f 04 3e 30 fc a1 3d
       0.12681095 0.024678001 0.12908855 0.07909429
000050 c5 93 88 3e 65 6b a7 be 73 41 f6 3e 6c df 33 be
       0.2667524 -0.32699123 0.4809681 -0.17565697
000060 3b ea 89 be b5 f5 d7 be 0b 74 27 bc 2d 62 88 bd
       -0.26936516 -0.42179647 -0.010220538 -0.066593505
000070 0c 03 8f be 09 63 e5 3e 60 ab d6 bd 9b 75 8c be
       -0.27932012 0.4480212 -0.10481906 -0.27433476
000080 8f 45 45 3e 87 da c7 bd 5f 3f 57 be 5e e3 d2 3d
       0.19264816 -0.09758478 -0.21020268 0.10297273
000090 2f 96 21 3e 60 d8 a0 be d3 15 45 be fc c6 0f 3e
       0.15779947 -0.3141508 -0.19246607 0.1404075
0000a0 dc bf 12 3f c1 3d 1b bf a5 e8 6b be 71 12 09 be
       0.57324004 -0.60641104 -0.23037966 -0.13385941
0000b0 f3 99 09 bf 57 81 ba bb 60 96 13 3d c2 83 e7 3d
       -0.5375053 -0.005691688 0.03603208 0.11304428
0000c0 e5 7c a7 3e f9 60 91 3d 76 b8 9f bd 03 1a 92 3d
       0.32712474 0.07098574 -0.07798855 0.071338676
0000d0 52 52 95 3f c2 69 39 bf d1 46 b9 3d 49 5b 4f bc
       1.1665747 -0.72427 0.0904671 -0.012656041
0000e0 b7 7e 30 3e bb f6 a1 be 11 6b a2 3d f6 de ad be
       0.17235838 -0.31633553 0.079305775 -0.33959168
0000f0 84 19 8e 3e 21 cb d0 bd e1 dc cb 3e 51 75 e2 bd
       0.27753842 -0.10194994 0.39816955 -0.110575326
000100 bc ae dc 3e 11 a6 f3 bd 85 c1 8b 3d bd 04 52 bb
       0.43102062 -0.11896909 0.0682402 -0.0032046281
000110 5a e1 b8 3e 5f 7b eb be c1 df b7 be 00 bb b8 be
       0.3610943 -0.45992562 -0.35912898 -0.3608017
000120 14 94 f7 be a4 3f 0a bf eb e8 af 3e f3 a7 4b be
       -0.48355162 -0.5400336 0.3435739 -0.19888286
000130 3d f2 c4 3d f8 4c ca be 9c a1 c6 3e d1 bc ab bd
       0.09616516 -0.39511847 0.38795173 -0.08385623
000140 34 e7 3e bd e5 2d 46 3f c5 8a f0 be b0 b8 49 3d
       -0.04660721 0.7741378 -0.46980873 0.049248397
000150 7c 58 32 be 0c 88 00 3f 4a 2f ab be c2 ca 06 3e
       -0.17416567 0.5020759 -0.33434516 0.13163283
000160 90 dc a9 3e 7f 45 67 be 11 4e 29 be d1 7c b7 3b
       0.33176088 -0.22585104 -0.16533686 0.005599596
000170 44 cd 05 3f 7b e4 0e bf c9 32 0b 3e 68 66 b3 ba
       0.52266335 -0.55817384 0.13593592 -0.0013687136
000180 12 34 af be af 3a 5d 3c 33 60 3a 3e 54 d7 21 be
       -0.34219414 0.013502761 0.1820076 -0.15804797
000190 5a 83 11 be 87 55 c7 be ec b4 89 be 1c 6c 89 3c
       -0.14210263 -0.3893244 -0.26895845 0.016775183
0001a0 a9 6c cb be cb c1 7f 3e f9 d8 08 be 90 10 e4 3d
       -0.3973134 0.2497627 -0.13364018 0.111359715
0001b0 58 3c c4 be 08 63 b6 3e c7 b1 8c be 64 a1 f4 3d
       -0.3832729 0.3562243 -0.27479383 0.11944845
0001c0 af 79 d9 bd be d5 c2 be 97 23 03 3e 5f 86 ad 3e
       -0.106189124 -0.38053697 0.12806545 0.3389158
0001d0 5c 31 bf 3e 99 58 07 bf 22 f8 b3 3d db 3c 9e 3d
       0.37342346 -0.52869564 0.08787562 0.07726451
0001e0 4d 7d 13 be f9 be d1 3e 50 b9 9c be 5c 98 b6 be
       -0.14403267 0.40966013 -0.30610132 -0.35663116
0001f0 84 b0 f6 be 2b 06 83 3e a5 81 b6 bc ae da cc 3d
       -0.48181546 0.25590643 -0.022278616 0.10002647
000200 fc 86 ac be fd 43 0c 3e 5a b8 ef bd 07 33 e9 3d
       -0.33696735 0.1369781 -0.11705084 0.11386686
000210 e2 31 f1 be f8 94 7f 3e 68 b4 82 3e e7 be 30 be
       -0.4710837 0.24959171 0.25528264 -0.17260323
000220 5c 0a 06 3e f9 2c 83 bd 5e d8 d4 bd 69 14 c6 3d
       0.1308989 -0.06405062 -0.10392831 0.09671862
000230 a2 20 13 be 25 6d 0c bd 93 a9 9a be 64 ad 66 be
       -0.14367917 -0.034283776 -0.302075 -0.22527081
000240 5b e4 b2 be 5e f4 39 3e 22 78 71 be a8 43 6b 3d
       -0.34939846 0.18159625 -0.23580983 0.05743757
000250 54 f4 00 bf 43 ec 66 be c8 c6 85 bc 05 e2 d9 3e
       -0.50372815 -0.22551064 -0.016330138 0.42555252
000260 9c 31 3b be 1a b6 d5 bb 27 03 8d 3e 42 79 f2 3c
       -0.18280643 -0.0065219523 0.27541468 0.029598836
000270 63 35 6d 3e 6a 3c ff 3d 54 e7 c6 3c 6b 20 85 3d
       0.23164897 0.12462695 0.024280228 0.06500324
000280 b1 bd 20 be 8b 55 12 bf f9 63 c3 be 9a db 85 3e
       -0.15697362 -0.5716178 -0.3816221 0.26144105
000290 60 44 5f 3e 08 cd ac 3c f9 10 06 bd 33 84 d8 3d
       0.21803427 0.02109386 -0.03273103 0.1057209
0002a0 1e a0 ec 3e 85 5d a5 be 94 6a 0d bf 64 ba 94 be
       0.4621591 -0.32297912 -0.5524075 -0.29048455
0002b0 cb 8b 9a 3e ae fd 85 3e ce 20 85 3e 5d bc c1 be
       0.3018478 0.26170105 0.2600159 -0.37839022
0002c0 a2 99 a7 3e 0f cb 70 3e cc 99 b4 be 10 e6 c1 be
       0.327344 0.2351496 -0.35273588 -0.37870836
0002d0 95 e7 4c be e8 9b ef be b4 1b b4 bd 10 9d 03 3e
       -0.20010217 -0.46798635 -0.087943465 0.12852883
0002e0 3a ac d6 bd 09 c5 2b be 43 2b 64 3e 2d f0 15 3e
       -0.10482068 -0.16774382 0.22282128 0.14642401
0002f0 0f 63 fb 3c 9a 46 03 bf cd 47 21 3e 3c ea 24 be
       0.030686883 -0.51279604 0.15750046 -0.16104978
000300 5b 94 e8 3e 4c a1 50 bc 26 0e f9 be 28 1c 02 3e
       0.45425686 -0.012733769 -0.48643607 0.12706053
000310 89 35 f3 3e 34 25 15 bf 15 b2 0f bf e4 89 13 bc
       0.47501782 -0.5825989 -0.56131107 -0.009005044
000320 35 9f c3 3e 7d 48 fa be da b4 95 3c 65 f1 61 3e
       0.38207403 -0.4888343 0.018274713 0.22064741
000330 82 01 f2 3e 00 3e 94 be 63 0e aa 3d dd ed 1e 3e
       0.47266775 -0.28953552 0.08303525 0.15520425
000340 99 ba b0 bd 30 68 9a 3d e4 6c 56 3d 04 c0 0c 3e
       -0.08629341 0.075394034 0.05234994 0.13745123
000350 a2 03 32 bf 22 c0 33 3f 62 f3 28 be 84 45 1c bd
       -0.69536793 0.70215046 -0.16499093 -0.038152233
000360 67 96 c7 3d 73 f6 6e 3d ac 0b 1c 3e 14 30 8b be
       0.09745484 0.0583405 0.15238827 -0.27185118
000370 67 97 d3 be cb aa 14 bf 40 a3 dd be 02 fb 04 bf
       -0.41326448 -0.5807311 -0.43288612 -0.5194551
000380 b4 2c 03 bf 8a b9 43 be 92 a2 b7 bc 5a 3e 78 be
       -0.51240087 -0.19113746 -0.022416387 -0.24242535
000390 aa 8b f0 be 5d 07 fa be 4d f0 a6 3e c9 0e 87 3e
       -0.46981555 -0.48833743 0.3260521 0.26378468
0003a0 22 b2 11 3d 75 29 0f 3c b9 85 e2 be 8c 61 6e bd
       0.03557027 0.0087379115 -0.44242647 -0.058198497
0003b0 6e d8 ff be 73 5b 01 be 87 e1 ba be bd a7 b7 3e
       -0.4996981 -0.12632541 -0.3650019 0.35870162
0003c0 d3 5d 54 3e 55 0c ef 3d c7 93 d0 bd 4f c9 48 3e
       0.20738916 0.11672274 -0.10184436 0.19608043
0003d0 ec b0 09 3f 7b 89 42 3f 64 bb 4f bf 56 54 85 be
       0.53785586 0.7599103 -0.8114531 -0.26040906
0003e0 2c 31 c9 be ae 99 85 be 63 f9 50 3e 72 00 31 3e
       -0.39295328 -0.2609381 0.20407633 0.17285326
0003f0 e6 3c 6f 3e 12 07 88 3d 90 4b 06 be 06 44 bc 3d
       0.23363075 0.066419736 -0.13114762 0.09192662

layers.0.bias f4 [128]
000000 bd 4c fb bd a9 47 9f be 93 4d 8f 3e 02 b4 01 bf
       -0.12270496 -0.3110936 0.27988872 -0.50665295
000010 60 a7 29 be 96 a6 1b 3e d4 f4 bf 3c 95 85 aa be
       -0.16567755 0.15200266 0.023432173 -0.3330504
000020 cd 9f 38 3d dc 6c 6e be 1f 05 7e be 65 63 d5 3d
       0.045074273 -0.23283714 -0.24806641 0.104193486
000030 c3 1d 02 bf a0 ee 02 bf 65 7b 04 3e 22 17 17 be
       -0.5082666 -0.5114536 0.12937696 -0.14754918
000040 02 f0 02 bf 30 d0 de be c8 74 88 be fb 5b 9b be
       -0.5114747 -0.4351821 -0.26651597 -0.30343613
000050 34 58 86 be 1c d4 b0 3e 7a 90 b4 bc 0b 1c 28 3e
       -0.2623917 0.34536827 -0.022041548 0.16416948
000060 94 5d 2c be db 53 b1 3e f3 15 17 be 62 fb e0 be
       -0.16832572 0.3463429 -0.14754467 -0.4394179
000070 33 6e c4 3e 3f 14 12 3e 73 55 41 3e 3d eb c0 be
       0.38365325 0.14265536 0.18880253 -0.37679473
000080 ee 9e 05 bf 8e 5c d5 3c ab 4e 94 be f1 c7 16 bf
       -0.5219563 0.02604511 -0.2896627 -0.58898836
000090 03 34 a1 3e 7c 75 f0 be 38 e5 10 bf d0 f2 f0 be
       0.31484994 -0.46964633 -0.5659976 -0.4706025
0000a0 ea 02 c3 3e 67 d3 85 be c0 4a 0b bd 30 fe 19 3e
       0.3808816 -0.2613785 -0.034006834 0.15038371
0000b0 26 39 01 3d e4 fe c2 be ef 79 1e bf db a7 10 bf
       0.03154864 -0.3808509 -0.61904806 -0.5650613
0000c0 15 77 89 3e 69 93 70 3e c1 86 e7 3d 9a 89 28 be
       0.26848665 0.23493733 0.11304999 -0.16458741
0000d0 8a ec 85 bd d6 28 1f 3f 0d 96 9a be de 26 fc 3e
       -0.06539257 0.62171686 -0.30192605 0.49248403
0000e0 6c 79 78 3d ad f8 41 3e 18 a5 7e be ca 25 1e be
       0.060662672 0.18942519 -0.24867666 -0.15444103
0000f0 d6 bb 08 bf 2e 90 45 bf 03 9d 20 be 82 1e ae be
       -0.53411615 -0.77173126 -0.15684895 -0.3400765
000100 d4 9c 9a 3e c8 00 12 bf e7 6f bc 3e 38 1f 4c bd
       0.30197775 -0.5703244 0.36804125 -0.04983446
000110 da f6 b7 be 4c 4a 1d bf 5f 19 b1 bd 72 cd 1b 3e
       -0.3593052 -0.61441493 -0.08647417 0.1521509
000120 ed e7 06 bf ab 62 9b 3e bf c0 d9 bc c4 8e d2 be
       -0.5269764 0.30348715 -0.026581166 -0.41124547
000130 4e 34 10 bf af 52 c7 be c2 9c 80 3e 53 9b eb be
       -0.5632981 -0.3893027 0.25119597 -0.4601694
000140 77 46 c8 be 4f a3 01 bf 18 3e aa 3e 26 74 29 3e
       -0.3911626 -0.50639814 0.332505 0.16548213
000150 63 c0 55 be 0d 06 9f 3e 08 e0 9a 3d 61 a6 86 3c
       -0.20874171 0.31059304 0.07562262 0.016436758
000160 20 18 a6 3e 76 dd 89 3e 14 03 4f bf 63 4f e8 3d
       0.3244028 0.26926774 -0.8086407 0.11343267
000170 1f ba c7 be 8c e0 44 3d ac 70 7d 3e 4a e2 d9 be
       -0.39009187 0.048065707 0.24750012 -0.42555457
000180 67 b2 34 be f6 e6 ef 3d 5e cf bf 3e c8 02 1b be
       -0.1764618 0.11713974 0.37462896 -0.1513778
000190 e0 a1 e9 3c 3f 49 ed be 26 a9 8e 3e 8f 5e 77 be
       0.02851957 -0.46344945 0.27863425 -0.24157165
0001a0 93 67 1a bf ed cf 50 3e fc 3e 24 be 0c ef dd 3d
       -0.6031429 0.20391817 -0.16039652 0.1083661
0001b0 dc 2e 18 be 7f 0e 18 bf 1c c2 09 bf ba c7 ea bd
       -0.14861625 -0.5939712 -0.5381181 -0.11463876
0001c0 03 47 21 bf 3e ef c5 be 51 fa b9 be 00 e8 98 3e
       -0.6299898 -0.3865909 -0.3632379 0.29864502
0001d0 1b e9 a7 be f8 09 55 3e 6c ca f4 be db 6c 50 be
       -0.32795033 0.20804584 -0.47810686 -0.20354025
0001e0 24 4c b3 3b 93 cf e8 bc a6 b0 a8 be f5 26 9e be
       0.005471723 -0.028419292 -0.32947272 -0.30889097
0001f0 c5 b5 b5 3e 6d b7 02 be e7 7d 19 bf 36 b5 27 bd
       0.35490242 -0.12765284 -0.59957737 -0.0409443

layers.2.weight f4 [128, 128]
000000 0e 14 a6 3d d8 92 a3 bd a3 3a c7 bd 41 31 3b be
       0.08109294 -0.079869926 -0.09727981 -0.18280508
000010 c5 81 d9 bd 08 08 89 3b 76 40 c0 be 02 11 10 3e
       -0.10620455 0.0041818656 -0.3754918 0.14068988
000020 9a fd bc 3c 34 0e fc bc bc 92 34 3e 0e bf fc bd
       0.023070145 -0.030768491 0.176341 -0.12341128
000030 c7 39 b4 3d 62 4e 92 be 64 e4 29 be ba ff df bc
       0.08800083 -0.28575426 -0.1659103 -0.02734362
000040 40 55 d0 bd 81 da 96 bd e2 73 ed be 28 e6 c8 3b
       -0.1017251 -0.07365895 -0.46377474 0.0061309524
000050 ef af 19 3f d2 ea 41 3d 53 80 9f bc 34 b6 cb bd
       0.6003408 0.047343083 -0.01947037 -0.09946862
000060 a2 bc ea bd 54 82 04 be fe 71 c6 3c 3b 76 40 3d
       -0.1146176 -0.12940341 0.024224278 0.046987753
000070 4b 08 7f bd b2 79 87 bb 70 22 40 3e ee b9 f1 3d
       -0.06226377 -0.0041343803 0.18763137 0.118030414
000080 33 f4 69 3c 34 8f a0 bd 9f f6 9b 3c 0a 07 09 3c
       0.014279413 -0.07839814 0.019038497 0.008363495
000090 ca 91 2e be 2a 82 d1 bd 17 7b 7a 3c d7 f4 5f bd
       -0.17047802 -0.10229905 0.015288136 -0.054676857
0000a0 ec 15 cf bd 36 dc 62 bd 7f 03 e8 3d b5 57 cf 3c
       -0.10111603 -0.05538579 0.11328792 0.025310377
0000b0 43 0e e4 3e e2 d3 91 3d 53 2c 79 bd 2e 1f ff bd
       0.4454213 0.071204916 -0.060833286 -0.12457119
0000c0 73 46 e1 bd 73 46 48 3d e6 1a e2 bc 4c 20 ba bd
       -0.10999765 0.04889531 -0.027600717 -0.090881914
0000d0 02 5f 2d bd 01 a7 11 3e a3 70 f9 3d 0c 86 66 be
       -0.042326935 0.14223863 0.12179687 -0.22512072
0000e0 a9 47 f2 bd 07 3c cf bd d2 bf 22 3d c4 d2 01 be
       -0.11830074 -0.10118871 0.039733715 -0.12678057
0000f0 f4 93 84 bd b5 f7 04 3f 7d 37 41 3d ab d3 fc bc
       -0.06473532 0.5194047 0.04717206 -0.03086265
000100 4d 13 e2 bd 2c 66 b9 3d 80 8b 03 be 98 6a b4 bd
       -0.110388376 0.09052691 -0.12846184 -0.08809394
000110 62 40 34 3e 67 a6 7e be 2b b6 9a be 90 45 13 bd
       0.17602685 -0.24868165 -0.30217108 -0.03595501
000120 c3 b3 19 bc c4 85 59 bb 77 1d 95 bd f5 2d c0 3e
       -0.009381237 -0.0033191303 -0.072810106 0.37535062
000130 ee a8 8d bc 08 90 d6 ba 93 7d ba 3c 43 97 0e be
       -0.017292466 -0.0016369829 0.022764957 -0.1392489
000140 0d ed 20 bd 93 5a e2 bd d2 32 c2 bd 75 02 75 bc
       -0.03928857 -0.11052432 -0.094823495 -0.014954199
000150 b5 f4 e0 3c 24 d7 c9 bd a4 ac 77 bd 5d 41 ab bc
       0.027460435 -0.09855488 -0.060467377 -0.020905191
000160 fd 05 f6 bd a5 4c 7d bd 26 00 a8 bd 02 c1 32 be
       -0.12012861 -0.061840672 -0.08203153 -0.17456439
000170 8b 02 89 bd 01 ad 17 bd dd 12 10 bd fe 13 5b 3d
       -0.06689938 -0.037030224 -0.03517424 0.053485863
000180 be d3 88 3d 60 b6 f0 3c 5e 7a eb bd 78 f0 6c bd
       0.066810116 0.029383838 -0.11497949 -0.057846516
000190 66 fc cc 3d 98 19 1b 3b c7 13 a7 3b f6 c9 7b bd
       0.10009079 0.0023666378 0.005098793 -0.0614719
0001a0 ce 05 9f bd f7 3c 8c bd 7a f3 39 be 12 f6 bd bd
       -0.07764779 -0.068475656 -0.18159285 -0.0927545
0001b0 ac b3 c5 3d 88 1a 8d bb 56 99 c6 3c d1 f7 86 bb
       0.0965341 -0.0043061413 0.024243038 -0.0041188975
0001c0 aa 8a ce bd 87 77 15 3d 47 23 b7 bd a5 a3 88 bc
       -0.10085042 0.036490943 -0.089422755 -0.016679594
0001d0 97 f0 b3 be 84 e5 c7 be 05 04 25 be 57 38 20 bd
       -0.35144493 -0.39042294 -0.16114815 -0.03911623
0001e0 78 14 1a bc c7 6b 7e 3e 69 0a 59 be 6f 3e c4 bd
       -0.009404294 0.24845801 -0.21195377 -0.09582221
0001f0 67 ad 8c bd ef 83 fb bd 59 94 c1 bd ea 1f b9 bd
       -0.06869011 -0.12281024 -0.09452123 -0.0903929
000200 16 2b ff 3d 30 c8 04 bd 7c 3a 72 bd 06 ae c1 bd
       0.1245939 -0.032417476 -0.059137806 -0.094570205
000210 00 74 08 bd 9e cc 8a 3c e7 05 97 bd 33 c2 4b bd
       -0.03331375 0.016943272 -0.07374173 -0.04974575
000220 34 da 31 3e ca c3 17 bd 10 db da 3c 93 b4 f8 bd
       0.17368394 -0.037051953 0.026715785 -0.12143817
000230 db c8 9c bd 17 a6 d2 bd e4 77 83 bc 7b f0 e1 bc
       -0.07655498 -0.102855854 -0.01604838 -0.02758049
000240 13 4a b7 bd 4f ee 15 bb d9 51 9c bd b4 92 21 bd
       -0.089496754 -0.0022877639 -0.07632799 -0.039446548
000250 68 8e 5d bd 48 32 c2 3d 5f 94 46 3c 9d a9 d6 bd
       -0.054090887 0.09482247 0.012120335 -0.1048157
000260 6a 56 07 3c 3a cd 11 be ac c2 db bc 9b 58 85 3d
       0.008260349 -0.14238444 -0.026826225 0.06511041
000270 dd 9d a6 bd f4 56 ff bd da 31 fb bd 14 f5 b5 bc
       -0.08135579 -0.12467757 -0.12265368 -0.022211589
000280 ba 4b ef 3d c6 16 4a bd 83 a1 66 bd 58 5c fd bd
       0.116843656 -0.049338125 -0.056306373 -0.12371129
000290 16 a6 50 bc da 89 14 3e d4 cd d4 bd e7 4c 5d bc
       -0.0127349105 0.14505711 -0.10390821 -0.0135071045
0002a0 4a d7 51 3e d7 de 23 3d f5 4f 09 bd 8a 74 89 bd
       0.20492283 0.04000744 -0.03352352 -0.06711681
0002b0 bc 6c 9c bd b2 9a 90 3d 93 3f 86 bd 9a d7 a3 bd
       -0.07637927 0.07060756 -0.065550946 -0.08000107
0002c0 c9 e7 81 3d ad c1 ef 3d 3b 83 90 3b d2 e6 a2 bd
       0.06343038 0.117068626 0.004410175 -0.07954182
0002d0 0d f2 f2 bd 7f c9 da bd e4 37 72 bd 22 58 e6 bd
       -0.11862574 -0.106829636 -0.059135333 -0.11247279
0002e0 8d d5 05 bd ec a7 0b be ac dd 5a 3d b6 73 07 3d
       -0.03267436 -0.13638276 0.05343406 0.033069335
0002f0 b3 14 e5 3b 51 24 08 3d e5 e7 fc 3c eb 7c 3c bc
       0.006990993 0.03323776 0.030872295 -0.011504392
000300 91 42 e1 bd 39 92 d8 3c 31 66 94 bd 04 c7 08 3d
       -0.10999025 0.026436912 -0.07246054 0.03339292
000310 63 ed 91 3c 72 20 bc 3d f0 ec 46 3c 57 aa 62 bd
       0.01781339 0.09185876 0.012141451 -0.05533823
000320 ab c9 9d 3d 6d 14 13 bd ec 62 0f 3b a8 0f aa bd
       0.07704481 -0.03590815 0.002187903 -0.083037674
000330 ef 5a 94 bd dd 21 01 bd fa 46 d2 bd 90 5d ee bd
       -0.07243907 -0.031526435 -0.10267444 -0.116389394
000340 26 4b 08 be 63 57 e7 bc ca f1 04 be 34 7b 87 bd
       -0.13309917 -0.028239911 -0.1298286 -0.06615296
000350 ad 66 95 3d b8 96 c4 bb d8 d5 88 bd 80 f3 24 bd
       0.072949745 -0.0059994124 -0.066814125 -0.040271282
000360 79 c1 03 be 53 2d ea bd b2 4e 30 bc fa 7f 48 bb
       -0.12866773 -0.11434426 -0.01076095 -0.0030593858
000370 01 2f e1 bd 41 7a 84 bc 43 47 8d 3b 2f 42 14 bd
       -0.109952934 -0.016171576 0.0043114736 -0.03619593
000380 45 94 b1 bd c5 cb 97 bb 76 17 ee 3c 73 1d 37 3c
       -0.08670858 -0.0046324455 0.029063921 0.011176455
000390 86 8c 14 bc ae 80 aa 3d 53 10 7f bd 0d 59 c1 bd
       -0.0090667065 0.08325325 -0.062271427 -0.09440813
0003a0 7b 2a 08 be a5 07 1b bd b4 7d 2f 3c 47 2b 5c 3a
       -0.13297455 -0.037849087 0.010711122 0.0008398783
0003b0 76 97 c9 3d 38 cf 6f bd 02 7f 75 bd 39 b4 e6 bd
       0.09843342 -0.05854723 -0.059935577 -0.112648435
0003c0 35 d9 99 bd 24 bc 1a bd 5b fe 56 3d 38 36 d5 bd
       -0.07512132 -0.03777708 0.052488666 -0.10410732
0003d0 a2 d0 28 3b 70 c8 93 bc 0d c0 06 be 4f 7c f9 3c
       0.002575912 -0.018039912 -0.13159199 0.030454783
0003e0 db 60 b5 bc 04 6a f6 bd 80 cc 8b bc c8 c5 45 bd
       -0.02214091 -0.120319396 -0.017065287 -0.048284322
0003f0 b0 12 61 bd b2 5d ab 3c 11 00 51 bd f3 3a e0 bd
       -0.054949462 0.0209187 -0.051025454 -0.10948744

layers.2.bias f4 [128]
000000 0d 2c d1 3c 53 04 52 bd 98 63 0c be 9e 42 f6 bd
       0.0255337 -0.051273655 -0.13709867 -0.12024425
000010 51 01 b6 bd 62 d9 80 bd b2 e0 5a bd db ac 82 3c
       -0.0888697 -0.062914625 -0.053436942 0.015951565
000020 52 31 a7 bd de c3 4e be 13 f7 4e be c7 08 31 bd
       -0.08163704 -0.20191905 -0.20211439 -0.04322126
000030 7c 00 d7 bd 24 2c 01 be f9 b3 b3 bd 92 f7 e6 bd
       -0.10498139 -0.12614495 -0.087745614 -0.11277689
000040 51 91 2e bd 7b 91 a5 bc dd cb e3 bd 77 30 82 be
       -0.042619053 -0.020210972 -0.11122868 -0.254276
000050 4a 00 5e bc 3b 2b 22 be 4a c5 8b be d5 9b 21 3d
       -0.013549874 -0.15836804 -0.27298957 0.039455254
000060 dc 44 6f 3d bc 35 ef bb 7e c3 1b be 77 35 f3 bc
       0.05841528 -0.007300107 -0.15211293 -0.02968858
000070 c9 99 3f be 17 2c a4 bd e2 76 d7 be e2 f3 96 be
       -0.18711008 -0.08016222 -0.42082888 -0.29482943
000080 ac 6e 0a 3d 40 99 b0 bd e4 8b a6 bd 6b fd f0 bd
       0.03379695 -0.0862298 -0.08132151 -0.11767086
000090 fe d5 eb bc d0 13 87 bd 30 60 93 bd 64 b9 e9 bd
       -0.028788563 -0.06595576 -0.07196081 -0.114123136
0000a0 29 ed fb 3c 07 c9 67 be 1d cb 27 3d 6f 56 01 be
       0.030752735 -0.2263528 0.04096519 -0.12630628
0000b0 a5 66 29 3d 09 21 55 bc e9 e4 15 bc 2d f5 47 be
       0.041357655 -0.0130083645 -0.009148815 -0.19527121
0000c0 ab 68 ce bd c1 87 4e 3c 6c 41 89 bc 6d f3 09 bc
       -0.100785576 0.012605608 -0.016754828 -0.008419854
0000d0 40 c4 21 bc 89 20 0a bd 7a f8 d1 3c 4f 2d 8c bd
       -0.00987345 -0.033722434 0.025631178 -0.068445794
0000e0 29 cd 64 bb 6d 85 da bd 77 fb 35 bd 7f cc cf bd
       -0.0034912324 -0.1066998 -0.04442927 -0.101464264
0000f0 f8 e9 f8 bc 6e 63 20 bc fd 4a ca bd ef 23 a2 be
       -0.030385002 -0.009789331 -0.09877584 -0.3166804
000100 98 b0 94 bd 13 29 17 bd fb 32 66 bb e7 c1 0c bd
       -0.07260245 -0.036904406 -0.0035125602 -0.034364607
000110 9a a8 02 3d ea a8 09 bd 22 30 c6 3b 4c b6 44 3c
       0.031899072 -0.033608355 0.0060482183 0.012006354
000120 bf 17 5f bd 1c 99 ed bd 7a 4d bc be e0 42 03 be
       -0.054466005 -0.11601469 -0.3677786 -0.1281848
000130 98 f0 09 be 81 8b c7 bc 7f 6a e9 bd a5 f6 fb 3c
       -0.13470685 -0.024358513 -0.11397266 0.030757258
000140 58 52 a5 bc ed ad c0 bc da e2 1e bb b1 a5 02 be
       -0.020180866 -0.023520434 -0.00242441 -0.12758519
000150 bb e8 b4 bc 6d 3c 09 bd 59 db 33 be e4 be c6 3c
       -0.02208363 -0.033504892 -0.17564143 0.024260946
000160 2f 38 0d bb 07 9a 8f 3c 01 63 63 3c 4a b9 15 be
       -0.002154838 0.0175295 0.013878585 -0.14621463
000170 99 e8 d5 bc 35 88 c7 bd c7 d3 b0 3c a9 08 3f bc
       -0.026111888 -0.09742776 0.021585358 -0.01165978
000180 79 d1 4b bd c3 f6 2e be 17 0b 07 be ff 3c a0 bd
       -0.049760316 -0.1708632 -0.13187824 -0.07824134
000190 e2 02 09 be bc 83 d9 bd bf 7b 60 bd 5a 3e 90 bd
       -0.13380006 -0.106208295 -0.054805513 -0.070431426
0001a0 1c 66 0b 3b a9 be 17 bd 1b 1c 42 bd b0 98 54 bd
       0.0021270579 -0.037047062 -0.047390085 -0.051903427
0001b0 97 47 a4 bd f7 e8 17 bd be 0d 03 be bb dc a3 bd
       -0.08021467 -0.037087407 -0.12798211 -0.08001085
0001c0 36 74 6f bb b5 2a 47 be 27 7b 05 3d 99 41 bc bd
       -0.0036537773 -0.19449885 0.03258815 -0.09192199
0001d0 04 30 cf bd 52 02 aa bd 2e 0b 26 be c4 23 9d be
       -0.1011658 -0.08301224 -0.16215202 -0.3069135
0001e0 6d 04 80 bc a3 f7 dc bd 93 d5 a0 3c be 5b fa bb
       -0.01562711 -0.107894205 0.01963309 -0.007640331
0001f0 76 e4 44 3c a6 6c 9a bd 59 11 57 bd 60 88 c1 bd
       0.01201736 -0.07540254 -0.05250678 -0.094498396

layers.4.weight f4 [2, 128]
000000 08 1f 29 3d 70 a6 00 bd e9 0f 60 3c 30 f7 ad 3c
       0.04128936 -0.031408727 0.013675668 0.021236032
000010 b6 09 54 bc 1e 15 13 bd 28 5a da bc 05 de 3d bc
       -0.012941768 -0.03590881 -0.026654318 -0.011588578
000020 7b 01 80 3d b8 3b 9f bc 73 da 11 3b ee d3 05 3d
       0.062502824 -0.019437656 0.002225545 0.032672815
000030 56 93 e5 bb 0d 77 96 3d e6 4b 01 bc eb 06 15 be
       -0.007006089 0.07346926 -0.007891631 -0.1455342
000040 5b 6a e2 3c 4d b9 d2 bc 1f cc 4e 3d 0f ef 87 bd
       0.027638605 -0.025723124 0.050487634 -0.06637394
000050 8c cb fd 3c 7e c4 37 bd fb bd c6 3d 81 f1 81 bc
       0.030980848 -0.044865124 0.09704205 -0.015862228
000060 e7 a6 2e bd db ca 94 bd 4d 77 9e 3d 61 77 9c bd
       -0.04263964 -0.07265254 0.077375986 -0.07639957
000070 ac f4 5b bd 9c c7 0c 3d c8 45 51 bd 0f 5e 12 3d
       -0.053700134 0.03437005 -0.05109194 0.035734233
000080 83 0c d1 bc eb 44 46 bb 6c 94 1d bc 96 c9 c3 bd
       -0.025518661 -0.003025348 -0.009617906 -0.09559934
000090 b4 06 39 bd f0 5c d8 3c 16 b0 29 3c 8e 04 81 bb
       -0.04517241 0.026411504 0.010356924 -0.0039373105
0000a0 ac 11 ae ba 32 4d 28 bd 6c f5 1d bd 4e cc 0f bd
       -0.0013280413 -0.041089244 -0.03856413 -0.03510695
0000b0 13 0b 3f bc 00 71 78 3d b5 24 05 3d df 05 17 bc
       -0.011660355 0.06065464 0.03250571 -0.009217708
0000c0 ac bb 36 3d af 34 87 bd c4 d2 48 3c 62 4d 77 bb
       0.04461257 -0.066018455 0.012257282 -0.0037735333
0000d0 b5 7e e3 3c 2e 9d 53 3d d1 72 6a 3d 20 bb 05 ba
       0.02777038 0.05166357 0.057238404 -0.0005101431
0000e0 cb 06 0c bd c0 67 cb 3c 09 ef ce 3c 5a f3 f5 3c
       -0.034186166 0.024829745 0.025260465 0.030023266
0000f0 40 65 da 3c d4 05 3e 3c bc 1f 1b bd db b7 35 bd
       0.026659608 0.011598069 -0.03787206 -0.04436479
000100 b6 b8 aa bd c4 7d 34 bd 82 06 25 3c 6c 46 38 bd
       -0.08336012 -0.044065252 0.010072352 -0.044989035
000110 98 e5 31 bc ea 06 0e bb bf de bf 3c b1 62 10 3d
       -0.010857962 -0.0021671602 0.023421643 0.03525037
000120 1c dc dd 3b 46 59 14 3d 31 cd 10 3d 13 4a 16 3d
       0.006770624 0.03621795 0.035351936 0.036691736
000130 32 06 14 bd b8 b0 0d bd 71 9d a8 bd be 9d c4 bc
       -0.03613872 -0.03459236 -0.082331546 -0.024000999
000140 18 a0 ea 3b a9 84 d5 3b 81 29 2d bd 00 28 04 bd
       0.007160198 0.0065160585 -0.04227591 -0.03226471
000150 ab 49 41 3d 03 c2 a6 bd 4c 14 81 3e cf e9 4f bd
       0.047189396 -0.081424735 0.25210798 -0.050760087
000160 b9 bb d2 3c b7 c7 ec 3c 9c c8 3c 3d 2d ce 46 bc
       0.025724279 0.028903825 0.046089754 -0.012134117
000170 e6 e5 ec bc 29 e1 98 bd db 28 82 bc 79 62 3a 3d
       -0.028918218 -0.07464821 -0.015888622 0.045504067
000180 e7 98 88 bc a6 65 29 bd 0b 63 3b bd f1 00 b0 ba
       -0.016674472 -0.041356705 -0.04574875 -0.0013428015
000190 5f 4d c5 ba e4 22 0b 3d 0f 8b 14 bc 74 b4 46 3c
       -0.0015052966 0.03396882 -0.009066357 0.012127984
0001a0 c8 0b cd bc 30 85 a0 bc 94 20 95 3c 1d 52 37 3d
       -0.025030032 -0.019594759 0.018204011 0.044756044
0001b0 d6 06 28 3d d0 7c b8 bd 05 6c b2 3c bd 5f fd 3c
       0.041022144 -0.09008181 0.021780023 0.03092944
0001c0 71 0a 49 3d f6 c3 33 bd 07 20 ff 3c 03 2d 82 3c
       0.049082223 -0.043888055 0.031143202 0.015890604
0001d0 d9 1b 4c bd ae 41 6a 3c e2 d0 2e bd bd f0 2f 3d
       -0.049831245 0.014297886 -0.042679675 0.042954195
0001e0 b3 da c0 bc b8 12 09 39 9d 2f a1 bc c7 0b 9e bc
       -0.023541784 0.00013072311 -0.019676024 -0.019292725
0001f0 4d 36 1d 3d 30 51 76 bd c6 d2 59 3d 5d 88 ce bd
       0.038381863 -0.06013602 0.053179525 -0.10084603
000200 ef ca 81 ba df f1 0a 3d 25 c9 de 3c c9 52 38 3c
       -0.0009902398 0.033922072 0.027195523 0.011250206
000210 4d a5 cb bd d4 57 fc 3d 75 ae ff bc 1b f3 ab bc
       -0.09943638 0.123214394 -0.031211117 -0.020989945
000220 3c b2 0c 3d f3 b6 cf bd ab b3 44 be e9 bf d2 3c
       0.034349665 -0.10142317 -0.19209163 0.025726276
000230 34 10 36 bd 79 2f a4 3c df 4b 74 bd 4e f6 3f 3e
       -0.044449046 0.020042168 -0.05964267 0.18746302
000240 88 03 8f bc 2e 10 47 bd f8 76 50 bc 90 e8 ab be
       -0.017457739 -0.048599415 -0.012723677 -0.3357587
000250 33 16 79 bc be 3c 72 bd 6e 72 81 bd 74 0f 4b 3d
       -0.015203047 -0.05913996 -0.06320654 0.049575284
000260 8b 82 86 3d 01 df 24 bd a8 11 4a 3d c3 62 a1 3c
       0.06567868 -0.040251736 0.049333245 0.019700414
000270 f2 66 48 3d 66 c4 07 3d 9f 81 91 be 6e 17 0c 3e
       0.0489263 0.033146285 -0.28419206 0.13680813
000280 db 95 0e bd ff d1 86 bd a2 71 29 bc b6 89 20 3e
       -0.034810882 -0.06583022 -0.010342034 0.15677533
000290 35 f8 03 3d 9b 7d d0 bc 19 33 09 39 b2 58 92 bd
       0.03221913 -0.025450518 0.00013084373 -0.071458235
0002a0 2d 35 55 bd 69 78 b4 be 72 b0 a8 3c 75 c4 94 3a
       -0.052052666 -0.35248116 0.020591948 0.0011350053
0002b0 e3 c5 b0 3c dc 8f 18 bb e0 77 bb bc 92 bd 06 3c
       0.021578735 -0.0023279106 -0.02288431 0.008223908
0002c0 e1 52 77 bc 92 72 30 3c 7a c7 67 3d 2c 81 21 3d
       -0.015095443 0.010769503 0.05658672 0.03942983
0002d0 a7 79 d7 bc c4 2f cf 3c 37 e4 9c 3d 01 ae 1c 3e
       -0.026303126 0.025291331 0.07660716 0.15300752
0002e0 7a 91 17 3c 25 0f bf bc 3f ac 4c 3d be 92 9b bc
       0.009250993 -0.023322651 0.049968954 -0.01899087
0002f0 2b 9a b4 3c 22 75 68 3c 03 db 86 bd 2a 39 62 bd
       0.02204617 0.014188083 -0.06584742 -0.055230297
000300 ec 64 a6 3d 4b 0c c0 bc 6f 5b d1 3b 6d 74 8a bd
       0.08124718 -0.023443362 0.0063890736 -0.06760488
000310 81 b5 4c bd 0d 9f d9 ba 1a ea 00 bd 31 9a 59 bc
       -0.049977783 -0.0016603187 -0.031473257 -0.013281391
000320 21 2d 7c bd 9c e7 74 3d 42 c5 76 be 9d 6d e8 3d
       -0.061566476 0.059791192 -0.24098685 0.11349032
000330 32 17 b9 3c cd a9 de bb 7a e2 30 bb 61 d1 4d bc
       0.022594068 -0.006795144 -0.002699046 -0.012562127
000340 80 7b 50 bd ee 73 1e bd c7 c2 42 3d 65 1b d0 3c
       -0.05089903 -0.038684778 0.047549035 0.025403688
000350 50 d1 84 3c 75 48 79 bd 72 b0 19 bd a7 6a 29 3e
       0.01621309 -0.060860116 -0.037521787 0.16544591
000360 7e e5 dc 3c 02 bf 65 bd 3a 8c 10 3c 21 dc 8f 3d
       0.0269649 -0.056090362 0.008822495 0.07024408
000370 29 35 ad 3d 79 eb d1 bd 8a 6b 3a 3d 8b 2b 12 3c
       0.08457405 -0.10249991 0.045512713 0.008921514
000380 80 4f d8 3d 64 d5 7f 3e d7 ec 14 3c 17 5e 8d bc
       0.105620384 0.24983746 0.00908967 -0.01725678
000390 7a aa c2 bd 54 dc 4a bd 3e 50 b4 3c 10 fe af bd
       -0.09505172 -0.049526528 0.022010919 -0.085933805
0003a0 0a 3e 2f 3d 32 9f 3d 3d 0f bb f6 3b 85 16 a3 3c
       0.042783774 0.0462944 0.0075296233 0.0199082
0003b0 6b 20 04 3d bb e6 9e bd 03 c3 8e 3d 22 df 09 3d
       0.03225748 -0.07758852 0.06970789 0.03366006
0003c0 60 0e 97 3d 8d 18 76 3d 85 58 3b bb 8c 2d de 3c
       0.07375789 0.060082007 -0.0028586697 0.027121328
0003d0 b1 1b 47 3c 89 b8 26 3c 32 fc 1c bb c4 76 7e bb
       0.012152598 0.010175833 -0.002395403 -0.0038828114
0003e0 2f e0 e5 3a 27 cb 12 3d 18 e7 b2 3c 9d 39 83 3b
       0.0017538125 0.035838272 0.02183871 0.004004671
0003f0 5f b4 80 3c 4f 38 c8 3d 66 d2 43 bd a2 9b a7 3d
       0.015711008 0.09776365 -0.047808073 0.081839815

layers.4.bias f4 [2]
000000 44 2f 59 bb 08 ad 6f 3c
       -0.0033139745 0.014628656

exp_avg f4 [128, 4]
000000 60 9a 37 32 7d e9 e0 30 d7 7d b2 32 56 82 14 b3
       1.0687103e-08 1.6364506e-09 2.0779153e-08 -3.4577475e-08
000010 5d 94 77 37 36 b2 29 38 8e 08 1a 39 54 bd 9d 38
       1.4756891e-05 4.045871e-05 0.00014689771 7.5216085e-05
000020 f1 cc 4e 36 1e 0d 41 36 1b 03 34 37 c0 50 0c b7
       3.0815684e-06 2.8766876e-06 1.0729559e-05 -8.363451e-06
000030 fd 0a a4 b5 9c ac 1d 36 41 ed 80 b6 a7 d5 3e 37
       -1.222215e-06 2.3495295e-06 -3.8423173e-06 1.1374627e-05
000040 55 b0 07 b7 1e 94 d9 b7 94 88 c1 b8 7c 29 64 b8
       -8.0876825e-06 -2.5937388e-05 -9.228397e-05 -5.439807e-05
000050 1c 52 44 b7 84 27 2d b8 ab 8f 1a b9 46 f3 cc b8
       -1.1701628e-05 -4.1283216e-05 -0.00014740105 -9.772791e-05
000060 2f 78 71 33 ad 11 3d b4 91 a3 70 33 ee b4 02 b6
       5.622149e-08 -1.7608427e-07 5.6028117e-08 -1.9476824e-06
000070 18 51 d4 35 54 80 00 36 d5 cf 9b 36 06 3d 72 b6
       1.5818832e-06 1.9148183e-06 4.643555e-06 -3.609633e-06
000080 f2 90 9d 35 94 4c 95 35 be 6a ec 35 55 41 14 35
       1.1739596e-06 1.1123652e-06 1.7614436e-06 5.5229367e-07
000090 db b4 ac 32 db bf 23 34 76 c1 0f 35 e6 39 fe 34
       2.0105679e-08 1.5250355e-07 5.3553174e-07 4.7353313e-07
0000a0 a1 ad d0 b4 92 1d a9 b5 b2 af 9a b6 34 14 3e b6
       -3.886935e-07 -1.2600087e-06 -4.6100113e-06 -2.8323966e-06
0000b0 9b a3 c9 36 dd 18 b8 37 61 69 ac 38 b1 d2 77 38
       6.009313e-06 2.1946087e-05 8.2212275e-05 5.908561e-05
0000c0 a7 a2 4d b4 1d 96 2d b5 ff f2 1e b6 ee 5d c7 b5
       -1.9151285e-07 -6.4665966e-07 -2.3685277e-06 -1.4853993e-06
0000d0 02 22 8d b7 bb a7 9e b6 26 4c 4d b8 10 9a a4 38
       -1.6824346e-05 -4.7282933e-06 -4.8946727e-05 7.848826e-05
0000e0 fc b7 ae b5 4b 6a 52 b5 31 ad ef 35 7b ca d7 b5
       -1.3017557e-06 -7.8385773e-07 1.7857293e-06 -1.6077678e-06
0000f0 f0 99 6f b7 ac 9f 4f b8 4e 78 3a b9 c6 f1 f1 b8
       -1.42813515e-05 -4.9501352e-05 -0.0001778316 -0.00011536809
000100 66 b1 b3 b5 f9 44 e1 b4 02 da 58 b6 79 7a f1 36
       -1.3388169e-06 -4.19597e-07 -3.2313405e-06 7.1966174e-06
000110 e5 0c df b3 b3 23 c7 b4 2b 2a d5 b5 31 76 b8 b4
       -1.0386592e-07 -3.7092613e-07 -1.5882009e-06 -3.4358666e-07
000120 47 94 77 36 6a bc 8c 35 b3 56 4f 37 30 f0 47 b7
       3.6892177e-06 1.0485649e-06 1.2358348e-05 -1.1917247e-05
000130 8a 2a 43 b7 4a 22 23 b8 88 e8 0f b9 ae b2 bc b8
       -1.163281e-05 -3.8894163e-05 -0.00013724167 -8.99782e-05
000140 d7 7a a1 34 46 29 48 35 6d f1 33 36 e7 05 af 35
       3.0077965e-07 7.4565867e-07 2.6813607e-06 1.3040234e-06
000150 54 37 de b6 d1 b1 bf b7 42 69 94 b8 e3 6c 46 b8
       -6.6225566e-06 -2.2851777e-05 -7.076796e-05 -4.7308287e-05
000160 35 a5 34 b4 35 56 1d b5 0f 87 0e b6 2f 1a b5 b5
       -1.6823908e-07 -5.8612505e-07 -2.1238263e-06 -1.3493171e-06
000170 50 8e 5e b7 8d 89 1f b8 9e a9 0f b9 96 90 a1 b8
       -1.3265366e-05 -3.803666e-05 -0.0001370073 -7.7040095e-05
000180 3e 03 9d 37 ea eb 69 38 4d 7e 3a 39 2b c3 98 38
       1.8717368e-05 5.577124e-05 0.00017785393 7.284278e-05
000190 21 24 3c b2 3d 5f a1 b2 1f 55 83 b3 ec 95 24 b3
       -1.0951255e-08 -1.8786176e-08 -6.115646e-08 -3.832058e-08
0001a0 22 c0 f1 33 f6 7e bd 34 92 1c ab 35 b6 1f 4e 35
       1.1257386e-07 3.529637e-07 1.2748808e-06 7.6787126e-07
0001b0 b4 00 f8 33 8f 5a e6 34 4c ae d1 35 b9 2a 88 35
       1.1548528e-07 4.2906728e-07 1.562244e-06 1.0145224e-06
0001c0 a9 f7 5d b6 86 99 82 b7 a1 7a 6e b8 cf 5b 2d b8
       -3.3075723e-06 -1.5568698e-05 -5.685783e-05 -4.1331918e-05
0001d0 d5 33 ed b6 89 84 b9 b7 5b f3 aa b8 e4 1e 4f b8
       -7.0691844e-06 -2.2115435e-05 -8.15156e-05 -4.9381415e-05
0001e0 30 40 27 37 e9 a0 09 37 17 09 e2 37 14 9f 96 b7
       9.9689205e-06 8.203301e-06 2.6945532e-05 -1.795547e-05
0001f0 aa 20 82 34 c3 bc 65 35 b3 f4 4e 36 36 4b 06 36
       2.4238153e-07 8.558383e-07 3.0838826e-06 2.0011335e-06
000200 17 15 a7 33 19 fe be 34 6b 8b af 35 19 e6 7b 35
       7.78038e-08 3.5575138e-07 1.3079092e-06 9.383962e-07
000210 20 0b 2d 37 48 10 e2 37 2f 32 ce 38 66 3f 3a 38
       1.0314194e-05 2.6948881e-05 9.832193e-05 4.44049e-05
000220 4c 95 b3 b2 6f 4d b7 b3 8e fe 9d b4 df b7 70 b4
       -2.0906235e-08 -8.535687e-08 -2.9428742e-07 -2.2418634e-07
000230 be 9a 81 33 dc c3 87 33 60 3c 55 34 ae 85 9c b3
       6.035178e-08 6.322054e-08 1.9859135e-07 -7.288632e-08
000240 46 4e 87 34 8f d9 a0 34 b5 d9 d7 35 46 e5 0e 36
       2.520266e-07 2.9960617e-07 1.6082109e-06 2.1293104e-06
000250 98 76 a9 35 64 64 d3 35 a8 34 c2 37 3e 67 cc 37
       1.2625997e-06 1.5749943e-06 2.3151122e-05 2.4366771e-05
000260 f5 48 04 b5 ee 44 4b b6 fe e7 24 b7 64 ef e3 b6
       -4.928e-07 -3.028948e-06 -9.829177e-06 -6.792996e-06
000270 d3 1c 21 36 af e0 f3 35 39 10 59 36 70 d0 35 36
       2.4007647e-06 1.8170302e-06 3.2344963e-06 2.7092428e-06
000280 5a c7 0d b6 ce b8 0b b6 01 35 4c b7 9b ef 88 b7
       -2.1126675e-06 -2.0820185e-06 -1.21716885e-05 -1.6324038e-05
000290 b6 a7 0f 36 f4 3a e0 35 9e 88 39 36 25 cd e8 35
       2.140628e-06 1.6706458e-06 2.764667e-06 1.7345052e-06
0002a0 51 bb 48 b4 0f 20 32 b5 c3 63 24 b6 a2 36 d3 b5
       -1.8694597e-07 -6.635682e-07 -2.4495973e-06 -1.5736625e-06
0002b0 98 29 0b b7 42 1d 1c b8 da 5f f6 b8 06 2b 99 b8
       -8.29473e-06 -3.7220547e-05 -0.00011748048 -7.303622e-05
0002c0 1f 33 25 b5 82 94 87 b5 63 52 09 b6 51 0a 1d b6
       -6.154168e-07 -1.0101505e-06 -2.0462546e-06 -2.3400828e-06
0002d0 7c 48 29 b4 30 f5 f1 b4 f0 21 df b5 74 4d 7e b5
       -1.5765721e-07 -4.5068145e-07 -1.6624672e-06 -9.473508e-07
0002e0 cb cc b4 b6 4e 2c bc b7 ce 22 a8 b8 3a 36 70 b8
       -5.388259e-06 -2.2431977e-05 -8.017347e-05 -5.727096e-05
0002f0 d8 dd c6 34 fa d6 e7 32 32 c4 df 35 25 05 40 b6
       3.7041787e-07 2.69897e-08 1.6671895e-06 -2.8613224e-06
000300 f1 71 02 35 a3 50 fb 34 c2 92 11 35 8c 67 e3 34
       4.859458e-07 4.6811064e-07 5.423027e-07 4.2357385e-07
000310 05 5b 0e b4 da 33 fc b4 35 78 ed b5 a0 b3 8e b5
       -1.3257893e-07 -4.6976385e-07 -1.7692861e-06 -1.0632102e-06
000320 f4 32 15 b7 28 bd 39 b8 2f 29 2e b9 1b 6e fb b8
       -8.8929555e-06 -4.4283603e-05 -0.00016609275 -0.000119891214
000330 2d 03 1f b8 b0 85 18 b9 a7 a1 0d ba 88 1c bf b9
       -3.791151e-05 -0.00014545652 -0.0005402811 -0.00036451616
000340 76 8c b2 b6 89 f7 b9 b7 5a c0 a4 b8 a3 c7 6f b8
       -5.321165e-06 -2.2168986e-05 -7.855958e-05 -5.7167967e-05
000350 e0 1e 0c 38 4c ef e9 38 1a 7c d8 39 df b7 82 39
       3.3407356e-05 0.00011154878 0.00041291193 0.00024932527
000360 ac e5 36 36 3d cc ec 35 8a 9b eb 36 ab 6e ff b6
       2.72538e-06 1.7642811e-06 7.021653e-06 -7.6124757e-06
000370 65 33 4c 31 b7 1b 2d b5 b4 5f 36 34 d4 b3 8d b5
       2.9715121e-09 -6.448785e-07 1.6984887e-07 -1.0557656e-06
000380 44 4b 05 36 5e 65 c4 35 99 a1 40 37 db 60 b3 b6
       1.9862355e-06 1.463264e-06 1.1481717e-05 -5.345891e-06
000390 e0 b4 c6 35 cb 79 ec 36 90 af f7 37 c2 91 86 37
       1.4804791e-06 7.0475267e-06 2.9526447e-05 1.6041919e-05
0003a0 ca 34 1c 32 ab 48 29 33 c9 f8 09 34 93 a6 e7 33
       9.092398e-09 3.941447e-08 1.2849627e-07 1.07870754e-07
0003b0 07 6c 71 34 1b f9 95 34 db 65 e0 35 a7 a4 05 36
       2.2484174e-07 2.793466e-07 1.6718944e-06 1.9914385e-06
0003c0 e4 5e bb b4 92 0f e5 b4 00 e0 0f b1 d2 8c 8c b4
       -3.4900506e-07 -4.2665903e-07 -2.0936568e-09 -2.6179492e-07
0003d0 fd 5c 04 34 e5 02 ef 34 b6 39 ca 35 f2 7e 85 35
       1.2327287e-07 4.4519325e-07 1.5066969e-06 9.946218e-07
0003e0 3d 4c e1 36 c8 e1 c7 37 e3 c5 b3 38 33 c0 80 38
       6.714398e-06 2.3827786e-05 8.5722444e-05 6.1393155e-05
0003f0 eb 52 96 b2 37 59 56 b3 b8 59 3f b4 c3 86 06 b4
       -1.7500005e-08 -4.9906898e-08 -1.78209e-07 -1.2528749e-07

exp_avg_sq f4 [128, 4]
000000 4b 65 17 2c f4 ea 2c 2c e5 9f e1 2e ba 96 e1 2e
       2.151462e-12 2.4573095e-12 1.02602184e-10 1.025859e-10
000010 95 31 83 31 1a 08 71 31 57 fc 1b 34 6d d2 91 33
       3.8182386e-09 3.507472e-09 1.45273e-07 6.790365e-08
000020 40 3f 4f 31 dc cc 0d 31 9e 3a c6 33 6c 49 8d 33
       3.0158418e-09 2.063465e-09 9.230756e-08 6.5791795e-08
000030 e4 fe 3e 32 a8 ac dc 31 d8 72 34 34 ec 31 f8 33
       1.1117411e-08 6.4224714e-09 1.6805586e-07 1.1557481e-07
000040 a1 50 d9 31 74 1f c4 31 06 10 80 34 67 24 96 32
       6.3246977e-09 5.7079266e-09 2.3853516e-07 1.7478852e-08
000050 07 06 f5 31 df 86 16 32 a8 38 bc 34 7b 2b c9 33
       7.1311237e-09 8.761815e-09 3.5058952e-07 9.367701e-08
000060 3f df 91 31 3b 23 a5 31 70 e2 95 34 90 96 c8 33
       4.2454356e-09 4.8061373e-09 2.7918168e-07 9.340613e-08
000070 20 81 26 30 d7 c5 2b 30 fa 84 99 32 58 55 29 33
       6.0573946e-10 6.2490585e-10 1.7872015e-08 3.9426e-08
000080 e2 8f 75 31 ba 19 37 31 a3 eb 9e 33 1f c1 73 33
       3.573398e-09 2.6644629e-09 7.4003104e-08 5.675349e-08
000090 cc fd ee 2c fc a3 c0 2c 6d 8d 12 30 71 1b cb 30
       6.792544e-12 5.475174e-12 5.331547e-10 1.4777993e-09
0000a0 6d a8 32 30 a1 f3 dc 2f fc 36 fa 31 9d 9b 0e 32
       6.499537e-10 4.0190876e-10 7.2822086e-09 8.30087e-09
0000b0 a0 bd 29 31 ef 00 2d 31 6e bf d9 33 60 32 b3 33
       2.4700526e-09 2.5175344e-09 1.0139671e-07 8.3445e-08
0000c0 ee 54 b6 31 02 86 68 31 c5 37 69 33 1e 7c 9c 32
       5.3065525e-09 3.3836618e-09 5.4300262e-08 1.8217232e-08
0000d0 45 04 14 34 06 5a 94 33 33 aa 72 35 9d 15 e8 34
       1.3785127e-07 6.908162e-08 9.03997e-07 4.3229093e-07
0000e0 f9 98 66 31 7f 82 37 31 28 62 06 34 b9 fc 11 34
       3.355636e-09 2.6704183e-09 1.2515432e-07 1.3596117e-07
0000f0 03 23 c9 33 db f6 da 33 fa 63 8e 36 1e 69 94 34
       9.3661605e-08 1.0196319e-07 4.2435686e-06 2.764363e-07
000100 eb 14 aa 31 0e a5 7b 31 7f 6a 9b 33 96 ce f2 32
       4.9500293e-09 3.661913e-09 7.2371215e-08 2.8266452e-08
000110 df ca 0c 2f ce 35 d5 2e e7 fb c3 31 d8 84 0d 32
       1.2805e-10 9.695676e-11 5.703885e-09 8.237485e-09
000120 4a 0c 04 32 df 97 c6 31 e4 27 98 34 49 53 6a 34
       7.6862054e-09 5.779824e-09 2.834123e-07 2.1823247e-07
000130 c2 d2 19 33 07 b8 26 33 73 fc c0 35 a7 2b 72 34
       3.581477e-08 3.881726e-08 1.4378587e-06 2.2553887e-07
000140 0f da 68 31 cc 48 af 31 a3 a7 19 33 51 03 02 33
       3.3884395e-09 5.1014464e-09 3.5775553e-08 3.0271e-08
000150 e0 05 17 32 1a 59 15 32 11 9a ff 33 92 07 03 34
       8.790693e-09 8.693201e-09 1.1902387e-07 1.220308e-07
000160 17 9c 29 31 48 51 d4 30 f0 e7 ec 32 df 58 83 32
       2.4681464e-09 1.5448132e-09 2.7579489e-08 1.5290821e-08
000170 85 84 31 32 bc d6 2b 32 22 0d bb 34 05 03 ac 33
       1.0332887e-08 1.0002335e-08 3.484102e-07 8.0099234e-08
000180 48 f3 2e 32 2e db 04 32 12 16 cd 34 fa 27 94 34
       1.0183449e-08 7.733247e-09 3.8200284e-07 2.7596235e-07
000190 d0 b2 89 2e ec 73 49 2e 99 a7 fe 30 d8 9c ab 30
       6.261802e-11 4.5805068e-11 1.8528566e-09 1.2486465e-09
0001a0 e9 30 f9 2d a3 4e c7 2e c6 34 74 31 11 ce c5 31
       2.8329743e-11 9.063441e-11 3.5536671e-09 5.7568816e-09
0001b0 d3 f7 e1 2c 0a d4 0b 2d da f4 9a 2f d7 6e e4 2d
       6.4223986e-12 7.948317e-12 2.8186414e-10 2.5969822e-11
0001c0 a0 8b a5 32 a4 26 b3 32 66 b1 43 35 e4 85 d0 33
       1.9272022e-08 2.0855914e-08 7.290131e-07 9.710109e-08
0001d0 1a 54 50 31 94 03 2a 31 9b ce 98 33 66 78 95 33
       3.031579e-09 2.474029e-09 7.115633e-08 6.9602535e-08
0001e0 48 fb 11 32 f8 4a 72 31 50 58 f0 33 c4 36 e5 33
       8.497246e-09 3.525825e-09 1.1191935e-07 1.0673605e-07
0001f0 e6 1b 11 2c ec 44 82 2c 42 e6 58 2e 2c c7 ec 2d
       2.0621226e-12 3.702474e-12 4.9317224e-11 2.6918544e-11
000200 69 5b 60 2d 4f 7f 5b 2d 79 95 f0 2e 0c ea ac 2e
       1.2753223e-11 1.2476977e-11 1.0940488e-10 7.8632295e-11
000210 d3 41 a5 32 4c 14 a4 32 ac f4 4f 35 2d ea a4 33
       1.9238461e-08 1.9101343e-08 7.7469554e-07 7.6794414e-08
000220 a0 13 7a 2f e5 a4 54 2f 6f 02 64 31 bc 19 6f 30
       2.274434e-10 1.933987e-10 3.317975e-09 8.6984264e-10
000230 9c b5 5b 30 ff 1f 8b 30 e5 fe dc 32 e9 26 21 33
       7.992982e-10 1.0122675e-09 2.5727283e-08 3.7521122e-08
000240 52 af 91 31 cf 20 68 31 ac c2 06 34 b8 23 b1 33
       4.239987e-09 3.3779093e-09 1.2550544e-07 8.248702e-08
000250 44 f5 8c 32 f7 2a 88 32 91 4a e0 34 ea 7c c3 34
       1.6409679e-08 1.5852022e-08 4.1777506e-07 3.6412467e-07
000260 e2 23 f3 30 49 ef d6 30 d5 04 91 33 fa 98 9d 33
       1.7690776e-09 1.5638558e-09 6.7529676e-08 7.3387085e-08
000270 c9 0d df 31 6c 0c 02 32 05 3f 6e 34 cd 6f 8e 33
       6.4917214e-09 7.56982e-09 2.2188404e-07 6.632727e-08
000280 55 58 2c 32 3b cc 16 32 39 35 8c 34 c9 3d 62 34
       1.0031802e-08 8.777586e-09 2.6115757e-07 2.1070367e-07
000290 7c fe 82 32 da 32 8e 32 a9 d0 05 35 4b 3f f8 33
       1.5249718e-08 1.65541e-08 4.985e-07 1.1559913e-07
0002a0 da 86 ba 2f e2 ea ab 2f 72 ff b6 31 b4 91 f3 31
       3.392902e-10 3.1271613e-10 5.325938e-09 7.0887953e-09
0002b0 f6 78 b2 32 c9 79 b2 32 95 97 79 35 bc 4c d1 33
       2.0776934e-08 2.0777309e-08 9.298031e-07 9.746279e-08
0002c0 1d ba 35 31 0a 51 13 31 1a ce 02 34 27 71 09 34
       2.644476e-09 2.143738e-09 1.2182173e-07 1.2800284e-07
0002d0 79 26 9a 2b 21 15 92 2b 73 a2 14 2e 5f 80 02 2e
       1.0953036e-12 1.0379788e-12 3.3795588e-11 2.9672594e-11
0002e0 d9 90 d9 30 d5 62 b5 30 68 44 29 33 91 60 4f 32
       1.5829996e-09 1.3197573e-09 3.9410594e-08 1.20709425e-08
0002f0 d8 c5 68 31 c4 f9 5e 31 f7 5b 3e 34 fb 8f b8 33
       3.3872904e-09 3.2447227e-09 1.7728586e-07 8.5943576e-08
000300 ea 0a 1b 32 b0 81 26 32 e4 84 4f 34 82 37 6e 34
       9.024669e-09 9.691959e-09 1.9326723e-07 2.2185671e-07
000310 ab 8f 4b 2f cd ee 21 2f 80 8a 17 31 2d da 0e 31
       1.8513784e-10 1.4727704e-10 2.205212e-09 2.0787738e-09
000320 fb 21 21 32 bb e9 3f 32 74 86 c6 34 03 96 d7 33
       9.37916e-09 1.1170807e-08 3.6978201e-07 1.0039005e-07
000330 b0 80 d5 33 3e 1b e3 33 c1 4e 83 36 29 23 80 34
       9.9419935e-08 1.05754665e-07 3.9132724e-06 2.386744e-07
000340 88 38 fa 32 14 42 0e 33 d6 7a 97 35 35 76 70 34
       2.9129538e-08 3.312205e-08 1.1286127e-06 2.2394745e-07
000350 e6 50 89 33 6f ff 41 33 de d8 7e 35 54 e7 53 35
       6.394275e-08 4.516863e-08 9.4937957e-07 7.894025e-07
000360 62 b9 a5 31 24 5d 94 31 48 52 79 34 f5 22 35 34
       4.8232076e-09 4.3179558e-09 2.3219866e-07 1.6869656e-07
000370 18 81 08 30 48 73 f5 2f b2 90 2e 33 92 6d 83 33
       4.9659965e-10 4.4647153e-10 4.064413e-08 6.1200936e-08
000380 34 59 4f 30 3a a0 3d 30 03 d5 24 33 08 66 51 33
       7.5432927e-10 6.8985495e-10 3.837796e-08 4.87544e-08
000390 17 78 ab 32 fe 00 be 32 a0 f2 46 35 42 95 82 34
       1.996163e-08 2.2119362e-08 7.4113814e-07 2.4322986e-07
0003a0 d3 c2 4b 2a 67 69 53 2a dc 31 34 2d a9 8e cf 2c
       1.8097615e-13 1.8777133e-13 1.0242886e-11 5.8991323e-12
0003b0 33 01 aa 30 41 b3 8d 30 17 74 54 32 5b 81 46 32
       1.2369469e-09 1.0310047e-09 1.236642e-08 1.1554529e-08
0003c0 f0 5c 88 31 ed e8 8a 31 82 a7 93 33 0b b1 a7 33
       3.9686867e-09 4.042809e-09 6.8756904e-08 7.8087474e-08
0003d0 35 a8 02 31 e4 82 0e 31 d5 2c 65 32 b6 34 97 32
       1.9013104e-09 2.0738122e-09 1.3339748e-08 1.7602684e-08
0003e0 3a 73 cc 33 f5 ac dc 33 44 93 97 36 d1 de 81 34
       9.52045e-08 1.0276009e-07 4.5172947e-06 2.4190243e-07
0003f0 fd e6 04 2f bf 87 f1 2e 5a 98 f8 30 d5 f9 f7 30
       1.2087394e-10 1.09835245e-10 1.8087676e-09 1.8042622e-09

exp_avg f4 [128]
000000 db c5 ce 32 99 ba 65 38 bf 16 a8 36 ea e1 13 b6
       2.407153e-08 5.4771637e-05 5.009438e-06 -2.2036206e-06
000010 1a 62 0c b8 c3 90 5d b8 e3 f6 68 34 fc ea 0a 36
       -3.3469965e-05 -5.2825326e-05 2.16965e-07 2.0700381e-06
000020 b8 4d 40 35 2c 8b 44 34 60 b0 e0 b5 4b 0a fd 37
       7.163867e-07 1.8304553e-07 -1.6740632e-06 3.0164743e-05
000030 0b 9a 67 b5 13 5d d2 b7 94 72 81 35 92 1e 86 b8
       -8.627837e-07 -2.5077292e-05 9.644596e-07 -6.395312e-05
000040 25 d3 de b5 87 3a 29 b5 d6 ee 09 37 11 ee 4d b8
       -1.660174e-06 -6.3042575e-07 8.221445e-06 -4.9097525e-05
000050 11 4e 86 35 17 cd cd b7 c8 aa 4a b5 c5 1c 54 b8
       1.0006498e-06 -2.4533407e-05 -7.5499383e-07 -5.0571532e-05
000060 a8 77 86 38 e6 7e b8 b2 8e 8c f9 34 33 1c 18 35
       6.4119056e-05 -2.1478126e-08 4.648213e-07 5.666545e-07
000070 7b 65 aa b7 d5 38 fd b7 97 16 48 37 b7 64 94 35
       -2.0312835e-05 -3.0186415e-05 1.1926189e-05 1.1056171e-06
000080 64 af fd 34 41 49 18 38 59 ce d2 b3 84 99 b9 33
       4.7252536e-07 3.6307847e-05 -9.8164215e-08 8.642658e-08
000090 0b 36 63 35 17 73 1e 37 83 ea 5a b6 4f ca c2 35
       8.464273e-07 9.44433e-06 -3.2621035e-06 1.4513006e-06
0000a0 bf 4a df b6 97 3f 99 35 f1 11 6f b5 34 16 2b b8
       -6.6546195e-06 1.1417895e-06 -8.9060546e-07 -4.0790255e-05
0000b0 eb 42 c2 b5 07 6d 23 b5 06 75 ea b7 ac 05 68 35
       -1.4473602e-06 -6.088089e-07 -2.7949467e-05 8.643499e-07
0000c0 8c bc 78 34 37 7d 2d b5 b1 f6 79 b8 ea 93 4a b9
       2.3165393e-07 -6.4629734e-07 -5.9595975e-05 -0.00019319323
0000d0 b1 f9 e5 b7 ef 4f 1d 39 90 ac 63 36 76 0f 4a 35
       -2.7415199e-05 0.00015002464 3.392608e-06 7.527336e-07
0000e0 97 fb c9 36 03 5d 38 37 92 bd 4f 33 71 3b 60 35
       6.0195557e-06 1.0988911e-05 4.8368356e-08 8.3533e-07
0000f0 95 81 2e 33 65 f4 09 35 a7 67 03 38 13 ec 83 b3
       4.0630386e-08 5.139212e-07 3.1329368e-05 -6.1431045e-08
000100 e9 a2 ee 37 a4 5e 9b 36 71 d0 54 38 cb 83 86 38
       2.8447672e-05 4.6303776e-06 5.0738865e-05 6.414166e-05
000110 37 59 e4 34 24 8b 92 34 a5 32 30 35 26 e8 d8 36
       4.2533222e-07 2.7295857e-07 6.5638807e-07 6.4643273e-06
000120 59 4c 05 35 3e 38 4f 35 1c 7e 48 b6 f1 8e 43 b3
       4.965746e-07 7.719535e-07 -2.9875728e-06 -4.553198e-08
000130 b2 f0 2d 35 38 4d 97 b7 f3 c0 86 b7 ac 19 66 35
       6.479778e-07 -1.803656e-05 -1.6063894e-05 8.5719034e-07
000140 61 c4 a9 b6 47 d3 68 b8 1d d4 d6 b7 50 d7 ab b5
       -5.059454e-06 -5.5509878e-05 -2.560956e-05 -1.2803157e-06
000150 df d9 c3 b4 b5 0c ba b7 de 4d 30 b6 7c a6 a7 33
       -3.6480102e-07 -2.2178845e-05 -2.6271368e-06 7.806827e-08
000160 6f 72 92 38 26 5c 8a 37 9d a9 b6 b5 da b6 a8 36
       6.9831374e-05 1.6493792e-05 -1.3609421e-06 5.028077e-06
000170 fd 76 dc 37 d4 b3 91 b7 c1 08 ed b3 88 66 44 b2
       2.6281452e-05 -1.7369086e-05 -1.1037765e-07 -1.14320144e-08
000180 f3 4a 13 35 f4 3e 07 38 c9 2a 68 38 a2 96 7d b8
       5.4870833e-07 3.2245138e-05 5.5352957e-05 -6.046019e-05
000190 20 b4 f6 b5 1b b0 c8 33 ed d2 d7 b6 4f 1f 63 35
       -1.8380852e-06 9.345259e-08 -6.4320543e-06 8.460965e-07
0001a0 3a ca b3 b6 94 24 92 38 81 64 00 35 5a 2a be 37
       -5.358158e-06 6.968636e-05 4.782997e-07 2.2669486e-05
0001b0 00 cf 17 39 cd bc 90 b4 56 13 5c b8 3f a9 19 38
       0.00014477596 -2.695946e-07 -5.2470095e-05 3.6635665e-05
0001c0 17 52 2b b5 99 b5 7a b3 ba ad 48 35 4e e3 27 b8
       -6.382192e-07 -5.8372823e-08 7.475861e-07 -4.0027597e-05
0001d0 06 da c6 b4 34 bc b7 36 a1 1a 55 b8 27 65 a9 b8
       -3.7039007e-07 5.4757347e-06 -5.0807957e-05 -8.077389e-05
0001e0 cb ee 01 37 2a 09 06 37 76 69 92 34 d3 51 45 b8
       7.7445975e-06 7.989156e-06 2.7271352e-07 -4.7044665e-05
0001f0 4e 61 09 38 df c3 8f 35 9a b2 0d 36 1d 4b 64 37
       3.2753967e-05 1.0711336e-06 2.1114597e-06 1.3607348e-05
