neural_network/lightning_logs/version_16/checkpoints/epoch=1-step=3750.ckpt (torch, 13579 bytes, 18 tensors)

layers.0.weight f4 [20, 4]
0.9392588 -0.63780946 0.4289375 0.017068768 0.2963213 -0.7860052 -0.5029304 -0.3005114
0.41664904 0.53985554 -0.60116816 0.04320104 -0.40796143 -0.5212501 0.15651204 -0.11380426
-0.17540726 0.18055391 -0.17975034 0.10271279 -0.33095738 0.34087527 -0.108181514 0.5521018
-0.03134482 0.7076668 -0.48540947 0.078830086 0.3658612 -0.7275163 0.097199745 -0.11386373
-0.06312623 -0.39615828 0.10604799 0.00058460585 -0.012129191 0.3284445 -0.47508803 0.050566938
-0.82073176 -0.61387736 0.3832157 -0.061121095 0.17127755 -0.048991773 -0.2895803 -0.09606243
0.17745697 0.3584067 -0.34188914 0.009151262 -0.2729695 0.048313744 0.19433622 0.12012385
0.2054085 0.19680046 -0.49751407 0.023667512 0.5686292 0.46881306 -0.6937067 -0.30502933
-0.6831472 -0.60852087 0.39849898 0.12805143 0.37171096 -0.77366966 -0.26455352 0.24647595
0.121118784 -0.23314136 -0.09699127 -0.09000941 0.24654761 -0.61593664 0.066970915 0.0826353
00000000: 4473 703f 7b47 23bf b29d db3e cdd3 8b3c
00000010: 6db7 973e a337 49bf 0cc0 00bf a1dc 99be
00000020: 0653 d53e f933 0a3f 28e6 19bf 93f3 303d
00000030: 52e0 d0be a670 05bf b144 203e 3512 e9bd
00000040: f69d 33be 20e3 383e 7910 38be 155b d23d
00000050: 3f73 a9be 3487 ae3e 458e ddbd 8b56 0d3f
00000060: 6d63 00bd a729 353f 9787 f8be ab71 a13d
00000070: 2952 bb3e 823e 3abf a910 c73d 6331 e9bd
00000080: 5348 81bd 42d5 cabe b02f d93d 3c40 193a
00000090: 84b9 46bc e129 a83e bd3e f3be 471f 4f3d
000000a0: 7a1b 52bf 1127 1dbf d934 c43e 1d5a 7abd
000000b0: 6263 2f3e 99ab 48bd de43 94be 61bc c4bd
000000c0: 48b7 353e 1581 b73e 180c afbe 2def 153c
000000d0: a9c2 8bbe a2e4 453d 1300 473e 7e03 f63d
000000e0: 9b56 523e 0f86 493e 2aba febe 5fe2 c13c
000000f0: af91 113f 4408 f03e c396 31bf ce2c 9cbe
00000100: bce2 2ebf 06c8 1bbf 0f08 cc3e ea1f 033e
00000110: e650 be3e 370f 46bf 8f73 87be 3164 7c3e
00000120: 200d f83d 9cbc 6ebe 5ca3 c6bd db56 b8bd
00000130: fa76 7c3e 06ae 1dbf 0c28 893d b23c a93d

layers.0.bias f4 [20]
-1.2167461 -0.09090316 -0.117181435 -0.15105951 -0.5446601 -0.23976986 -0.15300988 0.022317126
-0.21521689 0.3482798 -0.122853614 0.014498135 -0.32069418 0.37247202 0.29782557 -0.14515209
-0.19675122 -0.41194817 -0.1793795 -0.58254915
00000000: 56be 9bbf 702b babd d2fc efbd 58af 1abe
00000010: d86e 0bbf 3b86 75be 9fae 1cbe 68d2 b63c
00000020: d161 5cbe bb51 b23e ad9a fbbd 9689 6d3c
00000030: 0732 a4be a7b4 be3e 987c 983e c0a2 14be
00000040: 2779 49be dfea d2be 42af 37be f121 15bf

layers.2.weight f4 [10, 20]
-0.3576222 -0.13861516 -0.22089957 -0.03274796 0.2079901 -0.33043078 0.0704585 -0.040277574
-0.05285951 0.22721289 -0.048283834 0.21429203 0.23769557 0.15822403 -0.1883003 -0.05063327
-0.33246827 -0.0780368 0.050553706 -0.061538454 1.2663857 -0.25971782 -0.025197567 -0.083608896
-0.17059751 -0.055255175 -0.28728792 -0.11975645 -0.012775458 -0.24457061 -0.3012985 0.031760402
-0.10772945 -0.035685074 -0.5255097 0.14541815 -0.80667615 -0.12343396 0.0011713915 0.15288937
-0.41714975 0.061338842 0.0044554817 -0.080883 0.23369862 -0.2560628 -0.10203915 -0.16650349
-0.24758151 0.03890591 -0.09008145 0.09010185 0.30857322 -0.36657566 0.05445072 0.28516358
0.045427356 -0.047712218 0.03548779 -0.23042998 -0.6490428 -0.23304746 0.5739671 0.04444898
-0.05221143 0.02027279 0.2925198 -0.0038735906 -0.3141372 -0.011358816 0.22065024 0.06200067
0.056304853 0.03754553 0.17898653 0.14192334 0.048035555 -0.09724873 -0.10123141 -0.192197
0.07956978 0.15644965 0.1117208 -0.12220835 0.23495798 -1.4230915 -0.21597463 -0.2149551
0.23966748 0.25957263 0.058459017 -0.001324962 0.09339405 -0.7531614 0.07363681 0.28726047
-0.10650194 0.021911887 -0.16088513 0.22292735 -0.13486248 0.08391419 -0.20319298 0.08283024
-0.10667221 -1.091449 -0.25486442 0.008052753 -0.10548736 0.11106794 0.061066765 -0.21631882
-0.07431553 0.021133928 -0.12429994 0.021974124 0.013070292 -0.23762752 0.045868658 -0.0735155
0.15272924 0.028256025 0.03482817 -0.214723 0.2956065 -0.2910597 0.099579155 0.13580234
0.026338791 0.16729409 -0.14586252 -0.15318555 0.104149975 0.14297102 -0.06798901 -0.24004745
-0.10097209 0.14425804 0.34787646 0.08680381 -0.41738233 -0.1831232 0.32394895 0.024949204
0.13977215 -0.49214947 0.3627484 -0.2508831 -0.19906418 0.30525827 -0.04897495 -0.008427324
0.08263105 -0.00798445 0.07216503 -0.09122589 -0.049972173 -0.16430265 -0.012559143 -0.038614064
-1.0826032 0.12381459 -0.07544392 -0.30850986 0.5139276 -0.07520822 0.10184216 -0.067470826
-0.2013351 0.26587683 -0.15746525 0.27783522 0.32288307 -0.06433844 -0.02631658 -0.4092329
-0.36932874 0.16949259 0.060380504 -0.0008029396 -0.13010849 0.035958532 -0.05285258 0.023599328
0.01636966 0.054268215 0.013516252 -0.09129255 0.16472532 0.25906718 -0.14292072 -0.19060943
-0.051343817 -0.3961463 0.09891147 -0.25835052 -0.090253085 0.22119969 0.24959168 0.120939896
00000000: 421a b7be 22f1 0dbe 7f33 62be ba22 06bd
00000010: 5bfb 543e 392e a9be 8c4c 903d 19fa 24bd
00000020: 3783 58bd 7faa 683e 45c5 45bd 5f6f 5b3e
00000030: 7866 733e 7b05 223e cbd1 40be d564 4fbd
00000040: 4839 aabe c2d1 9fbd 6711 4f3d bf0f 7cbd
00000050: ed18 a23f bcf9 84be 216b cebc 243b abbd
00000060: 1db1 2ebe 4053 62bd 6717 93be df42 f5bd
00000070: 2850 51bc b870 7abe cc43 9abe 3217 023d
00000080: 42a1 dcbd 832a 12bd ce87 06bf 7fe8 143e
00000090: 5482 4ebf f2ca fcbd 6089 993a 088f 1c3e
000000a0: a794 d5be 703e 7b3d 4aff 913b fca5 a5bd
000000b0: b14e 6f3e aa1a 83be e7f9 d0bd e47f 2abe
000000c0: 0286 7dbe ce5b 1f3d a07c b8bd 5287 b83d
000000d0: 4ffd 9d3e ceaf bbbe b807 5f3d f600 923e
000000e0: 0912 3a3d e36d 43bd a55b 113d d6f5 6bbe
000000f0: ab27 26bf fea3 6ebe 82ef 123f 2210 363d
00000100: a7db 55bd 1f13 a63c 28c5 953e 11dc 7dbb
00000110: 97d6 a0be 541a 3abc 23f2 613e 6af4 7d3d
00000120: eb9f 663d 57c9 193d 3f48 373e 5a54 113e
00000130: eec0 443d 582a c7bd 6a52 cfbd 4acf 44be
00000140: 7bf5 a23d 5634 203e e0cd e43d 5f48 fabd
00000150: d398 703e dd27 b6bf 7428 5dbe 311d 5cbe
00000160: 646b 753e b4e6 843e b972 6f3d 59aa adba
00000170: 6145 bf3d 2fcf 40bf e5ce 963d ce13 933e
00000180: b01d dabd 8f80 b33c 12bf 24be 1147 643e
00000190: 6419 0abe 34db ab3d d211 50be e7a2 a93d
000001a0: f676 dabd 9ab4 8bbf 977d 82be b2ef 033c
000001b0: c209 d8bd 9777 e33d 2521 7a3d ae82 5dbe
000001c0: be32 98bd 0f21 ad3c f890 febd 1403 b43c
000001d0: c724 563c a154 73be c6e0 3b3d 4b8f 96bd
000001e0: 0e65 1c3e 2e79 e73c fca7 0e3d 59e0 5bbe
000001f0: bc59 973e c705 95be 28f0 cb3d c50f 0b3e
00000200: 73c4 d73c 244f 2b3e fc5c 15be acdc 1cbe
00000210: 954c d53d ff66 123e d23d 8bbd 00cf 75be
00000220: 75ca cebd 61b8 133e dd1c b23e 32c6 b13d
00000230: 23b3 d5be a684 3bbe a3dc a53e 4662 cc3c
00000240: 6e20 0f3e 04fb fbbe 29ba b93e c073 80be
00000250: 7bd7 4bbe d04a 9c3e f599 48bd c212 0abc
00000260: 783a a93d 36d1 02bc 42cb 933d a4d4 babd
00000270: 9faf 4cbd f43e 28be ddc4 4dbc c829 1ebd
00000280: be92 8abf 8192 fd3d 5882 9abd 01f5 9dbe
00000290: c290 033f c406 9abd 9f92 d03d 252e 8abd
000002a0: ca2a 4ebe 0221 883e 923e 21be 6b40 8e3e
000002b0: ee50 a53e dfc3 83bd de95 d7bc fa86 d1be
000002c0: a818 bdbe 778f 2d3e 8c51 773d 5d7c 52ba
000002d0: 293b 05be 4149 133d f27b 58bd 6153 c13c
000002e0: aa19 863c 5948 5e3d 4573 5d3c 97f7 babd
000002f0: c1ad 283e 74a4 843e cf59 12be 1e2f 43be
00000300: e54d 52bd b0d3 cabe 1992 ca3d 8546 84be
00000310: 9cd6 b8bd 2c82 623e f694 7f3e 56af f73d

layers.2.bias f4 [10]
-0.17040312 -0.36435968 0.05387587 0.09143401 -0.1817802 -0.17896569 -0.15518595 0.115462825
-0.21953157 -0.057392687
00000000: 287e 2ebe 5a8d babe f2ac 5c3d c141 bb3d
00000010: 9724 3abe c842 37be 11e9 1ebe c677 ec3d
00000020: e2cc 60be 9814 6bbd

layers.4.weight f4 [2, 10]
0.09457263 0.025276154 0.13072807 -0.023685256 0.4190357 0.1873109 0.04762563 0.020458078
-0.13616805 -0.16169617 0.013228549 0.30146268 -0.0880791 -0.16866533 0.006016884 -0.014378386
0.018618573 -0.10551449 -0.189631 0.10003415
00000000: 4caf c13d f00f cf3c 94dd 053e 9507 c2bc
00000010: d98b d63e 6ece 3f3e 1813 433d b397 a73c
00000020: a36f 0bbe ae93 25be 8ebc 583c 5159 9a3e
00000030: d162 b4bd 9bb6 2cbe 4829 c53b 5293 6bbc
00000040: fa85 983c fb17 d8bd a12e 42be b4de cc3d

layers.4.bias f4 [2]
0.018244596 0.09402327
00000000: b175 953c 468f c03d

exp_avg f4 [20, 4]
0.00022154444 0.00027816734 6.422547e-05 -0.00035747382 -1.7235473e-06 -1.8975096e-06 -3.8391004e-06 7.3003747e-07
1.5827594e-06 1.7535966e-06 2.779242e-06 -2.5015877e-06 -8.5049044e-07 -1.0110223e-06 -9.273009e-06 1.6376781e-06
-9.615313e-07 -9.786742e-07 -2.5210393e-06 -7.52468e-07 4.4311773e-06 6.6445573e-06 3.3092183e-05 -4.6670275e-06
-1.3115172e-07 -1.3709742e-07 -1.0119804e-06 -2.7621154e-06 -6.197953e-06 -3.9891197e-06 1.6421747e-05 7.6081764e-05
-1.2874298e-06 -1.3782798e-06 -2.6286073e-06 1.4525696e-06 -9.997464e-07 -1.0533025e-06 -2.7143599e-06 -1.7301676e-06
6.738124e-08 -3.601865e-06 -0.00011962247 -7.548029e-05 1.6030225e-07 1.6770836e-07 1.4969179e-07 -4.1310184e-08
-3.9743014e-07 -3.9257623e-07 -1.3179383e-06 -5.788248e-07 2.2456854e-05 2.2381955e-05 6.418544e-05 -2.40846e-05
-1.1494036e-06 -1.3325259e-06 -3.1521345e-06 -1.6351798e-06 1.5099741e-05 1.9581537e-05 5.2309173e-05 -6.316497e-05
5.644875e-06 7.5028315e-06 1.3324112e-05 1.5462358e-05 -8.917276e-07 -9.531733e-07 -2.037597e-06 6.520622e-07
-6.1740735e-07 -5.8212385e-07 -1.4780546e-06 1.7993746e-07 -2.7529646e-07 -2.4388063e-07 -4.4393767e-07 8.258961e-07
00000000: 624e 6839 fdd6 9139 c9b0 8638 536b bbb9
00000010: a254 e7b5 efad feb5 9fd1 80b6 cbf7 4335
00000020: 336f d435 1f5d eb35 0483 3a36 f3e0 27b6
00000030: 424d 64b5 76b2 87b5 4593 1bb7 31ce db35
00000040: f70d 81b5 fd5a 83b5 202f 29b6 35fd 49b5
00000050: 86af 9436 50f4 de36 76cc 0a38 7699 9cb6
00000060: b6d2 0cb4 0d35 13b4 62d3 87b5 c85c 39b6
00000070: 03f8 cfb6 47da 85b6 6fc1 8937 168e 9f38
00000080: c0cb acb5 55fd b8b5 2167 30b6 e9f5 c235
00000090: 062f 86b5 335f 8db5 5928 36b6 1b38 e8b5
000000a0: 3ab3 9033 92b7 71b6 d3dd fab8 2c4b 9eb8
000000b0: 8c1f 2c34 5313 3434 f7ba 2034 076d 31b3
000000c0: 625e d5b4 44c3 d2b4 04e4 b0b5 8a60 1bb5
000000d0: ba61 bc37 e2c0 bb37 4c9b 8638 4909 cab7
000000e0: 3545 9ab5 3ed9 b2b5 4289 53b6 5a78 dbb5
000000f0: e554 7d37 0843 a437 8c66 5b38 6f77 84b8
00000100: 1b69 bd36 d5c0 fb36 a08a 5f37 29b5 8137
00000110: 0e5f 6fb5 92dd 7fb5 a6bd 08b6 6009 2f35
00000120: e9bb 25b5 3f43 1cb5 9261 c6b5 d534 4134
00000130: 75cc 93b4 b3ee 82b4 5456 eeb4 26b3 5d35

exp_avg_sq f4 [20, 4]
3.5504384e-06 2.3336036e-06 2.2909087e-05 9.295329e-06 2.2042279e-10 9.158725e-11 3.83958e-09 5.578291e-09
5.4240104e-08 6.739355e-08 3.7810548e-07 2.3146714e-07 2.9076612e-09 2.7038682e-09 4.998689e-08 2.008245e-08
1.4328543e-10 8.742484e-11 3.4710124e-10 5.8756144e-10 4.062542e-08 2.6666497e-08 2.771027e-07 1.3187673e-07
4.0574752e-09 5.5786873e-09 3.043642e-08 1.951225e-08 1.8792504e-08 1.39152645e-08 2.3671454e-07 1.5046601e-07
5.7721317e-11 5.0376054e-11 1.9153423e-09 1.4714672e-09 1.8281897e-11 1.479475e-11 1.4641065e-10 8.8952325e-11
1.7905977e-08 1.9293223e-08 5.1468174e-07 1.5704947e-07 1.2064443e-10 9.317935e-11 2.311606e-09 2.931628e-09
7.8158854e-11 6.558041e-11 5.474078e-10 7.7660683e-10 5.757425e-08 5.3037528e-08 6.351732e-07 3.402784e-07
8.3762547e-10 5.443805e-10 1.10397504e-08 8.63197e-09 1.5961739e-08 1.4004569e-08 9.349275e-08 1.0582085e-07
3.9156937e-08 2.388134e-08 5.203561e-07 3.0389972e-07 6.864353e-11 4.9815936e-11 1.325242e-09 1.8361161e-09
8.333371e-12 4.7716124e-12 1.673225e-10 1.118319e-10 9.982452e-10 7.4513856e-10 1.1934639e-08 1.250213e-08
00000000: 1144 6e36 019b 1c36 e42c c037 22f3 1b37
00000010: 805b 722f 0a67 c92e 4eed 8331 2bab bf31
00000020: a0f5 6833 ffb9 9033 6cfe ca34 3489 7834
00000030: 1ed0 4731 f4ce 3931 2bb1 5633 c681 ac32
00000040: 438b 1d2f cf3f c02e 28d2 be2f f681 2130
00000050: 1f7c 2e33 3f10 e532 b5c4 9434 009a 0d34
00000060: ee69 8b31 a7ae bf31 33b9 0233 e49b a732
00000070: 276d a132 fb0f 6f32 992b 7e34 c88f 2134
00000080: 6ddc 7d2e 658e 5d2e 0f9f 0331 a63c ca30
00000090: 2ccf a02d d122 822d effa 202f b59b c32e
000000a0: a9cf 9932 3fba a532 a928 0a35 6ea1 2834
000000b0: 63a6 042f 50e7 cc2e 34da 1e31 bf75 4931
000000c0: 86df ab2e 7d36 902e 6678 1630 d978 5530
000000d0: 8f47 7733 61cb 6333 c580 2a35 82af b634
000000e0: a73e 6630 5fa3 1530 56a9 3d32 ce4b 1432
000000f0: 3c1c 8932 bf98 7032 2fc6 c833 a13f e333
00000100: 822d 2833 9f23 cd32 99ae 0b35 a927 a334
00000110: dff2 962e c217 5b2e cf23 b630 985a fc30
00000120: 2b9a 122d dde2 a72c 19f9 372f c3eb f52e
00000130: a132 8930 77d2 4c30 1909 4d32 f3c8 5632

exp_avg f4 [20]
7.4386655e-05 -1.368396e-06 5.4420855e-07 -3.2324e-06 -1.0432774e-06 1.0689393e-05 -7.659962e-07 3.8513635e-06
-7.681038e-07 -1.1671169e-06 -5.8439742e-05 -1.0421608e-08 -6.4370334e-07 2.4312785e-05 -1.5226443e-06 2.2233215e-05
1.942406e-06 -7.565695e-07 -5.2916965e-07 1.093656e-08
00000000: 0800 9c38 bba9 b7b5 ba15 1235 36ec 58b6
00000010: bd06 8cb5 9856 3337 dc9e 4db5 f63a 8136
00000020: b12f 4eb5 d5a5 9cb5 321d 75b8 b70a 33b2
00000030: f5ca 2cb5 4ff3 cb37 a95d ccb5 7781 ba37
00000040: 485a 0236 0f17 4bb5 430c 0eb5 80e3 3b32

exp_avg_sq f4 [20]
3.7736017e-06 1.014024e-09 6.84561e-08 1.0037957e-08 7.889171e-11 5.0354714e-08 5.4830367e-09 4.9157205e-08
3.9179365e-10 3.1214097e-11 1.04530976e-07 5.6336624e-10 1.1186843e-10 1.2929944e-07 2.6956317e-09 1.9091367e-08
9.0490815e-08 2.9687933e-10 3.4417802e-11 2.3770643e-09
00000000: fc3d 7d36 cc5d 8b30 2402 9333 6773 2c32
00000010: 167c ad2e 9845 5833 4d65 bc31 eb20 5333
00000020: 0e64 d72f f347 092e 837a e033 60db 1a30
00000030: 5400 f62e 8fd5 0a34 0e3e 3931 5cfe a332
00000040: da53 c233 0d36 a32f 005f 172e c259 2331

exp_avg f4 [10, 20]
-2.929158e-07 9.653893e-10 4.5339688e-09 -9.417756e-08 1.5003463e-08 1.4016356e-06 8.88934e-09 -4.7336374e-07
5.4187175e-09 6.8195387e-09 4.0845e-09 -7.1937895e-10 4.544946e-09 1.2386583e-07 4.3541957e-09 -5.5327703e-08
4.3047476e-07 2.456034e-08 7.727202e-10 1.05734035e-08 7.803346e-05 -6.382682e-06 -1.3948018e-06 -2.0334908e-06
-2.8462428e-06 3.1359523e-05 -1.4069124e-06 -1.4171545e-05 -1.6310291e-06 -1.7260215e-06 1.7538937e-06 -1.8092314e-06
-1.7148892e-06 0.00021845219 -1.4177391e-06 6.3121665e-06 1.6155839e-06 -4.3246214e-06 -2.1159522e-06 -2.4360052e-06
-1.3303404e-07 -7.7608115e-09 9.709345e-09 -2.2449595e-07 1.8428878e-08 2.9192086e-06 1.3847501e-08 -6.416516e-07
2.7286133e-09 6.9469297e-09 -9.1577476e-07 -2.095921e-09 8.832137e-09 1.0292562e-07 4.2610244e-09 -2.520566e-09
7.3597457e-09 2.5209133e-08 -1.8414341e-09 1.1770599e-08 6.125665e-05 -4.2931274e-06 -5.938375e-07 -8.832061e-06
-2.0073333e-06 0.0001316 -8.155983e-07 2.8257114e-06 -1.4963356e-06 -1.416179e-06 -0.00012263193 -1.0517753e-06
-6.832691e-07 9.623722e-05 -1.2148657e-06 3.3290455e-06 -9.067105e-05 -4.0420823e-06 -1.4261075e-06 -1.8188263e-06
-1.148334e-06 1.6442024e-09 2.250326e-08 -4.584424e-07 6.611441e-08 6.5814465e-06 4.0686714e-08 -2.0909138e-06
2.2000663e-08 2.9394801e-08 -4.2366688e-07 -3.106906e-09 2.2049052e-08 4.352294e-07 1.8904272e-08 -2.3828665e-07
1.609235e-06 1.0570676e-07 2.599337e-09 4.618119e-08 -4.5991334e-07 -2.5858835e-09 9.1147045e-09 -2.1629809e-07
2.7968976e-08 3.1441566e-06 1.7077685e-08 -9.1563925e-07 8.896105e-09 1.191423e-08 -3.1631834e-07 -2.3616809e-09
9.073704e-09 2.8380924e-07 7.266122e-09 -1.09429664e-07 6.5849855e-07 4.457909e-08 6.781878e-11 1.961005e-08
-1.4903175e-05 5.290472e-07 3.270976e-07 1.2239029e-07 4.24754e-07 8.517523e-07 3.7287253e-07 -9.380913e-06
1.06145826e-07 2.5542764e-07 2.1363796e-07 1.9413876e-07 3.04719e-07 -2.3885785e-05 2.1806653e-07 -4.0601883e-08
3.761654e-07 4.2704218e-07 1.7834577e-07 1.9918541e-07 -9.892152e-06 1.4184438e-06 1.0651709e-07 4.3479467e-06
-3.4021156e-07 -2.906169e-06 -8.2988954e-08 1.40166785e-05 -1.6640466e-07 -5.963178e-08 -1.319907e-05 5.456985e-07
1.8646412e-07 -6.053337e-05 2.9178537e-08 3.8109968e-06 -3.141667e-05 -1.101208e-06 3.2914355e-07 -3.5507662e-07
7.2618565e-07 -1.184477e-09 8.923653e-09 -4.4165258e-08 -1.4000445e-08 -6.1771027e-07 -6.1478733e-10 5.8687726e-07
-1.2442209e-08 -7.034134e-09 -1.6447716e-06 4.778176e-09 6.2054726e-09 -1.0063111e-06 -2.7230396e-09 7.7190975e-08
-1.7921775e-06 -3.5313185e-08 -6.170848e-10 -1.278033e-08 9.1498066e-08 2.0098433e-08 -2.2403794e-09 2.3618443e-07
-1.4841965e-08 -3.6704857e-06 -8.132859e-09 6.788027e-07 -2.5713145e-09 -3.3113892e-09 8.831165e-07 7.327623e-09
-3.0832936e-09 -7.4608806e-07 3.0849634e-10 1.0310043e-07 -2.8143086e-07 -2.3347646e-08 5.885102e-09 -1.0967167e-08
00000000: 0a42 9db4 9eae 8430 36c9 9b31 a93e cab3
00000010: f7e0 8032 d51f bc35 bbb7 1832 9e22 feb4
00000020: 8b2f ba31 4c51 ea31 a457 8c31 cbbd 45b0
00000030: c529 9c31 fbff 0434 e99b 9531 74a1 6db3
00000040: 001c e734 c2f8 d232 5a67 5430 52a6 3532
00000050: e5a5 a338 d22a d6b6 0635 bbb5 1b77 08b6
00000060: 1402 3fb6 0888 0338 24d5 bcb5 53c2 6db7
00000070: bce9 dab5 a6a9 e7b5 5467 eb35 b8d4 f2b5
00000080: 252b e6b5 5010 6539 2549 beb5 19cd d336
00000090: 0ad7 d835 371c 91b6 c8ff 0db6 407a 23b6
000000a0: 1ed8 0eb4 6954 05b2 27ce 2632 fa0c 71b4
000000b0: 884d 9e32 9fe7 4336 f4e5 6d32 f63d 2cb5
000000c0: 4682 3b31 d7b1 ee31 90d3 75b5 d507 10b1
000000d0: 26bc 1732 f507 dd33 5e68 9231 4436 2db1
000000e0: 02e1 fc31 788b d832 b415 fdb0 a437 4a32
000000f0: ea76 8038 af0d 90b6 3468 1fb5 6a2d 14b7
00000100: b9b5 06b6 1bfe 0939 7def 5ab5 5aa1 3d36
00000110: b3d5 c8b5 8a13 beb5 c296 00b9 b92a 8db5
00000120: e569 37b5 f7d2 c938 780e a3b5 9168 5f36
00000130: a626 beb8 39a1 87b6 ae68 bfb5 651e f4b5
00000140: 7520 9ab5 3bfa e130 314d c132 d81f f6b4
00000150: c8fa 8d33 32d6 dc36 84bf 2e33 a051 0cb6
00000160: f8fb bc32 da7f fc32 5574 e3b4 4581 55b1
00000170: 6166 bd32 79a9 e934 ef62 a232 bcdb 7fb4
00000180: e5fc d735 e800 e333 05a0 3231 c158 4633
00000190: 02ea f6b4 58b3 31b1 e596 1c32 913f 68b4
000001a0: 6e40 f032 3300 5336 3ab2 9232 40ca 75b5
000001b0: 7cd5 1832 56af 4c32 76d2 a9b4 214b 22b1
000001c0: 92e2 1b32 725e 9834 7ca9 f931 98ff eab3
000001d0: adc3 3035 3a77 3f33 9422 952e f572 a832
000001e0: a608 7ab7 d903 0e35 f49b af34 636a 0334
000001f0: bf09 e434 f9a3 6435 362f c834 b762 1db7
00000200: 49f2 e333 b521 8934 5b64 6534 7574 5034
00000210: 4398 a334 555e c8b7 ac25 6a34 3e62 2eb3
00000220: c7f3 c934 3b44 e534 507f 3f34 abdf 5534
00000230: 78f6 25b7 5c61 be35 64be e433 94e4 9136
00000240: 52a6 b6b4 9a07 43b6 a937 b2b3 2d29 6b37
00000250: f7ac 32b4 eb0e 80b3 9371 5db7 1e7c 1235
00000260: de36 4834 36e5 7db8 48a4 fa32 6dc0 7f36
00000270: 64c5 03b8 38cd 93b5 25b5 b034 5ca1 beb4
00000280: 19ef 4235 14cb a2b0 a44e 1932 37b0 3db3
00000290: 9c86 70b2 bad0 25b5 d0fd 28b0 e689 1d35
000002a0: 6ac1 55b2 e6b0 f1b1 ecc1 dcb5 482d a431
000002b0: ea37 d531 9610 87b5 3820 3bb1 30c4 a533
000002c0: c08a f0b5 42ab 17b3 7c9f 29b0 7c90 5bb2
000002d0: 987d c433 eca4 ac32 2cf5 19b1 e299 7d34
000002e0: a7fb 7eb2 7752 76b6 b1b8 0bb2 f736 3635
000002f0: 0bb3 30b1 938e 63b1 4e0f 6d35 74c6 fb31
00000300: e0e1 53b1 c846 48b5 0099 a92f 1068 dd33
00000310: 9017 97b4 048e c8b2 e835 ca31 1c6a 3cb2

exp_avg_sq f4 [10, 20]
1.8145167e-10 2.0901315e-11 3.0355615e-10 6.9243655e-09 5.516846e-12 6.0567937e-09 1.0681395e-10 2.7203718e-08
7.354446e-11 7.482204e-12 6.219145e-08 7.286894e-12 1.039569e-11 3.266327e-07 2.4697312e-11 9.2255356e-11
6.7361794e-10 3.4649825e-09 3.777166e-12 1.4868984e-09 3.522917e-07 4.1613002e-10 1.5597635e-08 1.9980781e-08
2.5222568e-10 4.3725638e-08 1.1048955e-10 3.825317e-08 1.6857422e-11 1.10605525e-10 8.543863e-09 7.854903e-11
8.666891e-11 6.368347e-07 8.654991e-11 2.020658e-08 3.437473e-09 3.1053304e-10 7.0201185e-11 2.4898136e-10
1.1728779e-08 1.8270276e-09 7.05008e-09 1.7859821e-07 8.515657e-11 7.951633e-09 6.393163e-10 4.235068e-08
5.449869e-12 3.921919e-11 5.334768e-08 5.353041e-10 8.125723e-11 2.9901545e-07 2.565241e-09 2.6254906e-08
3.8122582e-08 1.5315144e-09 5.735821e-11 6.396483e-10 3.1113757e-08 8.980127e-10 1.0424155e-08 1.18486426e-07
4.3183196e-10 4.3065756e-07 1.3975213e-09 1.1280148e-07 5.4560616e-11 1.7581615e-10 2.3371659e-07 1.9645435e-10
2.5298932e-10 2.8344978e-06 2.632412e-10 1.3494902e-08 1.4107108e-07 1.9160786e-09 1.7342075e-10 9.580247e-10
1.0136653e-08 1.1770042e-10 3.3913052e-09 2.4561773e-08 1.982919e-11 1.705036e-10 1.8357786e-10 6.408348e-10
1.0628469e-12 7.40607e-12 1.5548311e-10 3.1845687e-10 5.6069095e-12 4.172506e-09 2.2867122e-10 2.027049e-08
6.8182935e-09 3.2108184e-11 1.1125893e-11 7.471198e-12 6.474859e-11 5.4725436e-11 4.2355845e-11 3.0923824e-09
1.9875846e-13 7.2364115e-11 2.2337474e-13 1.1342106e-09 1.5249384e-12 2.3220155e-13 1.5824762e-09 3.7525248e-12
2.1182139e-13 4.8091935e-09 7.105486e-11 1.1009764e-10 4.5649354e-10 5.743445e-11 1.3639185e-13 2.1824183e-11
2.1161643e-08 4.4028975e-10 6.615138e-09 1.5371461e-07 4.944386e-11 4.5318306e-08 1.0665969e-09 9.330215e-08
5.028888e-11 3.353517e-11 1.5075261e-07 6.0356364e-10 9.9182024e-11 9.5263215e-07 5.7844346e-10 9.302329e-09
3.5960465e-08 3.7132437e-09 4.7901783e-11 1.6595259e-09 1.976979e-08 3.3119332e-09 1.0267825e-08 3.4256922e-07
1.574335e-10 4.184075e-09 7.359088e-10 9.0797016e-08 7.7859654e-12 7.213449e-11 1.2441352e-07 8.512723e-10
1.3196262e-10 7.138602e-07 5.1910436e-09 2.8778205e-08 7.57759e-08 2.60826e-09 7.821648e-11 1.1767614e-09
5.4514577e-11 1.10061404e-11 1.294721e-11 5.780436e-10 1.3885205e-12 1.5158037e-08 1.1536884e-10 6.2891634e-09
2.2222387e-11 2.0163714e-12 1.441947e-08 2.7386433e-12 3.0255904e-12 9.7373714e-08 1.777771e-12 9.0045e-12
2.3629574e-11 7.701896e-10 2.1022747e-12 2.6485486e-10 1.0082772e-09 3.6800547e-09 4.6203663e-10 5.5798335e-08
1.3575326e-12 2.198178e-09 8.648402e-13 7.608225e-09 6.3813816e-14 6.808104e-13 4.293247e-09 3.1694748e-11
2.5723998e-13 3.8966252e-09 2.8929203e-09 5.003322e-09 1.0446786e-08 4.6343975e-12 6.0335623e-13 1.1729437e-12
00000000: 1b82 472f 94d9 b72d bbe1 a62f 5deb ed31
00000010: 551b c22c 1f1c d031 e8e2 ea2e 9cad e932
00000020: dab9 a12e daa0 032d 1c8e 8533 4131 002d
00000030: 07e2 362d 0e5c af34 673d d92d 26df ca2e
00000040: a629 3930 9e1c 6e31 b0e5 842c 965b cc30
00000050: 9a22 bd34 18c5 e42f 90fb 8532 34a2 ab32
00000060: 9ca9 8a2f d9cc 3b33 16f8 f22e ce4b 2433
00000070: 8a47 942d 6039 f32e 4fc8 1232 2cbb ac2e
00000080: 4296 be2e f3f2 2a35 4553 be2e bd92 ad32
00000090: aa38 6c31 a4b7 aa2f c15f 9a2e 03e1 882f
000000a0: b77f 4932 d21a fb30 293d f231 b4c4 3f34
000000b0: e342 bb2e a79b 0832 e3bb 2f30 11e5 3533
000000c0: 0ec0 bf2c e27c 2c2e 6520 6533 ad24 1330
000000d0: c1af b22e 5f88 a034 3248 3031 2687 e132
000000e0: 39bc 2333 5f7d d230 9a43 7c2e 3fd3 2f30
000000f0: f0a1 0533 07d8 7630 eb15 3332 9a72 fe33
00000100: f266 ed2f 2035 e734 e912 c030 453d f233
00000110: cbf5 6f2e d94f 412f 87f3 7a34 fc00 582f
00000120: 1515 8b2f 4d38 3e36 e8b7 902f 35d7 6732
00000130: 5379 1734 03ac 0331 9aad 3e2f 7fab 8330
00000140: 7925 2e32 b969 012f 790c 6931 e9fb d232
00000150: 5e6b ae2d 7f78 3b2f 93d8 492f bd26 3030
00000160: 1895 952b f949 022d 9bf4 2a2f d212 af2f
00000170: 8d46 c52c c05d 8f31 3a6d 7b2f 471f ae32
00000180: 5846 ea31 9a36 0d2e 91ba 432d 496f 032d
00000190: 3762 8e2e 5daf 702e 7148 3a2e c481 5431
000001a0: 3ac8 5f2a 6021 9f2e 637f 7b2a 7de2 9b30
000001b0: b29d d62b c5b7 822a 6e7e d930 bd07 842c
000001c0: 5c7d 6e2a 1d3e a531 5540 9c2e 761b f22e
000001d0: c1f5 fa2f 7199 7c2e 4690 192a b1f7 bf2d
000001e0: f2c6 b532 460d f22f 5f4b e331 c00c 2534
000001f0: d674 592e 01a4 4233 8b97 9230 665d c833
00000200: 3f2c 5d2e 3f7d 132e 90de 2134 04e8 2530
00000210: 841a da2e 62b8 7f35 5700 1f30 13d0 1f32
00000220: f372 1a33 132c 7f31 9dac 522e 6015 e430
00000230: 3ad2 a932 2598 6331 5f66 3032 5bea b734
00000240: 9719 2d2f 83c3 8f31 fa48 4a30 30fc c233
00000250: dff8 082d 1ca0 9e2e 8796 0534 f6fe 6930
00000260: 2d18 112f 19a0 3f35 e75c b231 f133 f732
00000270: 3eba a233 ff3c 3331 f7ff ab2e 9cbb a130
00000280: f5c1 6f2e 409f 412d 0dc5 632d 34e4 1e30
00000290: b96a c32b e034 8232 e2b2 fd2e 1118 d831
000002a0: 5e78 c32d b8e3 0d2c 80b9 7732 03b7 402c
000002b0: 31e8 542c c41b d133 f332 fa2b aa68 1e2d
000002c0: 12d9 cf2d 46b5 5330 37ef 132c 029b 912f
000002d0: 9a93 8a30 35e4 7c31 e001 fe2f eba6 6f33
000002e0: 440e bf2b c20e 1731 4e6e 732b 54b5 0232
000002f0: 29b2 8f29 8fa1 3f2b cd83 9331 1d65 0b2e
00000300: 30d0 902a 14e3 8531 cbcc 4631 b0e9 ab31
00000310: 7379 3332 f10e a32c 66d4 292b c013 a52b

exp_avg f4 [10]
-8.865384e-07 0.00029322668 -1.3906056e-06 0.00012911309 -4.1061703e-06 -1.7368812e-06 -3.9567243e-05 -1.9524436e-05
-8.5394504e-08 8.9551713e-07
00000000: 74fa 6db5 38bc 9939 d8a4 bab5 8862 0739
00000010: bcc7 89b6 c91e e9b5 01f5 25b8 68c8 a3b7
00000020: 2062 b7b3 7863 7035

exp_avg_sq f4 [10]
8.937613e-08 1.5561656e-06 5.939981e-07 3.4821494e-06 8.851558e-08 3.186129e-09 5.7422653e-07 1.1629552e-06
2.997121e-08 2.0706297e-08
00000000: 0cef bf33 71dd d035 3d73 1f35 dfae 6936
00000010: f415 be33 f9f2 5a31 8c24 1a35 d616 9c35
00000020: b2b9 0033 a1dd b132

exp_avg f4 [2, 10]
-3.6467368e-06 -0.00010225688 -3.3393703e-06 6.030391e-06 -2.206391e-05 -1.5683356e-05 -8.8176985e-06 -0.0002069697
2.9617186e-06 1.2995213e-06 1.1374913e-06 3.5406294e-05 1.944407e-06 0.00018783043 1.0370438e-05 1.0005445e-05
-4.0820314e-06 -8.805905e-05 -1.6361519e-06 -2.506562e-06
00000000: 76ba 74b6 bf72 d6b8 f219 60b6 aa58 ca36
00000010: e315 b9b7 c08f 83b7 baef 13b7 0106 59b9
00000020: f0c1 4636 366b ae35 e7ab 9835 3881 1438
00000030: a87c 0236 59f4 4439 b1fc 2d37 0fdd 2737
00000040: 62f8 88b6 58ac b8b8 c099 dbb5 6836 28b6

exp_avg_sq f4 [2, 10]
3.9420744e-08 5.1390356e-07 6.206161e-07 3.2556707e-06 4.6525862e-08 1.6075381e-07 8.708272e-07 8.30253e-07
6.6907218e-09 2.058926e-09 5.0821413e-08 6.6722276e-07 5.2056174e-07 3.2463322e-06 3.714646e-08 2.8285947e-07
8.311802e-07 7.4041e-07 5.2945737e-09 1.997222e-09
00000000: 914f 2933 2ff3 0935 6a98 2635 ff7b 5a36
00000010: bad3 4733 ac9b 2c34 cac2 6935 8dde 5e35
00000020: 36e4 e531 027d 0d31 bc46 5a33 331b 3335
00000030: bbbc 0b35 90db 5936 f78a 1f33 e9db 9734
00000040: 451e 5f35 96c0 4635 90eb b531 803f 0931

exp_avg f4 [2]
-0.0008767566 0.00032437523
00000000: 24d6 65ba e810 aa39

exp_avg_sq f4 [2]
0.00012788145 0.000103724495
00000000: ea17 0639 aa86 d938
