lightning_logs/version_19/checkpoints/epoch=4-step=8005.ckpt (torch, 13579 bytes, 18 tensors)

layers.0.weight f4 [20, 4]
-0.8907764 0.6975141 0.24668919 0.17217048 1.0316309 0.04148564 0.17352824 -0.27313042
-0.2863792 0.38106292 0.18183608 0.023196368 0.22966896 0.2865833 -0.063798815 -0.09205782
-0.7683154 0.97818196 -0.3504454 0.13548918 -0.7874337 0.82093656 0.16993585 -0.4084182
0.020697746 -0.74758244 0.47443458 -0.5213873 -0.02840247 -0.5324461 0.30003387 0.10735242
-0.20281336 -0.21361434 -0.09127369 0.20801482 0.32096377 0.28963265 -0.40422577 0.22061874
1.0908005 0.07228651 -0.092708886 0.2380147 0.2401652 -0.029622927 0.08675433 0.18194026
0.78754336 -0.5844001 0.34439328 0.22748251 -1.1446102 -1.163243 -0.029444365 0.15166956
0.10878226 -0.19138187 0.1220199 0.04564187 -0.7803095 0.74973977 0.36029392 0.1779247
-0.36541086 1.5399514 -0.037079718 0.47933418 -0.38370937 0.8979023 0.1798641 -0.46177125
-0.3877035 -0.3446411 0.14746466 -0.5760147 0.33340225 -1.1829444 -0.25905347 -0.38793957
00000000: ec09 64bf 4990 323f 179c 7c3e 754d 303e
00000010: 7b0c 843f d9ec 293d 63b1 313e c0d7 8bbe
00000020: 4ba0 92be ae1a c33e 3d33 3a3e 4f06 be3c
00000030: 572e 6b3e 0cbb 923e f4a8 82bd cf88 bcbd
00000040: 51b0 44bf 226a 7a3f 946d b3be adbd 0a3e
00000050: 4195 49bf e628 523f aa03 2e3e 311c d1be
00000060: 528e a93c 9061 3fbf 17e9 f23e a379 05bf
00000070: 4cac e8bc 634e 08bf 0a9e 993e 96db db3d
00000080: 4eae 4fbe b8bd 5abe b3ed babd d601 553e
00000090: 5d55 a43e bb4a 943e aef6 cebe e1e9 613e
000000a0: 5a9f 8b3f f30a 943d 28de bdbd 20ba 733e
000000b0: deed 753e c8ab f2bc 41ac b13d 8c4e 3a3e
000000c0: 719c 493f 3f9b 15bf 5154 b03e 2df1 683e
000000d0: 9682 92bf 26e5 94bf 4f35 f1bc 444f 1b3e
000000e0: 3cc9 de3d 9cf9 43be 92e5 f93d f8f2 3a3d
000000f0: 5dc2 47bf f2ee 3f3f 7278 b83e e431 363e
00000100: 2217 bbbe 211d c53f e7e0 17bd 4a6b f53e
00000110: 8e75 c4be eddc 653f 4b2e 383e 486d ecbe
00000120: 1381 c6be cc74 b0be fa00 173e b375 13bf
00000130: b3b3 aa3e b96a 97bf a8a2 84be 04a0 c6be

layers.0.bias f4 [20]
-0.39443424 0.029370695 -0.28251967 0.14483076 -0.1551857 -0.39925572 -0.40423805 0.3326403
-0.47342157 -0.60808706 -0.04054727 -0.34101418 0.46424952 0.4003144 -0.43259868 -0.028700894
-0.18381989 -0.07967274 -0.16245517 0.12905829
00000000: 49f3 c9be d09a f03c 6ba6 90be 844e 143e
00000010: 00e9 1ebe 3f6b ccbe 4af8 cebe d44f aa3e
00000020: 5064 f2be 98ab 1bbf e514 26bd 6999 aebe
00000030: 1db2 ed3e 02f6 cc3e 937d ddbe 231e ebbc
00000040: 483b 3cbe 762b a3bd a65a 26be db27 043e

layers.2.weight f4 [10, 20]
0.047480196 -0.08166868 0.15173158 -0.26420537 0.080826975 0.06847885 -0.105389535 -0.25415498
0.036365185 0.08275431 -0.21460663 0.05645567 0.033807617 0.1791924 -0.15421942 -0.26244164
-0.07857269 -0.16156031 0.012465887 -0.031571448 0.4498122 -0.2350285 0.22570643 -0.08007276
0.22865564 -0.1022508 0.4237613 0.11700297 0.19648074 0.11989612 0.15321344 -0.06541765
-0.03226499 -0.06616102 0.34902623 -0.09123595 0.11414654 -0.60255224 -0.095104195 0.15682334
-0.30840436 -0.008786996 -0.17948517 -0.12380551 -0.13683723 0.13296694 -0.12789391 -0.16076139
-0.031337198 -0.026277415 -0.19258663 0.12375679 0.106705315 -0.022290025 0.07288745 -0.24560009
-0.20634401 -0.30046764 -0.20363435 0.118009746 -0.18952484 -0.15590435 -0.1432117 -0.25130683
0.18045487 0.20680813 -0.20770164 -0.013557835 0.2068865 0.2597912 -0.16002092 0.07379945
-0.23924068 -0.14771955 0.24351723 0.021590572 -0.1310113 -0.08761716 0.014312228 0.23127718
-0.45292404 0.1368182 -0.09775634 0.017854642 -0.09650028 -0.42991856 0.099104054 0.024281485
-0.070483066 0.06561715 0.22203106 -0.0140280975 0.14754173 0.5312651 -0.026380554 -0.12423364
-0.027061395 -0.25931087 0.11956306 0.10109151 -0.11707223 -0.1261062 -0.009530735 0.07801749
-0.06744783 -0.29256347 -0.30791104 0.20795673 0.07202863 -0.0035859626 -0.012767933 -0.05168818
0.18555602 0.18571727 0.006503765 -0.15325277 -0.33722642 0.28868717 0.064346105 0.13754831
0.0678765 -0.15711068 -0.0760744 0.13427106 0.0450106 -0.054353464 -0.011778374 -0.00925402
-0.19615982 -0.18695842 0.17334181 0.28372657 -0.040142976 0.0805798 0.012466698 -0.005800327
-0.25309855 -0.62444746 0.26472956 -0.14217106 -0.23704273 -0.14765303 0.08904782 -0.1454363
0.23103338 -0.05960926 -0.054312937 -0.038550377 0.06773191 -0.15825748 -0.07349731 0.012361886
-0.09594634 0.17521887 -0.11243772 0.0075057987 -0.11307138 -0.014167949 -0.06854943 0.081456505
0.0021217512 -0.2086705 -0.24750434 -0.2564437 0.30110216 0.06121235 -0.087384135 0.045647655
-0.05591684 -0.03869786 -0.119061165 -0.11497987 0.08953988 0.0055888575 -0.06389605 -0.29999188
-0.15649466 -0.28130233 -0.075996555 0.06036227 0.13933869 0.12209243 0.34197012 0.11554679
0.24891055 0.094963 0.12677065 -0.20422137 -0.02372414 0.071496606 0.19144434 0.024780836
-0.044131238 -0.17839223 0.25410983 -0.23285198 0.15736176 -0.5462655 -0.2717005 0.036034595
00000000: 987a 423d e941 a7bd 865f 1b3e ed45 87be
00000010: 9d88 a53d a43e 8c3d 78d6 d7bd 9a20 82be
00000020: a9f3 143d 177b a93d d7c1 5bbe 103e 673d
00000030: db79 0a3d 367e 373e b2eb 1dbe c05e 86be
00000040: b8ea a0bd 1170 25be b83d 4c3c 1051 01bd
00000050: c94d e63e 50ab 70be 961f 673e 30fd a3bd
00000060: b424 6a3e de68 d1bd 3ef7 d83e 419f ef3d
00000070: 3f32 493e 198c f53d fce3 1c3e b0f9 85bd
00000080: 4b28 04bd 6e7f 87bd 91b3 b23e ead9 babd
00000090: a9c5 e93d dd40 1abf fdc5 c2bd 4c96 203e
000000a0: 2de7 9dbe 55f7 0fbc f6ca 37be be8d fdbd
000000b0: 0f1f 0cbe 7c28 083e 9ff6 02be a29e 24be
000000c0: 6f5b 00bd bc43 d7bc 6e35 45be 3374 fd3d
000000d0: 5188 da3d 9299 b6bc 0446 953d 977e 7bbe
000000e0: d84b 53be e5d6 99be 8685 50be 18af f13d
000000f0: cd12 42be 64a5 1fbe 16a6 12be 4aab 80be
00000100: 29c9 383e 83c5 533e bdaf 54be ae21 5ebc
00000110: 0eda 533e 5a03 853e 86dc 23be 2b24 973d
00000120: 82fb 74be cb43 17be 955c 793e b6de b03c
00000130: d427 06be a070 b3bd d67d 6a3c edd3 6c3e
00000140: a9e5 e7be 121a 0c3e 7a34 c8bd e643 923c
00000150: f0a1 c5bd 491e dcbe 11f7 ca3d f7e9 c63c
00000160: 6d59 90bd 4962 863d 1c5c 633e 1bd6 65bc
00000170: 2e15 173e fd00 083f 081c d8bc 356e febd
00000180: dcaf ddbc 65c4 84be 7add f43d 1109 cf3d
00000190: 91c3 efbd fc21 01be cd26 1cbc a2c7 9f3d
000001a0: 1722 8abd e1ca 95be 84a6 9dbe 9cf2 543e
000001b0: bf83 933d 7802 6bbb 9830 51bc fcb6 53bd
000001c0: 6602 3e3e ab2c 3e3e 891d d53b 4bee 1cbe
000001d0: f1a8 acbe cece 933e e4c7 833d 77d9 0c3e
000001e0: d602 8b3d 9fe1 20be e5cc 9bbd 5a7e 093e
000001f0: 095d 383d bda1 5ebd 15fa 40bc 2c9e 17bc
00000200: 1fde 48be 0772 3fbe 8480 313e 9c44 913e
00000210: f66c 24bd 0607 a53d 1f41 4c3c ab10 bebb
00000220: 2296 81be cadb 1fbf a28a 873e 4a95 11be
00000230: 54bb 72be 5b32 17be b45e b63d 41ed 14be
00000240: 0494 6c3e d728 74bd 3e77 5ebd 00e7 1dbd
00000250: 07b7 8a3d 400e 22be c285 96bd 8289 4a3c
00000260: 847f c4bd 936c 333e bf45 e6bd 34f3 f53b
00000270: f891 e7bd af20 68bc a563 8cbd abd2 a63d
00000280: 140d 0b3b b8ad 55be c771 7dbe 974c 83be
00000290: 102a 9a3e cdb9 7a3d 74f6 b2bd 09f9 3a3d
000002a0: 0e09 65bd a681 1ebd 57d6 f3bd 917a ebbd
000002b0: af60 b73d bc22 b73b efdb 82bd 8998 99be
000002c0: 2340 20be dc06 90be 15a4 9bbd 6d3e 773d
000002d0: cdae 0e3e 990b fa3d b516 af3e cca3 ec3d
000002e0: 68e2 7e3e f67b c23d 2ad0 013e 681f 51be
000002f0: 2159 c2bc d06c 923d fc09 443e 2e01 cb3c
00000300: f5c2 34bd 74ac 36be af1a 823e c070 6ebe
00000310: 7123 213e 0ed8 0bbf 541c 8bbe 0399 133d

layers.2.bias f4 [10]
0.17182364 -0.32758197 -0.058276914 0.12518574 0.09098378 0.061646376 0.06306545 0.03684966
-0.0058035306 0.1060527
00000000: 89f2 2f3e d3b8 a7be c6b3 6ebd b130 003e
00000010: b455 ba3d e980 7c3d 7528 813d abef 163d
00000020: 8b2b bebb 2832 d93d

layers.4.weight f4 [2, 10]
0.016118139 0.3926469 0.071101926 0.21491112 0.080293715 -0.11772727 0.111367226 -0.014991878
0.00643823 0.27310896 -0.110647276 0.19932237 -0.06429563 -0.011024835 -0.18066034 -0.09543778
-0.07179533 -0.027960999 -0.07037483 0.11651443
00000000: 300a 843c 0409 c93e e39d 913d a911 5c3e
00000010: 0871 a43d ff1a f1bd 8014 e43d 7ea0 75bc
00000020: caf7 d23b f0d4 8b3e 0a9b e2bd 2a1b 4c3e
00000030: 6dad 83bd 82a1 34bc 06ff 38be e274 c3bd
00000040: 6e09 93bd 770e e5bc ae20 90bd 1e9f ee3d

layers.4.bias f4 [2]
0.012922789 0.12090023
00000000: 1bba 533c 8a9a f73d

exp_avg f4 [20, 4]
1.2414863e-07 3.067409e-07 1.0947007e-05 4.9548134e-06 1.3272654e-09 -1.11304345e-07 -1.3619564e-06 -1.0539756e-06
2.5204145e-08 6.7898135e-08 2.3335858e-06 1.0707256e-06 -6.0458736e-09 1.5037944e-08 -3.0255686e-07 2.4000997e-07
2.1817473e-10 4.2479795e-10 2.597926e-08 1.0300742e-08 1.3097382e-09 2.4302185e-09 1.1783841e-07 4.869402e-08
3.136661e-07 2.6415157e-07 5.3525737e-06 1.6988427e-06 -3.068377e-08 3.015746e-08 -2.5004654e-06 -5.85897e-07
-1.8456442e-10 4.0689901e-10 4.0624224e-09 4.3858686e-09 -2.918726e-10 -6.5670536e-10 -1.547848e-08 -7.699544e-09
-4.5909374e-09 -1.4097031e-07 -2.3300424e-06 -1.4741333e-06 -8.89113e-08 -8.459339e-08 -4.2834955e-07 -2.7279074e-07
-5.309651e-08 -5.983245e-08 -4.859239e-06 -1.8031268e-06 -3.5930304e-07 -8.101008e-07 -1.1770922e-05 -5.5686114e-06
-3.47302e-11 4.8295562e-11 4.675663e-09 1.9205357e-09 6.433303e-08 7.4023845e-08 4.3950126e-06 1.6944898e-06
4.6133167e-08 -5.5593908e-08 3.7438735e-06 9.62876e-07 -1.8649722e-07 -6.160693e-08 -3.7319576e-06 -9.582577e-07
-4.0446407e-10 -7.468611e-10 -3.305356e-08 -1.3915708e-08 -6.039638e-10 -6.5277905e-10 -3.779492e-08 -1.4348041e-08
00000000: b74d 0534 26ae a434 09a9 3737 8641 a636
00000010: 006b b630 3606 efb3 77cc b6b5 5376 8db5
00000020: 8080 d832 65cf 9133 b39a 1c36 dab5 8f35
00000030: 11bc cfb1 ca2c 8132 196f a2b4 b8da 8034
00000040: bae2 6f2f ff88 e92f ff28 df32 24f7 3032
00000050: 5102 b430 db00 2731 5a0e fd33 a423 5133
00000060: f165 a834 b7d0 8d34 429a b336 ca03 e435
00000070: 29c9 03b3 7a86 0133 abcd 27b6 8946 1db5
00000080: 44ee 4aaf f2b1 df2f 7295 8b31 82b2 9631
00000090: 6b75 a0af 8883 34b0 8af5 84b2 f446 04b2
000000a0: 50be 9db1 a05d 17b4 d35d 1cb6 d6da c5b5
000000b0: 81ef beb3 b5a9 b5b3 eaf7 e5b4 1374 92b4
000000c0: 3b0c 64b3 3d7d 80b3 8c0c a3b6 f702 f2b5
000000d0: 3ce6 c0b4 b475 59b5 ba7b 45b7 02da bab6
000000e0: bbbe 18ae f867 542e 91a7 a031 6cfa 0331
000000f0: 7527 8a33 0af7 9e33 df78 9336 3a6e e335
00000100: f423 4633 26c6 6eb3 423f 7b36 2b3c 8135
00000110: f73f 48b4 c54c 84b3 8b72 7ab6 7c9d 80b5
00000120: 425b deaf ad4b 4db0 c6f6 0db3 ee11 6fb2
00000130: 2d04 26b0 3e6f 33b0 f453 22b3 5a7f 76b2

exp_avg_sq f4 [20, 4]
3.877141e-10 3.3266412e-10 7.3346136e-08 1.1217667e-08 2.1556854e-11 1.8405477e-11 3.8931027e-09 5.7952654e-10
2.6773027e-11 2.4154347e-11 5.1423266e-09 8.0012735e-10 5.7994976e-12 5.471056e-12 1.2847615e-09 1.7400636e-10
3.0166858e-15 2.6180198e-15 5.846903e-13 8.8868617e-14 5.028596e-14 4.3433505e-14 9.58911e-12 1.4645087e-12
1.1678248e-11 8.045761e-12 2.5332585e-09 2.2608991e-10 4.0315994e-11 3.4924185e-11 7.960929e-09 1.2018125e-09
8.191255e-16 7.384677e-16 1.6620657e-13 3.2238575e-14 3.712484e-14 3.2505143e-14 7.5230436e-13 1.4646589e-13
8.029203e-11 6.689535e-11 1.3386816e-08 2.1631732e-09 2.839909e-12 2.8102089e-12 6.9284367e-10 1.00331236e-10
9.609623e-11 8.310754e-11 1.86373e-08 2.843143e-09 3.6283498e-10 2.7137576e-10 9.2424365e-08 1.3964712e-08
5.018218e-15 3.721436e-15 1.0190197e-12 1.8866805e-13 6.822536e-11 5.86721e-11 1.3143454e-08 2.006167e-09
9.270291e-11 7.9457524e-11 1.812669e-08 2.7431644e-09 2.5031617e-11 2.265061e-11 3.1455356e-09 2.9867386e-10
1.07132036e-13 1.04475334e-13 2.9745238e-11 2.7661445e-12 7.483432e-15 4.6794805e-15 1.2613072e-12 1.6611782e-13
00000000: e925 d52f 50e2 b62f 7782 9d33 d2b7 4032
00000010: b89d bd2d 73e5 a12d 18c4 8531 8e4c 1f30
00000020: 7f7f eb2d c176 d42d 62b0 b031 f5ef 5b30
00000030: 3b0d cc2c e47e c02c 8793 b030 7052 3f2f
00000040: 0860 5927 f1a5 3c27 6093 242b 451d c829
00000050: c477 6229 6c9b 4329 83b1 282d 7d1c ce2b
00000060: 2772 4d2d e38a 0d2d 8e15 2e31 a796 782f
00000070: c64f 312e 2399 192e 89c4 0832 052d a530
00000080: cb18 6c26 4cd9 5426 c821 3b2a 8c30 1129
00000090: 0732 2729 e163 1229 3ec1 532b ebe7 242a
000000a0: 6590 b02e bc1a 932e d7fb 6532 f2a6 1431
000000b0: 41d7 472c 39c0 452c 8a72 3e30 77a1 dc2e
000000c0: 5e51 d32e 63c1 b62e db17 a032 1a61 4331
000000d0: 7c78 c72f be30 952f d57a c633 74e9 6f32
000000e0: e4cc b427 3014 8627 0e6a 8f2b dd6b 542a
000000f0: 7707 962e 7505 812e 86cd 6132 dddc 0931
00000100: 19db cb2e 9cba ae2e 03b5 9b32 4282 3c31
00000110: 312e dc2d a43c c72d d928 5831 9c32 a42f
00000120: 6a3d f129 ee41 eb29 29d2 022e 6ea6 422c
00000130: 3dcf 0628 9798 a827 6283 b12b 3408 3b2a

exp_avg f4 [20]
6.622538e-06 -7.4432313e-07 1.4081414e-06 -2.073186e-07 1.6011548e-08 7.218846e-08 3.2095288e-06 -1.6172883e-06
2.0915307e-09 -9.1648324e-09 -1.324379e-06 -2.1302147e-07 -3.01842e-06 -6.8196437e-06 2.8892817e-09 2.7136232e-06
2.4299957e-06 -2.3610846e-06 -2.018713e-08 -2.3333593e-08
00000000: 2b37 de36 7fcd 47b5 5fff bc35 4e9b 5eb4
00000010: c489 8932 0706 9b33 4963 5736 9a11 d9b5
00000020: 99ba 0f31 5c73 1db2 51c1 b1b5 e5ba 64b4
00000030: 1090 4ab6 4bd4 e4b6 c88c 4631 b11b 3636
00000040: 0213 2336 2073 1eb6 f867 adb2 1d6f c8b2

exp_avg_sq f4 [20]
2.5136572e-08 1.3328473e-09 1.7558051e-09 4.3866766e-10 2.0037181e-13 3.285555e-12 8.9125773e-10 2.728303e-09
5.6965724e-14 2.0781356e-13 4.5623176e-09 2.3673322e-10 6.3869767e-09 3.238958e-08 3.6124408e-13 4.5059116e-09
6.2142247e-09 1.0596163e-09 1.0299547e-11 4.4139087e-13
00000000: e8eb d732 652f b730 e650 f130 fc28 f12f
00000010: 3e99 612a 4c33 672c b0fc 7430 d07c 3b31
00000020: 8146 8029 2efa 692a 92c2 9c31 3d25 822f
00000030: 7174 db31 b81c 0b33 c25c cb2a 6bd2 9a31
00000040: e684 d531 efa1 9130 0931 352d 217b f82a

exp_avg f4 [10, 20]
-8.008717e-09 -2.552725e-09 -1.0932439e-09 2.4441875e-09 3.8540185e-10 3.0550254e-10 -7.542891e-11 -5.7186824e-08
2.7276997e-10 6.966056e-10 1.4984327e-09 3.3218617e-09 -7.517199e-08 -1.8505515e-08 1.2806532e-10 -4.275845e-08
-5.7716782e-09 6.4635612e-09 2.429672e-10 3.4779019e-10 -8.2275e-09 4.8894883e-08 -2.9536182e-09 6.4805454e-09
-1.1453692e-09 -3.336384e-10 2.250245e-08 1.2507388e-07 -9.57721e-10 -1.9362196e-09 -2.2342414e-08 -1.4196379e-08
1.6313155e-07 3.1115494e-08 -3.7196338e-10 7.8693e-08 -4.073878e-08 4.089697e-09 3.2585896e-11 -3.9011713e-10
-7.935678e-09 5.244101e-09 -1.3263882e-09 3.0563219e-09 1.5360183e-10 2.0738383e-10 3.286021e-09 -2.9493558e-08
8.6479816e-11 2.9814895e-10 -1.9424584e-09 7.321172e-10 -3.8874145e-08 -1.1000153e-08 5.244179e-11 -2.4202714e-08
-1.07680425e-08 6.1089804e-09 2.0834484e-10 2.3298988e-10 -1.1872187e-08 2.3255598e-08 -2.3996596e-09 5.9068554e-09
-2.1403974e-10 1.2696072e-10 1.1529881e-08 8.583874e-09 -2.292807e-10 -3.1561592e-10 -9.433122e-09 -3.791985e-09
1.1045523e-08 -2.2422804e-09 -6.6234566e-11 -8.7707713e-10 -2.5783184e-08 8.785001e-09 2.492993e-10 1.302379e-10
-2.5365646e-06 -1.2779341e-06 -9.1675594e-07 1.12862885e-07 7.027818e-08 4.8976776e-08 3.8431697e-08 -1.0820887e-05
5.727869e-08 1.3455958e-07 -2.1774005e-07 4.501963e-07 -1.4673453e-05 -2.7701174e-06 2.4407477e-08 -9.508764e-06
-3.0517815e-06 -1.2181671e-07 5.1680146e-08 8.6696595e-08 -1.2560918e-07 -1.6561385e-06 -2.612572e-08 -1.4303511e-07
4.6774307e-08 1.9402087e-08 -6.775005e-07 -5.627964e-06 3.8347675e-08 8.1139476e-08 6.279957e-07 5.0206916e-07
-7.441891e-06 -1.4100508e-06 1.5354127e-08 -3.928331e-06 7.779258e-07 4.5257245e-08 8.100751e-09 2.5741036e-08
-1.0473929e-08 9.114979e-09 -1.8596582e-09 4.167268e-09 1.3354962e-10 2.4348643e-10 5.3330136e-09 -3.061987e-08
5.9168385e-11 2.7449126e-10 -3.65228e-09 1.8220381e-10 -4.0481147e-08 -1.2181359e-08 4.6625676e-11 -2.6446015e-08
-1.5800184e-08 7.8274445e-09 2.6458885e-10 2.7423852e-10 -1.0437533e-09 -2.771514e-09 -7.6093506e-11 1.08257896e-10
1.205498e-10 6.892105e-11 -1.0548697e-09 -1.5805618e-08 9.234406e-11 2.1143282e-10 1.2259899e-09 1.2070219e-09
-2.0765002e-08 -4.6585678e-09 3.9606183e-11 -1.11701235e-08 7.777647e-10 9.0370145e-10 4.161552e-11 7.993841e-11
-4.786747e-09 -1.7835833e-09 -6.0279065e-10 1.4860989e-09 2.4347374e-10 1.88983e-10 -2.0681454e-10 -3.5815646e-08
1.7292154e-10 4.3962037e-10 1.2188237e-09 2.1927042e-09 -4.6971476e-08 -1.1574346e-08 8.094546e-11 -2.6592792e-08
-3.0330105e-09 3.995267e-09 1.4694806e-10 2.1318002e-10 -1.0974489e-08 1.928915e-08 -5.528955e-09 1.9212278e-09
-5.7148186e-10 -6.1669995e-11 1.5563435e-08 5.7653207e-08 -4.6316978e-10 -9.984733e-10 -2.829762e-08 -1.2030676e-08
6.418038e-08 1.7943874e-08 -1.9198171e-10 2.7010339e-08 -4.6637066e-08 3.3617096e-09 2.5329316e-10 6.385179e-11
00000000: b696 09b2 036c 2fb1 1a41 96b0 9af6 2731
00000010: 7de0 d32f a9f3 a72f b4de a5ae 949d 75b3
00000020: f6f4 952f 437b 3f30 6af1 cd30 cf46 6431
00000030: 3d6e a1b3 0ff6 9eb2 2fcf 0c2f 6aa5 37b3
00000040: 3850 c6b1 1616 de31 9892 852f 1e33 bf2f
00000050: ed58 0db2 7e00 5233 9af8 4ab1 7bab de31
00000060: 196b 9db0 6e6b b7af 694b c132 0c4c 0634
00000070: d0a0 83b0 560e 05b1 7deb bfb2 56e4 73b2
00000080: 4229 2f34 d9a3 0533 317d ccaf effd a833
00000090: c3f8 2eb3 5b85 8c31 7550 0f2e 1b78 d6af
000000a0: 7b55 08b2 9a2f b431 234c b6b0 6207 5231
000000b0: 12e3 282f 5c05 642f 4bd0 6131 0559 fdb2
000000c0: cf2b be2e bce8 a32f 177c 05b1 2b3e 4930
000000d0: 93f6 26b3 2ffb 3cb2 35a4 662e 55e6 cfb2
000000e0: 5afe 38b2 29e7 d131 dc13 652f 6916 802f
000000f0: 6ef6 4bb2 9ac3 c732 42e7 24b1 40f5 ca31
00000100: d556 6baf 4498 0b2f f414 4632 4778 1332
00000110: c818 7caf fe82 adaf 4f0f 22b2 a74a 82b1
00000120: b9c2 3d32 9d16 1ab1 bfa6 91ae d116 71b0
00000130: d279 ddb2 d8ec 1632 c20d 892f b632 0f2f
00000140: d939 2ab6 7b85 abb5 fd16 76b5 075f f233
00000150: d7eb 9633 895a 5233 1910 2533 5b8b 35b7
00000160: 9602 7633 757b 1034 eecb 69b4 82b2 f134
00000170: 002e 76b7 41e6 39b6 9ca8 d132 d587 1fb7
00000180: 35cd 4cb6 b9cc 02b4 ecf6 5d33 f52d ba33
00000190: 30df 06b4 7c48 deb5 116b e0b2 3195 19b4
000001a0: e5e4 4833 a4a9 a632 7bdd 35b5 d8d7 bcb6
000001b0: b7b3 2433 e63e ae33 8993 2835 eec5 0635
000001c0: 5bb5 f9b6 fa40 bdb5 15e4 8332 1bd0 83b6
000001d0: a7d2 5035 de60 4233 7b2b 0b32 231d dd32
000001e0: d4f0 33b2 1a98 1c32 e896 ffb0 ad2f 8f31
000001f0: e0d6 122f abdb 852f af3d b731 e782 03b3
00000200: d71c 822e 36e7 962f 97fb 7ab1 d055 482f
00000210: 7edd 2db3 2f46 51b2 d80f 4d2e 672b e3b2
00000220: f9b8 87b2 7779 0632 9275 912f a4c3 962f
00000230: ce73 8fb0 fd74 3eb1 d654 a7ae c70f ee2e
00000240: c18b 042f 1a8f 972e eefa 90b0 ecc4 87b2
00000250: 1611 cb2e 0c79 682f af7f a830 4fe4 a530
00000260: b95e b2b2 3211 a0b1 9930 2e2e b9e6 3fb2
00000270: 53ca 5530 5668 7830 e906 372e 53c9 af2e
00000280: ac78 a4b1 4222 f5b0 9fb1 25b0 753f cc30
00000290: e2d9 852f fcc9 4f2f 1e65 63af b8d3 19b3
000002a0: 1621 3e2f 11af f12f 8c83 a730 76ae 1631
000002b0: afbd 49b3 83d8 46b2 3e00 b22e 2b6e e4b2
000002c0: 496d 50b1 bd46 8931 3492 212f d764 6a2f
000002d0: 508a 3cb2 4ab1 a532 34f9 bdb1 9906 0431
000002e0: 7616 1db0 1f9d 87ae 5bb0 8532 5f9e 7733
000002f0: 5aa1 feaf a83a 89b0 2013 f3b2 79af 4eb2
00000300: 89d3 8933 ff22 9a32 0c16 53af 5d04 e832
00000310: ff4d 48b3 d203 6731 d83f 8b2f 5d69 8c2e

exp_avg_sq f4 [10, 20]
4.737726e-12 6.409858e-11 2.0697489e-11 9.991656e-12 1.6560937e-14 4.0078406e-15 1.2430247e-11 3.5725745e-10
1.8831554e-15 6.501285e-15 1.5284782e-11 5.2524676e-11 4.3213488e-10 1.9048789e-11 9.895599e-16 2.0916112e-10
1.0645992e-13 6.111428e-12 3.760331e-14 3.733261e-15 4.024281e-13 3.7705325e-12 2.0960981e-13 2.5181346e-13
1.50533e-15 3.8576392e-16 1.6396742e-13 2.5200073e-11 2.8528162e-16 1.8352513e-15 4.7542086e-13 6.472995e-13
4.374746e-11 1.0106061e-12 1.806673e-16 1.7067786e-11 9.782749e-13 4.7816538e-14 7.804885e-15 6.740408e-16
2.4721832e-13 3.2523728e-10 1.6994812e-11 5.476578e-12 4.257368e-14 5.3882104e-15 1.9475359e-11 9.2803515e-10
1.6103535e-14 1.3547041e-14 8.733494e-12 2.3670219e-10 1.1690552e-09 2.0441742e-11 1.0936091e-15 8.705932e-10
7.155842e-14 2.4499623e-12 4.7025504e-12 6.769596e-15 1.6915327e-12 2.3475188e-09 1.2851098e-10 4.4463544e-11
3.1307075e-13 3.867595e-14 1.5384043e-10 6.7580497e-09 1.1732465e-13 1.02405104e-13 6.327204e-11 1.6632489e-09
8.489195e-09 1.4933701e-10 8.6490534e-15 6.227184e-09 3.228542e-13 2.3715663e-11 3.4098925e-11 4.8653867e-14
1.7779055e-09 1.5053937e-08 9.412779e-10 1.5025814e-09 6.497156e-12 1.6882805e-12 6.9294215e-10 1.0669736e-07
1.0742866e-12 7.345686e-12 2.442118e-09 1.3038088e-09 1.8565669e-07 4.1651185e-09 1.0686364e-12 7.042391e-08
4.7044844e-09 2.3063536e-10 2.6506824e-12 3.1002794e-12 7.4203566e-10 7.677957e-09 5.417713e-10 6.492007e-10
2.8903507e-12 7.13658e-13 4.0980552e-10 4.8704397e-08 5.310016e-13 3.0370342e-12 1.0243284e-09 1.7120504e-09
8.172373e-08 1.8322134e-09 3.4887918e-13 3.2921996e-08 1.7795779e-09 1.1973866e-10 2.0026841e-11 1.1377985e-12
4.65284e-14 5.5519754e-13 9.6103504e-14 9.63919e-14 1.8285142e-16 5.0720012e-17 7.262145e-14 3.1544459e-12
2.4197093e-17 1.5800129e-16 1.6747727e-13 2.3148549e-13 4.9926153e-12 1.0865859e-13 2.0790942e-17 2.1776003e-12
7.965264e-14 9.594115e-15 1.6756438e-15 8.322377e-17 1.4834686e-11 2.2070132e-10 6.204017e-11 3.3847546e-11
5.4108583e-14 1.19189386e-14 4.1928242e-11 1.1358705e-09 7.206116e-15 2.108941e-14 4.5057208e-11 1.6702355e-10
1.3734571e-09 4.6806295e-11 2.3922203e-15 7.0422895e-10 1.8753318e-14 1.8054995e-11 5.5334735e-13 1.146202e-14
3.4923326e-13 2.5374225e-10 1.4623977e-11 5.3045723e-12 3.476604e-14 4.4989524e-15 1.7447993e-11 7.47713e-10
1.25743125e-14 1.1503593e-14 7.48778e-12 1.7971863e-10 9.383924e-10 1.7886052e-11 1.022366e-15 6.77389e-10
6.25757e-14 2.8645324e-12 3.643496e-12 5.4388257e-15 2.0935933e-13 2.1950029e-12 1.4081424e-13 1.6440484e-13
8.1884205e-16 2.0144108e-16 1.0944938e-13 1.3780012e-11 1.5231779e-16 8.7962963e-16 2.7617736e-13 4.860177e-13
2.3259767e-11 5.229273e-13 9.9700126e-17 9.381255e-12 5.0211934e-13 3.1117758e-14 6.1626814e-15 3.1653102e-16
00000000: a4b1 a62c 4bf4 8c2e 9a0e b62d 6bc6 2f2d
00000010: ec2a 9528 ce65 9027 dbac 5a2d 8467 c42f
00000020: 16b2 0727 c53b ea27 4572 862d 8701 672e
00000030: 9491 ed2f 0f8e a72d 519c 8e26 9ff9 652f
00000040: f7b9 ef29 da06 d72c aa59 2929 4181 8627
00000050: 008c e22a f0a9 842c eaff 6b2a 25c2 8d2a
00000060: e0f0 d826 b560 de25 649c 382a 85a9 dd2d
00000070: 2374 a425 693e 0427 afd1 052b d832 362b
00000080: 4367 402e ec3a 8e2b 934b 5025 3d21 962d
00000090: 11ae 892b b758 5729 ae99 0c28 6f47 4226
000000a0: ea2b 8b2a 14cd b22f ea7c 952d a1b0 c02c
000000b0: 1cbc 3f29 7821 c227 9c4e ab2d ab18 7f30
000000c0: 390c 9128 b30a 7428 29a4 192d df20 822f
000000d0: 79ac a030 b6ce b32d 0e9b 9d26 8d4e 6f30
000000e0: 9f22 a129 9966 2c2c cf74 a52c 81e6 f327
000000f0: e30f ee2b fd51 2131 a04c 0d2f 808d 432e
00000100: 403e b02a 562e 2e29 3b26 292f 6f34 e831
00000110: 8718 042a 8698 e629 fe22 8b2e 5e98 e430
00000120: e0d7 1132 a232 242f b8ce 1b28 e4f6 d531
00000130: 32c0 b52a ed9a d02d faf7 152e 171e 5b29
00000140: 7d5a f430 f54f 8132 465e 8130 6283 ce30
00000150: 2e99 e42c b79a ed2b 7879 3e30 7e21 e533
00000160: 4131 972b 073a 012d 32d2 2731 b231 b330
00000170: ec58 4734 c51c 8f31 af65 962b f43b 9733
00000180: 15a5 a131 1596 7d2f 7386 3a2c ab29 5a2c
00000190: 1ef8 4b30 03e8 0332 c4eb 1430 7073 3230
000001a0: ee63 4b2c 7ae0 482b 004b e12f 0d2f 5133
000001b0: b376 152b 58b6 552c 5ac8 8c30 6b4d eb30
000001c0: 1880 af33 47d1 fb30 ca66 c42a 1e66 0d33
000001d0: 5595 f430 70a7 032f 7028 b02d 8321 a02b
000001e0: 988b 5129 3346 1c2b e667 d829 260e d929
000001f0: 37d0 5225 9fe7 6924 6a87 a329 72f9 5d2c
00000200: c52d df23 c029 3625 0990 3c2a 9350 822a
00000210: 7ba9 af2c 6aad f429 39c3 bf23 293c 192c
00000220: 9f5c b329 0cd5 2c28 587c f126 a5e6 bf24
00000230: be7c 822d e6a9 722f 836d 882e f3dc 142e
00000240: f3ae 7329 67b6 5628 0167 382e e41c 9c30
00000250: 58d0 0128 def4 bd28 e829 462e f3a4 372f
00000260: 3ac4 bc30 34db 4d2e ad60 2c27 b593 4130
00000270: 35ea a828 3cd0 9e2d e1c0 1b2b 3d7b 4e28
00000280: d199 c42a 0c7f 8b2f 45a2 802d 57a3 ba2c
00000290: 8492 1c29 8317 a227 6379 992d a087 4d30
000002a0: c884 6228 f63a 4f28 f7b9 032d 4c9a 452f
000002b0: bff8 8030 cf53 9d2d a656 9326 0333 3a30
000002c0: 6fe8 8c29 d492 492c b231 802c 50f4 c327
000002d0: b8b7 6b2a a875 1a2c f18a 1e2a 781a 392a
000002e0: e103 6c26 ea3e 6825 4675 f629 a86b 722d
000002f0: 479c 2f25 3689 7d26 5a79 9b2a 44cd 082b
00000300: 5798 cc2d e230 132b 91e4 e524 6b09 252d
00000310: 8355 0d2b 5524 0c29 b408 de27 bc77 b625

exp_avg f4 [10]
-6.46106e-08 1.6046887e-07 -3.0475412e-08 1.9540925e-08 -1.2362509e-05 -6.9583916e-06 -3.001447e-08 -1.8739895e-08
-4.060839e-08 7.5714865e-08
00000000: 0ec0 8ab3 594d 2c34 12e4 02b3 f3da a732
00000010: 9268 4fb7 217c e9b6 42e9 00b3 77f9 a0b2
00000020: 6669 2eb3 b098 a233

exp_avg_sq f4 [10]
1.5750302e-10 2.5586543e-11 5.439933e-10 3.943574e-09 1.074336e-07 4.6391893e-08 2.5122584e-12 5.2099114e-10
4.3440232e-10 1.3305373e-11
00000000: 292d 2d2f c60f e12d 2088 1530 0b80 8731
00000010: 3fb6 e633 6d40 4733 d3c8 302c 7e35 0f30
00000020: b1d0 ee2f 1312 6a2d

exp_avg f4 [2, 10]
-1.30524045e-08 -9.968971e-08 1.2921376e-08 -1.2545809e-08 5.3416356e-06 5.6917206e-06 -1.4909368e-08 -3.5809193e-09
-1.24405775e-08 -3.6773564e-08 -6.509504e-08 -1.214281e-07 -1.5056384e-07 -1.2682383e-07 1.7079548e-05 1.8204833e-05
1.6420126e-08 -4.9774044e-08 -2.203189e-08 -1.2818757e-07
00000000: 153d 60b2 ff14 d6b3 d0fc 5d32 0d89 57b2
00000010: 4d3c b336 82fb be36 0c12 80b2 3314 76b1
00000020: 3dba 55b2 f6f0 1db3 60ca 8bb3 e761 02b4
00000030: acaa 21b4 122d 08b4 0d46 8f37 95b6 9837
00000040: 3d0c 8d32 24c7 55b3 a340 bdb2 eea3 09b4

exp_avg_sq f4 [2, 10]
4.4086092e-11 1.9844324e-11 2.3075726e-10 8.295162e-10 7.556453e-08 1.0471397e-07 3.001185e-12 9.41976e-10
1.0754058e-09 1.6116655e-11 7.9155085e-11 4.87704e-11 2.7392993e-10 9.2114405e-10 1.9622708e-07 2.5910714e-07
6.196534e-12 5.3945276e-10 1.1788819e-09 3.9442043e-11
00000000: 87e4 412e 728d ae2d 65b8 7d2f 0304 6430
00000010: 0a46 a233 1ddf e033 8b30 532c d676 8130
00000020: 7acd 9330 7bc3 8d2d 5a10 ae2e 977e 562e
00000030: 3698 962f c033 7d30 7db2 5234 6a1b 8b34
00000040: 6b05 da2c 9d48 1430 3806 a230 cb77 2d2e

exp_avg f4 [2]
1.2543899e-05 5.8123704e-05
00000000: a373 5237 dac9 7338

exp_avg_sq f4 [2]
9.613694e-07 2.4774308e-06
00000000: 6708 8135 f041 2636
