lightning_logs/version_12/checkpoints/epoch=0-step=1601.ckpt (torch, 13579 bytes, 18 tensors)

layers.0.weight f4 [20, 4]
000000 8b 52 2a 3e c7 50 e2 3d c2 ed b7 be ff 03 cb 3e
       0.1663305 0.11050563 -0.35923582 0.39651486
000010 31 ef 31 be a4 07 b7 bd b5 04 d0 3e 80 15 f5 be
       -0.173764 -0.08937004 0.4062859 -0.47867966
000020 02 1c 16 bf 20 4a 9a be e4 ba b8 3e be 20 a9 3e
       -0.58636487 -0.30134678 0.36080086 0.33032793
000030 b1 78 63 3d 30 d4 d2 3b be 2a 5b 3e 0a 05 af be
       0.055535022 0.006433986 0.21403024 -0.34183532
000040 55 de 7e 3e 7a 19 ac 3e ae f9 5e be 41 29 7f 3d
       0.248895 0.33613187 -0.21774933 0.062295202
000050 fb d3 f7 be 30 52 82 be af eb 59 3c 53 3f f2 be
       -0.48403916 -0.2545333 0.01330082 -0.47313938
000060 5d e3 a8 3e ae 5c 43 bf 84 fa f1 be 2e 75 ac be
       0.32985964 -0.7631329 -0.4726144 -0.3368315
000070 04 0a de be ea 66 96 be 95 6a 8d bd 1e ef 68 be
       -0.43367016 -0.29375392 -0.069050945 -0.22747466
000080 15 75 05 be d2 56 79 be 2f d6 a8 3e 1b 07 12 bf
       -0.13032945 -0.24349526 0.3297591 -0.5704209
000090 03 d1 af be e3 c1 0c 3f 0b 5d 32 bc 7d 01 5a 3e
       -0.3433915 0.5498335 -0.010886441 0.2128963
0000a0 03 5a a1 3e 5f c6 25 be 8d 14 9f 3d 0c 2a 94 be
       0.31513986 -0.16188954 0.077675916 -0.2893833
0000b0 f6 68 80 3e b6 b0 89 bd c8 ec aa bd 6e 8f 5d 3c
       0.2508008 -0.06723158 -0.08345944 0.013522966
0000c0 a2 28 03 3f df 1a 7b be 87 f9 99 3e cc 44 1b be
       0.51233876 -0.2452197 0.30073187 -0.15162963
0000d0 4f ce e9 3e b1 24 1a bf 43 54 47 be cd 1c 89 bd
       0.45665213 -0.60212237 -0.19465737 -0.066949464
0000e0 6b 95 9d 3e 70 d3 dd be 71 ef 76 be a2 35 fc bd
       0.3077806 -0.43325377 -0.24114777 -0.12314917
0000f0 d8 df 0b be 8c c1 21 3e ef f5 1a be f5 2a a5 be
       -0.13659608 0.15796489 -0.15132879 -0.32259336
000100 fe fd b6 3d 0b f6 49 3d cb 27 57 be cd 88 15 3d
       0.08935164 0.04930691 -0.21011274 0.036507417
000110 3a cf 27 be 1f 05 ab 3d 1c f2 bb bd 37 b6 f9 3e
       -0.16387644 0.08350586 -0.09177038 0.4877183
000120 16 75 e5 3e ed 62 2f 3f 91 4e ba 3b 01 04 78 be
       0.44815892 0.68510324 0.0056856354 -0.24220277
000130 6d c4 a6 be 38 e3 3c 3f 09 8f d4 3e 56 ac a7 bd
       -0.32571736 0.7378421 0.41515377 -0.08187167

layers.0.bias f4 [20]
000000 ee a8 cf 3c 06 13 0d be 2c 11 45 3e cf 2c f9 be
       0.025349107 -0.13776788 0.19244832 -0.48667
000010 7a 58 29 bb cc d6 f1 3b 3a 2f ac be 47 16 dd 3d
       -0.002584009 0.007380342 -0.3362978 0.10795265
000020 5e 84 25 be 99 a0 a4 3c 9b 18 cd 3e 84 e4 c0 be
       -0.16163775 0.02009611 0.40057835 -0.37674344
000030 9b 63 be bd 8f a3 02 bf 83 10 59 3e 9f 51 d5 3d
       -0.09296342 -0.5103082 0.21197705 0.104159586
000040 ad 0d 56 3d f4 64 aa 3d 98 e7 8b 3e d9 60 bd bd
       0.052259136 0.083200365 0.2732513 -0.09246988

layers.2.weight f4 [10, 20]
000000 d6 12 d3 bc 30 fe 6c bc 76 86 fc 3d 94 b6 56 3d
       -0.025765818 -0.0144649 0.12330334 0.052420214
000010 3b 3e be 3d fa b1 9d 3d c6 b6 ba 3d 4a 0e f2 bd
       0.09289213 0.07699962 0.091168925 -0.11819132
000020 77 62 04 3e 0e 00 f8 3d ba b3 91 be dd e9 7e bd
       0.12928186 0.121093854 -0.28457433 -0.06223475
000030 ac c5 07 bb b7 41 42 3e b1 09 e8 3d 5b a1 c9 bc
       -0.0020717187 0.1897038 0.113299735 -0.024613073
000040 7d b2 f2 bd d0 95 57 be 3d ca 3b be 02 57 6f be
       -0.1185045 -0.21053243 -0.18338867 -0.23373035
000050 44 1f cf bb 54 b4 0c 3e 0c 21 37 3e 73 52 02 bd
       -0.006320866 0.13740665 0.178837 -0.03181691
000060 c1 63 19 bd aa e9 42 3d e5 b5 8f be 5c 93 09 be
       -0.03744865 0.04758612 -0.28068462 -0.1343512
000070 b8 3e 54 3d 59 89 16 3e c2 58 17 be c8 99 bd bd
       0.051817626 0.14700831 -0.14779952 -0.09257847
000080 47 ea 94 bc 61 bf 51 be 49 74 81 be 05 bc b6 bd
       -0.018178118 -0.20483162 -0.2528403 -0.08922581
000090 1f c4 20 be 39 27 d7 3d 11 7b 70 3e de 9c ef 3d
       -0.15699814 0.10505528 0.23484446 0.11699842
0000a0 c3 25 be 3d 1a c9 a1 bd cb 95 39 be 19 a8 39 3d
       0.09284546 -0.07899685 -0.18123548 0.045326326
0000b0 57 ab e3 bd 90 11 98 3c 4e 49 1d be b7 8a 11 3e
       -0.11116665 0.018563062 -0.15359995 0.14213072
0000c0 c2 0a 2b be 8e 1f 8c bd ea 04 c2 bb 05 2b 10 bd
       -0.16703323 -0.06841956 -0.005920996 -0.035197277
0000d0 07 6b d3 bb 13 81 c0 bd 1b f8 6d 3e 0f e3 1e 3e
       -0.0064519676 -0.09399619 0.23239176 0.15516303
0000e0 94 e3 05 be ec ce 09 be 51 89 b5 bc 96 fe 66 be
       -0.13075095 -0.1345784 -0.022160204 -0.22558054
0000f0 b8 ad 38 be 93 4f 27 be 23 71 2b 3d d8 d3 6c bd
       -0.18035018 -0.16338949 0.041855942 -0.057819217
000100 7e 5c 75 ba f8 1a 97 3c 91 12 0c bd fc 1e fa 3d
       -0.0009359791 0.018445477 -0.034197394 0.12212941
000110 e1 79 54 be 45 8e b8 3d bf ae 78 be 31 cf 1d 3e
       -0.20749618 0.09011511 -0.2428541 0.15411068
000120 01 0d ed bd 2d 62 e1 3d a5 b6 7d 3b 01 61 92 3e
       -0.11574746 0.11005054 0.00387136 0.28589633
000130 07 14 8f 3e 4c 54 25 3d f3 1d 17 3e d4 a4 77 be
       0.27944967 0.040363595 0.14757518 -0.2418397
000140 09 f6 16 be bd 41 e2 bd f2 54 fe bc 84 65 19 be
       -0.14742292 -0.11047695 -0.031046364 -0.14980131
000150 e7 e6 c9 bb 5d 07 8c be 20 61 4a 3e a3 19 3f 3e
       -0.006161559 -0.27349368 0.19763613 0.18662123
000160 83 4b 99 be f4 7c a2 be 30 45 e0 3d 4e fd d1 3b
       -0.29940423 -0.31735957 0.109506965 0.00640837
000170 3d a5 54 be 6a 0a 09 3e f0 09 4b 3e 0c 04 80 bc
       -0.20766158 0.13382879 0.1982801 -0.01562693
000180 43 60 18 bd a1 63 19 be ea 8d e8 bc c3 8f a7 bc
       -0.037201177 -0.14979412 -0.028387982 -0.020454293
000190 1a ad 68 be 9a de 17 bd ae af 0c be 55 72 65 3e
       -0.22722283 -0.037077524 -0.13738891 0.22406895
0001a0 39 5e 95 be fe 72 c5 3d 14 79 5c 3e 74 ea 10 bd
       -0.2917345 0.09641074 0.21530563 -0.035379842
0001b0 12 2a 94 be 57 fb a3 be 9a 9c e4 3d 6a 1d 56 3e
       -0.28938347 -0.32027695 0.11162682 0.20909658
0001c0 0b d1 47 be 80 21 48 3e 6a f2 a6 3e d3 e6 16 3e
       -0.19513337 0.19544029 0.32606822 0.1473649
0001d0 aa 8d 02 3e 05 61 2f 3e a9 9d 5c 3e 5d 1d 93 be
       0.12749353 0.17126854 0.21544518 -0.2873334
0001e0 04 62 92 3d 95 5a c9 3d 2c 34 44 3d 04 bd e1 3d
       0.07147601 0.0983173 0.047901317 0.1102238
0001f0 b1 12 55 3e 24 39 22 3e 82 f3 2a be 1a ae 7c 3d
       0.20807911 0.1584211 -0.16694453 0.061689474
000200 b0 d9 91 bc e6 e6 97 3d 08 69 20 3c ad 61 60 3d
       -0.017803997 0.07417087 0.009790666 0.05478065
000210 eb 29 0b be 39 d5 6d be 71 52 2c 3a 1a 5b b2 3c
       -0.13590209 -0.23225869 0.0006573564 0.021771956
000220 13 af d9 bd a3 25 bc 3c 8b 1d 42 3d 23 96 a9 3e
       -0.10629096 0.022967165 0.047391456 0.33122358
000230 7a 6c a0 3d 75 40 66 bd ae 8b 0c be 5d e8 4a be
       0.0783319 -0.056213815 -0.13725159 -0.19815202
000240 78 30 01 be d8 fa 88 3b 75 85 a6 3d d9 79 84 be
       -0.12616146 0.0041802935 0.08130924 -0.25874212
000250 e0 40 2a bc fb a8 65 3e 64 7b f9 3d d4 39 24 3c
       -0.010391444 0.22427742 0.12181738 0.010023553
000260 61 d1 85 3e 7b 94 22 3e f6 87 d6 bd 74 95 23 3e
       0.26136306 0.15876953 -0.10475151 0.1597498
000270 20 a9 66 bd 3e 17 de 3d 73 c6 12 3e d5 1f f2 bc
       -0.056313634 0.10844277 0.14333515 -0.029556194
000280 4f ab 30 be 74 a0 94 3d 5e be c6 bc d2 cf 09 be
       -0.17252849 0.072571665 -0.024260696 -0.13458183
000290 53 68 59 be d4 5b 1c be ad 26 0e be cc 9e 9f bb
       -0.21231203 -0.15269405 -0.13881941 -0.004871225
0002a0 0e 34 8c be 07 ee bd bd 9f a3 55 3e e4 30 19 be
       -0.27383465 -0.09273916 0.20863198 -0.14960057
0002b0 24 aa dd bd 7f 76 22 be 67 e2 a9 3e a9 88 10 3e
       -0.108234674 -0.15865515 0.33180544 0.14114632
0002c0 1d 58 56 3e 59 04 2d bd 94 15 04 3d ac e2 9f be
       0.2093205 -0.042240474 0.03224714 -0.31227624
0002d0 e3 9a 8f be 05 04 cd 3d 44 2d 35 3d 02 df 26 3d
       -0.28047857 0.10010532 0.04423262 0.04074002
0002e0 67 b4 86 bc 67 1f 94 3d 56 3f 26 be 78 28 28 be
       -0.016443444 0.07232552 -0.16235098 -0.16421688
0002f0 f8 8d 44 3e e9 bc c8 bc d3 c6 9a bd 70 73 44 3e
       0.19194782 -0.024504142 -0.07557454 0.19184661
000300 bc 97 2f be 85 79 d1 3d 3e db 7b be 83 73 49 3e
       -0.17147726 0.10228256 -0.24595353 0.1967297
000310 84 e0 3b 3e 91 dd 43 bd 54 0e 0e be d9 23 02 be
       0.18347365 -0.047818724 -0.13872653 -0.12708987

layers.2.bias f4 [10]
000000 19 a0 84 be 89 8f 6f 3e bd 3e f6 3d 3b 73 63 be
       -0.25903395 0.23394598 0.12023685 -0.22211926
000010 ca f1 64 3d f6 ae 0c be 5d b3 37 3e 53 e8 02 3e
       0.05589465 -0.13738617 0.17939515 0.12783937
000020 ad 01 89 bd 53 0a ae 3d
       -0.06689773 0.08498063

layers.4.weight f4 [2, 10]
000000 d9 69 76 3c 3d dd 4b 3e b3 bf 50 3e 93 05 e4 3b
       0.0150398845 0.19908614 0.20385627 0.0069586723
000010 cc aa 3a b9 58 55 95 3e df 06 6f be 03 db e6 3d
       -0.00017801969 0.29166675 -0.23342465 0.11272242
000020 66 8e 6e 3e 80 36 bf 3d 2a d1 19 be a2 3f 86 3e
       0.23296508 0.09336567 -0.15021196 0.26220423
000030 94 31 80 be d2 e4 a3 3d 24 c4 d2 be cf 7f 01 be
       -0.25037825 0.080026284 -0.41165268 -0.12646411
000040 5c 76 9a 3e a7 d7 b2 3d 7b 13 25 be c4 28 f3 3d
       0.30168426 0.08732539 -0.16120712 0.1187301

layers.4.bias f4 [2]
000000 04 da ed bc 7b d5 84 be
       -0.029034622 -0.25944123

exp_avg f4 [20, 4]
000000 c4 d2 22 b2 3e fa 2e b2 95 2a 37 32 89 e7 c2 32
       -9.477564e-09 -1.01850315e-08 1.0661684e-08 2.2689862e-08
000010 f0 04 ea b5 28 6a 13 b6 39 e6 b6 b6 4d 81 c1 34
       -1.7435796e-06 -2.1966498e-06 -5.450824e-06 3.604313e-07
000020 3b f6 e7 b5 83 37 f9 b5 bf 9f 28 b6 5d ff 0e 36
       -1.7282504e-06 -1.8568102e-06 -2.5126935e-06 2.130829e-06
000030 3f ba 4b b1 59 00 60 b1 53 9f c9 33 4c 14 4e 33
       -2.9646257e-09 -3.2596488e-09 9.388773e-08 4.7981572e-08
000040 ba 5f 81 b2 db df 8b b2 77 1d fd 33 e8 72 af 33
       -1.5061108e-08 -1.6283527e-08 1.178659e-07 8.169974e-08
000050 94 f8 b8 b2 ec df c6 b2 e9 33 05 33 f6 56 6a 33
       -2.153346e-08 -2.3152062e-08 3.1013688e-08 5.456146e-08
000060 b3 67 2e 33 b6 39 3b 33 7d fb 39 33 e6 5b 75 b3
       4.0606846e-08 4.3591818e-08 4.3302396e-08 -5.712709e-08
000070 a9 05 62 32 f7 85 70 32 f8 d6 0e 34 c4 c8 14 33
       1.3156218e-08 1.4000299e-08 1.3302986e-07 3.464153e-08
000080 1a 2d d8 b3 7f 93 d4 33 0e b1 33 b6 e6 b7 5d b5
       -1.0066488e-07 9.898849e-08 -2.6776138e-06 -8.2596523e-07
000090 b8 14 3e b6 2f 93 4b b6 26 a8 10 b7 5f d1 c3 35
       -2.8324266e-06 -3.033503e-06 -8.622219e-06 1.4589567e-06
0000a0 f5 13 79 35 3a 68 84 35 4f 53 98 36 b6 87 ae 34
       9.278877e-07 9.8651e-07 4.5396514e-06 3.2508768e-07
0000b0 8a 97 0a 31 8f df 13 31 3e 7c 5d 33 34 c2 a6 32
       2.0167783e-09 2.1518394e-09 5.156857e-08 1.9413257e-08
0000c0 88 5d 59 35 60 25 6b 35 ce 6a 1a b7 37 11 be b6
       8.0974905e-07 8.759871e-07 -9.203983e-06 -5.6644453e-06
0000d0 22 e7 23 33 15 49 30 33 91 80 04 b3 f6 ca b8 b3
       3.816161e-08 4.104466e-08 -3.0850575e-08 -8.605086e-08
0000e0 17 e1 e5 32 00 cd f5 32 b5 6c 0b 34 9e c8 0c 32
       2.6761468e-08 2.8614977e-08 1.2984931e-07 8.194688e-09
0000f0 e5 47 94 30 d9 35 9f 30 df 67 e4 31 99 32 81 30
       1.0788851e-09 1.1584077e-09 6.647482e-09 9.400366e-10
000100 a6 e6 e4 32 27 c1 f5 32 5a ca 27 33 bf 79 0c b3
       2.664758e-08 2.860959e-08 3.9066755e-08 -3.2707018e-08
000110 3a c7 cf b5 72 e9 de b5 16 79 be b6 34 75 d5 34
       -1.5480684e-06 -1.660823e-06 -5.6765375e-06 3.9759618e-07
000120 00 fd 47 b6 3f 09 56 b6 64 73 41 b7 db 94 ed 34
       -2.9800576e-06 -3.1893867e-06 -1.1530563e-05 4.4252997e-07
000130 1f 12 96 b6 b4 76 a1 b6 2e e7 00 37 e4 41 48 37
       -4.472458e-06 -4.8119928e-06 7.68322e-06 1.193627e-05

exp_avg_sq f4 [20, 4]
000000 ae 49 1a 2f 98 46 26 2f 8f 79 12 33 de 62 2b 32
       1.4032395e-10 1.5122692e-10 3.410383e-08 9.97599e-09
000010 82 0a 53 30 16 c8 4b 30 7f f3 1c 34 4c c6 c2 32
       7.6776285e-10 7.413531e-10 1.4617216e-07 2.2674747e-08
000020 83 1d 0f 31 39 25 17 31 ff 98 ea 34 9e 38 9b 33
       2.0826014e-09 2.199455e-09 4.3697216e-07 7.2280486e-08
000030 62 50 d8 2f 29 8c a1 2f 09 02 b1 33 b0 51 ff 31
       3.9347287e-10 2.938532e-10 8.242575e-08 7.4307636e-09
000040 28 7f b2 2f 69 08 aa 2f 4b 97 72 33 b6 f3 35 32
       3.246836e-10 3.0928796e-10 5.6482616e-08 1.0591e-08
000050 08 9f c9 2f 19 59 a0 2f 39 2d cb 33 00 34 2a 32
       3.6674686e-10 2.9167138e-10 9.46115e-08 9.907126e-09
000060 8e 55 cf 2a 1a 50 d0 2a 0b 97 95 2e ff 9d 30 2d
       3.6829952e-13 3.7003804e-13 6.802566e-11 1.0039524e-11
000070 df 00 be 2b a9 81 f0 2b 83 d6 5d 30 8d 04 98 2e
       1.3500554e-12 1.7089014e-12 8.070417e-10 6.912968e-11
000080 53 98 19 32 41 33 22 32 d9 b7 f5 35 e1 21 90 34
       8.940407e-09 9.441295e-09 1.8307429e-06 2.684674e-07
000090 d4 5a 26 31 c9 74 2e 31 6a cb 02 35 b5 9d b1 33
       2.420781e-09 2.5386717e-09 4.872478e-07 8.2708915e-08
0000a0 91 53 91 31 7a 50 8e 31 8a bb 7a 35 11 4c 26 34
       4.229556e-09 4.141893e-09 9.340516e-07 1.5487628e-07
0000b0 55 04 ee 2a 45 47 f8 2a 3e a0 c3 2e da da 6f 2d
       4.22803e-13 4.4103103e-13 8.896038e-11 1.3634172e-11
0000c0 6b 9d bd 31 a3 6e c5 31 05 33 98 35 90 22 36 34
       5.5185203e-09 5.7460325e-09 1.1339731e-06 1.6962645e-07
0000d0 97 68 43 2b f0 d8 43 2b 8e 34 15 2f fc 49 b9 2d
       6.9423064e-13 6.957898e-13 1.3570142e-10 2.106492e-11
0000e0 4b 64 b2 2e fa 05 29 2e 7e b8 81 32 b1 c8 b8 30
       8.1123185e-11 3.843146e-11 1.5101474e-08 1.3444802e-09
0000f0 ac f8 ff 2d 98 4c cd 2d be bd df 31 5f 76 39 30
       2.9100576e-11 2.3339816e-11 6.5117254e-09 6.7470823e-10
000100 19 9e c0 2b 55 d4 d3 2b 28 59 9b 2e 0d 70 6d 2d
       1.3686301e-12 1.5051386e-12 7.064421e-11 1.34967705e-11
000110 7b 58 f8 30 4d a2 f7 30 cf 90 d1 34 b6 bb 77 33
       1.8069523e-09 1.8017744e-09 3.9034646e-07 5.767989e-08
000120 81 01 5b 31 76 df 59 31 71 d4 1b 35 05 0e aa 33
       3.186955e-09 3.1704679e-09 5.805114e-07 7.918792e-08
000130 62 8a 35 32 ce 81 32 32 e7 d2 0d 36 7d 0a b6 34
       1.0567051e-08 1.0390478e-08 2.1133399e-06 3.3907773e-07

exp_avg f4 [20]
000000 e4 58 9b 32 5c f7 78 b5 6a 59 01 35 d7 1b 87 33
       1.8084798e-08 -9.2747155e-07 4.818636e-07 6.2914914e-08
000010 7b da c6 33 ea e3 42 33 6f 6d b6 b2 4a bf 92 33
       9.259835e-08 4.537643e-08 -2.1237353e-08 6.83345e-08
000020 f7 47 eb b5 d8 89 0a b6 d9 4e ef 35 8d 6d 01 33
       -1.7529809e-06 -2.0643838e-06 1.7829835e-06 3.013479e-08
000030 c4 99 e3 b6 9c 27 8c b3 5c 6f 57 33 6e f3 48 31
       -6.783028e-06 -6.526463e-08 5.015987e-08 2.9242204e-09
000040 0a 79 f8 b1 d3 78 e8 b5 8e e6 78 b6 d1 7e 2b 37
       -7.2315105e-09 -1.7320511e-06 -3.708908e-06 1.0221921e-05

exp_avg_sq f4 [20]
000000 c7 ab 45 32 9c 51 57 33 20 6e 1d 34 b9 15 f6 32
       1.1505967e-08 5.013281e-08 1.4661828e-07 2.8648047e-08
000010 39 32 a1 32 af 40 0e 33 9a 4f ca 2d 51 86 9f 2f
       1.8765705e-08 3.312078e-08 2.3000091e-11 2.901737e-10
000020 43 fa 23 35 03 3c 30 34 02 d5 a9 34 4d fa 02 2e
       6.108641e-07 1.641311e-07 3.1633687e-07 2.978089e-11
000030 d1 b6 cb 34 ed 2c 49 2e 52 f1 b9 31 8a 4d 1b 31
       3.7944713e-07 4.574201e-11 5.4116436e-09 2.2599544e-09
000040 ff a4 b6 2d bf fc 0d 34 df f5 51 34 87 b7 3f 35
       2.0764277e-11 1.3223597e-07 1.9554089e-07 7.142011e-07

exp_avg f4 [10, 20]
000000 c7 4e a1 af b6 14 2b 33 7a e8 ab b3 7c fb 29 30
       -2.9341704e-10 3.9832877e-08 -8.005095e-08 6.183922e-10
000010 d1 93 6e 2f d0 55 b0 2d eb 9d 13 2f 35 a6 8c af
       2.1698489e-10 2.0046992e-11 1.3425676e-10 -2.558395e-10
000020 f5 33 d0 32 c6 91 29 b2 e2 85 88 32 eb ed 87 2f
       2.4238014e-08 -9.87024e-09 1.5893367e-08 2.4725408e-10
000030 e5 47 24 33 c4 88 4e 2f 00 ff 0c af 2e 0e 70 2f
       3.8249613e-08 1.878418e-10 -1.282352e-10 2.183291e-10
000040 e1 48 20 ad 57 5e 6b b3 28 27 91 33 3c 3a 39 33
       -9.111129e-12 -5.4801003e-08 6.759211e-08 4.3126633e-08
000050 f4 5c fa 33 60 90 2f b7 60 8c 41 b7 47 f7 f6 b1
       1.165844e-07 -1.0464428e-05 -1.153638e-05 -7.1876545e-09
000060 43 19 29 33 1f 29 a1 33 61 ee a7 34 bb 42 b7 33
       3.9371354e-08 7.5046266e-08 3.1279617e-07 8.53374e-08
000070 fd 39 88 b6 81 d4 10 b6 05 69 35 b7 68 89 b3 33
       -4.0598666e-06 -2.1581366e-06 -1.08128925e-05 8.360331e-08
000080 5e ad 62 b7 86 7b 49 34 8a 6b bb 33 ec e0 6c 33
       -1.3511015e-05 1.8764521e-07 8.727427e-08 5.5152597e-08
000090 ea a0 8d 33 03 a7 16 36 6d ce 70 b7 71 71 aa b7
       6.595094e-08 2.2448955e-06 -1.4353177e-05 -2.0318404e-05
0000a0 12 9a 82 2e 6f c8 1c 33 14 e5 b9 b4 18 7b 00 31
       5.939084e-11 3.6503874e-08 -3.4625612e-07 1.8696422e-09
0000b0 cc 20 8a 30 72 04 3f 30 d9 05 51 31 91 3c b0 ae
       1.0050143e-09 6.949171e-10 3.0416827e-09 -8.014312e-11
0000c0 af 86 31 33 70 8a 52 b3 a5 e3 2f b3 e1 31 ca 30
       4.1333518e-08 -4.9020343e-08 -4.0952404e-08 1.4711611e-09
0000d0 22 b0 cf 31 cb 50 14 31 ea 5e b6 2f 11 46 9d 30
       6.044517e-09 2.158276e-09 3.3173048e-10 1.1443168e-09
0000e0 e2 09 10 30 dd 8c 23 b4 cd f7 c1 33 94 8a 19 b3
       5.240094e-10 -1.5231804e-07 9.0323375e-08 -3.5749125e-08
0000f0 c6 60 65 2f 89 b7 cf b2 09 ce c3 32 21 65 8a af
       2.086181e-10 -2.4181434e-08 2.2794682e-08 -2.517391e-10
000100 49 b2 74 ae a0 63 64 2e f9 4c 55 2f f6 bd 3a 2f
       -5.5637526e-11 5.1929683e-11 1.9399583e-10 1.6984089e-10
000110 15 66 5e b2 2a 8f 17 31 81 af 7f b2 aa b4 0e ae
       -1.29453115e-08 2.2054771e-09 -1.48828585e-08 -3.2447524e-11
000120 89 c3 de b2 26 98 a1 2e 17 e1 03 2f ed 24 3e ae
       -2.593312e-08 7.348459e-11 1.1994349e-10 -4.3233795e-11
000130 fe 11 75 2e 95 79 ca 32 cd a1 24 b3 3b b1 0e b3
       5.572253e-11 2.3571184e-08 -3.8331383e-08 -3.322314e-08
000140 a1 b7 7b b0 ca 03 f7 33 3c 3e 3c b4 1e e2 d0 30
       -9.157422e-10 1.1502523e-07 -1.7531505e-07 1.5198258e-09
000150 e0 48 fd 2f b6 b8 ab ae 51 18 64 af 23 3c 53 b0
       4.6072213e-10 -7.808991e-11 -2.0745118e-10 -7.684681e-10
000160 22 b0 8d 33 44 82 af b2 a9 20 76 33 82 69 fc 2f
       6.5978625e-08 -2.043192e-08 5.7306043e-08 4.59135e-10
000170 bf dc f9 33 54 28 16 2f 7e c1 fd af 83 ee f0 2f
       1.16351195e-07 1.3656748e-10 -4.6157916e-10 4.3825218e-10
000180 95 af 14 af ee a1 13 b4 6d 31 4b 34 4c 30 16 34
       -1.3522901e-10 -1.3749352e-07 1.8923829e-07 1.3987409e-07
000190 8a 59 23 30 68 44 50 b2 e2 ba d3 b4 34 d2 f8 30
       5.9426297e-10 -1.2122747e-08 -3.9437788e-07 1.8104118e-09
0001a0 bb 0b a1 30 9d 89 8d 30 86 6a 98 31 05 11 ac 2f
       1.1717626e-09 1.0298212e-09 4.4358925e-09 3.129871e-10
0001b0 e8 8a bd 32 66 1d 7a b3 3b 75 c1 b3 72 28 fc 30
       2.2065663e-08 -5.82344e-08 -9.008587e-08 1.8346908e-09
0001c0 4f 10 71 b3 e8 79 4d 31 b3 0d 48 30 b6 de bd 30
       -5.6127018e-08 2.9900722e-09 7.2779044e-10 1.3814858e-09
0001d0 45 4d 61 30 d4 29 16 b4 8e 46 c6 32 ad 0f 0a b4
       8.196433e-10 -1.3985056e-07 2.3082318e-08 -1.2857954e-07
0001e0 b6 71 70 b1 b6 2d 9a b6 fb f8 28 38 eb d1 6b b4
       -3.4989234e-09 -4.594879e-06 4.0286202e-05 -2.1962448e-07
0001f0 56 bf fa b3 11 35 aa b3 4e 97 ba b4 1e 03 4e 32
       -1.1676336e-07 -7.9258946e-08 -3.4755288e-07 1.1991487e-08
000200 de dd a6 b6 20 ce be 36 39 86 96 36 4b b4 36 b4
       -4.9730143e-06 5.6864374e-06 4.485974e-06 -1.7015661e-07
000210 c4 92 95 b5 c7 f7 84 b4 7e d7 1b b3 e1 60 0e b4
       -1.114408e-06 -2.4767198e-07 -3.628474e-08 -1.3260025e-07
000220 1d 9e 7f b3 ae 7b 96 37 4a ff 38 b7 e5 9d 70 36
       -5.9515617e-08 1.7938986e-05 -1.1026694e-05 3.5854694e-06
000230 e6 76 5f 33 6e 7c 8c b6 71 b3 17 b7 51 59 9c 32
       5.202937e-08 -4.1868107e-06 -9.042081e-06 1.8201407e-08
000240 07 22 f8 32 41 6a 2f 33 c7 02 39 34 02 dc 1c 33
       2.8886474e-08 4.0842e-08 1.7230478e-07 3.6521676e-08
000250 7f 1a b0 b5 58 f4 c9 b5 d4 59 af b6 37 4f 66 33
       -1.3120733e-06 -1.504678e-06 -5.225864e-06 5.3623094e-08
000260 10 0d c5 b6 14 38 e6 33 7a 17 35 33 3f 53 20 33
       -5.872578e-06 1.072041e-07 4.21637e-08 3.7328615e-08
000270 cb 63 16 33 ed 7f 49 b5 2c c8 b0 b6 d5 be 1c b7
       3.5015358e-08 -7.506449e-07 -5.268512e-06 -9.342756e-06
000280 2a 0d bd 2f 2e f2 ed 31 a0 71 b7 b4 0d d0 e5 30
       3.4388253e-10 6.9251405e-09 -3.416908e-07 1.6721075e-09
000290 02 49 8a 30 48 40 60 30 ca 88 72 31 2d d1 1a 2f
       1.0061572e-09 8.1582074e-10 3.529339e-09 1.4080533e-10
0002a0 fa f1 e9 32 9a 87 55 b3 5c 57 89 b3 e1 60 d3 30
       2.7234808e-08 -4.9716256e-08 -6.39545e-08 1.5379805e-09
0002b0 83 65 f2 b2 59 34 26 31 db 40 0e 30 9a 11 a1 30
       -2.821867e-08 2.4185935e-09 5.1751464e-10 1.1719294e-09
0002c0 22 5c 2f 30 e0 d8 0d b4 70 c0 44 33 69 30 b2 b3
       6.379556e-10 -1.3210547e-07 4.5809827e-08 -8.297577e-08
0002d0 70 ed 15 30 80 11 50 b3 3e 47 7c b3 e6 21 00 ad
       5.4543303e-10 -4.844469e-08 -5.8738117e-08 -7.283485e-12
0002e0 ea 54 59 2f b8 b8 c6 2f 8e ea ce 30 c6 24 db 2f
       1.9766203e-10 3.614724e-10 1.5055137e-09 3.9861997e-10
0002f0 a7 b0 9e b2 be b6 39 b2 1c 92 5b b3 f1 1f e2 2f
       -1.8473953e-08 -1.0809968e-08 -5.1122797e-08 4.1131856e-10
000300 d3 86 87 b3 1b 78 79 30 ea eb e2 2f 45 ae 96 2f
       -6.310952e-08 9.075635e-10 4.1276788e-10 2.7408667e-10
000310 4f 86 ad 2f 5a 1d 0f 32 0a 95 8d b3 69 1b cd b3
       3.156395e-10 8.330369e-09 -6.592934e-08 -9.551042e-08

exp_avg_sq f4 [10, 20]
000000 a9 b7 09 31 a0 6b 0c 35 9f 59 a0 36 e3 64 b9 2d
       2.0040523e-09 5.231068e-07 4.778805e-06 2.1076868e-11
000010 72 43 dc 32 84 7e 8e 33 e7 79 05 30 f0 0b 88 2d
       2.5642041e-08 6.635403e-08 4.855835e-10 1.5466711e-11
000020 38 d3 9b 34 d5 3a 58 35 dd 06 fe 33 0b 07 2d 2f
       2.9024682e-07 8.055188e-07 1.1829045e-07 1.573676e-10
000030 3c 83 89 35 a8 da 1c 2f 0c 77 b3 2c 0e 95 f7 2d
       1.024549e-06 1.42658e-10 5.100703e-12 2.8146842e-11
000040 f4 9e 43 2e 83 78 65 33 72 27 01 33 60 79 0c 35
       4.4479045e-11 5.3427822e-08 3.007103e-08 5.233069e-07
000050 57 78 a8 30 46 86 0c 34 a0 4d 89 35 35 e9 fd 2e
       1.2257811e-09 1.3087364e-07 1.0229887e-06 1.1546534e-10
000060 09 b3 fa 30 ce fd f6 31 af 81 3e 2f cb 6e 87 2c
       1.8240779e-09 7.1883965e-09 1.7326472e-10 3.8492313e-12
000070 c5 34 23 33 23 18 bb 33 83 8e fd 33 b1 df 06 2e
       3.799939e-08 8.7122565e-08 1.1807153e-07 3.066675e-11
000080 77 8c 4a 34 0d 79 8e 2e d4 49 dc 2d e2 34 fa 2f
       1.8863817e-07 6.478915e-11 2.504389e-11 4.551231e-10
000090 55 2a dc 2c 11 33 4f 33 30 1b 43 33 9a f3 9d 34
       6.257476e-12 4.8242388e-08 4.5426702e-08 2.9420772e-07
0000a0 bb a1 2c 2b c2 41 b0 2e 87 0a 29 30 e1 01 18 2a
       6.133112e-13 8.015234e-11 6.14968e-10 1.3500964e-13
0000b0 d7 96 18 2c bd 3f d1 2c 69 eb ad 29 d9 39 00 27
       2.1684232e-12 5.9472136e-12 7.7235805e-14 1.7794928e-15
0000c0 0c d7 f2 2d a0 7c ba 2e 70 80 21 2e e1 b1 aa 28
       2.7607715e-11 8.4804386e-11 3.6721237e-11 1.8950934e-14
0000d0 e1 e7 01 2f ee 86 e6 28 9d 12 d3 28 a2 61 4e 29
       1.1814862e-10 2.5593646e-14 2.3433778e-14 4.582587e-14
0000e0 67 26 a3 27 17 b3 91 2d 96 88 64 2d 7e 17 e8 2e
       4.5283224e-15 1.6564123e-11 1.2990628e-11 1.05543116e-10
0000f0 b8 fa b9 2d e3 88 71 2f 1f c6 d5 31 1d 22 51 28
       2.1143406e-11 2.1967454e-10 6.2216396e-09 1.1609228e-14
000100 4c bb 5d 2e a7 4c e2 2c d5 3d 20 2b b2 99 ea 28
       5.0415935e-11 6.4318165e-12 5.692923e-13 2.6045873e-14
000110 22 df 75 2e d7 40 a6 30 0e 89 76 2d e7 fc 3e 2a
       5.5904732e-11 1.2096518e-09 1.4013913e-11 1.6963133e-13
000120 ee 32 6f 30 a6 94 22 2a bb 61 f1 27 ca 3f 76 29
       8.702007e-10 1.4440063e-13 6.6996897e-15 5.46783e-14
000130 49 07 49 29 dd ff 9a 2f 92 5b 9d 2a 16 00 ce 2f
       4.4637284e-14 2.8194239e-10 2.7952342e-13 3.7471243e-10
000140 05 76 0a 2b 87 c4 a4 2e 85 e0 22 30 8f 6d ea 29
       4.9191234e-13 7.492767e-11 5.925432e-10 1.0410693e-13
000150 35 a1 2b 2c c0 54 fe 2c c2 45 a3 29 81 d2 09 27
       2.439005e-12 7.2285233e-12 7.250755e-14 1.9126684e-15
000160 dc a2 0b 2e d6 ed bb 2e 53 72 09 2e e3 c8 a9 28
       3.174959e-11 8.5460236e-11 3.1251734e-11 1.884989e-14
000170 11 c6 04 2f 95 a4 d5 28 4d 5e b9 28 85 92 45 29
       1.2075697e-10 2.3719127e-14 2.0580022e-14 4.3869873e-14
000180 6b e1 b2 27 76 bb 68 2d c4 74 4e 2d ef 48 d7 2e
       4.9649323e-15 1.3229298e-11 1.17356715e-11 9.7900237e-11
000190 0b 1f df 2a 10 4c 4d 2e c9 7b bc 2f 62 bc be 29
       3.9634298e-13 4.667916e-11 3.4284955e-10 8.470374e-14
0001a0 4b 79 63 2b ef 70 17 2c fb ff 5b 29 13 80 89 26
       8.081493e-13 2.1521081e-12 4.8849796e-14 9.540999e-16
0001b0 d6 3c 4b 2d bb 0d 2d 2e 55 9e 00 2e 4a 49 36 28
       1.1552722e-11 3.934784e-11 2.9244458e-11 1.01189216e-14
0001c0 be 37 86 2e c6 69 9a 28 b5 31 71 28 23 eb 87 29
       6.103516e-11 1.7143306e-14 1.3388966e-14 6.035994e-14
0001d0 8e 54 10 27 a9 f2 61 2d 21 b2 35 2d 17 fe a1 2e
       2.0029852e-15 1.2843651e-11 1.0328211e-11 7.366568e-11
0001e0 f1 55 48 32 4c 64 d5 35 67 39 50 37 c1 89 29 31
       1.1661073e-08 1.5898927e-06 1.2411131e-05 2.467104e-09
0001f0 a9 f2 46 33 0d b0 07 34 ca d2 d1 30 96 b4 1f 2e
       4.6321166e-08 1.2636902e-07 1.5266661e-09 3.6312807e-11
000200 a0 c2 1b 35 fe 16 eb 35 66 49 3a 35 f9 df d3 2f
       5.8025216e-07 1.7515556e-06 6.939721e-07 3.8539819e-10
000210 f7 18 22 36 35 a7 09 30 f7 01 ee 2f 8d 2e 7d 30
       2.4154413e-06 5.0077925e-10 4.3293344e-10 9.2107016e-10
000220 f6 d5 ce 2e 38 51 a8 34 85 d2 80 34 37 56 09 36
       9.4058025e-11 3.1351533e-07 2.399503e-07 2.0464774e-06
000230 87 3a f9 2f 1e ef 36 33 60 23 a2 34 a8 ea d0 2e
       4.5334422e-10 4.2592653e-08 3.020059e-07 9.500428e-11
000240 38 67 48 30 56 aa 41 31 e8 f9 46 2e 1c 5f 82 2b
       7.290626e-10 2.8182021e-09 4.524195e-11 9.263454e-13
000250 91 a6 5b 32 b8 c0 0d 33 11 1f e7 32 92 74 20 2d
       1.2785351e-08 3.3004397e-08 2.6906067e-08 9.120831e-12
000260 8d bc 71 33 2e 5d 8e 2d 7b 15 ae 2d 67 ba 9f 2e
       5.628367e-08 1.6184911e-11 1.9791049e-11 7.2635946e-11
000270 a8 41 12 2c 00 58 4d 32 b4 b5 2e 32 0d a3 98 33
       2.0784294e-12 1.1952579e-08 1.01694475e-08 7.10771e-08
000280 22 53 d1 2a a9 26 42 2e 3e d4 b2 2f d3 ff b9 29
       3.7183543e-13 4.414483e-11 3.2528819e-10 8.260029e-14
000290 80 7d 7a 2b 0d 19 29 2c 1b 86 47 29 bd 03 82 26
       8.899201e-13 2.403025e-12 4.4303194e-14 9.021575e-16
0002a0 d6 1c 55 2d 52 96 30 2e cb a1 d9 2d 75 3a 2f 28
       1.2114051e-11 4.0151278e-11 2.4741894e-11 9.727127e-15
0002b0 01 5f 82 2e a1 5b 89 28 97 56 72 28 9c 0b 36 29
       5.9285916e-11 1.5249793e-14 1.3452475e-14 4.0422188e-14
0002c0 ba de 14 27 4a 66 41 2d 7a 6d 1b 2d 11 43 8e 2e
       2.0659866e-15 1.0993493e-11 8.835039e-12 6.469326e-11
0002d0 3e 03 fe 2f 19 eb 10 33 7c 00 6a 34 4a d9 93 2e
       4.6204635e-10 3.3741433e-08 2.1793124e-07 6.7233843e-11
0002e0 9d d3 d8 2f 36 82 01 31 d1 92 0e 2e e6 52 ff 2a
       3.9440531e-10 1.8845987e-09 3.241746e-11 4.5354622e-13
0002f0 5a 5b 1b 32 53 e9 c0 32 3b aa b3 32 d4 0f e4 2c
       9.042958e-09 2.2457845e-08 2.0915754e-08 6.481907e-12
000300 74 08 2a 33 0e 29 4c 2d c7 87 7a 2d c9 ea f0 2e
       3.9588897e-08 1.1605173e-11 1.4241003e-11 1.09556426e-10
000310 de 72 a5 2b bd fe 20 32 ca d5 f0 31 0b a4 59 33
       1.1755837e-12 9.3711465e-09 7.0092243e-09 5.0673446e-08

exp_avg f4 [10]
000000 65 6b 50 b3 be b3 8e b7 37 c5 9d b4 3b 7c c9 31
       -4.852645e-08 -1.7011418e-05 -2.9387022e-07 5.8639933e-09
000010 0f 57 bf b3 6a 88 c5 b4 7a 87 0e 38 04 f1 35 b7
       -8.9099665e-08 -3.6793364e-07 3.398161e-05 -1.08445565e-05
000020 bd 5c a5 b4 77 a0 b3 b3
       -3.080112e-07 -8.3645254e-08

exp_avg_sq f4 [10]
000000 2e 32 34 36 5f 99 6d 35 7d b2 dc 2f 75 2d 39 31
       2.6851299e-06 8.8512564e-07 4.014459e-10 2.6946883e-09
000010 aa a0 d2 2f 84 90 88 2f 8d eb 05 37 1d a1 77 34
       3.8312936e-10 2.484094e-10 7.982261e-06 2.306228e-07
000020 07 f6 78 2f 08 dd 31 34
       2.2642875e-10 1.656482e-07

exp_avg f4 [2, 10]
000000 2f 0f ff 34 61 bd 7b b8 73 db 95 34 c3 ae f4 34
       4.75085e-07 -6.0019436e-05 2.7913083e-07 4.5575698e-07
000010 93 d9 12 34 45 c1 05 35 8b 4f 43 b8 b1 6e 91 b7
       1.3676463e-07 4.9827605e-07 -4.6565703e-05 -1.7336892e-05
000020 49 e8 8a 34 ff db e7 32 b9 90 04 34 31 56 0a 36
       2.5873513e-07 2.6991982e-08 1.2346108e-07 2.0613772e-06
000030 2b f1 fb 32 51 77 27 34 47 10 74 33 21 b8 39 33
       2.9329916e-08 1.5596494e-07 5.682548e-08 4.3241133e-08
000040 d9 af 97 b6 6a 52 24 b7 11 66 8c 33 1c 91 07 34
       -4.520622e-06 -9.79435e-06 6.537824e-08 1.2625645e-07

exp_avg_sq f4 [2, 10]
000000 d6 e6 47 35 99 4b af 36 fa bb 3a 2f e3 0c d8 30
       7.446919e-07 5.224207e-06 1.6983384e-10 1.5719731e-09
000010 f2 94 a7 2e fc 01 50 30 6c 2c 59 36 b8 a5 d6 35
       7.620739e-11 7.567278e-10 3.2361377e-06 1.5992473e-06
000020 3a 47 52 2f 1d 3c 80 34 17 19 78 36 a7 4f 0d 37
       1.9124693e-10 2.3885596e-07 3.6969484e-06 8.4228e-06
000030 bd 84 3e 2f fd 94 5f 31 25 ae 0c 2f ca ae ca 30
       1.7327557e-10 3.253546e-09 1.2794794e-10 1.4747112e-09
000040 62 28 61 36 04 81 0b 36 b7 53 8a 2f 08 a3 d2 34
       3.3551119e-06 2.078771e-06 2.5161537e-10 3.923417e-07

exp_avg f4 [2]
000000 8c e6 f2 b8 83 30 ad 37
       -0.00011582402 2.0645797e-05

exp_avg_sq f4 [2]
000000 fa f9 b8 37 58 d2 37 38
       2.2050914e-05 4.3826498e-05
