lightning_logs/version_13/checkpoints/epoch=0-step=1601.ckpt (torch, 13579 bytes, 18 tensors)

layers.0.weight f4 [20, 4]
0.086874284 0.17102547 0.1453333 0.27025196 0.10638189 0.3319193 0.4286336 -0.5147834
0.10353866 -0.5869144 0.054233156 0.28386799 0.2899451 0.18770674 -0.50053793 0.21180865
-0.13528852 0.4628133 -0.12644532 0.27580273 -0.40351996 0.3230674 -0.22341156 -0.075613156
-0.5983487 0.45858172 0.16540086 0.35995102 0.063194275 -0.050473925 0.41144204 -0.109286085
-0.31674922 -0.083682306 0.14503998 -0.15676616 -0.2222966 -0.6394396 0.15388308 -0.46272936
-0.093718745 -0.30461845 -0.20453909 -0.17771119 0.07872647 0.092445195 0.36990848 -0.25131172
-0.3654694 -0.15283053 -0.22281046 0.2345933 0.8671271 1.1180011 -0.11998386 -0.12391916
-0.39412254 0.061079744 -0.0046658237 -0.44023514 -0.44867882 1.0901829 0.3870363 0.02083167
-0.34661672 -0.44938037 0.0747295 -0.21793038 0.2625471 0.6216251 -0.36996505 -0.436751
0.47796166 -0.5360636 -0.054992612 0.24511679 0.29555357 0.10283508 -0.40068054 0.039422445
00000000: 25eb b13d 4d21 2f3e 41d2 143e 775e 8a3e
00000010: c0de d93d 54f1 a93e dd75 db3e d8c8 03bf
00000020: 140c d43d 0640 16bf 9623 5e3d 2557 913e
00000030: af73 943e 3236 403e 4123 00bf 5ee4 583e
00000040: 1389 0abe ddf5 ec3e e27a 01be 0436 8d3e
00000050: 2b9a cebe 1769 a53e 00c6 64be 12db 9abd
00000060: 612d 19bf 39cb ea3e d85e 293e 804b b83e
00000070: 006c 813d bfbd 4ebd 88a8 d23e 62d1 dfbd
00000080: f42c a2be a161 abbd 5c85 143e 4f87 20be
00000090: b8a1 63be 50b2 23bf 8793 1d3e ddea ecbe
000000a0: 9def bfbd f3f6 9bbe b272 51be ecf9 35be
000000b0: 583b a13d e853 bd3d a564 bd3e eeab 80be
000000c0: ce1e bbbe 9b7f 1cbe 6d28 64be 3a39 703e
000000d0: 0bfc 5d3f a91a 8f3f 19ba f5bd 54c9 fdbd
000000e0: 6eca c9be c12e 7a3d c4e3 98bb 8066 e1be
000000f0: 3bb9 e5be 1d8b 8b3f 9f29 c63e 2ea7 aa3c
00000100: bf77 b1be 2f15 e6be c80b 993d 2429 5fbe
00000110: 936c 863e d322 1f3f 0f6c bdbe d49d dfbe
00000120: 64b7 f43e 773b 09bf ef3f 61bd e5ff 7a3e
00000130: cc52 973e 339b d23d 0026 cdbe 6e79 213d

layers.0.bias f4 [20]
-0.3199461 -0.2694781 -0.10515662 -0.25884536 0.26532182 -0.49663335 0.3169036 -0.0066798534
0.4865931 0.1544617 -0.23594819 -0.371056 -0.05337782 -0.0065052575 0.2883697 0.29096118
0.46020922 -0.14035591 0.1732422 -0.17890148
00000000: facf a3be 09f9 89be 5b5c d7bd 6187 84be
00000010: 43d8 873e ba46 febe 3041 a23e ace2 dabb
00000020: bb22 f93e 352b 1e3e 679c 71be 0dfb bdbe
00000030: b3a2 5abd 0e2a d5bb 31a5 933e ddf8 943e
00000040: 8ba0 eb3e 76b9 0fbe 6766 313e f331 37be

layers.2.weight f4 [10, 20]
-0.18606345 -0.118897244 -0.16429421 0.08227151 -0.17383532 0.21422265 -0.21453363 -0.12216373
0.12233681 -0.26659444 -0.06334345 -0.19361998 0.09404841 -0.13371 -0.055267137 -0.2017988
-0.00063393195 -0.037453376 -0.05954213 0.07784914 0.039991572 -0.11316754 0.10443424 0.16394682
0.012314893 -0.10762066 -0.18621011 -0.1620845 -0.21598502 0.015019317 -0.01051926 -0.018149659
-0.052431885 -0.00307662 0.09443488 0.00179478 -0.24783352 0.10369652 -0.20148623 -0.16463268
-0.08069862 0.08531856 0.18013597 -0.14217287 -0.1678583 -0.17730232 -0.0013542947 -0.066545874
0.00069451204 0.12355097 0.08775093 -0.088186935 0.20296788 -0.007462692 -0.07451266 -0.10782245
0.14247888 -0.10923268 0.09623867 -0.20718613 -0.044193465 0.07667311 -0.0986092 -0.013745242
-0.23741744 -0.019087471 0.040564228 0.10701028 -0.24226274 -0.15278597 0.10229612 0.12802096
0.17212106 0.061668232 -0.2074078 -0.2547045 -0.17840263 0.2657516 -0.20381445 0.20805925
0.1459321 -0.18799573 -0.14475422 0.023771582 -0.17864078 0.1957314 -0.054619424 -0.188805
-0.09973518 -0.14546038 0.2241719 0.04792048 -0.13807815 -0.10571203 0.068099454 -0.08689287
0.099018805 -0.15927611 -0.2196989 0.18311141 0.12123325 0.1688641 0.060515516 -0.17810853
0.10190465 -0.078517556 0.022493612 0.07742807 0.17632484 -0.24420492 0.19468486 -0.023999786
0.041368432 -0.072292015 0.13811497 0.08911332 0.17885035 0.18603954 0.0295497 -0.22560215
0.011513059 -0.16629513 0.10596788 0.08179619 0.15594302 0.119475074 -0.17615621 0.020369569
-0.15475509 -0.019722525 0.05241504 0.15511353 -0.007117284 0.10041621 -0.16542774 -0.12592413
-0.046325754 -0.084238656 -0.27910727 0.019624418 0.13679811 0.24585657 -0.07871385 0.06159792
-0.120021224 -0.091713086 0.21320501 -0.03195452 -0.051778335 0.19563837 -0.021352068 -0.0721648
-0.01310604 -0.5541375 -0.06305123 0.31276813 -0.2500875 -0.16873252 -0.19916154 -0.17572108
0.12211298 -0.014887433 -0.28319162 0.16333298 0.062157415 0.2548813 -0.03602298 -0.14969704
-0.2507267 0.06187187 0.31171164 0.11963175 -0.11947377 0.07403879 -0.043170422 -0.2440462
-0.1113276 0.0696629 -0.2589107 0.24101686 -0.23879541 -0.3431438 0.1200412 0.313061
0.05192905 -0.12650783 -0.21769863 0.038736053 -0.28930882 -0.072985254 0.15222213 0.05562467
0.13081184 0.34328583 -0.24600112 0.1077997 0.091181666 0.19418009 0.019157216 0.079540245
00000000: 6b87 3ebe 6680 f3bd be3c 28be f77d a83d
00000010: e301 32be 2f5d 5b3e b4ae 5bbe fa30 fabd
00000020: b98b fa3d 117f 88be 36ba 81bd 5144 46be
00000030: 749c c03d 46eb 08be cb5f 62bd 58a4 4ebe
00000040: 742e 26ba b668 19bd 73e2 73bd 5f6f 9f3d
00000050: 34ce 233d 62c4 e7bd 9ee1 d53d ade1 273e
00000060: 68c4 493c 3868 dcbd ddad 3ebe 7bf9 25be
00000070: 2d2b 5dbe 9513 763c f958 2cbc 98ae 94bc
00000080: d1c2 56bd 1ea1 49bb 1367 c13d d33e eb3a
00000090: 12c8 7dbe d75e d43d 6852 4ebe 7895 28be
000000a0: 5145 a5bd 7fbb ae3d 9075 383e c495 11be
000000b0: 0ce3 2bbe bd8e 35be 9782 b1ba 3449 88bd
000000c0: ea0f 363a 4a08 fd3d c2b6 b33d 5a9b b4bd
000000d0: d0d6 4f3e 9989 f4bb 189a 98bd 04d2 dcbd
000000e0: fce5 113e 62b5 dfbd c818 c53d 9a28 54be
000000f0: 3504 35bd cb06 9d3d 9ff3 c9bd b933 61bc
00000100: 8f1d 73be 545d 9cbc ad26 263d 3528 db3d
00000110: b913 78be ed73 1cbe a180 d13d ed17 033e
00000120: 8140 303e d497 7c3d b662 54be a168 82be
00000130: 2eaf 36be 9810 883e bcb4 50be 7c0d 553e
00000140: 396f 153e f481 40be 733a 14be 9fbc c23c
00000150: 9ced 36be d06d 483e 9eb8 5fbd 1956 41be
00000160: f541 ccbd 91f3 14be 528d 653e 4448 443d
00000170: 5c64 0dbe 8c7f d8bd ba77 8b3d e4f4 b1bd
00000180: 5fca ca3d 4719 23be c0f8 60be 8f81 3b3e
00000190: 2349 f83d b6ea 2c3e 1edf 773d 1562 36be
000001a0: 63b3 d03d d0cd a0bd 8644 b83c 9c92 9e3d
000001b0: 808e 343e db10 7abe 785b 473e 339b c4bc
000001c0: f271 293d d60d 94bd 036e 0d3e 0b81 b63d
000001d0: 8c24 373e 2681 3e3e 3612 f23c 4004 67be
000001e0: 45a1 3c3c 4549 2abe b005 d93d c384 a73d
000001f0: 87af 1f3e 59af f43d 4b62 34be 15de a63c
00000200: 1e78 1ebe 2291 a1bc 27b1 563d 15d6 1e3e
00000210: 1b38 e9bb 04a7 cd3d e465 29be 41f2 00be
00000220: 13c0 3dbd 5185 acbd 26e7 8ebe 63c3 a03c
00000230: ce14 0c3e d3c1 7b3e ba34 a1bd 1a4e 7c3d
00000240: b0cd f5bd 12d4 bbbd 6a52 5a3e bee2 02bd
00000250: 8515 54bd 6d55 483e 88ea aebc 23cb 93bd
00000260: b7ba 56bc f5db 0dbf 0121 81bd 2523 a03e
00000270: 780b 80be 38c8 2cbe 01f1 4bbe 3af0 33be
00000280: 5f16 fa3d 6bea 73bc 7efe 90be c340 273e
00000290: c698 7e3d cd7f 823e d58c 13bd 2e4a 19be
000002a0: 405f 80be 5c6d 7d3d ab98 9f3e 7e01 f53d
000002b0: aaae f4bd a6a1 973d 78d3 30bd 3fe7 79be
000002c0: baff e3bd 6cab 8e3d f18f 84be 20cd 763e
000002d0: c986 74be 8bb0 afbe 29d8 f53d 8849 a03e
000002e0: 8eb3 543d 458b 01be 64ec 5ebe b2a9 1e3d
000002f0: 4920 94be 4b79 95bd 1ee0 1b3e b2d6 633d
00000300: 8af3 053e 29c3 af3e b8e7 7bbe 17c6 dc3d
00000310: 74bd ba3d 25d7 463e 98ef 9c3c ffe5 a23d

layers.2.bias f4 [10]
-0.040780913 -0.01786444 0.24074623 -0.29344922 0.049547575 0.10829686 -0.123501316 -0.17727315
-0.016862044 -0.088246
00000000: e309 27bd 7258 92bc 2e86 763e fa3e 96be
00000010: 66f2 4a3d beca dd3d 42ee fcbd 1887 35be
00000020: 4522 8abc 52ba b4bd

layers.4.weight f4 [2, 10]
0.26461142 -0.013750214 -0.16944803 0.19842905 0.10664888 -0.31415778 0.09897463 0.016180366
-0.11833091 0.052840304 -0.008219193 0.29812345 -0.2383756 0.27328283 0.06491138 0.09983483
0.17592366 0.21027555 0.19533975 -0.18853843
00000000: 267b 873e 9448 61bc c983 2dbe fc30 4b3e
00000010: ba6a da3d 4ad9 a0be 36b3 ca3d b08c 843c
00000020: 7a57 f2bd 136f 583d cba9 06bc a3a3 983e
00000030: bc18 74be baeb 8b3e 42f0 843d 3476 cc3d
00000040: 5525 343e 7952 573e 2507 483e 3810 41be

layers.4.bias f4 [2]
0.18619965 -0.0033859827
00000000: 1fab 3e3e 5de7 5dbb

exp_avg f4 [20, 4]
7.323278e-07 5.9079883e-07 -6.969447e-06 -3.2083467e-06 2.4735916e-06 2.3805696e-06 6.6894313e-06 3.2133394e-06
7.438997e-07 1.1221114e-06 1.245112e-05 4.562782e-06 -1.1275284e-08 -1.4766415e-08 -9.719683e-08 -3.179408e-08
-1.0754126e-07 -2.0055892e-07 -4.340252e-06 -1.7871748e-06 -1.0228999e-08 -1.25956765e-08 -7.01855e-08 -2.2676502e-08
5.636192e-07 4.2715772e-07 -5.2920523e-06 -2.3640232e-06 1.7753057e-07 1.5000573e-07 -1.7472108e-06 -8.544518e-07
7.864256e-07 9.274519e-07 2.6967716e-06 5.3388294e-07 6.284723e-08 6.565474e-07 8.660195e-07 -4.0909256e-07
1.1415526e-08 1.3909508e-08 5.417656e-08 1.4342744e-08 -4.624394e-07 -5.3809066e-07 -2.592364e-06 -8.1306604e-07
6.3634187e-09 9.59368e-09 1.0278369e-07 3.7650207e-08 -2.8453558e-06 -3.0428243e-06 -1.111033e-05 -5.095956e-06
-1.2841845e-07 -5.751686e-07 -2.8408067e-06 -5.983074e-07 8.4757284e-07 5.308662e-07 -1.2611445e-05 -5.46771e-06
3.5599797e-07 8.264181e-07 1.3483095e-05 4.766365e-06 3.3112915e-09 3.9848445e-09 -3.2602878e-09 -4.880377e-09
-3.0140797e-08 2.7224965e-07 1.0701826e-05 4.2388633e-06 -2.012928e-08 -2.3167855e-08 -6.9521036e-08 -1.6495932e-08
00000000: 2f95 4435 6397 1e35 18db e9b6 fa4e 57b6
00000010: fbff 2536 e0c1 1f36 c775 e036 c0a4 5736
00000020: 66b0 4735 749b 9635 27e5 5037 001a 9936
00000030: 39b5 41b2 61af 7db2 86ba d0b3 f68d 08b3
00000040: 6ff1 e6b3 3759 57b4 7ba2 91b6 dcde efb5
00000050: 9dbb 2fb2 5f64 58b2 e3b8 96b3 28ca c2b2
00000060: 9e4b 1735 1c54 e534 6292 b1b6 9ca5 1eb6
00000070: 3b9f 3e34 4311 2134 b581 eab5 7b5d 65b5
00000080: c11a 5335 02f6 7835 2ffa 3436 2850 0f35
00000090: a1f6 8633 983d 3035 6878 6835 41a1 dbb4
000000a0: 041e 4432 aaf6 6e32 c2af 6833 0e68 7632
000000b0: 3045 f8b4 4f71 10b5 79f8 2db6 7941 5ab5
000000c0: 39a5 da31 73d1 2432 eeb9 dc33 d7b4 2133
000000d0: d7f2 3eb6 5333 4cb6 8166 3ab7 eefd aab6
000000e0: 65e3 09b4 4965 1ab5 b0a4 3eb6 5f9b 20b5
000000f0: c384 6335 d980 0e35 be95 53b7 4577 b7b6
00000100: fd1f bf34 05d7 5d35 7435 6237 c3ee 9f36
00000110: db8c 6331 10eb 8831 970b 60b1 40b0 a7b1
00000120: 2874 01b3 b529 9234 fe8b 3337 8f3b 8e36
00000130: c1e8 acb2 a702 c7b2 984b 95b3 f0b2 8db2

exp_avg_sq f4 [20, 4]
1.8515386e-09 1.4219697e-09 3.8479484e-07 6.714159e-08 3.034885e-09 2.611966e-09 6.131421e-07 9.0907776e-08
1.7186922e-09 1.5530719e-09 3.6217125e-07 5.679456e-08 1.2807291e-13 1.1317758e-13 2.5799576e-11 3.9705726e-12
1.945415e-09 1.551491e-09 4.1299603e-07 6.885183e-08 2.2604554e-13 1.9892779e-13 4.795241e-11 7.2730376e-12
2.676158e-10 2.5776156e-10 5.3393823e-08 8.153408e-09 1.1896391e-10 1.0496265e-10 2.9056043e-08 4.332132e-09
8.273281e-10 7.059966e-10 1.7666079e-07 3.2271927e-08 4.2863718e-10 3.319707e-10 1.0967217e-07 1.1798259e-08
1.7758633e-13 1.4232842e-13 3.99679e-11 6.242677e-12 1.743169e-09 1.4160958e-09 3.8436156e-07 6.743945e-08
7.249601e-13 9.542122e-13 1.14200656e-10 3.123206e-11 7.98563e-11 1.03080516e-10 3.919801e-09 6.295178e-10
4.5963247e-10 3.1576003e-10 1.0152047e-07 1.493148e-08 7.674324e-10 7.1308376e-10 1.6409072e-07 2.7176595e-08
4.967076e-10 4.4877246e-10 9.7427105e-08 1.4555398e-08 5.712987e-14 5.6363056e-14 1.2321917e-11 1.8363958e-12
9.791287e-10 7.8514295e-10 1.9088785e-07 3.602094e-08 3.835996e-13 3.3829306e-13 7.980289e-11 1.2123097e-11
00000000: 3979 fe30 1c6f c330 cd95 ce34 7b2f 9033
00000010: 438e 5031 317e 3331 ce96 2435 1439 c333
00000020: 1b37 ec30 dc73 d530 7070 c234 47ee 7333
00000030: 8132 102a 6fda fe29 7bef e22d bdb3 8b2c
00000040: 1ab0 0531 3d3c d530 beb9 dd34 b2db 9333
00000050: 3181 7e2a 08f9 5f2a 9de5 522e b3e5 ff2c
00000060: 931f 932f b7b4 8d2f 2153 6533 1113 0c32
00000070: 5dcd 022f b8d0 e62e ea96 f932 d6d9 9431
00000080: 0a6a 6330 1810 4230 26b0 3d34 5c9b 0a33
00000090: 52a5 eb2f b980 b62f ea84 eb33 4bb1 4a32
000000a0: c6f1 472a 603f 202a dbc7 2f2e 09a5 db2c
000000b0: 4f94 ef30 71a0 c230 405a ce34 3bd3 9033
000000c0: e10e 4c2b 1e4b 862b 4121 fb2e 2c5c 092e
000000d0: 1a9b af2e 2cad e22e efae 8631 610a 2d30
000000e0: 85af fc2f 4697 ad2f 7803 da33 ac42 8032
000000f0: 41f3 5230 cf02 4430 ea30 3034 f771 e932
00000100: b188 0830 1cb7 f62f 1e39 d133 510f 7a32
00000110: 21a5 8029 2ed6 7d29 fbc4 582d 9139 012c
00000120: 0792 8630 86d1 5730 daf6 4c34 71b5 1a33
00000130: 87f2 d72a 2b71 be2a 097d af2e 9345 552d

exp_avg f4 [20]
-4.4519043e-06 2.9700122e-06 6.956415e-06 -5.158442e-08 -2.5246368e-06 -3.6468812e-08 -3.3598276e-06 -1.1193614e-06
1.192239e-06 9.688671e-09 2.609709e-08 -1.3210266e-06 5.731842e-08 -5.365278e-06 -1.3179668e-06 -7.799849e-06
7.7023e-06 -3.957793e-09 6.2948e-06 -3.125135e-08
00000000: 9161 95b6 6c50 4736 266b e936 ab8d 5db3
00000010: ee6c 29b6 e2a1 1cb3 6679 61b6 f73c 96b5
00000020: 0505 a035 3a73 2632 1c2c e032 214e b1b5
00000030: 452e 7633 6307 b4b6 ffe4 b0b5 19dc 02b7
00000040: 2039 0137 1efd 87b1 ec37 d336 3939 06b3

exp_avg_sq f4 [20]
1.3328479e-07 2.0944928e-07 1.2346808e-07 8.804943e-12 1.4276392e-07 1.6409147e-11 1.8091688e-08 1.0086267e-08
6.064051e-08 3.8519296e-08 1.3860308e-11 1.3264128e-07 3.706534e-11 1.0738024e-09 3.56319e-08 5.6248183e-08
3.3244e-08 4.1892136e-12 6.536514e-08 2.7259155e-11
00000000: 0b1d 0f34 fbe4 6034 a692 0434 f0e5 1a2d
00000010: a64a 1934 1d56 902d 0b68 9b32 df47 2d32
00000020: 7939 8233 6a70 2533 47d5 732d 286c 0e34
00000030: dd03 232e 1095 9330 b009 1933 8895 7133
00000040: 2ac8 0e33 1565 932c de5e 8c33 29c6 ef2d

exp_avg f4 [10, 20]
-1.8383645e-08 -4.4418293e-08 1.0928439e-08 5.9429894e-10 -2.2062833e-08 6.322854e-10 -5.065545e-08 -5.2108827e-08
-3.0624204e-08 -7.83273e-09 6.237728e-10 -2.6819558e-08 4.5224796e-10 -6.3812344e-08 2.5413276e-09 -1.0065257e-07
-2.9963174e-09 3.4935652e-10 -4.6541775e-09 4.942666e-10 -1.45933825e-08 1.2549358e-08 -4.9223935e-08 2.2221687e-09
-5.176186e-08 2.0182944e-09 -1.9633559e-07 -1.2846733e-07 -1.512491e-07 -1.39499985e-08 1.465776e-09 -3.6849726e-10
3.945526e-10 7.302493e-08 -8.582997e-09 -1.9602773e-07 -1.2162988e-07 2.6090576e-09 -5.80292e-08 1.924257e-09
4.0336504e-06 4.5889733e-06 3.164568e-06 -2.6600372e-07 7.676554e-06 -2.5985213e-07 2.3740262e-05 1.7910565e-05
1.6711716e-05 1.6519205e-06 -2.1263804e-07 3.455279e-06 -9.500686e-08 2.030891e-06 5.1641695e-07 3.0368148e-05
1.0208747e-05 -2.719152e-07 5.921928e-06 -2.2885429e-07 -2.8090176e-08 -2.3329427e-08 -3.7245858e-08 2.5425413e-09
-6.567014e-08 2.3810176e-09 -2.2313617e-07 -1.6096642e-07 -1.6530034e-07 -1.922824e-08 1.8591685e-09 -2.1526679e-08
7.247392e-10 1.7650947e-08 -5.9929683e-09 -2.6232675e-07 -1.1590007e-07 2.709298e-09 -5.7721753e-08 2.1854825e-09
-1.0769458e-08 -1.5308755e-08 -6.557342e-09 7.4232365e-10 -2.0622203e-08 7.110816e-10 -6.4804176e-08 -5.0144873e-08
-4.6509548e-08 -6.3505943e-09 5.837534e-10 -1.1051148e-08 2.7319427e-10 -9.7358726e-09 -8.836327e-10 -8.517481e-08
-2.8592513e-08 7.2858775e-10 -1.4873504e-08 6.344082e-10 1.7048108e-06 5.5778346e-06 -2.7649157e-06 -2.5221334e-09
1.0151108e-06 -1.3086534e-08 -2.3452424e-09 2.22099e-06 -9.764195e-07 4.9996436e-07 -2.8716867e-08 3.1272928e-06
-4.1017973e-08 9.669354e-06 -5.5545485e-07 5.856717e-06 -3.3123385e-06 3.787026e-08 -1.2071284e-06 2.18726e-10
-1.624051e-08 -1.0478162e-08 -2.5230422e-08 1.5802266e-09 -4.013469e-08 1.4729307e-09 -1.3884697e-07 -9.855935e-08
-1.0357415e-07 -1.1597236e-08 1.13634e-09 -1.1105221e-08 4.213538e-10 1.8118643e-08 -4.1445443e-09 -1.589478e-07
-7.451743e-08 1.713906e-09 -3.6868077e-08 1.3600704e-09 -1.148989e-06 5.2696646e-07 -3.3209924e-06 1.5915269e-07
-3.760351e-06 1.4497215e-07 -1.4033201e-05 -9.332764e-06 -1.0755365e-05 -1.0387146e-06 1.06586995e-07 -2.4084792e-07
3.0915444e-08 4.542837e-06 -5.7455856e-07 -1.4411175e-05 -8.489984e-06 1.838635e-07 -4.0468176e-06 1.3761594e-07
-1.6744645e-09 2.6624203e-08 -3.6020065e-08 1.1724107e-09 -2.3891797e-08 1.0256087e-09 -1.04403924e-07 -6.035348e-08
-8.389279e-08 -5.6244747e-09 6.764594e-10 1.0969484e-08 6.2989475e-11 7.330733e-08 -6.5384964e-09 -8.331874e-08
-7.650103e-08 1.522153e-09 -3.511032e-08 1.0238361e-09 5.8420513e-09 -1.5627664e-08 3.240677e-08 -1.274354e-09
2.8242088e-08 -1.1400001e-09 1.12945116e-07 7.053678e-08 8.844707e-08 7.267595e-09 -7.995221e-10 -4.4650896e-09
-1.649964e-10 -5.639023e-08 5.753988e-09 1.0400033e-07 7.4936615e-08 -1.556924e-09 3.5088476e-08 -1.1071231e-09
00000000: 10ea 9db2 6ec6 3eb3 c8bf 3b32 125c 2330
00000010: af84 bdb2 21cd 2d30 4290 59b3 43ce 5fb3
00000020: ab87 03b3 b690 06b2 1c76 2b30 d560 e6b2
00000030: 3ea0 f82f 3509 89b3 82a3 2e31 5626 d8b3
00000040: c6e7 4db1 8f0f c02f 94ea 9fb1 ecdc 0730
00000050: 60b6 7ab2 a998 5732 4a6a 53b3 ceb4 1831
00000060: c450 5eb3 36b2 0a31 51d0 52b4 d5f0 09b4
00000070: 0967 22b4 bea8 6fb2 6874 c930 6195 caaf
00000080: 58e8 d82f e1d1 9c33 6c74 13b2 b17b 52b4
00000090: 5e99 02b4 074b 3331 c83b 79b3 e33b 0431
000000a0: cb58 8736 fbfa 9936 dd5e 5436 46cf 8eb4
000000b0: 8cca 0037 ce81 8bb4 d325 c737 a53e 9637
000000c0: 2330 8c37 8eb7 dd35 8051 64b4 3ee1 6736
000000d0: 9306 ccb3 714a 0836 e79f 0a35 1abf fe37
000000e0: 3c46 2b37 befb 91b4 f9b4 c636 fdba 75b4
000000f0: f34a f1b2 f465 c8b2 41f8 1fb3 dcb8 2e31
00000100: 8b06 8db3 4e9f 2331 3497 6fb4 1dd6 2cb4
00000110: 697d 31b4 592b a5b2 ad85 ff30 abe9 b8b2
00000120: fd36 4730 d89e 9732 b5ea cdb1 ead5 8cb4
00000130: bde4 f8b3 792e 3a31 bde9 77b3 6a2f 1631
00000140: 9404 39b2 4f80 83b2 fd4e e1b1 620c 4c30
00000150: b424 b1b2 eb75 4330 792a 8bb3 df5e 57b3
00000160: cac1 47b3 6b34 dab1 fe75 2030 77db 3db2
00000170: ad30 962f d242 27b2 20e4 72b0 59e9 b6b3
00000180: 9a9b f5b2 ce45 4830 5d86 7fb2 8262 2e30
00000190: dad0 e435 3c29 bb36 e48c 39b6 d751 2db1
000001a0: f13e 8835 2fd3 60b2 f129 21b1 510c 1536
000001b0: 850d 83b5 4a35 0635 0fad f6b2 7bde 5136
000001c0: bd2b 30b3 8f39 2237 911a 15b5 d184 c436
000001d0: 8b49 5eb6 cba6 2233 9e04 a2b5 e57d 702f
000001e0: 4281 8bb2 7203 34b2 49ba d8b2 482f d930
000001f0: 8f60 2cb3 2470 ca30 f715 15b4 93a7 d3b3
00000200: 7e6c deb3 2f3d 47b2 692d 9c30 47c9 3eb2
00000210: 47a4 e72f 51a3 9b32 cc67 8eb1 3dab 2ab4
00000220: 6406 a0b3 b58e eb30 e158 1eb3 39ed ba30
00000230: f636 9ab5 dc74 0d35 37de 5eb6 8fe3 2a34
00000240: 575a 7cb6 a4a9 1b34 2470 6bb7 eb93 1cb7
00000250: f171 34b7 f669 8bb5 d2e4 e433 e34d 81b4
00000260: e4c7 0433 ac6e 9836 5d3b 1ab5 86c7 71b7
00000270: 3470 0eb7 046c 4534 e6c9 87b6 95c3 1334
00000280: fb22 e6b0 3eb3 e432 7bb4 1ab3 8922 a130
00000290: 9e3a cdb2 66f5 8c30 aa34 e0b3 ad9b 81b3
000002a0: 8d28 b4b3 6741 c1b1 99f1 3930 4d74 3c32
000002b0: ec83 8a2e 226d 9d33 39a9 e0b1 f6ec b2b3
000002c0: e348 a4b3 ff33 d130 35cc 16b3 08b7 8c30
000002d0: 3abb c831 993d 86b2 9f2f 0b33 5825 afb0
000002e0: 0299 f232 30ae 9cb0 3c8c f233 017a 9733
000002f0: 4af0 bd33 71b6 f931 5ec5 5bb0 586b 99b1
00000300: 5c6a 35af b731 72b3 9db4 c531 c956 df33
00000310: d7ec a033 65fb d5b0 30b4 1633 6e29 98b0

exp_avg_sq f4 [10, 20]
1.8461324e-11 9.730627e-12 4.1984953e-12 1.135748e-14 2.1989785e-11 9.723041e-15 1.4056153e-10 4.073601e-11
2.6878595e-11 1.4860193e-12 4.2339027e-15 9.024585e-12 1.5529862e-15 4.6623146e-14 8.802278e-12 8.9931194e-11
9.625802e-12 1.8083213e-14 3.8932048e-12 7.096299e-15 1.3943942e-08 1.0186572e-09 4.4118767e-10 1.4892659e-12
1.4806616e-08 1.7002235e-12 5.3667076e-08 5.4866724e-09 1.3166227e-09 5.43198e-12 7.456457e-13 3.5913914e-09
4.609237e-13 7.7721694e-13 1.769018e-09 1.4066802e-08 2.8705244e-10 5.3632715e-12 2.2126737e-10 9.565648e-13
1.849627e-07 1.5247278e-07 8.493083e-08 1.831665e-10 2.1466883e-07 1.5671056e-10 1.839945e-06 6.3824564e-07
4.6933738e-07 1.7491514e-08 6.6686594e-11 8.667858e-08 1.555368e-11 3.851963e-10 9.787397e-08 1.4221139e-06
1.7670735e-07 2.5608368e-10 7.903464e-08 1.1583404e-10 8.8819216e-11 4.1134127e-11 1.0698315e-11 4.0271792e-14
1.06362204e-10 3.413134e-14 5.814698e-10 1.4570374e-10 8.747889e-11 8.659417e-12 1.4673321e-14 4.7700267e-11
6.842152e-15 1.0080039e-13 4.5568025e-11 3.1579128e-10 3.2603736e-11 6.9673745e-14 9.889271e-12 2.4538468e-14
2.0085962e-09 2.10851e-09 2.064624e-09 3.6395353e-12 2.5975557e-09 3.1896452e-12 3.0985916e-08 1.1953829e-08
1.0820774e-08 6.68343e-11 1.5272629e-12 4.9886345e-10 1.0724902e-13 1.9483846e-13 5.956433e-10 2.992239e-08
3.242135e-09 4.950801e-12 2.0367101e-09 2.3498228e-12 6.528108e-08 4.536085e-08 2.7591804e-08 6.0733134e-11
8.2997055e-08 5.357986e-11 6.2241344e-07 2.2315923e-07 1.7032106e-07 5.088961e-09 2.5352427e-11 2.8985266e-08
9.297385e-12 8.6801544e-10 2.8609405e-08 5.1102614e-07 5.4646083e-08 8.534528e-11 3.041843e-08 3.8933565e-11
7.3307267e-09 5.312947e-10 2.334495e-10 7.850122e-13 7.792022e-09 8.951232e-13 2.8269262e-08 2.8919227e-09
6.99109e-10 3.3507355e-12 3.9286253e-13 1.8840371e-09 2.4186607e-13 3.8698163e-13 9.334574e-10 7.4144118e-09
1.5381539e-10 2.8268032e-12 1.1685822e-10 5.045209e-13 2.2924876e-08 1.7438554e-08 1.1276347e-08 2.2593639e-11
2.6850836e-08 1.9939533e-11 2.3022719e-07 8.0039854e-08 5.9957294e-08 1.3451397e-09 9.0083e-12 8.8287155e-09
1.7117999e-12 1.3502448e-10 8.4913845e-09 1.8893267e-07 2.2172635e-08 3.2010488e-11 1.1070768e-08 1.4677454e-11
4.9319647e-07 1.915917e-07 6.4073467e-09 1.3651606e-10 5.888719e-07 1.13729776e-10 2.6707455e-06 4.968594e-07
2.2764141e-07 5.534182e-08 4.6572635e-11 2.8471365e-07 3.703854e-11 2.1529618e-11 2.6430095e-07 1.0481784e-06
1.028284e-07 2.841809e-10 3.5877068e-09 7.880378e-11 2.3533528e-10 1.3579307e-11 2.5281433e-11 5.8654884e-14
2.7080171e-10 5.5395396e-14 1.2274002e-09 2.3708407e-10 1.008565e-10 2.396581e-13 2.892289e-14 5.844925e-11
7.497461e-15 6.112995e-14 3.4559054e-11 5.484879e-10 1.5646857e-11 1.4702478e-13 1.5138356e-11 3.8715708e-14
00000000: 3563 a22d d92e 2b2d afb8 932c 2299 4c28
00000010: 986c c12d 9d27 2f28 8e8c 1a2f ab28 332e
00000020: 376d ec2d 7d23 d12b dc8a 9827 1ec3 1e2d
00000030: 14cf df26 d4f8 5129 f0d9 1a2d c3c2 c52e
00000040: c256 292d 0de1 a228 dffa 882c ceab ff27
00000050: 1b8e 6f32 d000 8c30 a58b f22f 7598 d12b
00000060: 3060 7e32 0249 ef2b 937f 6633 4885 bc31
00000070: 8bf4 b430 ed1e bf2c 6fe1 512b 6dcc 7631
00000080: 0ebd 012b 62c4 5a2b ca21 f330 73aa 7132
00000090: 0acf 9d2f 0eb4 bc2c 3a49 732f e19f 862b
000000a0: 299a 4634 66b7 2334 3863 b633 c964 492f
000000b0: b87f 6634 1a4e 2c2f 07f4 f635 e853 2b35
000000c0: 3df9 fb34 3f40 9632 37a5 922e 0e24 ba33
000000d0: c6cf 882d 8fc3 d32f c92e d233 76df be35
000000e0: f2bc 3d34 93c8 8c2f c1b9 a933 c4b8 fe2e
000000f0: c650 c32e e9e8 342e ed34 3c2d 375e 3529
00000100: 99e4 e92e c2b6 1929 4dd5 1f30 f533 202f
00000110: 3d5e c02e 8c56 182d 602a 8428 bac9 512e
00000120: b783 f627 78fb e229 0969 482e ac9b ad2f
00000130: 8b64 0f2e 2ee4 9c29 51f9 2d2d db05 dd28
00000140: 9907 0a31 4de5 1031 40e1 0d31 050e 802c
00000150: af80 3231 8a73 602c 6015 0533 7f5d 4d32
00000160: 44e6 3932 5ef8 922e 72f1 d62b 6520 0930
00000170: da80 f129 5d5e 5b2a acba 2330 0484 0033
00000180: 3ecc 5e31 da30 ae2c 2ff6 0b31 a55a 252c
00000190: a730 8c33 c8d2 4233 0503 ed32 b78d 852e
000001a0: 1d3c b233 8fa5 6b2e ed13 2735 8b9d 6f34
000001b0: 7fe1 3634 f9da ae31 9700 df2d 46fb f832
000001c0: b38f 232d 2899 6e30 bfc0 f532 732d 0935
000001d0: 01b4 6a33 1fad bb2e 6ba5 0233 4c3b 2b2e
000001e0: c1e1 fb31 8a0a 1230 1957 802f 17f6 5c2b
000001f0: addd 0532 6df4 7b2b c4d4 f232 3ebb 4631
00000200: 6c2b 4030 7cc9 6b2c 7529 dd2a 5578 0131
00000210: 9328 882a eed9 d92a 1d4b 8030 dbc1 fe31
00000220: 2f1f 292f 29eb 462c aa7c 002f 9002 0e2b
00000230: 56ec c432 c9cb 9532 e6b9 4132 5abc c62d
00000240: 9da5 e632 d663 af2d 5e34 7734 60e2 ab33
00000250: dfc1 8033 e5df b830 c779 1e2d 1aad 1732
00000260: 17ea f02b 0376 142f 81e1 1132 6bdd 4a34
00000270: 2476 be32 9bc8 0c2e c131 3e32 b01a 812d
00000280: 3464 0435 53b8 4d34 9e27 dc31 db19 162f
00000290: f812 1e35 2c18 fa2e 0f3b 3336 eb5f 0535
000002a0: 986d 7434 f9b0 6d33 20d4 4c2e bfda 9834
000002b0: b0e5 222e 6460 bd2d 3fe5 8d34 23af 8c35
000002c0: 83d2 dc33 e83a 9c2f 9b8b 7631 964a ad2e
000002d0: 7f60 812f c3e3 6e2d ba60 de2d 3d14 8429
000002e0: f4df 942f 8b7a 7929 4eb1 a830 9e56 822f
000002f0: 29c9 dd2e 5fea 862a d241 0229 0188 802e
00000300: f00f 0728 04a7 8929 09fe 172e 68c4 1630
00000310: 97a1 892d 0289 252a 8c28 852d 2c5c 2e29

exp_avg f4 [10]
-6.084795e-08 -2.2895028e-07 2.780722e-05 -2.6155513e-07 -7.62494e-08 2.1401888e-07 -1.626715e-07 -1.636984e-05
-1.2089787e-07 1.3125613e-07
00000000: 84ab 82b3 60d5 75b4 8d43 e937 dd6b 8cb4
00000010: 8dbe a3b3 10cd 6534 cdaa 2eb4 f751 89b7
00000020: 27d0 01b4 69ef 0c34

exp_avg_sq f4 [10]
1.2148542e-10 2.8948028e-08 1.7391909e-06 4.770432e-10 3.2748698e-08 6.1146704e-07 1.5249164e-08 2.1600512e-07
1.980113e-06 7.8779994e-10
00000000: 1b93 052f 63a9 f832 256e e935 ee20 0330
00000010: 93a7 0c33 b223 2435 44fd 8232 09ef 6734
00000020: 15e2 0436 7e8c 5830

exp_avg f4 [2, 10]
2.5214743e-07 1.3312145e-07 -5.7374837e-07 1.6632765e-07 1.4460853e-07 -1.3421436e-05 1.16359764e-07 -1.720503e-06
1.2666771e-07 4.2583416e-08 3.5419805e-07 4.2740626e-07 -1.5247272e-05 6.558103e-07 2.13075e-07 -3.8697424e-05
4.1661474e-07 -1.1326212e-05 5.357159e-07 2.8834407e-07
00000000: e15e 8734 25f0 0e34 b003 1ab5 cc97 3234
00000010: b145 1b34 a12c 61b7 75e1 f933 08ec e6b5
00000020: 2802 0834 f6e4 3633 9c28 be34 4576 e534
00000030: 89ce 7fb7 f10a 3035 9cc9 6434 0b4f 22b8
00000040: 18ab df34 b605 3eb7 1ece 0f35 b5cd 9a34

exp_avg_sq f4 [2, 10]
5.93683e-10 1.620255e-10 5.644705e-07 5.4483734e-10 4.5794604e-08 7.790063e-06 1.7793664e-10 4.926575e-07
9.182046e-07 2.8285962e-09 7.8361045e-10 2.206762e-10 6.4051267e-07 7.182024e-10 1.1549635e-07 1.2417843e-05
2.3980803e-10 5.196488e-07 2.2916531e-06 3.7301526e-09
00000000: ba30 2330 2026 322f 1e86 1735 85c3 1530
00000010: b3af 4433 11b2 0237 b6a4 432f 2a3f 0435
00000020: 8a7a 7635 3161 4231 af65 5730 d4a2 722f
00000030: b2ef 2b35 006b 4530 ca06 f833 3b56 5037
00000040: fbd5 832f fe7d 0b35 4dca 1936 c52a 8031

exp_avg f4 [2]
-2.464851e-05 -7.679954e-05
00000000: 46c4 ceb7 700f a1b8

exp_avg_sq f4 [2]
2.8200608e-05 4.3330325e-05
00000000: 5890 ec37 95bd 3538
