neural_network/lightning_logs/version_45/checkpoints/epoch=9-step=18750.ckpt (torch, 220491 bytes, 18 tensors)

layers.0.weight f4 [128, 4]
00000000: deb0 363e e07f c53d 4188 e2bd d441 f73c
00000010: bdf6 3540 7dc1 b53e 3244 5a3f 098f 9fbc
00000020: 7143 94bf ad44 6d3d b779 f1bc cad0 933d
00000030: 3df0 19bf 3062 2bbf 965b f63d 931a 943c
00000040: 7a2c 88be 4f31 62bf 986c 2cbe ca13 5939
00000050: 3bc3 b03d c46f 82bf 56ef 883e baf1 ffbb
00000060: d71b cfbd 97a5 c6bd 75c7 173e 6233 4e3d
00000070: 4876 1abf 69cc bdbf a3bc 29be a2da 16be
00000080: 98db 3d3e 88b5 8b3e 376f 08bf 2ff7 043d
00000090: 0950 02be e5eb b5be 13c8 acbe 5686 173d
000000a0: 2ac7 adbf 6fb2 ebbf b3ce ecbc f1b4 063d
000000b0: 12c0 99be aa78 bbbe 6d60 aa3d 7d9d fa3d
000000c0: 8002 dabd 7bb3 853e d1f1 cabe 6b34 0ebd
000000d0: f49d b7c0 b60d 743f 267e 763d 8b93 2b3d
000000e0: eefe 343d b72d 02bf 0178 013e 123e 903d
000000f0: 5ee7 e03d 7806 2cc0 1c34 2fbe dfd7 57be
00000100: 5fbc 1cc0 e62d 3c40 f339 23bd 4dd2 77bc
00000110: 1638 87be de92 c6bf 7147 f33d 280d 623d
00000120: 3a45 463d 6dc3 153e 04c3 2abf 6508 15be
00000130: a385 c0be 4a9a f13b 898c b23a c011 f03c
00000140: 3bba 20bf c51d ac3f ec78 9e3e d8ce 673f
00000150: 5d05 b9bc f654 83bf fd0d 35bc b0d0 9abd
00000160: c6b3 71bf 50ee b3c0 e125 413e 005b 6b3d
00000170: 27f0 673e bcd4 37c0 c6a8 c63e b0bd ed3d
00000180: 58e0 0d40 0a42 9cbf 681c fc3d 7a03 63bf
00000190: cd72 42bf fa4a a1c0 8dec ad3c d674 eabc
000001a0: 4bd5 19be b0df 82bf 5428 773d c3f1 cdbd
000001b0: 8a9e 88bf c3af f9bf 6bf5 acbe 9dd3 0d3d
000001c0: 83a7 3fbf 006f a03d 3948 823e 17db b2ba
000001d0: e52c 95bf 9c6b ffbe 2f0e e73e d96c 643d
000001e0: 591b 0bbd f76a 1abe cffe 3dbd fdad 8f3d
000001f0: 7aa6 b1c0 e69e e03e 75b7 673f f2dd 693d
00000200: 410b 2e3e 0311 a8be 6f2b b0be ac22 223e
00000210: 41d2 e93f 29bd 4440 f03d a9bd 03f3 a5bd
00000220: 528b cebe fa54 ffbf 754c 23be 7909 003d
00000230: 86a4 1cbf c78a 20bf 300f babe 6473 623e
00000240: 9f24 b93f 93b3 71be 3ccf dcbe 1387 34bc
00000250: b069 853d 076c 81bf 5fab e2bc ccb2 a23f
00000260: 088d d83f 8499 11c0 0888 a43f a244 7a3c
00000270: 5cb9 fd3e 3eb1 f9be f1ce 2abf 7866 69bf
00000280: ee8b 19bf 33d5 98bf 4927 17bf 6e06 c6bb
00000290: d527 2b40 86d1 5bc0 ef4d 033e ef6e 4e3f
000002a0: 9363 e63d 9b38 74bf d865 1a3d 72b9 aa3d
000002b0: 413a c9bf 6153 053f b83a b9be 3650 7a3d
000002c0: 5785 9c3d e2b2 c2be f592 19be 48e5 8ebe
000002d0: a6e2 49c0 cf9f cb3f 3a79 e1be eee5 d53f
000002e0: 57b8 70c0 7bab 7d40 dfb4 33bf c410 573c
000002f0: aac1 14bf a3ca 4fc0 bfa9 a1be 7101 2fbf
00000300: a7e5 c93d 4ea2 e6be 2ef2 febd 81b2 f3bf
00000310: b5c2 823e fc18 3bc0 bfbb dfbd 50fb 943e
00000320: c306 32c0 aaf9 d33f 59d6 16bf e28d debf
00000330: 9715 16be 77c5 85bf 864f dd3b 5c29 93bd
00000340: 3f87 433f 10cf a8bf 7e55 2fbe 0fbd c23d
00000350: 1ff6 38be db96 583d 74ce 5abe a6d3 16be
00000360: 2ce9 c1bf 5760 973f 77bb aa3f f019 40bb
00000370: 00aa 1fbf e4b2 a43b db6f e4be ff47 ccbd
00000380: a9df 53bf 78d6 17bf bca3 8ebe dc7d 1dbe
00000390: c6d5 5cbf ea4f c63f f4c1 75bd 8d9a 3bbd
000003a0: 3b5e 40c0 109f b3bd 99c8 82be cab7 3f3e
000003b0: fa72 6bbe 4188 90bd 3275 4ebe 87fa 80be
000003c0: fd86 4ac0 a564 d5be 3a81 efbe 5f94 c1be
000003d0: 1566 4e3a d364 cdbc 672e dbbe 1181 6ebc
000003e0: 0651 b43d dd4a 873e 5aae 35bf 9244 32be
000003f0: ca7a 71be d33d 15b9 7beb 193c 68e2 d03d
0.17840907 0.09643531 -0.110611446 0.030182756 2.8431847 0.35499182 0.8526031 -0.019477384
-1.1583081 0.057926822 -0.029476983 0.07217558 -0.601322 -0.669467 0.120291874 0.018079078
-0.26596433 -0.8835649 -0.168383 0.00020702105 0.08630987 -1.0190358 0.267451 -0.0078107985
-0.10112732 -0.096995525 0.1482218 0.05034197 -0.6033673 -1.4828006 -0.16575865 -0.1473184
0.185408 0.27286935 -0.532947 0.032462295 -0.12725843 -0.35531536 -0.33746395 0.036993347
-1.3576405 -1.8413829 -0.028907156 0.032887403 -0.3002935 -0.36615497 0.08319173 0.1223707
-0.10645008 0.26113495 -0.39637616 -0.03471796 -5.7380314 0.9533342 0.0601789 0.041888755
0.044188432 -0.50851005 0.12643434 0.07043089 0.1098163 -2.6878948 -0.17109722 -0.21078442
-2.4489973 2.9403014 -0.039850187 -0.015125823 -0.26409978 -1.551357 0.11878861 0.055188328
0.048405863 0.1462533 -0.6670382 -0.14553984 -0.37601957 0.007373129 0.0013622205 0.029305339
-0.62784165 1.3446585 0.3095163 0.90549994 -0.022585565 -1.0260303 -0.011050698 -0.07559335
-0.9441494 -5.622841 0.18862106 0.05745983 0.22650205 -2.8723593 0.3880064 0.11608446
2.2168179 -1.2207654 0.123101056 -0.8867718 -0.7595642 -5.0404024 0.02123096 -0.028620165
-0.15022771 -1.0224514 0.060341194 -0.10055878 -1.0673382 -1.9506763 -0.3378099 0.03462564
-0.7486498 0.078336716 0.25445727 -0.0013645616 -1.1654326 -0.49886787 0.4512801 0.055767868
-0.033961628 -0.15079866 -0.046385583 0.070156075 -5.551572 0.4387123 0.9051431 0.05709643
0.1699648 -0.3282548 -0.34408137 0.15833539 1.8267289 3.0740454 -0.08263767 -0.081029914
-0.40340668 -1.9947808 -0.15947135 0.031259034 -0.6118854 -0.6271176 -0.36339712 0.2211433
1.4464301 -0.23603658 -0.43126857 -0.011018532 0.06514299 -1.0111092 -0.027669607 1.2710814
1.6918039 -2.2749949 1.2854013 0.015275152 0.4955548 -0.48768038 -0.6672202 -0.9117198
-0.5997914 -1.1940063 -0.5904432 -0.006043247 2.6743062 -3.4346633 0.12822698 0.8063802
0.11249461 -0.95398873 0.037694782 0.08336152 -1.5720903 0.5208035 -0.3617761 0.06111165
0.0764262 -0.38027102 -0.14997466 -0.27909303 -3.1544585 1.5908145 -0.440378 1.6710794
-3.7612512 3.9635913 -0.7019786 0.013126556 -0.5810801 -3.246743 -0.31574818 -0.68361574
0.09858256 -0.45045704 -0.12448536 -1.903885 0.25539175 -2.9234 -0.109244816 0.29097986
-2.7816627 1.6560566 -0.5892082 -1.7387049 -0.14656673 -1.0450886 0.0067538647 -0.07185623
0.76378244 -1.318819 -0.17122456 0.09508716 -0.18062638 0.052878242 -0.21367818 -0.14729175
-1.5149283 1.1826276 1.333846 -0.0029312335 -0.62368774 0.0050262082 -0.4461659 -0.0997467
-0.82763153 -0.5931163 -0.27859294 -0.15380043 -0.8626369 1.5493138 -0.05999942 -0.045801688
-3.0057514 -0.08770573 -0.2554367 0.18722454 -0.22993079 -0.07057238 -0.20161894 -0.25191137
-3.164489 -0.41678348 -0.4677828 -0.3780851 0.0007873488 -0.02507249 -0.4280884 -0.014557139
0.088045165 0.26424304 -0.70969164 -0.1740897 -0.23581997 -0.00014232779 0.009394522 0.101994336

layers.0.bias f4 [128]
00000000: d88d b3be c23e 16c0 eede 4abe a8f8 c8be
00000010: 6b13 7fbe 6dc9 b0bf 86f5 38bf 3642 60bf
00000020: e7d1 87ba 825f 7cbe 8397 a63c b664 24bf
00000030: c24b 19be cc5a 513f a289 8abf 46dd b33e
00000040: 889e 39bf 5429 7bbf 8a05 d93d e72d e8be
00000050: b9fe 9cbf c5c4 0fbe 3612 473f 3fda 59bf
00000060: 765b 16c0 39ad a53e 9aa9 31bf 1974 1e3f
00000070: c38a 53bf fc0d 93bf 2da5 adbe f0bc 14bf
00000080: c611 2abe 1499 eebf 56e8 d33d 676f b6be
00000090: 179e 9fbf 3857 f7bf a9c9 10c0 176d e9bf
000000a0: 4fd9 493f 121e c0bf 3e4f c6be 39bd f13e
000000b0: 4fff 14bf 5b54 5c3f b643 de3f 3f25 92bf
000000c0: 8daa 01c0 f843 203e c314 7f3f dd2e a7be
000000d0: 22a6 91be 0954 87be b624 44c0 9523 bc3e
000000e0: f617 493d 3033 b6bf 748c 583e 1e7a f8be
000000f0: bfa1 2d3f e9cd 81be cfa9 913e 23b5 53bf
00000100: fcec 07bf c58a af3e e7ca 89bf acba 63be
00000110: cbfe 94bf e432 abbf b30c 263e 19a3 ddbf
00000120: 1d0e 023d 9f63 2ebf 0c96 b2bd 49c3 cb3d
00000130: d338 813e ae8c ae3e 75aa 8dbe c4b6 3c3f
00000140: 262f 01c0 51e5 6bbf 2b85 063d 7bd3 373d
00000150: 4a99 fabf 718d 203e a357 88bf 1959 0ec0
00000160: 5f95 e83d b718 17c0 f0e2 a63e 166f 4bbe
00000170: 5a6e 26bf 59a5 15be d904 e9be fd10 96bf
00000180: 45e9 f7be d3cb c5be 36ce 02bf e530 11c0
00000190: 6b99 b93d 54b8 b7bf 3c2d 10c0 6025 82bf
000001a0: df14 2bbf 92ad 61be cc18 ba3e a2f0 84be
000001b0: d591 053f b343 12bf 8ce5 c33f dfc9 febf
000001c0: 0c75 c73e 8621 d3be 6435 303f ccee 02c0
000001d0: 6329 c63e c234 b6bf e2b0 56be 947c b3bf
000001e0: 4b37 813e 4529 01bf b22a 52bf a03a 06c0
000001f0: 80b8 88be 3405 7bbe 0cdb 643e 4911 fe3f
-0.35069156 -2.3475804 -0.19811603 -0.3925221 -0.24909751 -1.381147 -0.7224964 -0.8760103
-0.0010362238 -0.24645808 0.020335918 -0.6421617 -0.14970306 0.8177917 -1.0823252 0.35129756
-0.72507524 -0.98109937 0.105967596 -0.4534752 -1.2265235 -0.14039905 0.7776216 -0.8509864
-2.3493323 0.3235872 -0.69399416 0.618959 -0.8263361 -1.1488643 -0.33915082 -0.58100796
-0.16608343 -1.8640466 0.10347049 -0.35631868 -1.247012 -1.9323492 -2.2623084 -1.8236417
0.7884721 -1.5009177 -0.38732332 0.47214678 -0.5820207 0.86066216 1.7364414 -1.1417617
-2.0260346 0.15650928 0.99641055 -0.3265294 -0.28447062 -0.264313 -3.0647407 0.36745897
0.049095117 -1.4234371 0.21147329 -0.48530668 0.6782493 -0.2535241 0.28449866 -0.8269827
-0.53095984 0.3428556 -1.0765046 -0.22239178 -1.1640257 -1.3374906 0.16215782 -1.7315398
0.03175174 -0.6812076 -0.087200254 0.09949357 0.25238666 0.34091705 -0.2766911 0.7371638
-2.0185027 -0.92146784 0.032841843 0.044879418 -1.957803 0.15678956 -1.0651745 -2.224188
0.11356615 -2.3608835 0.32595015 -0.19866595 -0.65012133 -0.14613856 -0.4551151 -1.1723934
-0.48420158 -0.38632068 -0.510959 -2.2686093 0.09062465 -1.4353127 -2.252761 -1.0167656
-0.6682872 -0.22038868 0.36347044 -0.25964838 0.5217565 -0.5713455 1.5304427 -1.9905356
0.38956487 -0.41236514 0.6883147 -2.045825 0.3870345 -1.423485 -0.20965913 -1.4022393
0.25237498 -0.504536 -0.820964 -2.0973282 -0.26703262 -0.24513704 0.22349185 1.9849025

layers.2.weight f4 [128, 128]
00000000: 8ec7 ecbd 981d a2be 2f2d 8a3e 8663 c03e
00000010: 2354 563f 3862 68be 5f55 d1bd 6ec4 e23e
00000020: c51c 2bbe 76a4 2abe be5a c1be 952d a4bd
00000030: 0349 403e 7b87 2c3e 1ec2 7a3d 2c73 30be
00000040: 18cc e0bd c215 c5be 6315 e9be d38d 60bd
00000050: 75a7 76be 4cde 763f 4b6b 8bbe 660c a4be
00000060: 978d 2ebf c33e 47bd 40c6 e93e 3844 e2be
00000070: 8ed3 1fbf 6b57 48bf e5ab 97bc eb36 bebe
00000080: fcbe 35bf 99e1 8dbc 35e4 023f e854 39be
00000090: e50f 9e3e 79fa a53e 7486 efbe a0de 8abe
000000a0: e7f6 c5be fa84 47be 6f84 48bf 1e3f 1fbf
000000b0: e5e6 d9bc bae6 b73d d8fa 0dbf 7982 783e
000000c0: 72a7 1dbc 5837 b1be 634a 21be 3d6c 64be
000000d0: 9770 e43e f669 d43e 11ea 933e ba62 b7bd
000000e0: 55de b0be 766d 023f 97fd 1cbf 617f 7e3d
000000f0: 2940 b8be b270 bdbe 98a0 5e3d 1b87 2e3f
00000100: 3cb2 c4bd ea4c 22be eef7 00bf c1be 113f
00000110: 2596 5fbd cf89 a13e aa71 203d 6277 37be
00000120: 1a79 42bf fcb7 663f 61a2 a33a c75f 113e
00000130: fd3e e93e 9760 b6be 4407 00bf 2713 82be
00000140: 39ef 74bd 54d3 983d c405 c83e 29e8 16be
00000150: f732 cdbe ce56 9ebe ba56 4e3e 3f32 493f
00000160: f2c1 91be 9a3a d739 6121 21bf 479c 943e
00000170: 4dc2 bf3e c04e 12bf bb75 673e e42b 06bf
00000180: 1b45 763d f087 733e 90ec a1bd 8b36 85be
00000190: 0ddd 74be 2e3b 61be 7822 68bd fc91 36bf
000001a0: d80d 35bd 98f7 40bf 4a6a 29bf e2f6 973d
000001b0: a231 42be 7699 083f 1b31 20be ff9d 06be
000001c0: c1ae d8bd 140b f2bd 59b7 8d3c 7721 0ebe
000001d0: 4507 9c3e 6b00 f8be 0ec6 83be 1c46 b3be
000001e0: bf8c c63d bb31 08bf e4de 783e 3d3f f63e
000001f0: e64e 893e e7ca bb3e 0ec4 15be 4702 653e
00000200: 1081 29bf 2ac8 1cbf e8ac c3ba b994 e43e
00000210: c519 283f aa53 afbe 0f33 a8be 6400 873e
00000220: d9ee d83d ee8f 93ba db0b 83be 237e 1abe
00000230: 704a 00be e489 29be 3b1f 1fbe ec69 0dbe
00000240: 8e7a a63f 051e cf3c 99b9 9e3e bb7d 903e
00000250: 7b48 4dbf 8442 1e3e 1d54 c63c bb65 1dbf
00000260: 636f 033f 6d78 cfbe b600 03bf 9afa edbe
00000270: a0e1 db3e 86ab 94bc 0b15 8fbd 4270 0abf
00000280: 7173 4fbd 75f0 5bbd a263 aebd 032c a43e
00000290: d4ce b3be 94f1 953e 9440 b1be 2c60 a7be
000002a0: 898e 8dbe 93a4 a93e 4e86 c6bd 8bfb 803d
000002b0: 75bc c23d 2d67 b83d 0086 e5be c502 ee3d
000002c0: d65d e93d ad1a 3abd 5b45 86be 82d0 4c3e
000002d0: 9bb2 d53e 88c2 1b3f 7d19 83bf e1ad 193e
000002e0: 7f8e a83c ce52 7a3f aa0e 04bf b8e4 b33e
000002f0: a814 413d f4d5 92be 15ba 0b3d 8617 aa3b
00000300: e1f2 41bf 0a57 b1bb 9e13 8bbe 036d cd3e
00000310: 568b 91be cc51 f23e a85b 153d 827e 363f
00000320: f16b 3dbe b760 693e 91a1 183e c958 1f3f
00000330: 65e0 de3e eda9 69bd 5c55 cc3e 5b21 d0be
00000340: 0d2d 15be a569 a93e 4952 6bbe e42b 9a3c
00000350: 70a0 263d f43d 12be 0428 7c3e 4893 46bc
00000360: ea59 ccbe 9db1 a6be a57c 0cbe e507 bc3e
00000370: 73c0 353f 7d1e 16bf 3a84 0fbf 1714 f3ba
00000380: a3ea d0bd f9d8 763e cd3e 2abe 7341 73be
00000390: e755 063f eb32 a1be bd47 67bf 4009 dcbe
000003a0: d1e8 9fbe 2fdb f7bb 05fc 76bc 427e 923d
000003b0: 6cc6 343d 8b17 b83e 7aec 3cbd f851 a83e
000003c0: e1e5 ed3e 06c7 d33d 7927 cabe 0fd5 13bf
000003d0: 4e92 b73d 72e7 75be b978 903e a1fa 423e
000003e0: 624f 4cbe 017b ccbd 39e0 cb3e 7502 11bf
000003f0: d236 3ebe 23fc 19bf bf59 a2bd 002f e43b
-0.115614995 -0.31663203 0.26987597 0.3757593 0.8372213 -0.22693717 -0.10221361 0.4429049
-0.16710193 -0.166643 -0.37764543 -0.080165066 0.18777852 0.16848557 0.06122028 -0.17231435
-0.10976428 -0.38493162 -0.4552413 -0.054822754 -0.24087317 0.9643295 -0.27230296 -0.3204071
-0.681848 -0.04864384 0.45659065 -0.44192672 -0.6243218 -0.7825839 -0.018514583 -0.37151274
-0.70994544 -0.017319487 0.51129466 -0.18098795 0.30871502 0.32417658 -0.46782267 -0.27122974
-0.38664934 -0.1948432 -0.7832708 -0.62205684 -0.026599357 0.089795545 -0.5546088 0.24268521
-0.009622442 -0.34612536 -0.15751033 -0.22306915 0.4461715 0.41487092 0.28889516 -0.089543775
-0.34544626 0.50948274 -0.6132445 0.062133197 -0.3598645 -0.37000042 0.054352373 0.68174905
-0.09604308 -0.15849653 -0.5037831 0.5693169 -0.05458655 0.31550452 0.0391709 -0.17916635
-0.75966036 0.9012449 0.0012484306 0.14196692 0.4555587 -0.35620567 -0.50011086 -0.25405237
-0.059798453 0.07462183 0.390669 -0.14737 -0.40077946 -0.30925602 0.20150271 0.78592294
-0.2846828 0.00041051657 -0.6294156 0.2902548 0.37452927 -0.5715141 0.22603504 -0.5241072
0.060124498 0.23782325 -0.07906449 -0.26018175 -0.23912449 -0.21995232 -0.056673497 -0.71316504
-0.044202656 -0.753778 -0.6617781 0.07420136 -0.18964246 0.5335916 -0.15643732 -0.13146208
-0.10580207 -0.11818519 0.017299341 -0.13879953 0.30474296 -0.4843782 -0.2573704 -0.35014427
0.09694814 -0.5320088 0.24303776 0.48095122 0.26818007 0.3667824 -0.1462557 0.2236415
-0.6621256 -0.61242926 -0.0014928849 0.44644716 0.6566432 -0.34243518 -0.32851455 0.26367486
0.105924316 -0.0011258104 -0.25594983 -0.1508718 -0.12528396 -0.16556507 -0.15539257 -0.13809937
1.3006151 0.02528287 0.31000975 0.28220925 -0.8018872 0.15455061 0.02421003 -0.61483353
0.5134184 -0.40521565 -0.5117296 -0.46480256 0.42945576 -0.018148195 -0.069864355 -0.5407754
-0.050647203 -0.053696115 -0.08515097 0.32064828 -0.35118735 0.29285872 -0.34619582 -0.3269056
-0.27647808 0.33133373 -0.09693585 0.06297978 0.095086016 0.09004054 -0.44828796 0.11621622
0.11394851 -0.045435596 -0.2622479 0.20001414 0.41737828 0.60843706 -1.0242153 0.15007736
0.02057576 0.977826 -0.51584876 0.35135436 0.04713884 -0.28678858 0.03411301 0.0051907925
-0.7576123 -0.005411987 -0.27163404 0.40122232 -0.28426617 0.4732803 0.036464363 0.71286786
-0.18498208 0.227908 0.14905383 0.6224485 0.43530574 -0.05704682 0.39908874 -0.40650448
-0.14567967 0.33088413 -0.22980608 0.018819757 0.04068035 -0.14281446 0.2462464 -0.0121200755
-0.3991235 -0.32557383 -0.13719423 0.36724773 0.7099678 -0.5864027 -0.56061137 -0.0018545416
-0.102010034 0.24106206 -0.16625519 -0.23755436 0.52474827 -0.3148416 -0.9034384 -0.42975807
-0.31232312 -0.0075639705 -0.015074735 0.07152988 0.044134542 0.35955462 -0.04612396 0.32875037
0.46464446 0.10340695 -0.3948324 -0.57746977 0.08963452 -0.2401407 0.28217104 0.1904092
-0.19952157 -0.09984399 0.39819506 -0.56644374 -0.185756 -0.60150355 -0.07927274 0.0069636106

layers.2.bias f4 [128]
00000000: dbc4 b6be 1ee8 8dbe 6097 443e f0bd ebbe
00000010: df30 33bf bf19 46bf 338a 0d3d 78c5 09bf
00000020: 33a2 34bf 6ec6 44bf 3106 7cbf b7f3 f33f
00000030: f4f8 98bf c3b1 01bf e229 d3bb 368e 21bf
00000040: 4f80 9fbf 8806 3dbf a774 39bf 27d4 26bf
00000050: fd03 bfbe 5efa 5bbf 6b68 bcbe 2168 2dbf
00000060: 0428 2c3f 279f 6cbf 3b38 0ac0 f9e4 9dbe
00000070: 244d 13be 4adc 3cbf 72de d13f 43fc 44bf
00000080: 4787 fabf c183 7fbf 0f80 86bf a58c 23bf
00000090: 82a2 47bf 223a 54bf e07c 5bbf d912 cfbe
000000a0: e09b ec3e b669 c8be b10f 03bf c537 01bf
000000b0: 7c7b 1cbf b0a0 8ebf fe61 5cbf 9205 0cbf
000000c0: c0f8 f2be 622c bf3f 5441 77bf d433 90bf
000000d0: 8a61 33bf 0c1b b3bf c000 5fbf 34bb 51bf
000000e0: 2997 f6bd 3ffb 3ebf afbc 41bf 7025 e93e
000000f0: 0a34 20bf 49f3 a23e 2b13 23bf c8a7 76be
00000100: ba71 83bf 97e1 a3bf 1fa6 25bf c383 3bbe
00000110: d888 293e b3d6 32bf e33d ea3c 1e3f 533e
00000120: 1bea 76bf fa4c 973f 5912 fabe 5662 793e
00000130: f45b b5be b0ce 17bf 4346 12bf 2263 b6be
00000140: 38e3 61bf 5ed3 bcbe 837b 0abf 8fde 08bf
00000150: ab60 d2be b905 86bf 5a43 7dbf a5d0 17bf
00000160: 473a f63e 1841 c7be 8c1f e0be 8e60 4cbf
00000170: ffdb f5bf 2190 0540 06d8 a93f d69f 15bf
00000180: 0976 eebe 946a 96be 82f6 cfbf 1fe3 30bf
00000190: 7634 c93e 8982 5abf 8aa7 4cbf 7bf4 d8be
000001a0: d5c5 a1be bbeb 6ebf f933 9bbf fa67 33bf
000001b0: b3a8 ed3e 7b1a 68bf 449d 87bf 07d8 943d
000001c0: 2e18 af3d 0260 14bf 6067 f1be 9a87 50bf
000001d0: 0efb 913f 0dc9 51bf 9b86 a83f b7c3 6dbf
000001e0: b52d 7abf 053f c8be 43fc 1ebf 3a44 4fbf
000001f0: 4079 a0bf 7ddf f5be 59ac 01bf de74 1dc0
-0.35697064 -0.27716154 0.1919837 -0.46043348 -0.69996446 -0.77383035 0.034555625 -0.5381694
-0.70559996 -0.7686528 -0.9844695 1.9058751 -1.1950974 -0.5066187 -0.006444202 -0.6310762
-1.2461032 -0.7383809 -0.7244362 -0.6516747 -0.3730773 -0.85928905 -0.36798415 -0.67737013
0.6724856 -0.9243035 -2.159682 -0.30838755 -0.14384896 -0.73773634 1.639601 -0.7694742
-1.9572533 -0.99810416 -1.050783 -0.6388648 -0.7798234 -0.82901204 -0.8573742 -0.40444067
0.46212673 -0.3914315 -0.5119582 -0.5047572 -0.6112592 -1.1142788 -0.86087024 -0.54696
-0.47455406 1.493542 -0.9658406 -1.1265817 -0.7007071 -1.3992629 -0.8711052 -0.81926274
-0.1204055 -0.7460212 -0.75678533 0.45536375 -0.62579405 0.31826237 -0.63701123 -0.24087441
-1.0269082 -1.280322 -0.64706606 -0.18311982 0.16556108 -0.69858855 0.028593963 0.20629546
-0.96450967 1.1820366 -0.48842123 0.24353918 -0.35421717 -0.59299755 -0.5713846 -0.35622507
-0.88237333 -0.3688001 -0.54094714 -0.534646 -0.41089377 -1.0470496 -0.98930895 -0.5930274
0.48091337 -0.3891685 -0.43774068 -0.7983483 -1.9207762 2.086922 1.326905 -0.58447015
-0.4657443 -0.29378188 -1.6247103 -0.6909656 0.39297837 -0.8535543 -0.79943144 -0.42374024
-0.31596246 -0.93328446 -1.2125236 -0.7008053 0.4641777 -0.90665406 -1.0594869 0.072677664
0.08549534 -0.57958996 -0.4714918 -0.8145691 1.1404741 -0.81947404 1.3166078 -0.9287676
-0.97725993 -0.3911058 -0.6210367 -0.8096348 -1.2537003 -0.4802207 -0.50653607 -2.460258

layers.4.weight f4 [3, 128]
00000000: 2b9b adbc 2d19 0abd 933c d63d c401 1cbe
00000010: c060 1ebe 06bc b3bd f505 3bbf 6f81 73bd
00000020: 4fbe 00be 9fb3 863e c3c3 5abd a0bc 333f
00000030: c875 893e 3701 253e 6a59 413d 01d0 a03b
00000040: 136f 33be 920d b83d 04e2 5ebd 7a01 88be
00000050: 30b5 ec3c d522 3b3b cbb3 753c 1866 253e
00000060: 3711 c93e bdab 2ebd 1173 49bf 30e5 eb3c
00000070: b1e7 143e 4616 c9bd 2fc2 9c3f bc42 ad3e
00000080: cef0 713f 4b40 203e 249d 083e 585e 1dbe
00000090: ba7b 3d3a 84de 02be 834e 03bc cbea 40bd
000000a0: a212 c03e a22d 87bc a5ea 05bc 5796 a3bc
000000b0: 9602 3cbc e846 c53c f373 77be e108 4cbc
000000c0: 99f4 17bd a2ce 413f 41f9 43be 7c32 bc3e
000000d0: bd98 01be 9431 0cc0 105b 80bd 0d0a af3d
000000e0: e70c 80be 53c6 bc3c cefd c3bd af4d 5d3f
000000f0: fcbd 253d 4ad2 583c b1b1 9d3e 2cbf d2bd
00000100: 584c ca3d 4650 853f 57c2 60bd 7b1f 2e3d
00000110: 8760 143f bc1e e43e f427 f53d 0853 403e
00000120: 2010 45bb 7ced 933f e88a cb3c 8014 bebe
00000130: c846 60bd 8cdc c0bb 3511 85be cd4e 51bd
00000140: 01e1 023e fb3d 06bd c0b2 493d 6049 0abe
00000150: 3400 be3c ad70 9bbe 1200 13be 0997 333c
00000160: 083b b3be ac74 b13d 128d 02bd 8df5 7cbc
00000170: 246a 4abf 28fb 6d3e 7546 5a3f 9709 ebbd
00000180: 38fd 1abe 960b 45bb c1fc fa3d 1d17 b7bd
00000190: 7cd3 cf3e 4026 38be 786e 71bd c02f c63d
000001a0: e4d0 21be caa8 a0bd 4a34 b53d 752b 99bc
000001b0: 1d25 c43d 6c34 07bf e533 003d e251 c1bd
000001c0: 7df4 9c3e 763b b6bc adf3 6a3d d97f c63c
000001d0: 3ce3 c03f 3abd 02c0 554b 5fbe 069b c8bd
000001e0: 2721 ea3e 6d2d 3e3e e209 8abd faeb cdbd
000001f0: 9103 72be c511 6939 66ff 573e 75ed 66bf
00000200: 3218 8dbc 4a77 163d 7a4f 1d3f 9911 8f3e
00000210: d5c5 71bc 5715 a93c 8a09 94bf c4c2 a43d
00000220: c63d 263e d630 593d a06b 1abe 3a4d 363f
00000230: 3b00 673e e4f6 d1bd b919 26bf ad91 e0bd
00000240: feeb 4b3d 1130 e5bd f3a7 ee3d 2bef 383e
00000250: e1c8 21bd 2b22 bbbd 68a0 763d f073 ac3e
00000260: 810f a4be 7f6c 8c3e c159 abbd bc8a c1bc
00000270: a84b 28bf 647c bf3e 6e1a 613e 5d22 d53d
00000280: 3c0d 1a3f 812c 443c b4ee df3d bdbf a83d
00000290: c608 b83d 37fe 2cbe 8432 e23c 8519 af3b
000002a0: d00a 1e3e e6cf 033d 5f82 60bb a6b2 be3d
000002b0: e261 323d 9d22 1abe 2baf 06bd bf8c b0bc
000002c0: 297b 1e3d ff90 c23d a98f 463e acf3 c8bd
000002d0: 3a49 ae3f b17b 3abe 1892 503d 8503 c2bd
000002e0: b7d0 733f c2b5 763d fe12 ff3d 0a1d 1abf
000002f0: 1fa5 d83d a1ae 27bf 5da5 143b 6904 d43c
00000300: 8492 823d 0364 9abf d508 073e ff2d 423b
00000310: e68a 603f 2a15 a3bc 545c 9ebe 5d23 b4bd
00000320: 9b3c 873d 5052 69be f295 91bd 9108 0bbf
00000330: 4ea4 a73d ab7e 1c3e 6b89 00be c46a 3dbd
00000340: f016 cb3d a4f4 97ba fd45 00be 89d3 11bc
00000350: cdac 9e3c 0630 c63d 2b55 d2bd 9a6e 1b3e
00000360: 1ff4 373f be6c 663d 7e62 cd39 c183 27bd
00000370: 7930 7dbc 2740 a7bf 227d 94bb 931b b93d
00000380: 4dff d53d 81cc 893c 28e6 1f3f a93b 2b3e
00000390: d807 a23e 7e78 5abc 7614 553e ed3e 073f
000003a0: fa77 09bd 7201 8a3d 7454 8dbe 0d02 e1bc
000003b0: 3fe0 1440 5511 dc3e ecca fdbc 3804 923e
000003c0: 157f dbbf a07d ad3c 23fb d2bd 191b dbbc
000003d0: 4941 70bc 67a5 98bb cf72 713f cdb4 2c3e
000003e0: 7c33 13c0 7e2e b73d 0676 4fba ed31 8cbd
000003f0: b98d 113e bc94 273e fa5a 043e 7982 87bd
-0.021192154 -0.033715416 0.10460772 -0.15235049 -0.15466595 -0.08776097 -0.73055965 -0.05944961
-0.12572597 0.26308915 -0.05340935 0.70209694 0.26847672 0.16113745 0.047204413 0.0049076085
-0.1752284 0.08986963 -0.054414764 -0.26563627 0.02889499 0.0028554697 0.014996479 0.16152227
0.39270946 -0.04264425 -0.786912 0.028795809 0.14541508 -0.098187014 1.224676 0.33839977
0.94508064 0.15649526 0.13341194 -0.1536802 0.00072282145 -0.12780195 -0.008014324 -0.047098916
0.37514216 -0.016501252 -0.008173619 -0.019969149 -0.011475226 0.024081662 -0.24165325 -0.012453289
-0.0370985 0.7570592 -0.19138052 0.36757267 -0.12655921 -2.190526 -0.06267369 0.08546839
-0.25009844 0.023043787 -0.09569894 0.8644666 0.040464386 0.013233731 0.3079963 -0.102903694
0.09877843 1.0415123 -0.054872837 0.04251049 0.5795979 0.44554698 0.11970511 0.18781674
-0.0030069426 1.155685 0.02484651 -0.37125015 -0.054755002 -0.0058856662 -0.2598969 -0.05110054
0.12781145 -0.032773953 0.049242735 -0.13504553 0.023193456 -0.30359402 -0.14355496 0.010961303
-0.35005975 0.086648315 -0.031872816 -0.015439403 -0.7906821 0.2324034 0.8526376 -0.114764385
-0.15135658 -0.003006672 0.1225524 -0.089399554 0.40591037 -0.17983341 -0.05894324 0.09677076
-0.15802342 -0.07844694 0.08847864 -0.01869748 0.09577391 -0.52814364 0.03129949 -0.09439446
0.3065528 -0.02224515 0.057361294 0.024230884 1.5069346 -2.0427995 -0.2180608 -0.097951934
0.45728418 0.18572016 -0.06740166 -0.100547746 -0.23634173 0.00022227231 0.2109352 -0.9020608
-0.017223451 0.036734857 0.61449397 0.27943113 -0.0147566395 0.020640058 -1.1565411 0.08044961
0.16234502 0.05302509 -0.15080118 0.7121159 0.22558682 -0.10252169 -0.64883 -0.109652855
0.049785607 -0.111908086 0.116531275 0.18059985 -0.039498214 -0.091373764 0.06021157 0.33682203
-0.3204308 0.27426526 -0.083667286 -0.023625724 -0.6574044 0.3739959 0.21982738 0.10406945
0.60176444 0.011973501 0.10934201 0.08239696 0.089860484 -0.1689385 0.027611978 0.0053436183
0.15433812 0.03218069 -0.0034257395 0.09311418 0.04355038 -0.15052266 -0.032881897 -0.021551488
0.038691673 0.09500312 0.1939074 -0.09812102 1.3616097 -0.18211247 0.050920576 -0.094733275
0.9524035 0.06023193 0.12454794 -0.6020056 0.10578369 -0.6550084 0.0022681572 0.02588101
0.06375602 -1.2061771 0.13186963 0.0029629467 0.8771194 -0.019907553 -0.30929816 -0.087958075
0.066033565 -0.22785306 -0.07108678 -0.54309946 0.081856355 0.15282695 -0.12552421 -0.046244398
0.09916484 -0.0011593294 -0.12526698 -0.008900532 0.019369507 0.096771285 -0.10270151 0.1517891
0.71856874 0.05625605 0.0003917403 -0.040897135 -0.015453451 -1.3066453 -0.0045315186 0.090384625
0.104490854 0.016821148 0.62460566 0.16721977 0.3164661 -0.013334392 0.20808586 0.5283039
-0.033561684 0.06738557 -0.27603495 -0.027466798 2.326187 0.42981973 -0.03098055 0.28518844
-1.7148157 0.021178067 -0.10301807 -0.02674632 -0.014664003 -0.0046583894 0.9431581 0.16865845
-2.3000174 0.089444146 -0.000791401 -0.0684546 0.14214219 0.16365331 0.1292533 -0.066166826

layers.4.bias f4 [3]
00000000: 68b1 0e3e fcc0 70be 0d05 403a
0.13934863 -0.23511118 0.00073249714

exp_avg f4 [128, 4]
00000000: 5ede c938 10e7 aa38 3723 0f3a 323b 4b39
00000010: bdde 0abc f169 42ba 5e8c b1bc 9f88 27bd
00000020: c3dc a237 64c5 57b7 1080 bdb8 02dc 33b9
00000030: 722b 8bb7 b0b5 eeb7 c3fd 3fb9 4d16 78b8
00000040: 5f02 b137 7bfe fe36 8215 8db7 69ab 79b9
00000050: 307a 7c38 fc1c 7238 6729 e439 1b4f 7538
00000060: f0cd 9838 e427 1e38 b788 7239 a86b 01b9
00000070: 823b c0b7 3b34 72b7 b38f 23b9 7cf5 15b9
00000080: 12fb 3b38 7953 4a38 e908 4339 93ff 3b38
00000090: 8c2c 3838 1d1c f337 f3ec 4139 fccf 76b8
000000a0: bb3b 5738 fdec 8c38 c540 d238 9f02 13b9
000000b0: 2253 2ab8 afe7 49b8 8979 5bb9 1e95 aeb8
000000c0: 61a2 0e39 75d8 ad38 56d7 2b3a b63c 41b9
000000d0: 201e 363b e19c 5e3b 0fcf 1d3d dc17 90bb
000000e0: e0b3 4eb8 4c16 feb7 e02f 87b9 13b1 d0b8
000000f0: e6c2 e1b8 2377 b939 c597 253b e301 73bb
00000100: 3e1f 5c3b 4492 683b c5cc ef3b 448e 0f3b
00000110: 2529 9c38 736c fa37 dae6 4439 b158 7d37
00000120: 393a 3638 dcac 8b38 056c 8639 6caf 33b9
00000130: 3255 ea37 0b29 3138 5baf 8039 9efd b536
00000140: 220e c43b 554c e33b 5ed9 873d bbd8 8b3c
00000150: bd4f e8b7 fdb1 bdb7 81d5 21b9 16f0 a4b8
00000160: d996 483a 4158 133b fe77 9c3c fae5 983c
00000170: 1ca3 6438 505d 1d38 a607 9539 c5c9 62b9
00000180: 8d0c 063c 58ab 9e3b 435b fe3c d8c4 1bbc
00000190: 7652 c3b6 f2a6 0c35 a9e7 4eb7 9a54 3237
000001a0: 31ae 8c38 700c e637 6ebe 2a39 b23f 69b9
000001b0: ae06 f238 6ea7 8138 27bc d739 3327 9bb9
000001c0: 8707 06b8 260d 63b8 26a8 76b9 85ca b0b8
000001d0: be25 3eb6 7d83 90b8 adde 46b9 eade 98b9
000001e0: 2138 7c37 90db 2c37 945f cb38 e279 d8b8
000001f0: e15a 7f3b bd8d 033c 4d2b 573d 6ab2 5bbd
00000200: 5a84 0939 18cb 0139 21a6 133a 2a0e 8637
00000210: df91 35bb cad3 87bb 2b0f 49bc fa3b 9238
00000220: 5371 6736 e51b 1038 fa5a a3b7 2996 fcb8
00000230: ade8 0238 fb22 cf36 4af1 8e38 fd45 d537
00000240: 4dfd 3236 6cab c637 89e0 5239 1216 aa39
00000250: b502 58bb 23e4 4bbb 5a52 83bc 1234 bbbc
00000260: b2c3 3cbc 0465 87bc 8cb7 fcbd 8857 bfbd
00000270: 68e6 0439 c8cd 1a39 75bd 783a 8732 0b3a
00000280: 2ca6 af38 f653 8a38 3ef2 0c3a 9011 4ab7
00000290: 6d78 4abc 2df5 70bb 924c 1bbd 110b 2dbc
000002a0: f6a6 9c37 26d9 f7b6 0d6f 3bb8 1ef8 f1b8
000002b0: 392d b238 b91d a338 7b57 f439 df51 7eb8
000002c0: a71f 3cb8 0dfb 65b7 3fc2 26b9 7dce 05b8
000002d0: 5457 433c f72a 923c 7531 d23d a192 4b3d
000002e0: 33c2 e03c d45c e63c dcce 293e 9762 ea3d
000002f0: ce42 87b8 7263 5c37 134b 9ab7 677c 083a
00000300: d8b8 9dbc 5753 8bbc ee47 29be 280d 0c3e
00000310: 50fe 3d3a 9c7c b339 eeb1 263b 44c0 5c3b
00000320: 3f80 953a a6ec a6bb 36e6 4abb 31b8 91bc
00000330: 6ff0 c937 1229 ddb6 5bd7 0ab8 5c10 23b9
00000340: 724d 5a38 1f67 0038 9630 8839 e30c 0fb9
00000350: 4404 5f38 654c 2c37 d275 8c39 71ab 2436
00000360: 7df5 903c ce67 9a3c 8202 d03d 5be9 9dbd
00000370: 5eac a138 a65b 8a38 2ddf aa39 830b ffb7
00000380: ef6c 0438 2b39 7237 fcf0 2d39 6517 44b9
00000390: 695b 1539 81c1 a039 ff2b 453a ae9f 4d3a
000003a0: ab1c d8b8 6644 97b8 9363 fcb7 90a3 fbb8
000003b0: d064 84b5 9a81 2036 3ff1 e8b8 c58b 6a38
000003c0: c2b1 8737 f1cf 0c38 7323 04b8 e1e2 953a
000003d0: 2cb5 4838 a8f3 8f37 1d2c 3739 505f bab8
000003e0: 5b1d a538 dee8 9c38 4ea1 b639 3413 1db9
000003f0: 1ede afb8 b217 0fb8 3838 c3b9 4b47 e538
9.625846e-05 8.1492704e-05 0.00054602645 0.0001938164 -0.0084759565 -0.0007416299 -0.021673378 -0.040901776
1.9414705e-05 -1.2860957e-05 -9.036076e-05 -0.0001715273 -1.6590322e-05 -2.8456416e-05 -0.00018309713 -5.9148577e-05
2.1101148e-05 7.5994153e-06 -1.6818525e-05 -0.00023810346 6.0195278e-05 5.772429e-05 0.00043518396 5.8486225e-05
7.286284e-05 3.7707287e-05 0.00023129849 -0.00012342504 -2.2915894e-05 -1.4436485e-05 -0.00015598423 -0.00014301197
4.48181e-05 4.8238293e-05 0.00018599968 4.4822296e-05 4.3910506e-05 2.8980949e-05 0.00018494185 -5.884467e-05
5.1315623e-05 6.719863e-05 0.000100256446 -0.00014019989 -4.0608582e-05 -4.8137907e-05 -0.00020930743 -8.324742e-05
0.00013602666 8.289601e-05 0.000655522 -0.00018428531 0.0027788952 0.0033968019 0.038527545 -0.0043973755
-4.928175e-05 -3.0289542e-05 -0.00025784876 -9.9511955e-05 -0.00010765139 0.00035374713 0.0025267464 -0.0037079982
0.0033587958 0.0035487572 0.0073181116 0.0021904865 7.4463234e-05 2.9852823e-05 0.00018778016 1.5100625e-05
4.3446405e-05 6.660234e-05 0.00025638953 -0.0001713612 2.7934646e-05 4.2238313e-05 0.00024544713 5.4237453e-06
0.00598313 0.0069365897 0.066332564 0.017071119 -2.7693686e-05 -2.2613438e-05 -0.00015433693 -7.864849e-05
0.00076518726 0.0022483023 0.019100185 0.018664349 5.4511343e-05 3.751862e-05 0.00028425193 -0.00021628205
0.008181703 0.004842203 0.031049376 -0.00950738 -5.8210526e-06 5.2397e-07 -1.2332494e-05 1.0629325e-05
6.708166e-05 2.7423928e-05 0.00016283404 -0.0002224434 0.000115407034 6.1823856e-05 0.0004114818 -0.0002959311
-3.19551e-05 -5.4133263e-05 -0.00023523028 -8.430056e-05 -2.8334175e-06 -6.890947e-05 -0.00018965705 -0.00029157783
1.5033439e-05 1.030312e-05 9.697597e-05 -0.00010322385 0.003896408 0.0080293985 0.05253153 -0.053636946
0.00013114643 0.00012378057 0.000563236 1.598064e-05 -0.0027705354 -0.0041451203 -0.012271683 6.972994e-05
3.4487646e-06 3.4358254e-05 -1.9473478e-05 -0.00012044266 3.121111e-05 6.173153e-06 6.816031e-05 2.542417e-05
2.6671507e-06 2.3683264e-05 0.00020110807 0.0003244137 -0.0032960598 -0.0031111322 -0.01603048 -0.022851977
-0.011521267 -0.01652766 -0.12339696 -0.09342867 0.00012674334 0.00014763244 0.00094886805 0.00053099584
8.375602e-05 6.595992e-05 0.0005376673 -1.2044227e-05 -0.012357813 -0.003676723 -0.03791482 -0.0105617205
1.8674396e-05 -7.386453e-06 -4.46877e-05 -0.00011537991 8.496125e-05 7.777982e-05 0.00046604485 -6.0634567e-05
-4.485217e-05 -1.3707916e-05 -0.00015903356 -3.190198e-05 0.011922676 0.017842753 0.102633394 0.049700383
0.027436351 0.028120436 0.16582817 0.11444586 -6.449745e-05 1.3136176e-05 -1.839319e-05 0.00052065257
-0.01925318 -0.017007513 -0.16531345 0.13676894 0.00072476733 0.00034234382 0.0025435644 0.0033683935
0.0011406018 -0.0050941287 -0.003095997 -0.017788025 2.4073028e-05 -6.5910945e-06 -3.310233e-05 -0.00015550986
5.2047377e-05 3.0613617e-05 0.0002597614 -0.00013642343 5.3171316e-05 1.0269786e-05 0.00026790664 2.4537696e-06
0.017695183 0.018848326 0.10156728 -0.07710525 7.709184e-05 6.5974236e-05 0.00032591206 -3.040373e-05
3.1572705e-05 1.44376345e-05 0.0001658834 -0.00018700732 0.000142438 0.0003066175 0.00075215095 0.00078439235
-0.000103050224 -7.212981e-05 -3.0087109e-05 -0.000119990786 -9.864107e-07 2.3917296e-06 -0.00011107558 5.5920118e-05
1.6176029e-05 3.357226e-05 -3.1504267e-05 0.0011435413 4.7852445e-05 1.716039e-05 0.00017468673 -8.8869245e-05
7.873281e-05 7.4820346e-05 0.00034833926 -0.0001497984 -8.386023e-05 -3.4115925e-05 -0.00037235185 0.0001093285

exp_avg_sq f4 [128, 4]
00000000: 7885 a234 475c 8034 7276 f536 8a4f 3f36
00000010: 0878 353c 33a9 343c f884 0c3f 3a92 a43e
00000020: cd98 ac34 ac5f d334 68fd 9137 0f21 4637
00000030: 6b90 6834 a0e9 8434 cad9 8237 8ba6 7c37
00000040: 1b68 0535 1a9d 8a34 1e98 a537 5feb f537
00000050: 0979 ad34 b10b 0b34 a537 0e37 6368 fe36
00000060: 2db5 bc35 4ea7 3635 3a60 3538 9fde 0938
00000070: 5e42 a735 11b9 4f35 3f84 8838 361e b238
00000080: a80f 4e36 88a1 1336 649f 6138 aeaa bf37
00000090: a6d4 7d35 2626 1935 5e85 0b38 800f 9537
000000a0: 53ef e236 1b8d 0937 4fad 173a 1865 c538
000000b0: 4c57 e434 2152 d934 6465 a937 0776 9d37
000000c0: e6eb 0435 10b3 0435 f66a 9437 06ff 3737
000000d0: 7e74 ac39 cd29 363a e183 353d b5c6 e23c
000000e0: 5d3b a635 fdc8 5a35 9080 4838 2527 1638
000000f0: 3abd 9439 8c65 c238 7e18 dc3b 954c 3a3b
00000100: 0d88 0539 b140 b439 e03e 843b bc24 0b3b
00000110: cf31 0335 fbd5 a834 1700 9b37 c378 0537
00000120: 1a05 8935 8b1b 5a35 763d f237 2f9c 0038
00000130: edd4 9b34 1cd7 9c34 5c2c 5437 dfd5 cc36
00000140: c770 bb3a afa7 c93a 2395 733d ec03 c73b
00000150: 8bdc fd33 9816 9c33 ee23 bd36 581b 0b37
00000160: e22b c039 5811 4639 df06 e13c fe21 b43c
00000170: 40ec cc37 b1b6 6437 b226 9c3a 6e9b 373a
00000180: cfb0 1f3a b27b 1d3a d690 d03c efc4 0f3d
00000190: 6269 b036 8ef7 2936 1113 d539 336f b839
000001a0: 7113 0a36 cd55 de35 1e23 d938 b7ec ae38
000001b0: c57c 7e34 738c 6234 0077 6e37 e74d ed36
000001c0: cd31 be33 c77f d133 d129 8336 c252 2936
000001d0: d559 e834 d6a3 f534 503b bf37 45f7 aa37
000001e0: 75d6 bf33 0a39 9f33 ce49 7836 040d 8636
000001f0: d471 b63a c540 003b 6fd9 0d3e 1de2 ab3d
00000200: 7a11 fc34 19de 9634 d355 6237 147d f536
00000210: fb27 913a 5965 4d3a f14c 973c 88bf 013c
00000220: c643 1036 7a3e a435 2885 ff38 fbe1 b938
00000230: cb28 eb34 a188 e934 b348 ab37 4df9 bd37
00000240: 8a2f 6736 8f13 a835 ea6a 1338 f4ae eb37
00000250: a6b6 963a af75 883a 0701 673d 1329 4b3d
00000260: 32d3 3b3c 2343 2d3c 78f1 1a3f 9d79 ce3e
00000270: 4182 ba36 bc75 b436 c659 9839 8fb2 0b3a
00000280: 76cb 0b35 b57d aa34 7349 d337 54df b037
00000290: 26ff e33a 6441 223a 8171 343d 8b57 113d
000002a0: 8889 1f35 77f7 d633 68ef 3837 ef1f aa36
000002b0: fc53 8635 d885 bb35 6bb6 7738 4afa 0a38
000002c0: 8576 df34 33db d734 eab6 8137 856d 6137
000002d0: 5761 e03b 463e 073c f169 eb3e 94ed ac3d
000002e0: b01e 843c 0605 883c 93a0 823f a19e 483f
000002f0: 780d 2237 0387 9836 c9de c239 77ab 263a
00000300: 789e 2a3b aea2 3d3b 870b 043e 272d cc3d
00000310: 25a8 5b38 196b 3938 d730 583b 0f36 b23a
00000320: 8f8a cf3b 2d8e f23b 746a ce3e d74d b43d
00000330: cafb 1634 0b5d e933 a24e 1b37 ea86 0237
00000340: af10 ae34 465a b833 55dd b236 e082 d736
00000350: 21e4 d634 609b cf34 6290 b637 189e 9137
00000360: 4553 993b dc5c f73b b733 933e 51c3 223e
00000370: 85f3 7434 ba9b 4b34 7ed3 5237 aaa5 7b37
00000380: 691f bc35 5140 9335 f3bf 8538 43d0 5e38
00000390: a4ab 4a36 7800 1e37 f5e7 d738 00da 1538
000003a0: e9e6 8d35 fa14 6535 c0ff 7438 8a2c 4b38
000003b0: 84c6 db35 bbe0 e535 eada a238 0b5a f137
000003c0: 1ced 1338 3b79 e637 9709 123b fa9f e43a
000003d0: 8702 9834 1fe9 0434 8a9e e836 ce05 1337
000003e0: e3d3 e335 4da4 e235 4a6d 9738 5835 bc37
000003f0: 74ca b334 8a37 ba34 b88e a037 c718 b236
3.0271963e-07 2.3908999e-07 7.315358e-06 2.8507516e-06 0.011075981 0.011026668 0.54890394 0.32142812
3.2148674e-07 3.9371423e-07 1.7403348e-05 1.1809417e-05 2.1659223e-07 2.47569e-07 1.5598624e-05 1.5059147e-05
4.9697854e-07 2.581881e-07 1.9740368e-05 2.931588e-05 3.2311826e-07 1.2949637e-07 8.476815e-06 7.581942e-06
1.4059821e-06 6.8043744e-07 4.324338e-05 3.2870677e-05 1.2461785e-06 7.7382816e-07 6.509618e-05 8.493329e-05
3.0705505e-06 2.199873e-06 5.3792624e-05 2.2848453e-05 9.455929e-07 5.7052455e-07 3.326439e-05 1.7769402e-05
6.763186e-06 8.19869e-06 0.0005786018 9.412522e-05 4.2531826e-07 4.0479156e-07 2.0193584e-05 1.877082e-05
4.951711e-07 4.94344e-07 1.7692782e-05 1.0967027e-05 0.0003289319 0.0006948978 0.044315223 0.027682642
1.2385241e-06 8.1503805e-07 4.780345e-05 3.5799243e-05 0.00028369745 9.2695554e-05 0.006716787 0.0028426994
0.00012734551 0.00034380474 0.0040358156 0.0021231612 4.8873784e-07 3.144813e-07 1.8477482e-05 7.955535e-06
1.020878e-06 8.125141e-07 2.8877268e-05 3.0663035e-05 2.9025924e-07 2.9213777e-07 1.2646513e-05 6.1045716e-06
0.0014300578 0.0015385057 0.0594684 0.0060734656 1.1821347e-07 7.268426e-08 5.6368217e-06 8.291412e-06
0.0003665379 0.00018889213 0.027469097 0.021988865 2.4428708e-05 1.3632395e-05 0.0011913388 0.0007004057
0.0006091715 0.0006007507 0.025459688 0.03509992 5.257477e-06 2.5327058e-06 0.00040640731 0.00035178065
2.0574919e-06 1.656526e-06 0.000103539074 8.341058e-05 2.3700984e-07 2.1098985e-07 1.4213612e-05 7.0722194e-06
8.856623e-08 9.7555635e-08 3.9089723e-06 2.5231134e-06 4.327873e-07 4.5754012e-07 2.2796594e-05 2.0380723e-05
8.93314e-08 7.41439e-08 3.699784e-06 3.9950264e-06 0.0013919421 0.0019569856 0.13852476 0.08392737
4.6951374e-07 2.8101275e-07 1.3490632e-05 7.31613e-06 0.0011074537 0.00078352314 0.018469306 0.0079192
2.1497121e-06 1.2237135e-06 0.0001218415 8.8635796e-05 4.3801842e-07 4.3499043e-07 2.0418642e-05 2.2646645e-05
3.4449354e-06 1.2522668e-06 3.5147103e-05 2.8095652e-05 0.0011498525 0.0010411049 0.056397464 0.04959972
0.011463927 0.010575089 0.605247 0.4032716 5.5583955e-06 5.378124e-06 0.00029058586 0.00053290365
5.207761e-07 3.1756431e-07 2.5187363e-05 2.108483e-05 0.0017394766 0.00061895535 0.04405356 0.035483878
5.943225e-07 1.0010165e-07 1.1022996e-05 5.0701124e-06 1.0008221e-06 1.3971539e-06 5.905928e-05 3.3134864e-05
4.162322e-07 4.020636e-07 1.5463174e-05 1.3436545e-05 0.0068475413 0.008254593 0.45979264 0.08443752
0.016127914 0.016603958 1.0205253 0.7836705 9.659088e-06 4.5456704e-06 0.0003716855 0.0006357948
0.0026034396 0.0028936076 0.12895022 0.099695496 5.2370266e-05 4.420718e-05 0.0032988095 0.0013596433
0.006333656 0.0074022026 0.40315592 0.08803909 1.4061439e-07 1.08668324e-07 9.257028e-06 7.780016e-06
3.2422165e-07 8.584588e-08 5.33058e-06 6.422735e-06 4.0026592e-07 3.8669805e-07 2.1763324e-05 1.7358965e-05
0.004679116 0.0075489115 0.28750393 0.1589482 2.2812863e-07 1.8962501e-07 1.2566217e-05 1.49993375e-05
1.4016233e-06 1.0971072e-06 6.3776875e-05 5.3122883e-05 3.0200254e-06 9.417643e-06 0.00010295204 3.5727397e-05
1.0572522e-06 8.533967e-07 5.841232e-05 4.844045e-05 1.6374547e-06 1.7127235e-06 7.765538e-05 2.8771368e-05
3.5268356e-05 2.7474589e-05 0.0022283548 0.0017442696 2.8314045e-07 1.2378267e-07 6.932595e-06 8.763234e-06
1.6974485e-06 1.688613e-06 7.220598e-05 2.2436187e-05 3.3488652e-07 3.468561e-07 1.9139945e-05 5.307698e-06

exp_avg f4 [128]
00000000: 18c6 8939 054e 45bc 5122 54b8 06fa aeb8
00000010: fd0f 1db8 efc0 4239 b3f9 0239 1edb b3b8
00000020: f911 7d38 5463 d738 b9c1 4f38 1583 a9b8
00000030: b5de ab39 7df3 8c3c f56f 07b9 a874 8b3a
00000040: c1f6 8e3b dea9 c538 4a88 0339 f5e2 a938
00000050: b87c 003d 2418 abb8 60e5 243c 6d59 ef38
00000060: 4763 563c 41cf fbb7 1607 0338 76ad 2639
00000070: 8f13 02b9 a682 c0b8 d953 0d38 c45e 983c
00000080: 1b54 8139 da04 1dbb 2165 2db8 89cb 0f38
00000090: 5ef5 1139 5633 fbbb 57da 70bd faa7 f239
000000a0: fc9d 4b39 a819 9abc 7bb7 f9b7 4bcd 6039
000000b0: 1b76 cdb8 2bba b53c 063f a33d e21c 87b4
000000c0: 48e1 9fbd a72e cb3a fb2a 923b 4d51 7eb6
000000d0: 5f89 ee38 7da1 ca38 966e 2e3d c072 1239
000000e0: f54d 4738 59aa b839 7112 77b8 a0f8 93b7
000000f0: 371b 7336 13bf b838 ff3a 2839 4097 4cb9
00000100: 8597 0239 c7f8 4a39 a918 3239 6a96 1737
00000110: 6cda 2035 5c9b 46bd e45f ca38 7481 8ebb
00000120: 90ca 4339 9c4e d5b8 010e 13b8 aea3 c1b7
00000130: 299f 7fb8 af64 1639 9106 35b8 b38d c1bb
00000140: 5dce ef3b 0f59 9339 181c 9cb8 dc35 9d38
00000150: 1392 a1bc 78c8 1a39 eb1b 9537 7518 8fba
00000160: 56af 9c38 be04 7bbb 6883 14b9 8030 b4ba
00000170: 7ec1 5439 d349 c93b a194 edb8 626c a439
00000180: f110 1539 9d5c e935 a185 fe38 2ca7 20bc
00000190: ca85 edb8 e189 fd3b 5c69 02bb a328 ba39
000001a0: dc68 a038 08df f7b8 6eee 8138 2d68 7c38
000001b0: 523c be38 6cdb 4038 ee1c 123d 7e6d 15bb
000001c0: 04fb 2039 288e 2ab7 ddc0 2db6 7504 d2bb
000001d0: cc51 45bc 9b6e 553a 6fa6 97b7 eeea a539
000001e0: 847d 4039 d451 0f38 a6ec 07b9 cedc 87bb
000001f0: d8b6 9cb8 5f25 b7b4 105e 15bd 3b8f 3e3b
0.00026278268 -0.012042527 -5.05767e-05 -8.343537e-05 -3.7446607e-05 0.00018573155 0.00012490786 -8.576199e-05
6.033664e-05 0.000102705 4.9533064e-05 -8.082964e-05 0.0003278159 0.017205948 -0.0001291631 0.0010639625
0.0043629115 9.425332e-05 0.00012543905 8.100822e-05 0.03136894 -8.158412e-05 0.010064453 0.00011413065
0.013085193 -3.0018042e-05 3.1239433e-05 0.00015895613 -0.00012405052 -9.1796086e-05 3.369511e-05 0.018599875
0.0002466746 -0.002395919 -4.1340598e-05 3.4283414e-05 0.00013919684 -0.007666032 -0.058801975 0.0004628299
0.00019418442 -0.018811062 -2.9768553e-05 0.00021438782 -9.7971606e-05 0.022183498 0.07971005 -2.5166725e-07
-0.07806641 0.0015501574 0.00446069 -3.7896273e-06 0.00011374312 9.66219e-05 0.04258593 0.00013966393
4.75179e-05 0.00035222134 -5.8906564e-05 -1.763954e-05 3.6225663e-06 8.809394e-05 0.00016043706 -0.00019511301
0.00012454212 0.00019356898 0.0001698459 9.035322e-06 5.992249e-07 -0.048488006 9.6499716e-05 -0.004348928
0.0001867211 -0.000101712736 -3.5060573e-05 -2.3083612e-05 -6.0944967e-05 0.00014342622 -4.315988e-05 -0.0059067844
0.0073183016 0.0002810438 -7.4438925e-05 7.4963755e-05 -0.019722974 0.00014761265 1.7775184e-05 -0.0010917323
7.4713185e-05 -0.0038302387 -0.00014163333 -0.0013747364 0.00020289977 0.0061428337 -0.00011328725 0.0003136127
0.00014216058 1.7386807e-06 0.00012136554 -0.009805482 -0.00011325961 0.0077373837 -0.0019899225 0.0003550696
7.648926e-05 -0.000118194206 6.19561e-05 6.0178503e-05 9.0711415e-05 4.598072e-05 0.03567212 -0.0022800858
0.000153523 -1.0165888e-05 -2.589127e-06 -0.0064092227 -0.012043428 0.00081417867 -1.8078104e-05 0.0003164629
0.00018357305 3.4170065e-05 -0.00012962762 -0.004146195 -7.472717e-05 -3.4113597e-07 -0.036466658 0.0029077071

exp_avg_sq f4 [128]
00000000: 6591 e935 7a33 f03d 6db6 8a36 0977 7536
00000010: 8534 b036 cb58 f335 92a3 1137 8f62 8f37
00000020: 0dc4 3537 a67f 0537 b025 1439 661b 9336
00000030: 8f7f 6e36 db2c 123c 4eb4 3b37 318e cb3a
00000040: b281 363a fec2 8336 d17c 0237 6c84 4e36
00000050: 338b 393c d024 cc35 9842 f23b efe5 8739
00000060: b7ce ac3b 74dc e738 55ae c737 f971 6536
00000070: 7652 6035 a535 9c36 6411 4635 f50e ed3c
00000080: afc1 3536 108f 693b 7242 0638 fcdc 9436
00000090: b4ff 0737 7658 493c e20b 073e 25c0 9c38
000000a0: 6050 f736 dfaa 1c3c cdeb 2536 bcab 5737
000000b0: 7941 5e36 a575 db3d d436 713e acc6 b838
000000c0: a0d7 de3c f60f 503a 294d c03d 18db 0736
000000d0: 6026 b835 9703 a436 b8d4 453d 4903 5e36
000000e0: 39d6 6b37 5bbc 8d37 0d97 6137 814f 8c37
000000f0: 2c00 123a 1b7b e835 d1b7 8837 0261 9536
00000100: 9c6a 3436 d1de 0736 e2fb 4836 f4c8 5536
00000110: 0659 0436 53df 583c 2490 7335 d6e8 e33b
00000120: 30d0 0e36 315e 0636 d4b0 8536 a706 c737
00000130: 12ca c638 0a16 a636 4e19 6536 a1d5 8c3b
00000140: 7549 823b 7680 c736 0b93 8436 5300 9735
00000150: 1f9e 913c 4a1c 7a36 04ba ff38 66fd d33a
00000160: c9b7 8f37 2e82 e23b 2a9e 3a36 eab2 3e39
00000170: 4e7f af36 44be f837 8df9 a135 5ebf 6937
00000180: 6213 dd36 ffbc 4235 10e1 5b36 344e 0f3c
00000190: e811 9b36 2a4e 013c 7db7 8639 1f1a d136
000001a0: c226 2338 c007 a036 efd2 2d36 7e61 1037
000001b0: ba91 cd36 5dc8 e335 d9a4 183d 86e9 ba3b
000001c0: 9fa7 d536 1ac6 0937 537e a037 3dbd a03c
000001d0: f021 593c a01e 8837 1b39 f336 4df5 143a
000001e0: e781 a836 93d7 8535 db4b d436 1c1c 3c3c
000001f0: b61e 7037 57aa 8237 5364 7e3d 4877 223c
1.7402168e-06 0.117285684 4.1339576e-06 3.6577133e-06 5.251323e-06 1.8130753e-06 8.680758e-06 1.7092823e-05
1.0834087e-05 7.957138e-06 0.0001412842 4.384131e-06 3.5539013e-06 0.008921827 1.1188049e-05 0.0015530047
0.0006962075 3.9268043e-06 7.777665e-06 3.0773472e-06 0.011324692 1.5209898e-06 0.0073931925 0.0002592052
0.0052736658 0.00011056001 2.3803828e-05 3.419e-06 8.35665e-07 4.6554073e-06 7.3786055e-07 0.028937796
2.708384e-06 0.003563825 3.200997e-05 4.4364697e-06 8.106163e-06 0.012289157 0.13188127 7.4744494e-05
7.3705305e-06 0.009562223 2.472417e-06 1.2854984e-05 3.3118688e-06 0.10715798 0.23556072 8.810809e-05
0.027202427 0.00079369487 0.09389717 2.0244097e-06 1.3720237e-06 4.887999e-06 0.048298568 3.308249e-06
1.4056969e-05 1.689622e-05 1.3446214e-05 1.6726322e-05 0.00055694836 1.7321175e-06 1.629806e-05 4.4518392e-06
2.6884145e-06 2.0246264e-06 2.9948937e-06 3.1856443e-06 1.9721351e-06 0.013236838 9.0734306e-07 0.0069552464
2.128083e-06 2.0022383e-06 3.9842944e-06 2.3725746e-05 9.479014e-05 4.949751e-06 3.4138388e-06 0.0042979275
0.003976042 5.945617e-06 3.9510246e-06 1.1250471e-06 0.017775593 3.726937e-06 0.00012193996 0.0016173541
1.713251e-05 0.0069124913 2.7808223e-06 0.00018186463 5.2302266e-06 2.9652503e-05 1.2068064e-06 1.3932438e-05
6.5885697e-06 7.254566e-07 3.2764547e-06 0.008746672 4.6214445e-06 0.007892171 0.0002569518 6.2317263e-06
3.8898324e-05 4.769274e-06 2.5901788e-06 8.605768e-06 6.126441e-06 1.6971131e-06 0.037266586 0.0057041077
6.3674083e-06 8.21196e-06 1.913231e-05 0.019621486 0.01325272 1.6226724e-05 7.2486123e-06 0.00056823046
5.021913e-06 9.972013e-07 6.326923e-06 0.011481311 1.4312265e-05 1.5576528e-05 0.062107395 0.009916134
