neural_network/lightning_logs/version_50/checkpoints/epoch=0-step=1875.ckpt (torch, 13835 bytes, 18 tensors)

layers.0.weight f4 [20, 4]
0	0x406c405e	3.6914287
1	0x3fddfadf	1.7342185
2	0x3e6cd997	0.23129879
3	0xbf8e5e78	-1.112258
4	0x4079bc35	3.9021122
5	0x4001c3b8	2.0275707
6	0x3ee550a1	0.44788077
7	0x3f594a7b	0.84879273
8	0xc06b3148	-3.674883
9	0xbe78347a	-0.24238768
10	0x3eced55b	0.40397152
11	0x3d33e464	0.043918982
12	0xc04944d8	-3.144827
13	0xbea37e41	-0.31932262
14	0x3eea871d	0.45806208
15	0xbd3830a9	-0.04496828
16	0xc028f1a7	-2.6397493
17	0xbedd0d75	-0.4317433
18	0x3e0cb702	0.13741687
19	0xbf3570bc	-0.70875144
20	0xbfddae45	-1.7318808
21	0xbf1241b2	-0.57131493
22	0x3f1baefc	0.6081388
23	0x3f35b01e	0.7097186
24	0x3f9b8cf1	1.2152387
25	0x40002cb9	2.0027297
26	0x3e0f3869	0.13986363
27	0x3f540668	0.82822275
28	0xbfc6ba59	-1.5525619
29	0xbf16d409	-0.5891729
30	0x3f31ab0d	0.6940163
31	0x3d695014	0.056961134
32	0xc0613206	-3.5186782
33	0xc05046a6	-3.254312
34	0xbedeab1f	-0.4348993
35	0xbf83fe85	-1.0312048
36	0x3d617a2f	0.055048164
37	0x3e3612b1	0.17780568
38	0xbf0ed755	-0.5579732
39	0x40019abb	2.025069
40	0xc027213a	-2.611403
41	0xc04e21bd	-3.2208092
42	0x3f200773	0.62511367
43	0x3f8b5879	1.0886375
44	0x401de545	2.4671185
45	0x3fe3a8b6	1.7785861
46	0x3f10670e	0.5640725
47	0x3f828239	1.0195991
48	0x3fb129c8	1.3840876
49	0x3e5e06d2	0.21682289
50	0xbf4f613f	-0.8100776
51	0xbea4a6c8	-0.32158494
52	0xc0a2c77b	-5.0868506
53	0xc08b0b2c	-4.3451138
54	0xbeb5f7b8	-0.35540557
55	0x3fb01347	1.3755883
56	0xc036b35c	-2.8546972
57	0xbf51b507	-0.8191685
58	0x3d3fef08	0.046858817
59	0xbe72f8aa	-0.2372767
60	0x3fe261c1	1.7686082
61	0x3f1c2843	0.60998935
62	0xbf435eb9	-0.7631641
63	0xbdc6b291	-0.097020276
64	0xc07687e1	-3.8520434
65	0xc038d27c	-2.887847
66	0x3dc1cf87	0.09463411
67	0xbf5a0156	-0.8515829
68	0xbfea1e53	-1.8290504
69	0x3f8456ef	1.033903
70	0x3e3ae922	0.18252996
71	0x3fe351af	1.7759303
72	0xc06a08de	-3.6567912
73	0xc00e8e22	-2.227425
74	0xbea0ccc7	-0.31406233
75	0x3fcbe80f	1.5930194
76	0xc00b956b	-2.1809947
77	0xbf90f169	-1.1323673
78	0x3f37f0d6	0.7185186
79	0x3fd7827f	1.6836699

layers.0.bias f4 [20]
0	0x3e7e595e	0.24838778
1	0xbf10336b	-0.5632846
2	0x3fbc8302	1.472748
3	0x3fc84806	1.564698
4	0xbea4edaa	-0.32212573
5	0x3fd00ba5	1.6253554
6	0xbd9be3af	-0.076117866
7	0x3fb50473	1.4141983
8	0xbd2f8c72	-0.04285855
9	0xbee52ef8	-0.44762397
10	0x3f10340c	0.5632942
11	0x3f40284e	0.750615
12	0xbf5eea86	-0.87076604
13	0xbe976d30	-0.2957549
14	0xbf2efba6	-0.68352735
15	0xbfc1a00b	-1.5126966
16	0xbef412b1	-0.4767051
17	0xbf4b672e	-0.79454315
18	0xbf6546b5	-0.89561015
19	0x3f46b825	0.7762473

layers.2.weight f4 [10, 20]
0	0xbec874ef	-0.39151713
1	0xbf923bcb	-1.1424497
2	0x3f68de64	0.9096434
3	0x3f4b1a7d	0.7933729
4	0x3f71a3d8	0.9439063
5	0x3e837f67	0.25683138
6	0xbf46499e	-0.7745608
7	0x3e0501ab	0.12988918
8	0x4008f199	2.139746
9	0x3f086b90	0.5328913
10	0x3f257b30	0.64641094
11	0xbfb62ba4	-1.4232068
12	0xbc8888e9	-0.016666846
13	0x4027fb4a	2.6247125
14	0x4004d8e8	2.075739
15	0xbe88f9f7	-0.26753208
16	0x3fdc9060	1.723156
17	0x3fa9b071	1.3256971
18	0x4008822e	2.1329455
19	0x3eebecce	0.46079105
20	0xbcdcae06	-0.02693845
21	0xbcf4b0d9	-0.029869484
22	0xbeaa89ef	-0.3330836
23	0xbf3df616	-0.7420362
24	0x39826df1	0.00024877445
25	0xbf638009	-0.8886724
26	0xbf2147af	-0.63000005
27	0xbea613ca	-0.32436973
28	0xbe3570c5	-0.177188
29	0xbfff827e	-1.9961698
30	0xbfb43fbd	-1.4081951
31	0xbf059034	-0.5217316
32	0x3f0b6037	0.5444369
33	0xbf4264bb	-0.7593495
34	0xbde8fd78	-0.1137647
35	0x3f246980	0.6422348
36	0xbdf59737	-0.119917326
37	0xc000c405	-2.011964
38	0xc00b8332	-2.1798825
39	0xbfeb986b	-1.8405889
40	0xbf4edc5f	-0.8080501
41	0xc01b3028	-2.4248142
42	0x3f265153	0.6496784
43	0x3f471cfb	0.77778596
44	0xbe708ed5	-0.23491986
45	0x3f8d26b7	1.102744
46	0xbec0657c	-0.37577426
47	0x3f388486	0.72077215
48	0xc00290d1	-2.040089
49	0xbff32a1d	-1.8997227
50	0x3e40883c	0.1880197
51	0x3ee5bb61	0.4486952
52	0xbf31a7b7	-0.6939654
53	0xbed3fe5e	-0.41405004
54	0xbeae3ddf	-0.3403158
55	0xbf70ad2d	-0.94014245
56	0xbf6e0331	-0.9297362
57	0xbfca8909	-1.582307
58	0xbfc12de9	-1.5092136
59	0xbe8466e9	-0.25859764
60	0xc015d415	-2.3410695
61	0xbf6816d0	-0.9065981
62	0x3f64cf8f	0.8937921
63	0x3f4320c8	0.76221895
64	0xbf9a793c	-1.2068248
65	0x3f8546ea	1.0412266
66	0x3d6e9aa8	0.05825296
67	0x3f5ddcb0	0.8666487
68	0xbf9057cf	-1.1276797
69	0xbf97ddf4	-1.186461
70	0x3f2d766e	0.67758834
71	0x3f3aba68	0.72940683
72	0xbf1ddadf	-0.61662096
73	0xc03c991e	-2.9468455
74	0xbe8c59ec	-0.27412355
75	0xbf7f10d6	-0.99635065
76	0xbf8deba3	-1.1087536
77	0xbf92a3b8	-1.1456213
78	0xbfd5b85e	-1.6696889
79	0x3ee29683	0.44255456
80	0xbf78f7ef	-0.97253317
81	0xbf6ea02c	-0.9321315
82	0x3f50fa16	0.816316
83	0x3f6a7f4d	0.91600496
84	0x3f09b6c7	0.5379452
85	0x3f80a8da	1.005153
86	0xbed7fd93	-0.4218565
87	0x3ef72aae	0.4827475
88	0x3f9fb430	1.2476864
89	0x3f547cbd	0.83002836
90	0xbfa6ed09	-1.3041087
91	0xbf576d4d	-0.84151155
92	0xbf3a53d3	-0.72784156
93	0x3ed9f1ea	0.42567378
94	0x3f09c6ec	0.53819156
95	0xbf33899a	-0.7013184
96	0x3f94cdd1	1.162531
97	0x3f6a7953	0.91591376
98	0x3f759348	0.9592786
99	0xbfbf48ff	-1.4944152
100	0xbfa01113	-1.2505211
101	0xc04831dc	-3.1280432
102	0x3f6269e8	0.8844285
103	0x3f64647d	0.8921583
104	0xbe2c5dea	-0.168327
105	0x3f82fa2e	1.0232599
106	0xbf2d79f5	-0.67764217
107	0x3f45498b	0.7706534
108	0xbfeff7f6	-1.8747547
109	0xbffb9500	-1.9654846
110	0x3f5394ca	0.8264891
111	0x3e368146	0.17822751
112	0xbf49365c	-0.7859857
113	0xbf1f2956	-0.6217245
114	0x3e8f5fd0	0.28002787
115	0xbf7c2181	-0.9848862
116	0xbf8dc9f7	-1.107726
117	0xbf9853e8	-1.1900606
118	0xbf9a2ee8	-1.2045565
119	0x3eb01d91	0.34397557
120	0x3e8d8354	0.27639258
121	0x3e7a9c14	0.24473602
122	0x3f7d08aa	0.98841345
123	0x3f992828	1.196538
124	0x3f0fa9ed	0.5611866
125	0x3ef01586	0.4689142
126	0xc0029f35	-2.0409672
127	0x3f38b066	0.7214416
128	0x3f1a9930	0.60389996
129	0x3f3e58ee	0.74354446
130	0xc0761e56	-3.8456016
131	0xbecd0478	-0.40042472
132	0xbed6611c	-0.41870964
133	0xbe23f5d8	-0.1601175
134	0xbe868356	-0.26272076
135	0xbf333977	-0.7000956
136	0x3ef37edb	0.4755772
137	0x3f56c098	0.83887625
138	0x3ef2e5ae	0.47440857
139	0xc06b0eeb	-3.6727855
140	0xbe38bc8e	-0.18040678
141	0xbf755472	-0.9583198
142	0x3f122f21	0.57103163
143	0x3f24be45	0.6435283
144	0xbf0b6aca	-0.5445982
145	0x3f78ab5d	0.9713648
146	0xbebed566	-0.37272185
147	0x3f22d89e	0.6361178
148	0xc01e8a73	-2.4772003
149	0xc003361a	-2.050177
150	0xbf185810	-0.5950937
151	0x3f260456	0.64850366
152	0xbf36537e	-0.7122115
153	0xbf0f9095	-0.5607999
154	0xbf5b9ff1	-0.85790926
155	0xbf4777fe	-0.7791747
156	0xbfa2f535	-1.2731081
157	0xbff1ae44	-1.8881307
158	0xbf76237a	-0.9614788
159	0xbf8568d5	-1.0422617
160	0x3ebfcb8d	0.37459984
161	0xbdb9eeee	-0.09078775
162	0xbfb82e5d	-1.4389149
163	0xbf77ef79	-0.9684978
164	0xbf1f062e	-0.62118804
165	0xc0402712	-3.0023847
166	0xbebf1bbc	-0.37325847
167	0xbff40a3d	-1.9065624
168	0xc00b9431	-2.18092
169	0xbfceee8d	-1.616655
170	0xc0512415	-3.2678273
171	0xbf5bcd76	-0.85860384
172	0x3fcaec02	1.5853274
173	0xbfb4e8d3	-1.4133552
174	0xbf4ae55a	-0.7925621
175	0x3fa52475	1.2901751
176	0xbf99a48c	-1.2003341
177	0xc0052da2	-2.0809102
178	0xc011cf8e	-2.2782931
179	0xc02d9be7	-2.7126405
180	0xbf42a442	-0.7603189
181	0xbdb0ab6d	-0.08626447
182	0x3f67bc40	0.9052162
183	0x3f82d9f3	1.0222763
184	0xbe5dbb49	-0.21653475
185	0x3f7ad90d	0.97987443
186	0xbf91debe	-1.13961
187	0x3f3c448c	0.73542094
188	0xbf25119a	-0.6447998
189	0x3f7e74fb	0.9939725
190	0xc058bedc	-3.3866491
191	0x3ec77e34	0.38963473
192	0xbf586d78	-0.84542036
193	0x3e5c36f9	0.21505345
194	0xbdba7eac	-0.09106192
195	0xbf268207	-0.65042156
196	0xbec53234	-0.38514864
197	0x3fa671f9	1.3003532
198	0x3f071440	0.52765274
199	0xc05599d2	-3.3375134

layers.2.bias f4 [10]
0	0xbef0abe4	-0.47006142
1	0xbea819ec	-0.32832277
2	0x3fb1075c	1.3830371
3	0x3fa978bc	1.323997
4	0x3e14417e	0.14478108
5	0x3fa08dce	1.2543275
6	0x3f21edd0	0.632535
7	0x3fae6e93	1.3627495
8	0xbf614cc1	-0.8800774
9	0x3eb24cd4	0.3482424

layers.4.weight f4 [3, 10]
0	0xc02077a9	-2.5073035
1	0x3fd9dadb	1.7019914
2	0x3f991dbb	1.1962198
3	0x3fb4e690	1.4132862
4	0xbffec4e0	-1.9903831
5	0x4024111e	2.5635448
6	0xbfe21f3d	-1.7665783
7	0x3f65a934	0.8971131
8	0x401949d1	2.3951304
9	0xbfe7e442	-1.8116534
10	0x3e20694b	0.15665166
11	0x3ec61e41	0.38694957
12	0xbfd3e7e6	-1.6555145
13	0x404abfb3	3.1679504
14	0x3f41f8cf	0.75770277
15	0xbfb99b69	-1.4500552
16	0xbe7d4baa	-0.24735895
17	0xbfb97b52	-1.4490759
18	0xbfebebfb	-1.843139
19	0xbf9dc6c6	-1.2326286
20	0xbbc53800	-0.0060186386
21	0x3d1137a1	0.035453442
22	0xbb1248e7	-0.0022321285
23	0xbb942959	-0.0045215306
24	0x3ac1a0ea	0.0014772688
25	0xbb561dd5	-0.003267159
26	0x3b512e02	0.0031918292
27	0xba664fe1	-0.00087857066
28	0xbb8e3683	-0.0043399944
29	0xbb5e2c9c	-0.00339011

layers.4.bias f4 [3]
0	0x3ec1544f	0.37759635
1	0x3f31221d	0.6919268
2	0xba27cd08	-0.00064010965

exp_avg f4 [20, 4]
0	0xbcd52ed8	-0.026023313
1	0xbc677f23	-0.014129433
2	0xbe858b32	-0.2608276
3	0x3df30cc4	0.11867669
4	0xbc7772fd	-0.015103099
5	0x3b230ae5	0.002487832
6	0xbe4fcfd1	-0.2029412
7	0x3dbb6e3b	0.09151884
8	0x3c4fe174	0.01268803
9	0x3b831187	0.003999892
10	0x3d93e555	0.07221476
11	0xbde7f848	-0.11326653
12	0x3c65e3ba	0.014031345
13	0x3b4149d3	0.0029493466
14	0x3d9d4e04	0.07680896
15	0xbdd2dc74	-0.10295954
16	0xbb743f25	-0.0037269082
17	0xbb6774c3	-0.0035317398
18	0xbde88284	-0.11353019
19	0x3d1eed6a	0.038800634
20	0x3c6adb8c	0.014334571
21	0x3b04fa62	0.0020290841
22	0x3e1f8c4a	0.1558086
23	0xbe019119	-0.12653007
24	0x39d195a6	0.00039975083
25	0x3b7b6467	0.0038359405
26	0x3caf3efb	0.021392336
27	0xbc2b6c51	-0.010462836
28	0x3c10aa5c	0.008829679
29	0x3a4dfa04	0.00078573846
30	0x3ddcfddb	0.107906066
31	0xbdbdb4d0	-0.09263003
32	0x3c9a690f	0.018848924
33	0x3bf17fdf	0.0073699798
34	0x3dc6daca	0.097096995
35	0xbe112d3f	-0.14177416
36	0xba9afb40	-0.0011824146
37	0xbb502680	-0.003176123
38	0xbbbd9972	-0.0057861144
39	0x3ca3881e	0.019962367
40	0x3cb58e1d	0.022162491
41	0x3c4720e0	0.012153834
42	0x3e6759ae	0.22592804
43	0xbdf5c47c	-0.12000367
44	0x3be30fb4	0.006929362
45	0x3ba5e545	0.0050627314
46	0x3e4bca37	0.19901358
47	0xbdd22fbf	-0.10263013
48	0xb8ae4cfc	-8.311306e-05
49	0x362f4af8	2.612067e-06
50	0xba8a0311	-0.0010529478
51	0x3a4bea75	0.0007778772
52	0x3cb06b5b	0.021535566
53	0x3bc3810d	0.005966312
54	0x3e2bdfaf	0.16784547
55	0x3e0adf72	0.135618
56	0x37b29a10	2.1290994e-05
57	0xb6182355	-2.267033e-06
58	0xba956b8e	-0.0011399852
59	0xb8818d71	-6.177545e-05
60	0xb8e6ee3b	-0.000110116285
61	0xb6de7a98	-6.6303874e-06
62	0xbaba13a7	-0.0014196531
63	0x3a97f0af	0.0011592115
64	0xbc3153fb	-0.010823245
65	0xbbdaa5c9	-0.006672595
66	0xbe6dd879	-0.23227109
67	0x3df8d47a	0.12149902
68	0xbbeae9bb	-0.007168976
69	0xbc05f451	-0.008175925
70	0xbd488d39	-0.048962805
71	0x3c1e8172	0.009674417
72	0x3c3588cc	0.011079978
73	0xb9179a66	-0.00014458
74	0x3caeb441	0.021326186
75	0x3d184850	0.037178338
76	0x3ccbf9b9	0.02489935
77	0x3c3d7e4e	0.011565758
78	0x3e7fc92e	0.24979088
79	0xbe091529	-0.13386978

exp_avg_sq f4 [20, 4]
0	0x3bd087c8	0.0063638426
1	0x3a9d258f	0.0011989343
2	0x3ef8e3ca	0.4861129
3	0x3de1db2e	0.11028133
4	0x3c2fbbb5	0.010725905
5	0x3b04c9bd	0.0020261847
6	0x3f70a51f	0.94001955
7	0x3e35ef1f	0.17766999
8	0x3b04e52d	0.00202782
9	0x39e758af	0.00044125828
10	0x3e1cf8e6	0.15329322
11	0x3d851352	0.06497826
12	0x3b1e4406	0.0024149432
13	0x3a19614c	0.0005850985
14	0x3e38efc8	0.1806022
15	0x3d93ec8a	0.072228506
16	0x3a6aa890	0.00089515094
17	0x394c3f73	0.00019478593
18	0x3dd09142	0.10183956
19	0x3db28fc8	0.0871883
20	0x3b79954e	0.0038083377
21	0x3a4de7fd	0.00078546983
22	0x3e9e17a4	0.3087741
23	0x3df9bdee	0.12194429
24	0x3aa833c5	0.0012832811
25	0x39f12ea6	0.00046001858
26	0x3d9bc8e7	0.076066785
27	0x3c885acf	0.016644863
28	0x3b133159	0.0022459833
29	0x3a0f3785	0.000546329
30	0x3e338542	0.17531303
31	0x3d92fdd6	0.071773216
32	0x3bf0a120	0.0073434263
33	0x3a937ff8	0.0011253348
34	0x3f52d86a	0.8236147
35	0x3f506a54	0.81412244
36	0x3b481ad0	0.003053356
37	0x3a150336	0.00056843774
38	0x3e866b1d	0.26253596
39	0x3dbb51a6	0.091464326
40	0x3b8de809	0.0043306393
41	0x3a1d6ff2	0.0006005756
42	0x3ed080cb	0.4072326
43	0x3d92703b	0.071503125
44	0x3b5f5678	0.003407864
45	0x3a4f832b	0.0007915969
46	0x3ea0df8c	0.31420553
47	0x3e7bc894	0.24588233
48	0x34861cb6	2.4980335e-07
49	0x33c18761	9.011888e-08
50	0x3798531a	1.815851e-05
51	0x36ec705a	7.0464275e-06
52	0x3b7bd08a	0.003842386
53	0x3a028f0d	0.00049804227
54	0x3eb80c02	0.3594666
55	0x3eb2f3a8	0.3495152
56	0x348b26e7	2.5919073e-07
57	0x338ab546	6.459099e-08
58	0x37d3a9dc	2.5232257e-05
59	0x37d11b37	2.4927414e-05
60	0x34d65130	3.9919678e-07
61	0x34307e31	1.6437185e-07
62	0x37d9ccff	2.5963875e-05
63	0x372b8a6d	1.0224624e-05
64	0x3b403ba0	0.0029332414
65	0x3a038b3a	0.0005018
66	0x3eb3fb48	0.3515265
67	0x3eaa6f1d	0.33287898
68	0x3b53f5fa	0.0032342658
69	0x3a2e7bfb	0.0006656048
70	0x3e9d8565	0.30765834
71	0x3dff8727	0.1247695
72	0x3b5b0f72	0.0033425954
73	0x3a14e65a	0.0005680077
74	0x3e93d9e6	0.2887718
75	0x3e65b13d	0.22430892
76	0x3b9271b7	0.0044691223
77	0x3a49fe91	0.0007705475
78	0x3eb96e33	0.36216888
79	0x3d511b9c	0.05105172

exp_avg f4 [20]
0	0xbdac3693	-0.08408847
1	0xbd3e6ca6	-0.046490334
2	0x3c7388c6	0.014864152
3	0x3c8a95de	0.016917165
4	0xbd36f859	-0.044670437
5	0x3d2ab946	0.041680597
6	0x3c009e79	0.007850283
7	0x3ce1f8e1	0.027584495
8	0x3d1a9278	0.03773734
9	0x3bba9674	0.005694205
10	0x3da46cd9	0.080285735
11	0x3d85e65c	0.06538078
12	0xb98ffbe7	-0.00027462767
13	0x3d9dbddf	0.07702231
14	0xb9c33a7a	-0.00037236867
15	0xb9c5e118	-0.00037742476
16	0xbdb795bc	-0.089641064
17	0xbbf9d77e	-0.0076245656
18	0x3c8e8d1f	0.017401276
19	0x3dc96e4f	0.09835493

exp_avg_sq f4 [20]
0	0x3daa1b18	0.08305949
1	0x3e21e04a	0.15808216
2	0x3cd5923b	0.026070705
3	0x3cfc0ef7	0.030768855
4	0x3c8abbb7	0.016935213
5	0x3d554a18	0.052072614
6	0x3c577546	0.013150519
7	0x3cf29704	0.029613025
8	0x3e0d5ecd	0.13805695
9	0x3d353223	0.044237267
10	0x3d8c92dc	0.06863949
11	0x3d57a738	0.052649707
12	0x364d1b65	3.0563326e-06
13	0x3d78cfec	0.060745165
14	0x368f4ac7	4.2704373e-06
15	0x369300c8	4.3810323e-06
16	0x3d6e9bc4	0.05825402
17	0x3d515d56	0.051114403
18	0x3d46b032	0.048507877
19	0x3d7a9806	0.061180137

exp_avg f4 [10, 20]
0	0xbcba20ea	-0.022720773
1	0xbbc6f2e2	-0.0060714344
2	0xbd23a7e0	-0.03995502
3	0xbd2ffe08	-0.042966872
4	0xb9a1d3a9	-0.00030866012
5	0xbd461ec9	-0.048369203
6	0xbbed1c93	-0.0072360723
7	0xbd4aacaa	-0.04948107
8	0x3c042d3e	0.008067427
9	0xbbd1953b	-0.0063959635
10	0xbc734bdd	-0.01484963
11	0xbd1334f9	-0.03593919
12	0x39f5e69b	0.00046901856
13	0xbbad94a4	-0.0052972604
14	0x38d0d162	9.9572135e-05
15	0x3a0d0cbe	0.0005380622
16	0x3baff456	0.0053697033
17	0xbc1fe6b7	-0.009759597
18	0xbbd5ecf4	-0.006528491
19	0xbcaedcfa	-0.021345604
20	0x3a020043	0.00049591454
21	0x39db1a77	0.00041790653
22	0x39aa824b	0.00032522003
23	0x39aad3c9	0.0003258272
24	0xb650c9a8	-3.1111795e-06
25	0x39e114a1	0.00042930714
26	0x3979f5f8	0.00023838121
27	0x39e9d86a	0.00044602464
28	0xb8807e3e	-6.12703e-05
29	0x38491da0	4.7949725e-05
30	0x39861510	0.00025574164
31	0x3a24d2cb	0.0006287514
32	0xb69986c4	-4.575444e-06
33	0x383ad076	4.454e-05
34	0xb63adb97	-2.7843978e-06
35	0xb6a1fcde	-4.8276115e-06
36	0xb82cf1ea	-4.1233296e-05
37	0x38ec26d5	0.0001126059
38	0x3877089f	5.8897418e-05
39	0x3994c54a	0.00028375752
40	0x3d88d42d	0.06681094
41	0x3c907eaa	0.017638523
42	0x3d180319	0.03711233
43	0x3d42937e	0.04750394
44	0x3c0d9f0a	0.008643875
45	0x3d3c5177	0.04597613
46	0x3bb82da1	0.0056206738
47	0x3d839da7	0.06426554
48	0x3b115f4a	0.002218204
49	0x3ac34fd5	0.0014901111
50	0x3c43f588	0.011960395
51	0x3d2224d8	0.03958592
52	0xba0fcec4	-0.00054858276
53	0xba6e28d1	-0.00090850616
54	0xb9633e97	-0.00021671724
55	0xba3443d5	-0.0006876563
56	0x3ba7a697	0.0051162946
57	0x3b96fd63	0.004607843
58	0xba6234c8	-0.0008629081
59	0x3c902c97	0.017599387
60	0x3d951213	0.07278838
61	0xbcc9ecea	-0.024649102
62	0x3c7fd62a	0.015615026
63	0x3cac23e1	0.021013202
64	0x3c199a11	0.009375111
65	0xbc72ad44	-0.014811818
66	0xbcb2a9b8	-0.021809444
67	0x3cc1aeb8	0.023642883
68	0x39722ee4	0.00023096387
69	0xbd22ceaf	-0.03974789
70	0xbd305db0	-0.043058097
71	0xbcc212a2	-0.023690525
72	0xb8c14e27	-9.217514e-05
73	0xb9e71d84	-0.00044081744
74	0x381bdbda	3.7159632e-05
75	0xb96fb474	-0.0002286004
76	0x3aac7a7f	0.0013159065
77	0xbd206e0c	-0.03916745
78	0xbc0b1e90	-0.008491173
79	0xbd8021e4	-0.06256464
80	0x3b11cc88	0.0022247154
81	0xbae1c1fe	-0.0017223952
82	0xbc89a44f	-0.016801981
83	0xbc91d411	-0.017801316
84	0x3b722a33	0.0036951422
85	0xbcc881f3	-0.024476027
86	0xb9080e3f	-0.00012975278
87	0xbcae0a78	-0.021245226
88	0x3bdd3d9d	0.0067517296
89	0xb7c2d0b8	-2.3223794e-05
90	0xbaabbd37	-0.0013102655
91	0xbc8ec174	-0.01742623
92	0x39608636	0.00021412302
93	0xb8853cd1	-6.353262e-05
94	0x383a4749	4.4412245e-05
95	0x3974f698	0.00023361517
96	0x3ba0253f	0.0048872526
97	0xb9599555	-0.00020750363
98	0xb861d843	-5.384559e-05
99	0xbb04e31d	-0.0020276972
100	0x3dd9f1f8	0.10641855
101	0x3c35987a	0.0110837165
102	0x3d7060e0	0.058686137
103	0x3d968ad5	0.07350699
104	0x3c70f990	0.014707938
105	0x3d6eca39	0.058298323
106	0xbb5b01c0	-0.003341779
107	0x3dc0b083	0.09408667
108	0x3b80f787	0.0039357576
109	0xbb1508ef	-0.002274092
110	0xba9a26c2	-0.0011760818
111	0x3d26289f	0.040566083
112	0xba4a7027	-0.00077224005
113	0xbab9f029	-0.0014185953
114	0xb96c37c2	-0.00022527485
115	0xba8383c2	-0.0010033774
116	0x3c1b3870	0.009473905
117	0xbb21b4b1	-0.002467435
118	0xbab1ea8b	-0.0013573928
119	0xbafd45c1	-0.0019323156
120	0xbc5ac03d	-0.013351497
121	0xbb13c2b4	-0.0022546472
122	0xbcb735a4	-0.022364445
123	0xbcb38150	-0.021912247
124	0x3a8a8f7d	0.0010571327
125	0xbcc8a380	-0.024492025
126	0x39988b0a	0.0002909529
127	0xbcd7cb66	-0.026342105
128	0x3bc38f01	0.005967975
129	0x3925fcd2	0.00015829809
130	0x39c0f088	0.00036800303
131	0xbc976443	-0.018480426
132	0x398031fe	0.0002445131
133	0x39168e0e	0.00014358034
134	0x3888d6e7	6.525014e-05
135	0x39964443	0.00028661088
136	0x3b85654a	0.0040709125
137	0xb87f4259	-6.085853e-05
138	0x3923c38d	0.0001561774
139	0xba8c939a	-0.0010725141
140	0xbcf4bec8	-0.029876128
141	0xbb672db1	-0.0035275037
142	0x3ca92cca	0.02065124
143	0x3cb07885	0.021541843
144	0xbacc6b70	-0.0015595984
145	0x3d0fdf11	0.035124842
146	0xba5c162c	-0.0008395638
147	0x3cd69f01	0.026198866
148	0xbb3d3f9e	-0.002887703
149	0x3a396b77	0.00070732035
150	0x3c46ace6	0.012126183
151	0x3c4b6c5f	0.012415974
152	0xb9945983	-0.0002829545
153	0x3a04701e	0.0005052107
154	0x3836672f	4.348828e-05
155	0xb9986855	-0.00029069433
156	0xba67df0c	-0.0008845187
157	0x3b3463af	0.0027525236
158	0x39c382e4	0.0003729082
159	0x3cb7f9ae	0.022457924
160	0xba336be6	-0.0006844386
161	0xb986218a	-0.0002558346
162	0x3a230795	0.00062190864
163	0x3a2d2f2b	0.0006606455
164	0xb7ecc215	-2.8223769e-05
165	0x3a862159	0.0010233327
166	0xb905a865	-0.000127466
167	0x3a5d736d	0.0008447681
168	0xb8a03c85	-7.640667e-05
169	0xb6c6fa80	-5.930022e-06
170	0x3a11376a	0.00055395684
171	0x3990196f	0.0002748477
172	0xb70d3ab8	-8.417926e-06
173	0x378644f0	1.6006146e-05
174	0x35ceb478	1.5400719e-06
175	0xb71c92da	-9.332516e-06
176	0xb817ae65	-3.6163623e-05
177	0x38e72fad	0.00011023819
178	0x383eb934	4.5472014e-05
179	0x3a4ca8f8	0.0007807161
180	0xbcb6397f	-0.022244213
181	0x3b48e75d	0.0030655481
182	0xbd101a4c	-0.03518133
183	0xbd1f4a84	-0.038889423
184	0xba95f081	-0.0011439474
185	0xbd196903	-0.037453663
186	0x3ba124b5	0.004917706
187	0xbd32b7fc	-0.043632492
188	0x3ba723a8	0.005100686
189	0x39b7dccf	0.00035068995
190	0xbb339913	-0.0027404472
191	0xbcb05e9a	-0.021529485
192	0x39c58926	0.00037676952
193	0x39748a02	0.00023321065
194	0x38845076	6.3092375e-05
195	0x39f78cda	0.00047216454
196	0x3b7c72b6	0.0038520521
197	0x3857df5b	5.146801e-05
198	0x39a14a67	0.00030763747
199	0xbbf200a7	-0.0073853317

exp_avg_sq f4 [10, 20]
0	0x3d82270c	0.06355104
1	0x3d057ae4	0.0325879
2	0x3cb5ff67	0.022216512
3	0x3cdf6d0c	0.027273677
4	0x3b4ec0f0	0.0031548105
5	0x3d6d2a2d	0.05790155
6	0x3c95ac92	0.018270764
7	0x3d419efb	0.047270756
8	0x3b27643e	0.0025541927
9	0x3d0f0db4	0.034925178
10	0x3d228b87	0.039683845
11	0x3dac83f6	0.08423607
12	0x3697bc6d	4.5220863e-06
13	0x3b5c5e93	0.0033625707
14	0x359906a0	1.1401316e-06
15	0x36b0e2c3	5.2716073e-06
16	0x3b313390	0.002703879
17	0x3d05aae1	0.032633666
18	0x3c331817	0.010931036
19	0x3db7820d	0.08960352
20	0x371d5fe8	9.380259e-06
21	0x36de0a90	6.617345e-06
22	0x361c4df7	2.3291193e-06
23	0x360ad750	2.068893e-06
24	0x34a4c1f1	3.068849e-07
25	0x3673d0a3	3.6331264e-06
26	0x361b95dc	2.318403e-06
27	0x3695f527	4.4690855e-06
28	0x33bee4b3	8.8891646e-08
29	0x35c47d00	1.4639518e-06
30	0x35f9831e	1.8590106e-06
31	0x373a0151	1.108677e-05
32	0x2fed19c0	4.3128345e-10
33	0x347d1c63	2.3572788e-07
34	0x3050d593	7.5973466e-10
35	0x300bd0e7	5.0864774e-10
36	0x35cb5b11	1.5151182e-06
37	0x35cbe13a	1.5190228e-06
38	0x349ed1c7	2.9582426e-07
39	0x369383b8	4.3962755e-06
40	0x3da74138	0.08166736
41	0x3c181e1c	0.009284522
42	0x3cb25ea7	0.02177365
43	0x3ceb96f1	0.028758498
44	0x3b15ea05	0.0022875082
45	0x3ce7636d	0.028245652
46	0x3b52d0f0	0.0032167993
47	0x3d46cd5e	0.048535697
48	0x3adee3ed	0.0017005183
49	0x3a408b65	0.000734499
50	0x3c1582f1	0.009125457
51	0x3d24a149	0.040192876
52	0x367bb477	3.750696e-06
53	0x38032fda	3.12774e-05
54	0x358a26c2	1.0293081e-06
55	0x36af79f9	5.229606e-06
56	0x3af1dbae	0.001845231
57	0x3a92734f	0.0011173281
58	0x38c12cb4	9.211284e-05
59	0x3ca2bd1a	0.019865561
60	0x3d86c4d3	0.0658051
61	0x3deb8836	0.115005895
62	0x3d6104c2	0.054936178
63	0x3d89b04c	0.06723079
64	0x3a36fb5e	0.00069802057
65	0x3e52e172	0.20593813
66	0x3d667823	0.056266915
67	0x3e0fac3f	0.1403055
68	0x399e8653	0.00030236188
69	0x3dbe24b6	0.09284346
70	0x3dea4686	0.114392325
71	0x3ea03610	0.31291246
72	0x377b5e98	1.498279e-05
73	0x3be05fbc	0.00684735
74	0x36a4b89a	4.9090713e-06
75	0x378a7cd8	1.6509017e-05
76	0x3a15c7fc	0.0005713699
77	0x3dad3ca4	0.08458832
78	0x3ce3d31f	0.027810631
79	0x3e870b8b	0.26375994
80	0x3d32d7bd	0.043662775
81	0x38049a23	3.1614803e-05
82	0x3c172e54	0.009227354
83	0x3c49e943	0.01232368
84	0x3b07ab0a	0.0020701312
85	0x3b3e6efe	0.0029057856
86	0x37f74ac3	2.9479508e-05
87	0x3c8fd1d5	0.01755611
88	0x3acbe21d	0.0015555058
89	0x373414f0	1.0733711e-05
90	0x3803ebe4	3.1452524e-05
91	0x3b40fd4e	0.0029447856
92	0x358d2515	1.0516111e-06
93	0x374d81df	1.224919e-05
94	0x3452638f	1.9593993e-07
95	0x35f1d0a9	1.8016627e-06
96	0x3ae98cff	0.0017818509
97	0x3706da93	8.037913e-06
98	0x3709ae87	8.206472e-06
99	0x38118ebe	3.4703633e-05
100	0x3dae4abb	0.085103475
101	0x3c8c6a96	0.017140668
102	0x3d080731	0.033209983
103	0x3d2efb1d	0.04271995
104	0x3b202c1c	0.0024440354
105	0x3d5d4b87	0.054027107
106	0x3bd5e5e8	0.006527651
107	0x3d952695	0.072827496
108	0x3abf3a10	0.0014589448
109	0x3ae8cbb0	0.0017760899
110	0x3ca2a3a5	0.019853422
111	0x3d9353ba	0.07193704
112	0x36cc3030	6.0852835e-06
113	0x384b6d87	4.8500977e-05
114	0x35c630c0	1.4766338e-06
115	0x3706f2a7	8.043519e-06
116	0x3aed2585	0.0018092847
117	0x3b3dfb65	0.0028988954
118	0x396946e7	0.00022247025
119	0x3d2e39fd	0.04253577
120	0x3d61c846	0.055122636
121	0x3b4755ad	0.0030416057
122	0x3c05caf3	0.008166063
123	0x3c35e791	0.011102573
124	0x3a96fe83	0.0011519942
125	0x3baf15bc	0.005343167
126	0x398f1480	0.0002729036
127	0x3c992f3b	0.018699279
128	0x3a5bffa8	0.0008392283
129	0x3719cc3e	9.1670645e-06
130	0x39463fa7	0.00018906464
131	0x3c424c02	0.011858942
132	0x35a989c5	1.2631577e-06
133	0x372fc4b1	1.0476609e-05
134	0x351cf852	5.847588e-07
135	0x3603203b	1.9539282e-06
136	0x3a7f1d53	0.00097318477
137	0x36e908e0	6.9449743e-06
138	0x37157bb5	8.909895e-06
139	0x39aa169b	0.0003244177
140	0x3dab7fb3	0.08373966
141	0x3c50ac52	0.012736397
142	0x3c73c823	0.014879259
143	0x3ca33d77	0.01992677
144	0x3ad94cd8	0.0016578687
145	0x3c9c949e	0.019113835
146	0x3b594292	0.0033151251
147	0x3d0f966c	0.035055563
148	0x3aa4d5f7	0.0012575974
149	0x39a85753	0.0003210852
150	0x3bacce14	0.00527359
151	0x3d19e43b	0.037571173
152	0x3635bc95	2.708087e-06
153	0x37c95116	2.3998826e-05
154	0x35a41399	1.2224656e-06
155	0x367c0ae9	3.7557277e-06
156	0x3aad3733	0.0013215303
157	0x39f53f21	0.00046777076
158	0x38390554	4.41124e-05
159	0x3c45ce65	0.012073134
160	0x3a060c2d	0.00051135087
161	0x39284b35	0.00016049745
162	0x36e533ec	6.8307763e-06
163	0x37133729	8.774726e-06
164	0x353b7537	6.98335e-07
165	0x3773d1ec	1.4532805e-05
166	0x37bf3310	2.2792752e-05
167	0x378ea923	1.700648e-05
168	0x35112c5f	5.408128e-07
169	0x36a09206	4.785371e-06
170	0x36e19fdb	6.724132e-06
171	0x393c815d	0.00017977269
172	0x30e28f07	1.6484315e-09
173	0x35176682	5.640105e-07
174	0x3240409a	1.119056e-08
175	0x32493984	1.1712817e-08
176	0x351eb4e9	5.9122846e-07
177	0x36881cfd	4.0564905e-06
178	0x35b50b26	1.3488796e-06
179	0x378618f6	1.5985668e-05
180	0x3d16a22d	0.036775757
181	0x3b02dd85	0.0019968462
182	0x3c0ec49d	0.008713868
183	0x3c41bba5	0.011824523
184	0x3a5f54d3	0.00085194147
185	0x3bffbaca	0.0078042494
186	0x39269f39	0.00015890309
187	0x3ca32b4e	0.01991811
188	0x3a1d0153	0.0005989272
189	0x370d7c7d	8.43324e-06
190	0x39a368d3	0.00031167883
191	0x3c49b885	0.012312059
192	0x35bf8d5f	1.4271753e-06
193	0x374ea144	1.2316104e-05
194	0x34f2c050	4.5215938e-07
195	0x360f023c	2.130996e-06
196	0x3a3fe272	0.0007319815
197	0x36e74b6f	6.893118e-06
198	0x36dec903	6.6395164e-06
199	0x3a123807	0.0005577807

exp_avg f4 [10]
0	0xbc68d548	-0.014211006
1	0x390fe9cd	0.0001372464
2	0x3caaa8f4	0.020832516
3	0x3b978bb8	0.00462481
4	0xbbbf0fd2	-0.0058307434
5	0x3ced4ad2	0.028966341
6	0xbc0201f6	-0.007935038
7	0x3b52a8cb	0.0032144065
8	0x3921970a	0.00015410423
9	0xbc6827fb	-0.014169688

exp_avg_sq f4 [10]
0	0x3bd35c48	0.0064502098
1	0x35b5d416	1.3547276e-06
2	0x3bd84155	0.006599585
3	0x3ca3d3eb	0.019998511
4	0x3b1461a2	0.0022641202
5	0x3c1d0ae0	0.009585112
6	0x3b39de17	0.0028361136
7	0x3babc087	0.005241457
8	0x36e6e802	6.8815434e-06
9	0x3b39bcc7	0.002834128

exp_avg f4 [3, 10]
0	0x3c674121	0.014114649
1	0xbae41d8b	-0.0017403824
2	0x3d7f531f	0.06233513
3	0x3d3cab0e	0.046061568
4	0x3c4b999e	0.012426762
5	0x3d386211	0.0450154
6	0x3d1e850e	0.03870111
7	0x3d6a8b25	0.057261605
8	0xbb720d15	-0.0036934067
9	0x3d65b8eb	0.056084555
10	0x3c203235	0.009777595
11	0x3999f152	0.00029362232
12	0xbc3f93e4	-0.011692975
13	0xbcf408d4	-0.029789366
14	0xba3e3bc7	-0.00072568323
15	0xbc1a68cd	-0.0094244005
16	0x3c8c8807	0.017154707
17	0xbc777653	-0.015103894
18	0x3aa4f87f	0.0012586265
19	0x3bb940dc	0.005653484
20	0x3d1c4356	0.038150154
21	0xbb71089b	-0.003677881
22	0x3dad886e	0.084732875
23	0x3d922517	0.071359806
24	0x3c9bc17d	0.01901316
25	0x3d7fd847	0.062462118
26	0x3e1e893d	0.1548204
27	0x3e051c50	0.12999082
28	0xbbf0a2fe	-0.007343649
29	0x3dc225a1	0.094798334

exp_avg_sq f4 [3, 10]
0	0x3da5e4f9	0.08100314
1	0x38ac4ce7	8.215923e-05
2	0x3d06b9a4	0.032891884
3	0x3d91e258	0.0712325
4	0x3bba2d03	0.0056816353
5	0x3cb202cd	0.021729851
6	0x3d671d00	0.05642414
7	0x3d89ade8	0.06722623
8	0x39fdc382	0.00048401585
9	0x3c6dc13b	0.014511402
10	0x3d974b40	0.073874
11	0x38ad31c1	8.25855e-05
12	0x3d07f3ff	0.033191677
13	0x3d90ecd8	0.07076424
14	0x3ba14f8d	0.0049228133
15	0x3cad752a	0.021174032
16	0x3d5a210e	0.05325418
17	0x3d8ebad0	0.069692254
18	0x39fca94b	0.0004819132
19	0x3c704c64	0.01466665
20	0x3eebf3fa	0.46084577
21	0x3a2c1fca	0.0006566016
22	0x3e93287e	0.2874183
23	0x3f1a2325	0.60209876
24	0x3ce7e682	0.028308157
25	0x3e25ca14	0.16190368
26	0x3ed4709e	0.4149217
27	0x3f292364	0.66069627
28	0x3b84a2e4	0.0040477384
29	0x3dd3038d	0.10303412

exp_avg f4 [3]
0	0x3bfffe27	0.0078122797
1	0x3a9ef52b	0.0012127509
2	0x3d019157	0.031632748

exp_avg_sq f4 [3]
0	0x3b56d5fc	0.0032781353
1	0x3b612f52	0.003436048
2	0x3d0d3a62	0.034479506
