neural_network/lightning_logs/kappa01/version_1/checkpoints/epoch=9-step=18750.ckpt (torch, 121355 bytes, 18 tensors)

layers.0.weight f4 [128, 6]
-0.060778935 -0.16140977 -0.22112122 -0.14834651 -0.096573934 0.70633644 -0.4426413 -0.94392335
0.72835267 -0.2071882 2.4769788 -0.59161115 0.23112984 -0.5708151 -0.3017558 0.15200439
0.87730217 -1.1845948 -0.31470358 -1.7882835 -0.67042685 1.4099224 0.29369667 0.588661
1.5982661 1.1793423 -1.1294296 -0.05724224 0.07883421 0.10329773 0.59654117 -0.70371073
-0.006798742 -2.5157614 0.7599145 -0.09839224 -3.756594 -1.0482054 -0.11035397 0.566113
1.6161511 0.009500487 0.25670925 0.568405 0.8663882 2.31599 2.3888826 -0.09610923
-0.61613405 -0.3513672 -0.19726337 -0.17668085 0.10815928 1.1596118 0.4201367 -0.19889238
-0.17459068 0.5715791 1.1181004 -0.34604385 0.58996195 -0.5104859 -1.3681543 0.9613974
0.029666731 0.19634143 -0.4262938 -0.0723391 -0.3519035 0.0879327 0.39101735 0.009237861
1.0547427 -0.8502937 1.0305136 -4.8351912 -0.7930826 -0.20519058 -3.059726 1.0619242
-2.3350742 -0.55076516 -0.64636177 -0.67863494 -0.31902522 0.04301715 -1.3366169 -0.82284003
-0.66023195 -0.8545838 0.06698295 -0.2388019 -0.17178945 0.25467736 -0.018122703 0.03132328
0.16146544 -0.10038313 0.27374852 -0.95859855 0.10139509 -0.026640508 -1.0170903 -1.1570112
-0.43271738 -2.8415875 4.3623433 -0.010312256 -0.5975885 -0.17631222 -1.2189777 -2.7968774
0.40475437 -0.008968006 -0.23000404 0.16870713 -0.30076322 0.26756525 -0.004993626 0.96118593
0.72338253 0.9610991 -1.2963215 -1.3077886 -0.8900837 0.5582442 0.07639073 -0.54620427
-0.48302364 -0.45754966 -0.1896408 -0.016484067 -0.5197865 -0.45891932 -0.1598715 -1.2024088
0.030199822 0.017806716 -4.1279416 0.8496901 -0.4406181 1.3892076 0.221299 -0.5541723
-0.13274477 -3.7473233 -0.002112438 2.5154576 -0.7117177 0.0025231044 0.17100321 0.37981835
-0.57528365 -1.1610105 -0.45655712 -0.24787658 -2.8480828 0.5656589 -0.085664764 -0.1759552
-0.13023782 -0.15378274 0.7537992 -2.819056 0.4710668 1.0159202 2.8076673 0.7267922
0.312837 -0.3159851 -0.11650644 -0.5849213 -0.3812956 -0.006803309 -0.3762035 1.0173645
-2.3013327 -0.86839527 -1.4544433 -0.036565192 -0.022692775 -0.58610237 -0.67552906 1.9395953
1.9958575 -0.026091594 0.17668569 -0.63820755 -0.8301849 0.314202 0.4968103 -1.115677
-1.6526982 -0.33612514 0.25563845 -0.019695142 -0.0054956386 -0.13049054 0.13513929 0.53571886
0.6042351 -3.9033394 0.87434953 -0.034188654 -0.9471714 -0.2596163 0.11024861 -5.8973193
-0.8049475 0.17537756 -0.50231606 -0.29503855 -0.65381753 -1.6174711 -0.8736985 0.4914501
-0.9180872 -0.8745243 0.043620463 -0.73544925 0.6371433 -0.0838768 1.2493454 -1.6497378
-0.4385094 -2.039108 5.2105703 -0.019104864 -0.2734307 -1.881886 -1.2100333 0.73671144
0.86409533 -1.0068983 -0.3483797 0.6663152 -0.64540386 0.040428583 0.5574148 -0.023215039
-1.598089 2.0375168 -1.8397684 -1.0986595 -1.1049176 -0.15702747 -0.9547652 -0.21423918
0.39891306 -0.12843424 2.8490098 0.013986271 -0.060219105 0.25081122 0.7015086 -6.0292215
00000000: 55f3 78bd 9a48 25be 9a6d 62be 26e8 17be
00000010: 8ec8 c5bd 77d2 343f e1a1 e2be f6a4 71bf
00000020: 5275 3a3f 2529 54be d286 1e40 d473 17bf
00000030: 4dad 6c3e f020 12bf bc7f 9abe 0aa7 1b3e
00000040: e096 603f cda0 97bf d420 a1be 79e6 e4bf
00000050: 18a1 2bbf 5678 b43f 695f 963e 7db2 163f
00000060: fc93 cc3f b0f4 963f 2691 90bf d776 6abd
00000070: d573 a13d c38d d33d ecb6 183f 6326 34bf
00000080: fbc7 debb 3c02 21c0 c289 423f df81 c9bd
00000090: 096c 70c0 982b 86bf 4301 e2bd c8ec 103f
000000a0: 0ade ce3f eea7 1b3c 656f 833e fd82 113f
000000b0: 9ecb 5d3f 2e39 1440 74e3 1840 ead4 c4bd
000000c0: f6ba 1dbf 67e6 b3be 69ff 49be d3eb 34be
000000d0: 9d82 dd3d 296e 943f 281c d73e 72aa 4bbe
000000e0: e6c7 32be 0253 123f ea1d 8f3f a92c b1be
000000f0: bf07 173f 34af 02bf ae1f afbf 241e 763f
00000100: a507 f33c ba0d 493e 2e43 dabe 8626 94bd
00000110: b22c b4be 0f16 b43d 6d33 c83e 665a 173c
00000120: cf01 873f d9ac 59bf dfe7 833f e3b9 9ac0
00000130: 7607 4bbf 7b1d 52be 8dd2 43c0 22ed 873f
00000140: db71 15c0 f2fe 0cbf f777 25bf 05bb 2dbf
00000150: 4657 a3be c032 303d 4316 abbf a5a5 52bf
00000160: f604 29bf 01c6 5abf 5b2e 893d 7c88 74be
00000170: 93e9 2fbe 1265 823e 1076 94bc d74c 003d
00000180: 3257 253e ac95 cdbd c428 8c3e b766 75bf
00000190: 3ba8 cf3d 323d dabc 0430 82bf f118 94bf
000001a0: 228d ddbe 92dc 35c0 5198 8b40 bdf4 28bc
000001b0: 8ffb 18bf 318b 34be 7607 9cbf 0a00 33c0
000001c0: f73b cf3e 8bee 12bc 2e86 6bbe 90c1 2c3e
000001d0: a3fd 99be 50fe 883e 92a1 a3bb 4810 763f
000001e0: 992f 393f 970a 763f dded a5bf 9e65 a7bf
000001f0: 86dc 63bf 18e9 0e3f be72 9c3d 0bd4 0bbf
00000200: e04e f7be f343 eabe 3331 42be 9809 87bc
00000210: ba10 05bf 79f7 eabe 5bb5 23be 88e8 99bf
00000220: 9e65 f73c 64df 913c 1918 84c0 4a85 593f
00000230: b298 e1be 8ed1 b13f 349c 623e 3cde 0dbf
00000240: 3fee 07be 25d4 6fc0 d470 0abb 42fd 2040
00000250: 2233 36bf ab5a 253b 771b 2f3e 8d77 c23e
00000260: ca45 13bf fe9b 94bf dbc1 e9be 5cd3 7dbe
00000270: fd46 36c0 06cf 103f 0271 afbd 9a2d 34be
00000280: 105d 05be 3979 1dbe fcf8 403f 6a6b 34c0
00000290: ab2f f13e ac09 823f d2b0 3340 0e0f 3a3f
000002a0: 2c2c a03e cdc8 a1be ee9a eebd 67bd 15bf
000002b0: 2d39 c3be 4bee debb bf9d c0be 0039 823f
000002c0: 0949 13c0 274f 5ebf 332b babf 62c5 15bd
000002d0: 33e6 b9bc ce0a 16bf 79ef 2cbf a944 f83f
000002e0: 4278 ff3f 0abe d5bc 18ed 343e 9261 23bf
000002f0: ff86 54bf 16df a03e eb5d fe3e 81ce 8ebf
00000300: 9d8b d3bf 9818 acbe 0be3 823e b557 a1bc
00000310: c214 b4bb 509f 05be f461 0a3e df24 093f
00000320: 27af 1a3f 50d0 79c0 5fd5 5f3f 6709 0cbd
00000330: d379 72bf 6dec 84be 06ca e13d d7b6 bcc0
00000340: 0a11 4ebf 2d96 333e c997 00bf 4b0f 97be
00000350: 9660 27bf 4b09 cfbf b4aa 5fbf 599f fb3e
00000360: c307 6bbf d3e0 5fbf 5fab 323d 6746 3cbf
00000370: d31b 233f 9ac7 abbd 8dea 9f3f 9c2a d3bf
00000380: 4e84 e0be bf80 02c0 febc a640 ce81 9cbc
00000390: 1cff 8bbe a4e1 f0bf 5fe2 9abf 1f99 3c3f
000003a0: 5a35 5d3f 0be2 80bf d35e b2be a293 2a3f
000003b0: 3039 25bf 7198 253d bdb2 0e3f 772d bebc
000003c0: 2e8e ccbf ad66 0240 887d ebbf e0a0 8cbf
000003d0: f16d 8dbf cfcb 20be 7e6b 74bf 8461 5bbe
000003e0: 553e cc3e 4484 03be 2d56 3640 ac26 653c
000003f0: 4fa8 76bd 546a 803e 1196 333f 62ef c0c0

layers.0.bias f4 [128]
0.74112886 0.4396924 -0.7681164 -1.3684937 -0.79527414 0.9891785 0.97193813 -0.4758295
-0.8049042 -0.99564564 0.02371861 -0.6354993 -0.6414182 -0.77645856 -1.3992044 -0.28299502
-0.1695472 1.7006184 0.27201927 0.08074954 -1.5994842 -0.7113732 0.0087293545 -1.6843109
0.8236098 -1.1162574 1.2481592 -0.8210662 -0.55586666 -0.15520342 1.1716368 -1.6689653
1.1411426 -0.021745643 0.23678689 0.27731195 1.4517069 0.78326 -1.6887213 -0.25342086
0.3614432 0.7891036 0.48622555 0.3863739 -1.0991101 0.15784532 -1.3473407 0.0023066325
0.65453863 -1.6960796 0.30543336 -0.21361114 0.1399053 -0.5102767 -0.16211334 0.8253204
-0.46091634 -0.9743464 -0.34121558 1.2388017 -0.47723648 -0.583273 -0.0858171 -0.17162612
0.9019286 -0.7073019 -0.17412907 -0.7488121 -1.3912456 -0.9803524 -0.027348608 1.5642176
-1.4024345 -0.22116347 -1.8130792 0.22628088 -0.38790736 -0.6246656 0.7717348 -0.7462835
0.021776466 -0.48729578 -0.37973726 -0.2621766 -0.56246406 -0.096117 0.9075691 -0.6742813
-1.4658178 -1.3817954 -0.6861984 -1.6914237 -1.9491155 0.7904574 0.30315325 0.0800382
-0.0024555717 -0.06302267 -1.7942411 -1.3877358 -1.4559702 0.2050146 0.27715468 0.74551046
-0.37188384 -1.9110113 -1.7879539 1.0507281 -0.89166874 -0.08136075 -0.90365577 0.6186985
-1.3333372 1.3978924 0.08647445 0.17136161 -1.6867646 0.93857425 1.4588563 -0.35103524
-1.5174606 1.3506873 -1.2307485 -0.33906773 0.05776152 -1.7967488 -1.5378186 -1.4417217
00000000: 9fba 3d3f 5d1f e13e 47a3 44bf cd2a afbf
00000010: 1697 4bbf cd3a 7d3f f0d0 783f ed9f f3be
00000020: 340e 4ebf a2e2 7ebf 884d c23c 15b0 22bf
00000030: fc33 24bf fdc5 46bf 2119 b3bf b9e4 90be
00000040: c89d 2dbe ddad d93f 1c46 8b3e 0460 a53d
00000050: e6bb ccbf 8e1c 36bf 9105 0f3c 8097 d7bf
00000060: 18d8 523f 86e1 8ebf aec3 9f3f 6531 52bf
00000070: 474d 0ebf a5ed 1ebe 32f8 953f a8a0 d5bf
00000080: f610 923f eb23 b2bc 4378 723e d5fb 8d3e
00000090: 88d1 b93f ba83 483f 0528 d8bf 61c0 81be
000000a0: 150f b93e b202 4a3f 8ef2 f83e cdd2 c53e
000000b0: a4af 8cbf 34a2 213e a975 acbf df2a 173b
000000c0: d88f 273f 2319 d9bf c361 9c3e e1bc 5abe
000000d0: 5643 0f3e 7ea1 02bf 0a01 26be 3348 533f
000000e0: 3afd ebbe c46e 79bf cfb3 aebe 0e91 9e3f
000000f0: 5758 f4be 6151 15bf e0c0 afbd c2be 2fbe
00000100: cbe4 663f bd11 35bf e44e 32be 26b2 3fbf
00000110: 5614 b2bf 60f8 7abf 300a e0bc 4838 c83f
00000120: f982 b3bf ad78 62be fb12 e8bf 2db6 673e
00000130: cb9b c6be 16ea 1fbf 6990 453f 6f0c 3fbf
00000140: 8f64 b23c d57e f9be ec6c c2be 033c 86be
00000150: a5fd 0fbf fdd8 c4bd 7356 683f b39d 2cbf
00000160: eb9f bbbf acde b0bf b3aa 2fbf 9280 d8bf
00000170: 9e7c f9bf 6b5b 4a3f e736 9b3e 11eb a33d
00000180: a8ed 20bb 0812 81bd b1a9 e5bf 54a1 b1bf
00000190: 3b5d babf 59ef 513e 38e7 8d3e c6d9 3e3f
000001a0: 8f67 bebe 059c f4bf acdb e4bf 427e 863f
000001b0: 6744 64bf 77a0 a6bd fc55 67bf 0663 1e3f
000001c0: cbaa aabf 23ee b23f 8419 b13d 6b79 2f3e
000001d0: e7e7 d7bf 6746 703f cebb ba3f e4ba b3be
000001e0: 263c c2bf 52e3 ac3f 2b89 9dbf 499a adbe
000001f0: 5897 6c3d ddfb e5bf 3dd7 c4bf 568a b8bf

layers.2.weight f4 [64, 128]
-1.2658577 -0.42177022 -0.40196496 -0.3037203 0.9691791 0.6304506 0.35242206 0.30512062
-1.6955698 0.1346413 -0.21337454 -0.37530595 0.5111593 -0.81591254 -0.1565647 0.058883727
0.09683964 2.2355716 0.333668 -2.3040016 -3.679988 -0.1969461 -0.09487241 -0.78834575
-0.711103 -0.058245223 0.7945072 -3.191053 0.049486402 -0.09600296 -0.06723941 -1.9680578
0.019245593 0.17139639 -0.3723318 -3.2610366 0.1797828 1.3294706 0.56014323 0.036658414
0.872357 0.3236046 0.1936506 -0.1996038 0.08285201 0.29444534 -1.4477856 -1.7166812
-0.12807253 0.26937088 -4.5074406 -0.14434814 -0.6341811 -0.9130215 -3.2972252 0.35231623
0.16488986 0.37673196 0.9475791 2.2951303 0.18609615 1.1123718 -0.06139701 -0.0406879
1.6784317 1.4235177 1.4118444 1.8981813 0.06245542 0.4854503 0.37649933 1.1518427
-1.0706984 -2.79418 0.05729123 -0.41467503 -0.10271783 0.21081811 0.43169755 0.034683485
0.39166272 -0.25906417 -0.040059723 0.22191492 0.52328926 -0.1415836 0.60300976 0.075111605
0.1125956 0.7326546 0.15055077 -0.3784979 -0.27780172 1.9680003 -0.33609188 0.32264787
0.20240007 -1.3047396 -0.07680421 0.59243876 -0.8278179 1.0844505 -0.10785529 0.5223239
-0.31415728 0.12304967 -0.7315021 0.12557124 0.90982455 -0.2977545 0.15388042 -2.6914256
-0.33665425 0.41993546 -1.3674539 0.21692035 -0.085312635 -0.078799754 2.0498805 -1.74827
-0.3570689 -0.24729367 -1.4112955 -0.49547985 1.339114 -0.44535717 -0.93102217 0.42356962
-0.21471345 0.3361009 -0.2130557 -0.507337 0.20977925 0.86787546 0.87297875 -0.28619498
-1.3932159 -0.3280528 0.07120405 0.055328526 0.47499132 0.49949002 -1.7834328 0.047042597
0.35709536 1.4827023 1.277252 -0.7313605 0.9707024 0.23301275 0.42965612 0.7771778
-0.21436472 -0.99466616 0.31448498 -0.48887813 0.12556386 0.99458855 0.14225353 -2.329999
0.07790647 0.8805598 0.67972326 -0.310549 0.66627514 1.022141 -2.0258913 0.08535913
1.2105845 0.14734235 0.42360955 0.48055372 0.3632788 -0.14357238 -1.5541807 -0.37573418
0.3730965 -2.0756085 1.4144839 0.14212172 -0.07605165 -0.3071345 -0.4209317 0.42860785
-0.6407017 0.880173 0.5824048 1.2063663 -0.20774119 0.19140016 0.21779495 0.07448048
0.9021638 0.14013849 0.630618 0.64003783 -1.1476812 -0.24415208 0.3375366 0.9102091
-1.405817 -1.2214255 -1.8234944 -0.5013399 -0.105000764 0.51895803 -0.058881927 0.34313744
0.98171806 -0.086642504 -0.05446698 0.20354654 0.18678746 0.5933416 0.75560725 -0.5487607
-2.195477 0.29550755 -0.009989004 -0.33396804 -0.16232783 0.15816377 0.15653597 0.2800011
-0.022203572 0.6957557 0.45813987 -1.8918657 -0.93681276 0.5634138 0.32870823 1.0641327
0.99417406 -1.4159584 -1.6494681 0.5670178 -0.5174236 0.75619024 -0.06649493 0.9055861
-0.6788642 0.36394367 0.49406072 -0.048027508 -1.1680504 1.3305088 1.1495894 -0.56196725
-1.0058117 0.905096 -1.8013802 0.3596465 -0.91634417 -2.241061 -2.5649424 0.905977
00000000: a007 a2bf 44f2 d7be 5ace cdbe 3a81 9bbe
00000010: 1f1c 783f 3665 213f aa70 b43e c538 9c3e
00000020: 6e08 d9bf 69df 093e db7e 5abe 1a28 c0be
00000030: 56db 023f a5df 50bf 7f52 20be 1030 713d
00000040: dc53 c63d 9b13 0f40 88d6 aa3e c374 13c0
00000050: ec84 6bc0 3dac 49be 774c c2bd 07d1 49bf
00000060: d90a 36bf 8b92 6ebd d364 4b3f 363a 4cc0
00000070: 41b2 4a3d 339d c4bd d1b4 89bd 51e9 fbbf
00000080: efa8 9d3c 8982 2f3e 46a2 bebe d3b4 50c0
00000090: fb18 383e 182c aa3f 8c65 0f3f 2227 163d
000000a0: ca52 5f3f 81af a53e 584c 463e f064 4cbe
000000b0: 51ae a93d 8ac1 963e 0a51 b9bf 36bc dbbf
000000c0: 7225 03be fbea 893e f43c 90c0 00d0 13be
000000d0: b159 22bf c7bb 69bf bd05 53c0 cb62 b43e
000000e0: e3d8 283e 03e3 c03e 8b94 723f 6ae3 1240
000000f0: fd8f 3e3e 3362 8e3f 6e7b 7bbd 5ba8 26bd
00000100: dad6 d63f d435 b63f 51b7 b43f 9bf7 f23f
00000110: 41d1 7f3d f18c f83e 85c4 c03e 956f 933f
00000120: a50c 89bf d8d3 32c0 35aa 6a3d 4950 d4be
00000130: ba5d d2bd b4e0 573e 7607 dd3e 4510 0e3d
00000140: 0488 c83e 0fa4 84be aa15 24bd aa3d 633e
00000150: 49f6 053f 4bfb 10be d95e 1a3f 1dd4 993d
00000160: 8698 e63d 408f 3b3f fb29 1a3e 7aca c1be
00000170: 073c 8ebe 6fe7 fb3f 3c14 acbe 1a32 a53e
00000180: f741 4f3e b501 a7bf 874b 9dbd 11aa 173f
00000190: e0eb 53bf 46cf 8a3f 3ce3 dcbd 05b7 053f
000001a0: 39d9 a0be 7701 fc3d b943 3bbf bf95 003e
000001b0: 43ea 683f 4773 98be d492 1d3e 5140 2cc0
000001c0: f25d acbe c801 d73e bb08 afbf 5e20 5e3e
000001d0: 64b8 aebd c461 a1bd 3e31 0340 50c7 dfbf
000001e0: bcd1 b6be 8d3a 7dbe 55a5 b4bf 89af fdbe
000001f0: 1668 ab3f db05 e4be 7857 6ebf 1ede d83e
00000200: d8dd 5bbe 6b15 ac3e 462b 5abe d6e0 01bf
00000210: 5fd0 563e 162d 5e3f 897b 5f3f 2688 92be
00000220: e654 b2bf 89f6 a7be 6ed3 913d 2aa0 623d
00000230: 1032 f33e 28bd ff3e 8747 e4bf bdaf 403d
00000240: 34d5 b63e 30c9 bd3f fe7c a33f 713a 3bbf
00000250: f47f 783f e59a 6e3e e3fb db3e 20f5 463f
00000260: 6d82 5bbe 71a2 7ebf 2d04 a13e 3c4e fabe
00000270: d093 003e 5b9d 7e3f e9aa 113e b41e 15c0
00000280: 6d8d 9f3d 5e6c 613f 5802 2e3f 4700 9fbe
00000290: 0291 2a3f 84d5 823f 34a8 01c0 c4d0 ae3d
000002a0: 6ff4 9a3f eae0 163e 5ae3 d83e 230b f63e
000002b0: aeff b93e a304 13be 65ef c6bf 3b60 c0be
000002c0: 8106 bf3e c5d6 04c0 cf0d b53f 5b88 113e
000002d0: f8c0 9bbd bc40 9dbe 5c84 d7be 7d72 db3e
000002e0: 0705 24bf 0553 613f 7b18 153f 366a 9a3f
000002f0: 1bba 54be 67fe 433e a405 5f3e 3989 983d
00000300: 35f4 663f 7780 0f3e 2e70 213f 85d9 233f
00000310: 38e7 92bf 0103 7abe 99d1 ac3e 7703 693f
00000320: d0f1 b3bf ac57 9cbf 4468 e9bf d057 00bf
00000330: a40a d7bd 6fda 043f 2d2e 71bd b6af af3e
00000340: e051 7b3f a071 b1bd c518 5fbd 816e 503e
00000350: 3645 3f3e 3ce5 173f 7a6f 413f 957b 0cbf
00000360: b282 0cc0 c44c 973e eba8 23bc dcfd aabe
00000370: 4439 26be aff5 213e f74a 203e 4e5c 8f3e
00000380: 44e4 b5bc 0c1d 323f 4f91 ea3e a828 f2bf
00000390: f6d2 6fbf e33b 103f 724c a83e 8035 883f
000003a0: 3182 7e3f 203e b5bf c521 d3bf 1428 113f
000003b0: e075 04bf af95 413f 7e2e 88bd 7ed4 673f
000003c0: 0bca 2dbf d356 ba3e 87f5 fc3e 7eb8 44bd
000003d0: ad82 95bf 1d4e aa3f bf25 933f 16dd 0fbf
000003e0: 70be 80bf 5fb4 673f a093 e6bf 9623 b83e
000003f0: 8895 6abf 8b6d 0fc0 0428 24c0 1cee 673f

layers.2.bias f4 [64]
0.3470894 0.71393126 0.2050554 -1.3225398 0.24124993 -0.30520475 0.107193366 -0.35879898
-0.8862872 -0.11607903 -1.3190556 1.5538112 -0.7166847 -1.2469376 0.07794591 -1.6419078
-0.45692766 -1.9318504 -0.0671477 -1.7181643 0.82195073 -2.155791 0.5727359 1.2193851
-0.65798175 1.1206619 0.35688668 -0.8028326 0.48627052 -0.21859877 -0.53567326 0.95555896
-2.0199811 -1.2931588 0.5303389 -0.4002157 -0.15667646 -0.62889624 -0.09446384 0.16102235
0.023930803 -1.6978819 0.805223 -1.144719 -0.33364403 -0.30258545 -0.973687 -0.89398223
-1.6770158 -1.6691216 -0.32249314 -1.5013256 0.6979346 -0.006373018 -2.1743615 0.31150573
0.3556844 -0.34043485 -0.3650699 0.18118963 -0.5232185 -0.044024073 0.17526492 0.75521964
00000000: b4b5 b13e 33c4 363f 0bfa 513e fc48 a9bf
00000010: 390a 773e cc43 9cbe 3288 db3d 80b4 b7be
00000020: b8e3 62bf d8ba edbd d0d6 a8bf 49e3 c63f
00000030: a678 37bf a79b 9fbf 1ba2 9f3d 092a d2bf
00000040: 6cf2 e9be e046 f7bf bc84 89bd cfec dbbf
00000050: 5d6b 523f 7bf8 09c0 d29e 123f d014 9c3f
00000060: 7e71 28bf d971 8f3f dab9 b63e 7086 4dbf
00000070: 73f8 f83e 5bd8 5fbe e221 09bf 839f 743f
00000080: 5f47 01c0 3a86 a5bf 4ac4 073f 12e9 ccbe
00000090: cb6f 20be 58ff 20bf 4276 c1bd 0be3 243e
000000a0: 880a c43c 3254 d9bf 1823 4e3f 2786 92bf
000000b0: 64d3 aabe 7bec 9abe 8d43 79bf 05dc 64bf
000000c0: 74a8 d6bf c7a5 d5bf d21d a5be 702b c0bf
000000d0: d8ab 323f c0d4 d0bb bd28 0bc0 ae7d 9f3e
000000e0: 441c b63e 7a4d aebe 71ea babe c689 393e
000000f0: a6f1 05bf 9652 34bd a678 333e 1356 413f

layers.4.weight f4 [2, 64]
0.048836727 0.38359293 -0.59489834 -0.1207888 0.09055827 -0.65142757 0.08297562 -0.13700397
0.13621126 -0.019991746 0.050338242 0.15088125 -0.25422636 -0.091652915 -0.40373698 -0.26641873
-0.46368623 0.6144099 -0.82162076 0.4078997 0.08867514 0.8344124 0.1839761 1.4454474
0.056698844 -0.47079968 0.256568 0.061320137 0.2596861 -0.008482567 -0.00049868535 0.7915585
0.1464139 -0.45405635 0.1479933 -0.3135949 -0.025225086 0.28608984 -0.17388244 -0.15218869
0.20583044 -0.2979369 0.5871839 0.05334593 -1.2992548 -0.40595943 -0.2459818 -0.08395206
-0.23267746 -0.15307947 0.61518264 0.37566894 0.24926107 -0.5295918 0.29815897 0.58587456
0.58261067 -0.5893404 -0.08270895 -0.21554963 -0.17264782 0.36245102 0.47533894 0.75102186
-0.46843663 -0.05963397 1.3260784 0.06807814 -0.42506889 -0.2729217 0.4160751 -0.60447127
-0.10267187 0.15005805 0.13579921 -0.69642156 0.12590383 -0.52811724 -0.5307051 0.31880397
0.2752766 0.46666145 -1.4124407 0.28583628 -0.47847298 0.94345945 -0.26411656 0.32191387
-0.123092994 0.26936194 -0.09546705 0.09990341 -0.14158165 -0.0065758857 -0.00801645 -0.70918554
-0.5233774 -0.887198 0.54212856 0.33223182 -0.5431184 -0.0080692 0.30393738 -0.21028255
0.53497446 0.010477084 0.12095328 0.31724548 0.9684119 0.32468832 0.46117023 0.05491768
0.02917828 -0.41824728 0.0837001 -0.38693896 -0.12256769 -0.030513763 0.7541634 0.011622505
-0.0032456818 -0.14676113 0.42223975 0.2791289 0.08534769 0.19431661 0.4455199 -0.00904462
00000000: 0509 483d 4b66 c43e 424b 18bf 1e60 f7bd
00000010: 9d76 b93d f5c3 26bf 1fef a93d c54a 0cbe
00000020: f77a 0b3e bbc5 a3bc 792f 4e3d 9d80 1a3e
00000030: f529 82be 86b4 bbbd 9db6 cebe 0968 88be
00000040: 4868 edbe f849 1d3f bd55 52bf 3bd8 d03e
00000050: 509b b53d 0d9c 553f 3b64 3c3e 6c04 b93f
00000060: 0c3d 683d a80c f1be e25c 833e d32a 7b3d
00000070: 94f5 843e 77fa 0abc 35ba 02ba 94a3 4a3f
00000080: 87ed 153e 137a e8be 8e8b 173e 838f a0be
00000090: d7a4 cebc 5e7a 923e 3d0e 32be 5ad7 1bbe
000000a0: 37c5 523e 2f8b 98be af51 163f 4381 5a3d
000000b0: fb4d a6bf ead9 cfbe a7e2 7bbe 0fef abbd
000000c0: 0043 6ebe ddc0 1cbe 9c7c 1d3f ae57 c03e
000000d0: 4b3e 7f3e 5493 07bf 4ba8 983e e0fb 153f
000000e0: f925 153f 03df 16bf 4f63 a9bd 0bb9 5cbe
000000f0: 97ca 30be 2e93 b93e a05f f33e f842 403f
00000100: edd6 efbe c042 74bd f0bc a93f 8d6c 8b3d
00000110: a1a2 d9be 65bc 8bbe cc07 d53e a1be 1abf
00000120: a145 d2bd d1a8 193e f30e 0b3e af48 32bf
00000130: efec 003e b132 07bf 4adc 07bf 463a a33e
00000140: 0ef1 8c3e 40ee ee3e dbca b4bf 2259 923e
00000150: 69fa f4be 8f86 713f 493a 87be e5d1 a43e
00000160: 2e18 fcbd cfe9 893e 3b84 c3bd 299a cc3d
00000170: c8fa 10be 877a d7bb 6e57 03bc 2f8d 35bf
00000180: 10fc 05bf 681f 63bf f0c8 0a3f 4a1a aa3e
00000190: cf09 0bbf ae34 04bc ae9d 9b3e 4f54 57be
000001a0: 16f4 083f 13a8 2b3c 5ab6 f73d 006e a23e
000001b0: d8e9 773f 8c3d a63e 811e ec3e 5cf1 603d
000001c0: 4a07 ef3c 8224 d6be f56a ab3d dd1c c6be
000001d0: c504 fbbd 00f8 f9bc da10 413f 526c 3e3c
000001e0: 81b5 54bb 8d48 16be cf2f d83e fce9 8e3e
000001f0: c5ca ae3d effa 463e 2f1b e43e e32f 14bc

layers.4.bias f4 [2]
0.15910915 0.09406703
00000000: 82ed 223e 37a6 c03d

exp_avg f4 [128, 6]
0.035921678 0.0074913907 0.00013738307 0.007235149 0.0013824798 0.04190134 -0.010971392 -0.0061197625
-0.0032791914 -0.0010811622 0.004832534 0.037912264 -0.022561122 0.0065894476 0.0026098187 -0.004215756
-0.0049517043 -0.0014636513 -8.172482e-06 0.00026569777 0.00022027867 0.00032001233 -0.00053312787 -0.007331634
0.020941116 0.009298714 0.011236295 0.007594926 -0.009646549 -0.022032578 0.024078472 -0.0037424024
0.003295224 0.0054353303 0.0005507269 0.024118314 -0.0009821026 -0.0021120564 -0.0027015903 -0.0018442194
0.0027806866 0.021129087 -3.6281865e-05 -0.0025564416 -0.002796526 -0.008814006 0.007542977 -0.021106554
-0.007128492 -0.014387938 -0.015859859 -0.009878581 0.017290784 -0.046041843 -0.0013171448 -0.00028214327
-0.00031592164 -0.0001225049 0.0004003966 0.0006241533 -0.012822672 -0.006784392 -0.0072041475 -0.007644081
0.009454408 -0.017040702 0.00022370588 0.00031867946 0.00026748978 0.0001547371 -0.00035271724 -0.00012418233
-0.0072375326 -0.007766556 -0.0076132915 -0.0021777651 0.0076389294 0.025506357 -0.0010839711 0.0026587595
0.002395908 -0.0010154085 -0.0038936145 0.004964164 -0.0012678779 0.0044836807 0.0047507146 0.0017753047
-0.006518631 -0.03107276 0.0001635586 0.00010575726 9.642462e-05 5.1142597e-05 -0.000121627134 0.0002292212
4.0399176e-05 -1.4472178e-06 2.3041124e-05 5.209743e-06 -2.1191961e-05 0.00053099316 -0.0011591276 -0.00016947149
-0.0030439289 -0.0031694458 0.0038389652 0.12935098 0.0006537982 -3.3820812e-05 0.00014499763 -0.00016302954
8.4826985e-05 0.0013329457 0.0012812959 -0.004274086 -0.0032920537 -0.003430183 0.006755587 0.014641057
0.0062013427 -1.1203967e-05 0.0022874624 -0.00053806487 -0.00018580628 -0.010329989 0.00013036982 0.0001528442
0.0001360042 6.8405925e-06 -0.00018634637 0.00052172615 0.00021356781 7.7617886e-05 7.3755466e-05 3.956746e-05
-8.373246e-05 0.00039879355 0.0006374268 0.0073443684 0.0067817415 0.005022429 -0.008920682 -0.028170645
-0.00769422 0.026941476 0.020551095 0.020212881 -0.02899976 -0.13611259 -0.00024279175 4.643129e-05
-1.7701122e-05 1.3809555e-05 -6.597073e-05 -0.000969981 0.00048015808 -0.026578544 -0.023379058 -0.023589177
0.037636444 0.17040187 0.0044840723 0.0005669166 0.0035253284 0.0039342227 -0.0057243463 0.028040644
0.00017113626 2.060048e-05 5.45259e-05 -7.88174e-07 -2.8152108e-05 0.0002217064 0.00025733188 0.0025556947
0.0023091498 -0.0023169185 -0.002329312 0.030825455 0.0058690542 0.002938011 0.006282979 0.0009430008
-0.0048605534 -0.025186775 -0.009053281 0.010781427 0.0070089856 0.0067944014 -0.0138186 -0.054835297
0.016131636 -0.011076692 -0.0082080895 -0.003092605 0.014542265 0.07159925 3.735925e-05 -0.00016945788
-0.00010737216 -0.000113587346 0.00019156655 0.00080351485 0.0003870047 0.003175513 0.0013874426 0.000576996
-0.0046957037 0.005305739 0.016247312 0.016165715 0.010129528 0.011598338 -0.021487612 0.032903474
0.032982793 -0.0055503002 0.0022330054 0.0077788318 -0.00062698306 0.06720724 0.05208138 0.0046094586
0.009061865 0.0068778056 -0.01454087 -0.010860071 -0.007370174 0.0017846245 0.0019097603 0.0023488707
-0.0028956924 -0.020582722 -0.00030610367 -0.00029915725 -0.00026681577 -0.00011099875 0.00039285503 -0.0012845282
-0.008294291 -0.030535558 -0.022137964 -0.0380116 0.037777685 0.17602777 0.0008898338 -0.0008810573
-0.0012993923 -0.0012704257 0.0015102215 0.009831005 -0.008048289 -0.0055648186 -0.0059675626 -0.0021895992
00000000: 9c22 133d 577a f53b 7d0e 1039 d414 ed3b
00000010: 5334 b53a bda0 2b3d 5ac1 33bc 4a88 c8bb
00000020: b4e7 56bb c9b5 8dba 3c5a 9e3b e449 1b3d
00000030: 1ad2 b8bc 4bec d73b 7e09 2b3b 5324 8abb
00000040: e841 a2bb fdd7 bfba 8b1c 09b7 5a4d 8b39
00000050: 9bfa 6639 54c7 a739 9bc1 0bba 343e f0bb
00000060: b48c ab3c a259 183c 7018 383c dbde f83b
00000070: 8f0c 1ebc aa7d b4bc 3740 c53c 1843 75bb
00000080: aff4 573b db1a b23b a85e 103a c593 c53c
00000090: e5b9 80ba 6d6a 0abb 2a0d 31bb bcb9 f1ba
000000a0: 2e3c 363b e816 ad3c 5b2d 18b8 f989 27bb
000000b0: ec45 37bb 9f68 10bc 142b f73b a7e7 acbc
000000c0: 2096 e9bb 63bb 6bbc 89ec 81bc c6d9 21bc
000000d0: 67a5 8d3c 5f96 3cbd 0ca4 acba a1ec 93b9
000000e0: 49a2 a5b9 a974 00b9 52ec d139 389e 233a
000000f0: 2f16 52bc 9b4f debb c510 ecbb 337b fabb
00000100: a9e6 1a3c f198 8bbc 9792 6a39 6f14 a739
00000110: df3d 8c39 ed40 2239 e8ec b8b9 f136 02b9
00000120: d328 edbb 987e febb eb78 f9bb d6b8 0ebb
00000130: fc4f fa3b b5f2 d03c 0914 8eba 953e 2e3b
00000140: ab04 1d3b 7517 85ba 032c 7fbb 6daa a23b
00000150: ec2e a6ba d7eb 923b e2ab 9b3b 57b1 e83a
00000160: 3d9a d5bb 4d8c febc ed80 2b39 ffc9 dd38
00000170: 9337 ca38 f281 5638 1212 ffb8 195b 7039
00000180: 4972 2938 063e c2b5 7048 c137 5acf ae36
00000190: 64c5 b1b7 5932 0b3a deed 97ba 28b4 31b9
000001a0: a77c 47bb 7ab6 4fbb 2697 7b3b 9574 043e
000001b0: a863 2b3a d2da 0db8 810a 1839 e9f2 2ab9
000001c0: 24e5 b138 3cb6 ae3a 28f1 a73a a20d 8cbb
000001d0: 7fbf 57bb eccc 60bb f95d dd3b 0be1 6f3c
000001e0: a234 cb3b acf8 3bb7 40e9 153b ec0c 0dba
000001f0: fed4 42b9 1d3f 29bc e2b3 0839 cd44 2039
00000200: 599c 0e39 3e88 e536 f965 43b9 73c4 083a
00000210: 2cf1 5f39 c9c6 a238 2aad 9a38 3df5 2538
00000220: 8699 afb8 2a15 d139 fd18 273a 07a9 f03b
00000230: 5f39 de3b 3093 a43b 0d28 12bc 20c6 e6bc
00000240: cc1f fcbb 5fb4 dc3c c55a a83c 7c95 a53c
00000250: e890 edbc 1961 0bbe ea95 7eb9 38bf 4238
00000260: df7c 94b7 96af 6737 c459 8ab8 5346 7eba
00000270: babd fb39 3fbb d9bc 7085 bfbc 173e c1bc
00000280: ac28 1a3d d47d 2e3e 20ef 923b 219d 143a
00000290: 3209 673b a7ea 803b 4c93 bbbb 7eb5 e53c
000002a0: 0a73 3339 32cf ac37 bdb2 6438 e892 53b5
000002b0: 3128 ecb7 dc79 6839 80ea 8639 717d 273b
000002c0: 1b55 173b 71d7 17bb 5fa7 18bb aa85 fc3c
000002d0: 3251 c03b a58b 403b 73e1 cd3b b633 773a
000002e0: 4745 9fbb 7f54 cebc 3654 14bc 95a4 303c
000002f0: a2ab e53b 92a3 de3b 6967 62bc fa9a 60bd
00000300: 7e26 843c 037b 35bc 397b 06bc 4dad 4abb
00000310: ae42 6e3c a1a2 923d 30b2 1c38 81b0 31b9
00000320: fd2c e1b8 be35 eeb8 41df 4839 f8a2 523a
00000330: e4e6 ca39 441c 503b d9da b53a 8c41 173a
00000340: 6bde 99bb c4db ad3b 1519 853c f66d 843c
00000350: 52f6 253c f506 3e3c ca06 b0bc cbc5 063d
00000360: f718 073d 4bdf b5bb 9d57 123b 92e5 fe3b
00000370: 1f5c 24ba f3a3 893d 4953 553d f10a 973b
00000380: 3778 143c 375f e13b d43c 6ebc 70ee 31bc
00000390: 8081 f1bb 10ea e93a ec50 fa3a 83ef 193b
000003a0: a8c5 3dbb 199d a8bc 8a7c a0b9 35d8 9cb9
000003b0: 68e3 8bb9 00c8 e8b8 1cf8 cd39 9d5d a8ba
000003c0: c7e4 07bc b525 fabc ad5a b5bc 0db2 1bbd
000003d0: c6bc 1a3d a040 343e bc43 693a c1f6 66ba
000003e0: 5f50 aaba 6a84 a6ba a0f2 c53a 3912 213c
000003f0: f9dc 03bc 1559 b6bb 8b8b c3bb 617f 0fbb

exp_avg_sq f4 [128, 6]
0.030232022 0.0125336405 0.010163079 0.0052577937 0.021977661 0.026405571 0.0053116474 0.00053217565
0.0013967379 0.0006676705 0.0018078513 0.05158167 0.014175191 0.0038760789 0.005111926 0.002260034
0.0078029125 0.08572701 8.784158e-05 9.496116e-06 2.4471638e-05 2.8468787e-05 4.7864803e-05 0.0029783624
0.0153480135 0.0035651152 0.0034298114 0.0023532438 0.0065138456 0.06066373 0.023095528 0.0031160985
0.004981562 0.0015392165 0.007498428 0.13641119 2.2060827e-05 3.719972e-05 0.00018422276 0.00013456549
0.00022865873 0.009076046 0.0019223156 0.0017690742 0.0012294069 0.0017373788 0.0024368253 0.011714391
0.008035546 0.0046580783 0.0044807205 0.0017108809 0.007930419 0.07718014 3.3161723e-05 3.2450873e-06
4.3310206e-06 3.0510216e-06 7.808189e-06 0.00042320564 0.004951375 0.0014696011 0.0008913998 0.0009303427
0.0023690816 0.007343053 1.7167312e-06 3.1794316e-06 1.8534674e-06 2.5376291e-06 4.214198e-06 3.162506e-05
0.0064942925 0.0022658957 0.0022827762 0.00022956706 0.0041292193 0.025615107 4.988933e-05 0.0010840979
0.0006321447 0.0002942573 0.0016239666 0.014083728 0.0013191713 0.0008043168 0.0006055639 0.0002693384
0.001466791 0.030412756 5.6132313e-07 2.3136863e-07 2.2529251e-07 2.0754665e-07 4.5986687e-07 9.03842e-06
1.040296e-06 3.2595858e-07 4.3998813e-07 1.406682e-07 5.492403e-07 1.6189832e-05 0.009760553 0.0005173741
0.0017824277 0.0007052695 0.0025448166 0.22716813 4.2356933e-06 1.5479272e-06 1.7533619e-06 1.0492187e-06
3.052396e-06 4.1289684e-05 0.025647124 0.010778293 0.00936875 0.0048471773 0.019480057 0.05031267
0.0027349966 0.0016208704 0.0010854617 0.00040434784 0.0024763863 0.011942369 1.77792e-05 1.5312513e-05
9.739002e-06 5.052167e-06 2.7767472e-05 0.00011408325 5.6519013e-07 3.0980493e-07 3.887129e-07 1.931959e-07
5.9919086e-07 2.0879885e-05 9.101086e-06 0.0003313566 0.00019800272 0.00022489614 0.00043140346 0.0037181089
0.014327933 0.0126992995 0.00939793 0.0099161165 0.019282155 0.119532116 4.303855e-06 3.6301221e-06
2.6410628e-06 1.0334979e-06 5.6786757e-06 6.75193e-05 0.0032450382 0.018425653 0.016184341 0.010629261
0.032002956 0.14839163 0.0053682136 0.00015458956 0.0007016178 0.00044707672 0.0009361996 0.06826454
1.6591578e-06 6.950644e-07 4.32633e-07 5.092928e-07 1.3362186e-06 1.3372342e-05 0.00094957784 0.0018078028
0.0007412913 0.00057759177 0.0026113812 0.012766893 0.004192907 0.0022963877 0.0017280115 0.002345267
0.0034333854 0.031843703 0.01005542 0.002611556 0.0029790625 0.001567322 0.0055576987 0.1811491
0.004053813 0.007193064 0.0069676917 0.004568813 0.013599083 0.086471714 1.6255186e-05 4.016614e-06
5.2284104e-06 5.951877e-07 6.220497e-06 0.00010871072 4.562809e-05 0.00021533744 0.00021939525 1.4100206e-05
0.00042022642 0.0032204897 0.004286012 0.0030434805 0.0023369642 0.00064130366 0.0056050997 0.017773034
0.008811355 0.0035066267 0.00501629 0.0018044458 0.007578965 0.12717107 0.045464616 0.0006608704
0.0023415308 0.0009961559 0.003343201 0.24825007 0.0026408795 8.949318e-05 0.0003151197 0.0002506011
0.000554561 0.062365454 2.510871e-06 2.9234532e-06 9.897801e-07 8.1474843e-07 3.737329e-06 3.168926e-05
0.0068758065 0.017407682 0.011571281 0.006045073 0.025436403 0.13519967 0.00017733985 2.284748e-05
7.710004e-05 3.5225064e-05 0.00010194717 0.007345252 0.0015439284 0.00050155976 0.0006490194 5.3772517e-05
00000000: 25a9 f73c e659 4d3c 0b83 263c 9249 ac3b
00000010: 7f0a b43c 7f50 d83c 540d ae3b b481 0b3a
00000020: bf12 b73a 9c06 2f3a 6cf5 ec3a 4d47 533d
00000030: 0f3f 683c d005 7e3b f181 a73b 141d 143b
00000040: 93af ff3b a591 af3d 9737 b838 8251 1f37
00000050: 7148 cd37 41d0 ee37 71c2 4838 a130 433b
00000060: 3c76 7b3c b5a4 693b b0c6 603b e138 1a3b
00000070: 1972 d53b 887a 783d d532 bd3c 7537 4c3b
00000080: 5f3c a33b 89bf c93a 60b5 f53b 60af 0b3e
00000090: 440f b937 e506 1c38 ec2b 4139 261a 0d39
000000a0: 1cc4 6f39 b2b3 143c 35f6 fb3a 48e0 e73a
000000b0: 0d24 a13a c2b8 e33a 25b3 1f3b b8ed 3f3c
000000c0: 86a7 033c cba2 983b 02d3 923b a33f e03a
000000d0: 97ee 013c 9f10 9e3d 2117 0b38 2dc6 5936
000000e0: 2f53 9136 27c0 4c36 ebff 0237 b3e1 dd39
000000f0: 253f a23b a19f c03a d4ac 693a 3ee2 733a
00000100: 9842 1b3b fe9d f03b 6f6a e635 385e 5536
00000110: a8c4 f835 234c 2a36 af67 8d36 26a5 0438
00000120: 13ce d43b 6c7f 143b a19a 153b f0b7 7039
00000130: 674e 873b c6d6 d13c 4340 5138 4a18 8e3a
00000140: 83b6 253a 8c46 9a39 47db d43a 70bf 663c
00000150: 0be8 ac3a c9d8 523a b5be 1e3a fd35 8d39
00000160: 5741 c03a 2c24 f93c d5ad 1635 206e 7834
00000170: efe7 7134 fdd9 5e34 9fe3 f634 b8a3 1737
00000180: 4ca0 8b35 68ff ae34 8237 ec34 950a 1734
00000190: 826f 1335 66cf 8737 baea 1f3c 63a0 073a
000001a0: 59a0 e93a d6e1 383a f0c6 263b c39e 683e
000001b0: 5420 8e36 60c2 cf35 0e55 eb35 e1d2 8c35
000001c0: c4d7 4c36 762e 2d38 eb19 d23c 7097 303c
000001d0: 637f 193c 12d5 9e3b a494 9f3c a914 4e3d
000001e0: a13d 333b 6373 d43a 0d46 8e3a a6fe d339
000001f0: de4a 223b eda9 433c 8b24 9537 5f73 8037
00000200: b264 2337 c985 a936 31ee e837 fa3f ef38
00000210: 92b7 1735 4453 a634 4bb0 d034 4971 4f34
00000220: 15d8 2035 3627 af37 deb0 1837 eeb9 ad39
00000230: f39e 4f39 19d2 6b39 fe2d e239 84ab 733b
00000240: b5bf 6a3c b910 503c c7f9 193c 3577 223c
00000250: 9cf5 9d3c 41cd f43d d569 9036 069d 7336
00000260: 1d3d 3136 b8b6 8a35 748b be36 2699 8d38
00000270: b5aa 543b 65f1 963c 0695 843c 5a26 2e3c
00000280: 8815 033d faf3 173e d7e7 af3b 5219 2239
00000290: c6ec 373a 9f65 ea39 4b6b 753a 47ce 8b3d
000002a0: 3ab0 de35 7694 3a35 a044 e834 56b6 0835
000002b0: 1f58 b335 c659 6037 17ed 783a ccf3 ec3a
000002c0: 3853 423a 8769 173a b523 2b3b 3b2c 513c
000002d0: a764 893b fe7e 163b 727e e23a 0db3 193b
000002e0: a602 613b 8b6e 023d 7dbf 243c a426 2b3b
000002f0: 603c 433b 996e cd3a 5b1d b63b 267f 393e
00000300: d9d5 843b cbb3 eb3b 3c51 e43b fbb5 953b
00000310: b0ce 5e3c 1518 b13d bf5b 8837 74c6 8636
00000320: b46f af36 fdc4 1f35 aab9 d036 a0fb e338
00000330: ca60 3f38 34cc 6139 770d 6639 ec8f 6c37
00000340: d651 dc39 da0e 533b ad71 8c3b 2175 473b
00000350: c127 193b 291d 283a fcaa b73b c198 913c
00000360: 805d 103c 6fcf 653b b15f a43b 2783 ec3a
00000370: f758 f83b 2239 023e 1b39 3a3d 433e 2d3a
00000380: 5e74 193b 7291 823a 9b19 5b3b 4435 7e3e
00000390: 9b12 2d3b 49ae bb38 a636 a539 1c63 8339
000003a0: f55f 113a eb72 7f3d 6f80 2836 8b30 4436
000003b0: 96d8 8435 16b5 5a35 d3ce 7a36 15ea 0438
000003c0: 724e e13b 8e9a 8e3c 7895 3d3c bf15 c63b
000003d0: 0160 d03c c871 0a3e 4ef4 3939 97a8 bf37
000003e0: c5b0 a138 a0be 1338 78cc d538 71b0 f03b
000003f0: a45d ca3a 1b7b 033a f422 2a3a cd89 6138

exp_avg f4 [128]
0.005913397 -0.015159968 -0.016908484 -0.0015406797 0.025382563 0.016737748 -0.015470206 -0.0019630773
-0.031742945 -0.0013357702 -0.020857515 0.0004591715 -0.012780022 -0.002113532 0.012323892 0.00025697134
6.3184896e-05 -0.022088517 0.0004976544 -0.03142155 8.121632e-05 0.00019760172 0.0002636873 0.010396212
0.03832354 -0.0002069499 -0.032134905 0.01116425 9.388727e-05 0.004283602 0.01570456 0.017634157
0.004781954 -0.00010438081 0.004769468 0.026035367 0.02406407 0.06813612 0.008949342 -0.00050224585
-0.05336058 -0.005994623 -0.02422197 -0.00357769 0.0049682227 -0.026171 0.013115891 0.00071091444
-0.009975199 0.044732146 -0.0032830369 4.861167e-06 0.011251945 0.00051459554 -0.007704094 0.02727533
-0.009095035 0.03201448 -0.038596004 0.02563607 0.0063406164 -0.0010147275 0.00029020332 -2.1673577e-05
0.02696226 0.0046650893 0.061209038 -0.011277299 -0.0032388868 -0.010451818 0.031161875 -0.0026441982
0.019672856 -0.010520148 0.008621416 -0.016914645 -1.2157506e-05 0.00020148058 0.04020097 0.0002506205
0.00038891597 0.00018640255 0.0001070038 -3.453392e-05 -0.0001660908 -0.000104938095 0.019675836 0.0064250287
0.004283547 -0.003197269 3.621802e-05 -0.0025448448 -0.018207451 0.0054167863 9.853068e-05 5.56795e-05
-0.0055593704 0.016974976 0.0028722426 -0.0050897906 0.00051128154 0.007776656 0.00040672134 0.12123889
0.00063010777 0.0017293355 -0.0100283455 0.0060303803 -0.0014538697 4.712554e-06 0.00027571974 0.0059600803
-0.0002113595 0.025820028 -0.029423142 -0.030016318 0.0063676736 -0.0073369737 -0.04088487 0.036935627
0.002190448 0.025593285 -0.011147845 0.0009197175 0.001615859 0.02623523 -0.04866471 0.061450016
00000000: 2bc5 c13b 8461 78bc a983 8abc a2f0 c9ba
00000010: 18ef cf3c 9a1d 893c bf76 7dbc f9a6 00bb
00000020: e404 02bd 0315 afba 61dd aabc f5bc f039
00000030: 4c63 51bc 2f83 0abb 26ea 493c 1cba 8639
00000040: 2282 8438 faf2 b4bc 0575 023a e2b3 00bd
00000050: ae52 aa38 4f33 4f39 833f 8a39 e054 2a3c
00000060: 25f9 1c3d b100 59b9 e49f 03bd 42ea 363c
00000070: 58e5 c438 755d 8c3b d9a6 803c 8275 903c
00000080: f0b1 9c3b 05e7 dab8 3349 9c3b 1f48 d53c
00000090: 0322 c53c f38a 8b3d 43a0 123c 26a9 03ba
000000a0: a090 5abd 8b6e c4bb 276d c6bc ae77 6abb
000000b0: 79cc a23b 9164 d6bc 09e4 563c a95c 3a3a
000000c0: 046f 23bc 0e39 373d 3828 57bb 1b1d a336
000000d0: 145a 383c ece5 063a a072 fcbb 8370 df3c
000000e0: 5703 15bc 9e21 033d d816 1ebd bc02 d23c
000000f0: f2c4 cf3b 9b00 85ba 6e26 9839 a7cf b5b7
00000100: f5df dc3c 9bdd 983b 54b6 7a3d 6cc4 38bc
00000110: 8143 54bb 1a3e 2bbc 3047 ff3c 494a 2dbb
00000120: f828 a13c b35c 2cbc d740 0d3c 9590 8abc
00000130: 17f8 4bb7 8844 5339 c6a9 243d b765 8339
00000140: 6be7 cb39 0e75 4339 3a67 e038 84d8 10b8
00000150: a928 2eb9 3612 dcb8 382f a13c 0c89 d23b
00000160: ff5c 8c3b 4689 51bb cee8 1738 69c7 26bb
00000170: cb27 95bc 4c7f b13b 42a2 ce38 6889 6938
00000180: 612b b6bb 1b0f 8b3c 3c3c 3c3b 42c8 a6bb
00000190: 8607 063a 52d3 fe3b 373d d539 184c f83d
000001a0: d12d 253a dfaa e23a ee4d 24bc 7f9a c53b
000001b0: c68f beba 8820 9e36 7a8e 9039 c74c c33b
000001c0: 62a0 5db9 8684 d33c cd08 f1bc c8e4 f5bc
000001d0: eba7 d03b ff6a f0bb e576 27bd d049 173d
000001e0: 9f8d 0f3b 02a9 d13c 73a5 36bc 3219 713a
000001f0: 3bcb d33a 44eb d63c a654 47bd 03b3 7b3d

exp_avg_sq f4 [128]
0.07559237 0.02277314 0.04201163 0.00038995303 0.022668084 0.05697072 0.002825229 0.0035505309
0.025913304 6.4496446e-05 0.0089396555 7.86409e-06 0.00883759 0.0026471126 0.005178571 1.6680344e-06
3.3783856e-06 0.07627753 1.4859795e-05 0.071704134 0.0039105713 3.6623598e-05 7.705208e-06 0.00065162586
0.039854754 1.2932385e-05 0.072705925 0.013979911 4.17135e-06 0.0031932427 0.011642534 0.033836
0.0344069 3.1713786e-05 0.0008441179 0.01653162 0.040802818 0.09041881 0.008873269 8.4727935e-06
0.042726837 0.0024845297 0.004687357 0.0064586713 0.0029486376 0.0035358588 0.031950183 0.041701026
0.0011180151 0.018155437 0.020245325 3.9713855e-06 0.070663005 3.404992e-05 0.0044157724 0.023915086
0.013578189 0.041429065 0.012474998 0.19959144 0.000873643 0.0008592451 4.3837695e-06 2.5869688e-06
0.089150056 0.10446096 0.0825672 0.031068588 0.0011688741 0.008212446 0.0041995724 0.10516236
0.009909446 0.02240434 0.0041251844 0.06421125 4.4331778e-06 2.8144457e-05 0.04441194 1.1495063e-05
3.3188666e-05 2.3810474e-06 2.0736816e-06 2.788585e-06 1.679533e-05 8.959963e-06 0.07392157 0.009315963
0.0036394815 0.018299066 4.206696e-06 0.002453289 0.009361931 0.046101876 1.9913072e-05 5.286169e-06
0.02172454 4.8431473e-05 0.01857497 0.014931913 0.00013794449 0.011684885 3.0235988e-05 0.13009548
1.0970121e-05 0.0054828827 0.008720149 0.017286632 0.0011859536 6.273738e-06 5.8310666e-06 0.0061084055
0.0002537275 0.02392727 0.016267452 0.016698187 0.00642403 0.0010408021 0.17328203 0.03418221
0.0031221579 0.03250278 0.019328825 6.6635424e-05 0.011606022 0.03000711 0.021525765 0.037959382
00000000: 2cd0 9a3d bc8e ba3c 6314 2c3d 9c72 cc39
00000010: 6bb2 b93c 215a 693d 7a27 393b 06b0 683b
00000020: 2348 d43c 4442 8738 a277 123c 02f0 0337
00000030: 8acb 103c 2e7b 2d3b 01b1 a93b 3ae1 df35
00000040: 39b8 6236 6537 9c3d 554e 7937 9ed9 923d
00000050: 4024 803b 4a9c 1938 9e45 0137 dfd1 2a3a
00000060: bd3e 233d 2cf8 5837 d8e6 943d ff0b 653c
00000070: a0f7 8b36 b945 513b 54c0 3e3c 9e97 0a3d
00000080: 40ee 0c3d 6b04 0538 cb47 5d3a 526d 873c
00000090: db20 273d 7f2d b93d 3061 113c 5f26 0e37
000000a0: 5602 2f3d 7ed3 223b 6798 993b 43a3 d33b
000000b0: ee3d 413b deb9 673b 32de 023d b2ce 2a3d
000000c0: 5d8a 923a b6ba 943c 86d9 a53c f141 8536
000000d0: c4b7 903d d3d0 0e38 2fb2 903b 92e9 c33c
000000e0: 0d77 5e3c 86b1 293d ef63 4c3c b361 4c3e
000000f0: 3005 653a f63e 613a 4b18 9336 c99b 2d36
00000100: 4e94 b63d a1ef d53d fe18 a93d 8d83 fe3c
00000110: e834 993a 7f8d 063c 919c 893b 5d5f d73d
00000120: 3b5b 223c 4e89 b73c 8e2c 873b 3081 833d
00000130: b5c0 9436 c317 ec37 4be9 353d ebda 4037
00000140: 0f34 0b38 15ca 1f36 9429 0b36 8723 3b36
00000150: b2e3 8c37 c052 1637 3164 973d fba1 183c
00000160: 5e84 6e3b ece7 953c 3e27 8d36 5cc7 203b
00000170: c962 193c 52d5 3c3d ff0a a737 d95f b136
00000180: aaf7 b13c e622 4b38 892a 983c fca4 743c
00000190: 31a5 1039 f671 3f3c 4aa3 fd37 c037 053e
000001a0: 500c 3837 c1a9 b33b f5de 0e3c b29c 8d3c
000001b0: 0072 9b3a 0083 d236 7ba8 c336 0529 c83b
000001c0: bb06 8539 1f03 c43c 5243 853c a3ca 883c
000001d0: ab80 d23b 866b 883a d870 313e a502 0c3d
000001e0: 1e9d 4c3b a321 053d 7c57 9e3c 9fbe 8b38
000001f0: 2f27 3e3c 79d1 f53c cd56 b03c 4c7b 1b3d

exp_avg f4 [64, 128]
-0.0013526073 -0.0018054822 -0.003626372 -2.2959211e-05 -0.0011400287 -0.0017978714 0.00024395782 2.7741851e-05
-6.223048e-05 7.967526e-06 -0.0010018937 -1.8202092e-05 -0.00052398664 -0.0017791559 -0.002240429 -7.742952e-06
2.4669077e-06 -0.0003608766 -2.2421553e-05 -0.00057768746 -9.3228744e-05 -1.9267649e-05 1.6525084e-06 -0.00086889614
0.004515485 -3.303724e-05 0.0027485604 -1.16143565e-05 -8.553962e-06 -0.00036448764 0.001408379 -0.0020345969
0.003030407 2.6214911e-06 1.8320035e-06 -2.0149479e-05 0.0021608856 -0.00061398384 -0.00086939154 -2.361752e-05
-0.0028807633 -0.00012463641 -0.001156751 0.0018663087 -6.869007e-05 0.00019412117 -0.0025987988 -0.0010097376
-3.8100752e-05 -0.00055585057 -3.9302475e-05 -1.2649363e-05 -0.0055389623 2.5815416e-05 2.8098528e-05 -0.0009378239
0.00016123467 -0.00096375565 6.8115287e-07 -0.0014143129 -0.0019981172 -1.2008892e-05 -3.6367805e-05 8.768096e-07
8.523849e-05 -0.0019003829 0.0012458831 -0.00054838206 -2.0448577e-05 0.00014137705 -0.00044706918 -0.0003502499
-0.0021240576 6.155683e-05 -0.0004930521 0.00043686517 -1.7240587e-05 -3.5906594e-06 -0.00025689232 -9.287148e-06
-3.832884e-05 2.9260248e-06 8.216936e-07 -7.4402983e-06 -2.0120935e-05 -6.2552467e-06 0.0013261263 -0.0011658794
-0.002022525 -0.00047842588 -5.972883e-06 1.41808705e-05 -7.2617318e-06 0.0047579138 -9.576009e-06 -6.6976313e-06
-0.00075558125 -0.00048710787 -0.00031901672 0.001254502 -3.190034e-05 -9.674049e-05 4.7054145e-06 0.0014381782
-3.9799812e-05 0.00075272075 -7.173795e-05 -0.0019512108 -0.0008725238 -5.7381135e-06 4.4358708e-07 0.00029146657
7.771746e-06 0.00030661633 0.0008809019 -0.0016884918 3.1680785e-05 0.00024270981 -0.0013115916 -0.00090252765
-5.2090723e-05 0.0005957084 -3.7383696e-05 2.3224824e-05 -0.0041836654 -2.6788908e-05 -3.2459513e-05 -0.00052435533
0.0018357991 0.00041652395 0.0025880395 -1.4088281e-06 -0.0001404909 0.0066549014 -0.0007854151 0.00048014987
-0.00055742403 4.8974274e-05 0.0010530573 -1.2615227e-05 0.0002622918 -7.080511e-05 -0.0001084939 7.8199173e-07
1.6557233e-05 0.0003919582 5.037082e-05 0.00031598087 -0.00050356827 6.806219e-06 8.050578e-06 0.00079752586
0.0052190605 -2.3447772e-05 -0.0074074687 0.00059620134 2.6422517e-06 -0.002357434 0.0063763964 -0.00013774411
-0.0035091676 5.8815232e-05 -0.00012850577 -8.2013605e-05 0.0032006095 0.0021419036 9.71206e-05 -9.887437e-06
-0.006292422 -0.00014279307 6.902742e-05 0.0010143383 0.0001840573 -0.00010638174 0.0007162406 0.002657822
4.099598e-05 -0.0005112671 0.0010057304 -1.1139198e-05 0.004607826 -2.516413e-05 -0.0003530307 0.0027526675
-0.003366204 -0.0015327806 0.0014149601 0.0042332048 0.00048350674 9.6158794e-05 4.751286e-06 6.013941e-06
0.004082401 0.0030724558 -0.006527906 0.0007290583 3.6901525e-05 -0.0011512539 -0.004095072 -0.00043569528
0.00016966267 -0.00032744498 2.8168884e-05 0.002813274 2.8958333e-05 1.4057794e-05 0.0022836449 -2.5370813e-05
-2.9246154e-05 -9.03672e-06 -1.0230693e-05 9.654243e-06 -1.2073387e-05 8.704277e-06 0.008444093 -0.0005433
-3.5517067e-05 5.9776332e-05 -9.273945e-06 -8.528154e-05 -8.86991e-05 -0.003300636 5.8402937e-05 9.481416e-06
0.0025980382 -0.00031526457 -0.00045098356 -7.121263e-05 -6.2395164e-05 0.0017185687 2.1675723e-05 0.010160527
0.00013994088 4.0179775e-06 2.0475309e-05 -0.0021704894 0.00018330217 2.1724685e-05 -2.4683908e-05 0.00026403603
-5.0563558e-05 0.007254623 -0.0025240507 1.5386744e-05 1.2923214e-06 -0.00014350521 0.0006457909 0.001712101
-3.445199e-05 0.0009918645 5.77714e-05 4.9563723e-06 -0.000366702 -4.8364713e-05 -7.5657634e-05 -0.0030220994
00000000: f849 b1ba eea5 ecba 6da8 6dbb 8898 c0b7
00000010: 046d 95ba 8ea6 ebba eece 7f39 2cb7 e837
00000020: bc81 82b8 43ac 0537 f951 83ba b2b0 98b7
00000030: 265c 09ba 9132 e9ba 29d4 12bb bae7 01b7
00000040: 278d 2536 0a34 bdb9 eb15 bcb7 f36f 17ba
00000050: cd83 c3b8 f6a0 a1b7 c2cb dd35 a2c6 63ba
00000060: a2f6 933b 7791 0ab8 3121 343b 48db 42b7
00000070: fd82 0fb7 b418 bfb9 5b99 b83a df56 05bb
00000080: cb99 463b e0ec 2f36 29e3 f535 ad06 a9b7
00000090: a59d 0d3b c2f3 20ba e1e7 63ba 3d1e c6b7
000000a0: 30cb 3cbb d5b0 02b9 1f9e 97ba ee9e f43a
000000b0: b30d 90b8 018d 4b39 9c50 2abb 2c59 84ba
000000c0: 5fce 1fb8 80b6 11ba b6d8 24b8 9a38 54b7
000000d0: 2f80 b5bb 2f8e d837 21b5 eb37 4cd8 75ba
000000e0: 1a11 2939 8ca4 7cba 78d8 3635 7760 b9ba
000000f0: d8f2 02bb cc79 49b7 a289 18b8 e65d 6b35
00000100: 11c2 b238 4516 f9ba e64c a33a 4cc1 0fba
00000110: fc88 abb7 9d3e 1439 9c64 eab9 bfa1 b7b9
00000120: c633 0bbb 1218 8138 2b40 01ba 0d0b e539
00000130: e19f 90b7 0ff7 70b6 81af 86b9 ffcf 1bb7
00000140: 47c3 20b8 b95c 4436 5b92 5c35 ada7 f9b6
00000150: 61c9 a8b7 29e4 d1b6 6ad1 ad3a 6cd0 98ba
00000160: 578c 04bb 3cd5 fab9 ad6a c8b6 60ea 6d37
00000170: cda9 f3b6 46e8 9b3b a5a8 20b7 37bc e0b6
00000180: 3312 46ba 8362 ffb9 b341 a7b9 1a6e a43a
00000190: bbcc 05b8 28e1 cab8 34e3 9d36 4181 bc3a
000001a0: b9ee 26b8 3c52 453a 0572 96b8 c5bf ffba
000001b0: 15ba 64ba 058a c0b6 2526 ee34 fbcf 9839
000001c0: 6563 0237 59c1 a039 53ec 663a 6250 ddba
000001d0: fce0 0438 eb7f 7e39 b6e9 abba 9b97 6cba
000001e0: fd7b 5ab8 5029 1c3a 70cc 1cb8 eed2 c237
000001f0: 2117 89bb beb8 e0b7 2325 08b8 e474 09ba
00000200: 329f f03a e660 da39 199c 293b f716 bdb5
00000210: bd50 13b9 5c11 da3b 51e4 4dba a0bc fb39
00000220: 1820 12ba ba69 4d38 bd06 8a3a fda5 53b7
00000230: 3684 8939 347d 94b8 3887 e3b8 10ea 5135
00000240: 63e4 8a37 bd7f cd39 4245 5338 3caa a539
00000250: e501 04ba fa60 e436 f810 0737 0e11 513a
00000260: a704 ab3b b5b1 c4b7 5aba f2bb 654a 1c3a
00000270: 8a51 3136 2e7f 1abb 17f1 d03b 676f 10b9
00000280: 10fa 65bb 60b0 7638 81bf 06b9 b8fe abb8
00000290: 51c1 513b 2e5f 0c3b 3aad cb38 38e2 25b7
000002a0: a930 cebb b9ba 15b9 d0c2 9038 8cf3 843a
000002b0: 81ff 4039 4319 dfb8 18c2 3b3a db2e 2e3b
000002c0: 19f3 2b38 8e06 06ba b6d2 833a 7ee2 3ab7
000002d0: 3ffd 963b 8f17 d3b7 fa16 b9b9 1966 343b
000002e0: 889b 5cbb 95e7 c8ba 2f76 b93a b2b6 8a3b
000002f0: 2d7f fd39 dca8 c938 3c6d 9f36 5ccb c936
00000300: a9c5 853b 415b 493b 0be8 d5bb 461e 3f3a
00000310: b6c6 1a38 ace5 96ba f42f 86bb 086e e4b9
00000320: 7ae7 3139 ecac abb9 384c ec37 e85e 383b
00000330: 8ceb f237 c4d9 6b37 34a9 153b 68d3 d4b7
00000340: a355 f5b7 6b9c 17b7 7ea4 2bb7 a8f8 2137
00000350: cd8e 4ab7 9608 1237 1859 0a3c 3f6c 0eba
00000360: 29f8 14b8 59b8 7a38 4a97 1bb7 2ed9 b2b8
00000370: f703 bab8 7c4f 58bb adf5 7438 5f12 1f37
00000380: d943 2a3b 184a a5b9 fd71 ecb9 fd57 95b8
00000390: 26da 82b8 9941 e13a 43d4 b537 5778 263c
000003a0: 18bd 1239 2ad2 8636 64c2 ab37 c53e 0ebb
000003b0: cd34 4039 683d b637 4a10 cfb7 516e 8a39
000003c0: 3514 54b8 30b8 ed3b 8b6a 25bb c812 8137
000003d0: d373 ad35 e379 16b9 4b4a 293a 9468 e03a
000003e0: 8b80 10b8 7301 823a 924f 7238 ea4e a636
000003f0: e941 c0b9 37db 4ab8 62aa 9eb8 6a0e 46bb
