neural_network/lightning_logs/version_25/checkpoints/epoch=0-step=1875.ckpt (torch, 13835 bytes, 18 tensors)

layers.0.weight f4 [20, 4]
000000 b0 32 17 bf a1 79 5a 3e b0 cc b3 be 93 3a 4b 3d
       -0.5906172 0.2133546 -0.35117102 0.049616408
000010 d7 60 94 bd 1d 7e f7 bd f7 a4 da be c4 c9 60 be
       -0.07245033 -0.12084601 -0.42703983 -0.21951967
000020 0a 5c 61 3d eb b1 15 be 11 67 1c be b9 0d 5b bd
       0.055019416 -0.14618652 -0.15273692 -0.053479884
000030 b4 fd 32 3d 9c 5a 01 3e ba 85 3c be 17 17 54 3e
       0.04369898 0.12632221 -0.18410388 0.20711933
000040 22 00 b8 be a0 e6 80 3e 78 d2 dd be 5c ad b5 3d
       -0.359376 0.25175953 -0.43324637 0.08870956
000050 97 61 00 3f d2 08 20 3d f2 00 ee be 6a bc d6 3e
       0.5014891 0.03907091 -0.46485096 0.41940624
000060 84 bc 16 bf cc d4 8a be 4b e2 85 3e 1d 45 b9 bd
       -0.588814 -0.27115476 0.2614921 -0.090463854
000070 27 65 5a 3f bd be 37 bf 1e 11 1a 3d 2d af a4 3c
       0.85310596 -0.7177542 0.03761398 0.020103062
000080 e8 4f cc 3d 3a f3 c5 3d 9a e2 8a be a2 69 81 ba
       0.099761784 0.096655324 -0.27126008 -0.00098734
000090 73 72 96 3e 8d 00 7e 3f f6 85 10 bf 2c e2 b2 bd
       0.29384193 0.9921959 -0.5645441 -0.08734545
0000a0 df 02 bb 3e a8 e1 93 3e 99 90 c2 be 97 36 f5 be
       0.36525628 0.288831 -0.38000944 -0.4789321
0000b0 d1 49 99 3d 79 36 b7 3e c7 43 b9 be 69 45 03 3e
       0.074847825 0.35783747 -0.36184523 0.12819447
0000c0 d8 dc 16 bf 38 38 d2 be 9b 8c 5a 3e e1 3c 9d 3d
       -0.5893073 -0.41058517 0.21342699 0.07677627
0000d0 7f 97 39 be aa 10 96 3e 6b ae 5f be 26 e0 19 bd
       -0.18124197 0.2930959 -0.21843879 -0.03756728
0000e0 07 34 90 be f7 b8 83 3d 89 0e 3f 3d 40 0e 75 bd
       -0.28164694 0.064317636 0.04664472 -0.059828043
0000f0 57 0e 8c be 30 a7 e0 be d2 9b 1d be c3 13 a8 3e
       -0.2735469 -0.43877554 -0.15391472 0.32827577
000100 0b 91 3e 3f 44 2d ef be c3 f7 ec 3d 53 9c e2 bd
       0.7444007 -0.46714222 0.11570694 -0.11064973
000110 39 67 40 3f e5 06 96 3c 42 2d b0 3e d0 6f 09 bc
       0.75157505 0.018313834 0.3440953 -0.008388475
000120 b1 17 a4 3e a7 9d 50 be 98 44 50 be 44 13 e2 bd
       0.32049325 -0.2037264 -0.20338666 -0.11038831
000130 c0 4f 49 bf 4a 4e 6d bd c1 8a be 3e e4 26 c2 bd
       -0.78637314 -0.05793599 0.37215236 -0.09480074

layers.0.bias f4 [20]
000000 51 51 90 3e 45 f8 a4 3e b7 41 b3 3e ea 48 f5 bd
       0.2818704 0.32220665 0.35011074 -0.11976798
000010 0e 02 8a be e3 b7 20 3e b4 a2 be 3d a5 82 bb 3d
       -0.26954693 0.15695147 0.09308377 0.09155778
000020 bc c9 e0 3d 02 b2 a1 3e 39 de 82 be 6b 57 99 be
       0.10975978 0.31581122 -0.25560167 -0.29949507
000030 d9 fb 3c bd 7e 26 0e 3e d5 c7 90 be 82 7e 1d bf
       -0.04613862 0.13881871 -0.2827746 -0.6152116
000040 47 c2 dc bc 8e 68 87 bf 5d 35 d1 bd c3 b0 87 be
       -0.026948107 -1.0578783 -0.10215256 -0.26502046

layers.2.weight f4 [10, 20]
000000 d7 6d ce 3d 2c 0a 67 3c f2 df 05 be 46 ad 9d bd
       0.10079544 0.014101546 -0.1307371 -0.07699065
000010 fc 64 19 b9 a8 3a 7e be 79 d3 80 3d 2f ac 4b 3d
       -0.00014628837 -0.24827063 0.06290335 0.049724754
000020 ad 70 28 be 51 b5 60 3e 4b 90 1e 3f 61 6d 04 bd
       -0.16449232 0.21944167 0.61938924 -0.032330874
000030 21 40 79 3d ca 75 ee bd 2e 29 70 3d 14 a9 a0 bd
       0.060852174 -0.1164356 0.058633022 -0.07844749
000040 08 f0 1e be 41 50 10 be 42 f0 33 3e 85 47 88 be
       -0.15521252 -0.14093114 0.1757212 -0.26617065
000050 3f 97 8b 3e 04 3a 88 be 57 48 03 be d1 40 d4 3d
       0.2726383 -0.26606762 -0.12820564 0.10363925
000060 e1 ff e1 3d 7d 41 6d 3e 41 a7 1a 3d 3b 17 09 be
       0.11035133 0.23169513 0.037757162 -0.13387768
000070 ab af 01 bd 05 85 97 3d eb f5 d7 bd 8c c4 ef 3c
       -0.03166167 0.07398418 -0.10544952 0.029268526
000080 1a c1 b6 bd 22 75 7e be 16 30 b4 3d 81 25 66 3d
       -0.0892355 -0.2484937 0.08798234 0.05618811
000090 ab 91 6f be de 23 8f 3d d4 74 c3 bd de 8c e4 bd
       -0.23395412 0.06989263 -0.095437676 -0.11159681
0000a0 a7 fa 57 be 4e 63 aa 3d e1 0d ce bc f9 5f 17 bd
       -0.2109171 0.08319722 -0.025153102 -0.03695676
0000b0 45 71 6f bd 70 b4 73 3d 4f 84 12 be ba b0 42 3e
       -0.05845763 0.05949825 -0.14308284 0.19012728
0000c0 77 bd 8e 3e 10 19 15 bf 13 51 8c 3d aa 1c 55 be
       0.27878925 -0.5824137 0.06851401 -0.20811716
0000d0 47 3c 28 be 77 aa 6e bd ac 80 7a bc 59 c7 2a 3e
       -0.16429244 -0.058268037 -0.015289467 0.16677608
0000e0 39 c4 68 3e 37 1c 1a 3f f5 79 82 3e 5b 29 a2 bd
       0.22731103 0.601993 0.2548367 -0.07918044
0000f0 dd 2a 48 bd 8e dd ae 3d eb 16 be bc 4b 48 93 be
       -0.048869003 0.08538352 -0.023204288 -0.28766093
000100 82 e4 a4 bb a3 83 1f be 29 6d 07 bd 2c cf 61 bd
       -0.005032123 -0.15577559 -0.033063088 -0.055129215
000110 45 4c 1e 3d 78 d0 81 bd 9e 05 71 3c 85 ea 4b be
       0.038646955 -0.063385904 0.014710812 -0.19913681
000120 83 4e 8b be 16 f1 57 be 01 03 e6 bd fc 51 89 bd
       -0.27208337 -0.2108806 -0.11231042 -0.067050904
000130 4b 4c a9 3d 44 6d b4 bc 6b 6c 6d be 27 04 73 bd
       0.08266505 -0.022024758 -0.2318589 -0.05933013
000140 6f 4b ec bd 2e da 8d bc ec 47 20 bd e1 1c 13 3e
       -0.11537825 -0.01731595 -0.03913109 0.14366485
000150 bd 64 15 be b3 25 50 be f2 9d 5c be 0b fa 77 3e
       -0.1458921 -0.20326881 -0.21544626 0.24216478
000160 79 2a 35 3e a2 9c af be bc f0 af be 09 d1 37 3e
       0.17691983 -0.3429919 -0.34363353 0.17950834
000170 af 26 f3 bd d8 86 ff ba 2f cb d3 bc d5 3e 08 be
       -0.11872613 -0.0019495143 -0.025853721 -0.13305219
000180 e9 8f 92 3e 9b b9 d0 3e ba 8d 0d bd c7 8d 41 be
       0.2862542 0.40766606 -0.03455899 -0.1890174
000190 7b e8 87 3e 00 48 85 be 26 6e 13 bd 3b 4a 9e be
       0.26544556 -0.26031494 -0.035993718 -0.30916008
0001a0 44 1c 9f 3d bc 7d ab bd 4e 75 18 bf 6e d2 9d be
       0.07769063 -0.08373591 -0.5955399 -0.30824608
0001b0 4a 88 61 be 61 c8 15 bd 25 a1 93 bd 82 00 57 bc
       -0.22024646 -0.03656805 -0.0720847 -0.01312268
0001c0 5f b2 96 be 6a 26 33 3c d5 67 31 3d 36 93 16 3d
       -0.2943296 0.010934452 0.043311913 0.036761485
0001d0 12 11 f3 3c 52 83 0f bd 30 16 1b 3e 5e 14 c0 bd
       0.029671226 -0.035037346 0.15145183 -0.09378885
0001e0 6b bb e9 bd 59 fa cd bd 23 e1 8b be 5a 7c 42 be
       -0.114127 -0.10057516 -0.27320203 -0.18992749
0001f0 66 d6 bc 3d 3f f6 0d be cb a8 86 bd 8d 4d 54 bd
       0.09220581 -0.13863467 -0.065751635 -0.05183177
000200 e7 2c 54 bd cf 80 28 bd 29 37 4c be d8 a1 88 bd
       -0.051800635 -0.041138466 -0.19942917 -0.06671494
000210 26 86 de 3d b7 34 0b 3d 90 ef e6 3c c4 63 20 3e
       0.108654305 0.03398582 0.028190404 0.15663058
000220 c9 6c 87 be 56 3b 03 be 70 c7 1c 3c f7 26 9b bd
       -0.26450184 -0.12815604 0.009569034 -0.07575791
000230 26 2d a4 bc 0d a0 d2 bc 7b 68 bc 3d b8 ca 75 bd
       -0.02004106 -0.025711084 0.091996156 -0.06000778
000240 18 e7 81 3e 4b 2d 64 be 86 39 59 be e7 09 a1 bc
       0.25371623 -0.22282903 -0.2121335 -0.019658042
000250 3d 1c c9 3d dd 0a 1a be ac 47 36 be 6b f7 73 bd
       0.09819839 -0.15043207 -0.17800778 -0.059562128
000260 ee db af 3d 76 82 d5 bb 87 72 f7 bc c4 b7 b1 3b
       0.0858687 -0.0065157963 -0.030205978 0.005423518
000270 88 1c 21 bd 33 59 95 3d 71 da 17 3e 3a ee dd bc
       -0.03933385 0.07292404 0.14829423 -0.027091134
000280 bd 5f 54 3e 47 f9 78 3e 31 d7 79 bd 5c c1 0b be
       0.20739646 0.24313842 -0.06099624 -0.1364798
000290 07 2c d5 3d 3d 2a 0a bd 71 46 37 be de 8c 9b be
       0.10408788 -0.033731688 -0.17897965 -0.3038091
0002a0 6a 91 33 be 88 98 f5 bd 7e fc 94 3d be 64 fa 3d
       -0.1753594 -0.11991984 0.072747216 0.12226246
0002b0 a9 80 27 be 15 77 89 3d aa c2 b6 bd 4a 26 11 be
       -0.16357674 0.06712166 -0.08923848 -0.14174762
0002c0 64 24 15 3e 34 10 7b 3e 81 16 99 3d 49 e0 bb 3d
       0.14564663 0.245179 0.074749954 0.091736384
0002d0 b5 9a ea 3b b5 f1 69 be 17 ab 0a be 98 36 72 3d
       0.007159556 -0.2284611 -0.13541828 0.059134096
0002e0 ba dd 75 bb cc d7 52 bd cb cf 8f bc 19 02 22 be
       -0.0037516193 -0.05147533 -0.017555138 -0.15821113
0002f0 b5 cf 7b 3d b8 92 c4 bd e5 71 3f 3d de df ef ba
       0.06147738 -0.09598297 0.046739478 -0.001830097
000300 91 ca 4e bd c4 b8 2c 3d cb b9 55 3e ca 27 88 be
       -0.05048615 0.042168394 0.20871656 -0.26592857
000310 79 19 38 be 3f 64 96 be b7 61 33 3d 86 47 37 be
       -0.17978467 -0.29373357 0.04379436 -0.17898378

layers.2.bias f4 [10]
000000 d3 32 95 bd f0 40 91 bd b6 1d 57 bc 32 5c c4 bd
       -0.072850846 -0.07092464 -0.013129642 -0.09587897
000010 b5 b8 9b be 40 6e 05 be b1 08 10 bb 60 72 64 be
       -0.30414358 -0.13030338 -0.0021977837 -0.22309256
000020 15 3d 42 be d7 3e 70 bb
       -0.18968613 -0.003665855

layers.4.weight f4 [2, 10]
000000 76 ff fa 3d 75 fe bc bd 8f f1 5e 3d dc 89 53 3d
       0.122557566 -0.09228221 0.054429587 0.051645145
000010 2b 4f 14 bd 91 31 49 3d 72 e0 4a be ed 83 53 3e
       -0.036208313 0.049119536 -0.19812182 0.20655794
000020 99 4d 02 bc 0e 61 a0 3d fa d1 37 3d f4 87 ba bc
       -0.007953071 0.07831012 0.044877984 -0.022769906
000030 8d 96 94 3e 22 f7 49 be 31 6f a6 3e cf 7a 5e 3e
       0.2902111 -0.1972318 0.32506707 0.21726535
000040 5c 31 e1 be 4a 03 e2 bd e4 2d 3c 3d 67 c3 fa 3d
       -0.4398297 -0.110357836 0.045942202 0.12244301

layers.4.bias f4 [2]
000000 d4 2d 8a bb 41 cc b1 3c
       -0.004216889 0.021703841

exp_avg f4 [20, 4]
000000 ec 8d 07 b4 4c c2 d7 b4 c1 66 76 b6 a4 fa d6 b5
       -1.2624486e-07 -4.018824e-07 -3.6716667e-06 -1.6017188e-06
000010 8b f8 16 36 9c 3f ed 35 f2 2c 97 37 60 b3 b3 b7
       2.2496413e-06 1.7676389e-06 1.8021532e-05 -2.142199e-05
000020 c7 ed a1 36 6e 5b 94 36 27 4e 07 36 f2 0f 87 35
       4.825855e-06 4.4213875e-06 2.0162058e-06 1.0062925e-06
000030 62 fb 14 b8 b2 6a ff b7 16 dc bf b8 7e d5 de b8
       -3.552007e-05 -3.0448053e-05 -9.148584e-05 -0.00010625551
000040 d2 00 40 34 15 c2 ab 31 9f a0 66 b5 d3 8b d7 b3
       1.7881692e-07 4.9988196e-09 -8.591541e-07 -1.00371516e-07
000050 74 31 91 38 cc ad 57 38 1f 3b 1c 39 e0 56 0b 39
       6.92335e-05 5.1421855e-05 0.00014899344 0.00013288436
000060 d9 f8 46 37 45 2b b4 36 08 32 d3 b8 22 d5 b5 35
       1.1859659e-05 5.3694553e-06 -0.00010070583 1.3547581e-06
000070 a1 3f bb b7 85 57 7e 37 72 96 8a 39 79 b3 92 38
       -2.2321767e-05 1.5159957e-05 0.00026433502 6.995252e-05
000080 76 9b b4 b3 8c c0 b7 34 17 7b 84 36 f6 e7 a0 35
       -8.410181e-08 3.4226503e-07 3.948236e-06 1.1988438e-06
000090 5e b1 4e 39 c8 89 df 38 ad 59 d0 39 05 18 89 39
       0.00019711765 0.000106591324 0.00039739665 0.00026148572
0000a0 1d 9c 85 b7 7e 38 5f b7 f4 08 39 b8 4b 41 5d 38
       -1.5927531e-05 -1.3304989e-05 -4.4115775e-05 5.2751315e-05
0000b0 46 09 37 b5 73 9e 3d b5 a5 42 8b b6 2d 99 1c b6
       -6.8186307e-07 -7.063856e-07 -4.1502813e-06 -2.3334972e-06
0000c0 05 88 19 b8 89 46 19 b8 05 0e 80 b9 c9 e0 93 b7
       -3.660472e-05 -3.6543734e-05 -0.00024424508 -1.762844e-05
0000d0 d6 9c 4d b2 a6 d5 83 b3 65 85 22 b5 d8 f3 03 34
       -1.1968231e-08 -6.139025e-08 -6.054382e-07 1.2289036e-07
0000e0 15 6d db b2 d3 bf 1d b3 9a 1d ce b4 d2 a9 ab b4
       -2.554456e-08 -3.6728874e-08 -3.8392028e-07 -3.1974793e-07
0000f0 a0 fd b9 34 e2 98 cc 34 3c 8d e2 35 e6 b3 2c b5
       3.4643472e-07 3.8109198e-07 1.6879417e-06 -6.433678e-07
000100 0d 3d 0a b8 d1 ec 31 37 b4 15 9a 39 f2 02 48 38
       -3.2958622e-05 1.060516e-05 0.0002938934 4.768646e-05
000110 81 b6 11 b9 a7 c8 f0 b7 57 69 55 b7 22 0a 35 3a
       -0.00013896266 -2.8703666e-05 -1.2720316e-05 0.0006906112
000120 d6 38 c8 34 cf cf 1c 35 8f 81 8e 36 94 95 0d 36
       3.7294257e-07 5.841693e-07 4.2470124e-06 2.1097703e-06
000130 70 7e e9 36 b2 69 ba 36 b5 e2 62 b8 85 1b 0f b8
       6.9586604e-06 5.5555365e-06 -5.4093736e-05 -3.4119486e-05

exp_avg_sq f4 [20, 4]
000000 a1 30 56 2d 3b de 46 2d b2 dc 87 2f c6 72 29 2f
       1.2175289e-11 1.1304342e-11 2.471317e-10 1.5411236e-10
000010 81 d1 59 30 f4 69 5f 30 78 ce bb 32 54 62 0f 33
       7.9241863e-10 8.1277496e-10 2.1863556e-08 3.338421e-08
000020 7d 19 4b 33 c9 9a 1f 33 98 21 b1 35 b8 29 91 33
       4.7287802e-08 3.716085e-08 1.3197305e-06 6.759677e-08
000030 85 c7 2e 32 5e 3f 28 32 e5 60 1a 34 1e 83 ff 33
       1.01734985e-08 9.793295e-09 1.4377618e-07 1.1898213e-07
000040 9e bb 95 2c 92 05 83 2c 65 b6 86 2e fb 12 7e 2e
       4.2556644e-12 3.7238624e-12 6.126014e-11 5.776977e-11
000050 08 8d 6a 32 db d7 65 32 de 6e 44 34 52 df 46 34
       1.36526594e-08 1.3378634e-08 1.8294256e-07 1.852143e-07
000060 97 50 a8 32 4d 79 a4 32 56 d6 cb 34 bd cd 87 34
       1.9594422e-08 1.9147274e-08 3.7967646e-07 2.5295404e-07
000070 3e 8e 0d 34 95 c7 eb 33 3f 8b d5 35 87 be 2f 35
       1.3183396e-07 1.0979344e-07 1.5910263e-06 6.5469834e-07
000080 d0 84 d2 31 23 bc b4 31 4b 5a 4e 34 2f 95 cb 33
       6.1269034e-09 5.260078e-09 1.9218093e-07 9.4800605e-08
000090 fe c1 61 34 4b 46 5c 34 67 cb a3 35 6e 0f 3b 35
       2.1025332e-07 2.0514669e-07 1.2203644e-06 6.968538e-07
0000a0 1e cf 21 32 9b e0 19 32 d0 ca cd 33 0e f5 c0 33
       9.418526e-09 8.9568415e-09 9.582948e-08 8.985272e-08
0000b0 ec 5e 8f 31 0a 7d b1 31 6b 2c 8d 33 5f 41 ab 33
       4.172639e-09 5.1655933e-09 6.573904e-08 7.974699e-08
0000c0 c6 46 cd 32 f7 67 b3 32 cd e9 45 35 e7 47 11 35
       2.3897325e-08 2.088562e-08 7.3728444e-07 5.412134e-07
0000d0 6b c2 a0 31 c9 3f 9f 31 ef 93 a9 33 31 73 e8 32
       4.6787156e-09 4.6347606e-09 7.896585e-08 2.7060738e-08
0000e0 e2 88 c0 2c 39 05 97 2c 88 9f 2b 2f e7 0c f0 2c
       5.4721653e-12 4.292258e-12 1.5609036e-10 6.8226427e-12
0000f0 5c e1 50 30 56 1f 29 30 66 e2 d0 32 8e 3d fe 32
       7.5990214e-10 6.1526373e-10 2.4317341e-08 2.9597484e-08
000100 d0 bc 8a 34 97 d9 7d 34 f0 bd 4e 36 a4 9b af 35
       2.5841882e-07 2.364162e-07 3.080695e-06 1.3083813e-06
000110 d2 de 04 35 8c aa ee 34 54 23 95 36 c1 ae 15 36
       4.949808e-07 4.4455044e-07 4.4446588e-06 2.230445e-06
000120 09 11 5e 2e 57 1d 46 2e 54 f5 3e 31 4e 5e a4 31
       5.0492086e-11 4.5046047e-11 2.7788092e-09 4.7837494e-09
000130 3d 51 70 32 36 43 81 32 41 2c 5b 34 0e 69 d7 33
       1.398831e-08 1.504814e-08 2.0412064e-07 1.0030827e-07

exp_avg f4 [20]
000000 33 e4 01 b6 1a c6 24 37 34 ee 77 b4 0c 9f 32 b8
       -1.9355327e-06 9.821286e-06 -2.3090325e-07 -4.258663e-05
000010 02 9c fb b4 91 7b 88 38 35 9b 6a b8 0c f0 14 39
       -4.6865904e-07 6.5080014e-05 -5.5934495e-05 0.00014203804
000020 d6 f7 0c 36 15 f8 2c 39 7b d0 66 b7 9a b1 0e b6
       2.1005885e-06 0.00016495616 -1.3757609e-05 -2.1263027e-06
000030 fc af e1 b8 d5 5c a1 b4 1d 63 5e b4 62 c0 55 35
       -0.00010761616 -3.005613e-07 -2.0711418e-07 7.962864e-07
000040 ba 13 29 39 72 23 e9 37 a7 8a 14 36 36 53 fa b7
       0.00016124445 2.779227e-05 2.2134425e-06 -2.984107e-05

exp_avg_sq f4 [20]
000000 3f a2 72 2e 60 fd ae 31 ab 40 9f 34 53 be fd 32
       5.5168533e-11 5.092872e-09 2.966311e-07 2.9539626e-08
000010 27 e6 5c 2d 75 01 20 33 8f 20 a1 33 3d a2 a6 34
       1.2556656e-11 3.7254228e-08 7.503069e-08 3.1037953e-07
000020 6a f2 3a 33 86 d9 6e 34 6d e1 9f 32 1f 0f 70 32
       4.3526974e-08 2.2244612e-07 1.8612548e-08 1.3973277e-08
000030 95 e9 31 34 b9 7d 91 32 47 86 1a 2e 46 91 a9 31
       1.6569386e-07 1.6937394e-08 3.5134808e-11 4.935063e-09
000040 1c 54 1d 35 38 ea 48 35 ff 50 4a 30 d9 4b 1c 33
       5.8609453e-07 7.484664e-07 7.3602274e-10 3.6390563e-08

exp_avg f4 [10, 20]
000000 b2 59 c2 b3 c7 af 8e 34 47 4b 64 b6 90 bb 47 34
       -9.0501445e-08 2.6577456e-07 -3.4018465e-06 1.8601554e-07
000010 96 e3 b0 b3 ed 49 b6 35 ef 2b 04 b7 f2 3d b8 36
       -8.237036e-08 1.3581572e-06 -7.878042e-06 5.4908387e-06
000020 5c 20 ac b2 70 21 41 36 4e 76 4d b6 45 c1 1e b1
       -2.003815e-08 2.8778704e-06 -3.0616243e-06 -2.3101887e-09
000030 fb 06 b9 b2 b3 d7 18 b3 bb 5a 5f b3 d5 cf 1e b3
       -2.1540009e-08 -3.5586435e-08 -5.2003752e-08 -3.6976264e-08
000040 89 86 8c 36 82 4f 35 37 97 db 2b b3 90 13 e9 b6
       4.187987e-06 1.0806953e-05 -4.0013756e-08 -6.9462185e-06
000050 4a 62 a7 34 90 d3 71 35 e0 14 bd 33 cb 35 19 b7
       3.117769e-07 9.008736e-07 8.8047955e-08 -9.132035e-06
000060 db 12 32 35 fa 49 78 b8 49 2c 75 b6 b1 00 cb b7
       6.6337606e-07 -5.9196704e-05 -3.6533622e-06 -2.4199808e-05
000070 4a 32 83 34 30 3f 33 37 78 30 e0 35 f0 00 bb 34
       2.4437242e-07 1.0683943e-05 1.6703407e-06 3.4832146e-07
000080 0a c2 29 b7 ef 7a 88 34 8f bf c5 34 a9 68 2d 34
       -1.0118363e-05 2.542142e-07 3.6833487e-07 1.6149956e-07
000090 ae 50 f6 b5 a5 ca 82 36 5f ba 15 35 ee 7c 18 b5
       -1.8351909e-06 3.897893e-06 5.577803e-07 -5.680621e-07
0000a0 8f 25 80 b6 61 34 41 36 40 07 66 38 8f cc 8c 37
       -3.8190697e-06 2.878973e-06 5.4843025e-05 1.6784556e-05
0000b0 42 a6 17 b7 a6 26 1e 39 e7 89 91 39 ec 56 31 39
       -9.039011e-06 0.00015082452 0.000277593 0.00016912416
0000c0 07 b8 55 b6 73 b1 46 37 a6 1f 5a b8 dd 9d e4 b6
       -3.1846591e-06 1.1843035e-05 -5.2004725e-05 -6.813307e-06
0000d0 97 f0 43 38 e3 7d 18 b6 6f 02 1d b6 03 92 e4 b6
       4.671569e-05 -2.272304e-06 -2.339624e-06 -6.8119275e-06
0000e0 36 df 07 39 75 5f cf b8 8f 07 a3 b6 31 a0 5d 39
       0.00012957756 -9.8883094e-05 -4.8586585e-06 0.00021135878
0000f0 ce 90 78 b0 e0 8c 87 b3 b0 b2 c0 b4 81 8d 4e b2
       -9.0427654e-10 -6.3120524e-08 -3.58928e-07 -1.2022952e-08
000100 e9 6e 69 32 5c 5e 81 b4 55 68 a1 b5 8d 9f 0f 34
       1.3587603e-08 -2.4096778e-07 -1.2025799e-06 1.3375957e-07
000110 cb 3b 0e 32 d0 5c 99 34 93 cf d7 34 71 34 7a 32
       8.279083e-09 2.8566e-07 4.01979e-07 1.4563839e-08
000120 52 68 56 b4 7c fe a9 31 51 b7 94 b1 ee ba 86 b1
       -1.9968255e-07 4.947479e-09 -4.3282076e-09 -3.9211647e-09
000130 25 ea 3e 35 af 7d b1 35 91 54 8a 32 a7 61 92 b5
       7.112124e-07 1.3224106e-06 1.610377e-08 -1.0906268e-06
000140 ff 9f dc 35 38 db 21 36 42 93 87 35 68 a3 27 b7
       1.6437842e-06 2.4118472e-06 1.0101141e-06 -9.992022e-06
000150 f5 83 0a 36 fb 08 36 b9 b6 cc 96 36 f8 c2 08 b9
       2.0640412e-06 -0.00017360218 4.49418e-06 -0.00013042602
000160 87 a2 ec 34 8d d5 c4 b6 ce f8 b1 36 9d 68 1d 35
       4.407668e-07 -5.8661158e-06 5.3039757e-06 5.863929e-07
000170 eb 4d c7 35 e7 c3 44 35 6a 40 9d 35 c1 46 b9 35
       1.4849333e-06 7.3300765e-07 1.1716158e-06 1.3804166e-06
000180 58 97 bb b8 d2 66 df b8 97 1b 7e 35 03 a6 87 36
       -8.945045e-05 -0.000106526204 9.466252e-07 4.04264e-06
000190 d3 55 84 b2 08 6e 54 32 2b 5e ab 34 e0 fb d3 33
       -1.540585e-08 1.2365042e-08 3.1919748e-07 9.871269e-08
0001a0 70 cc 31 b3 18 8e 80 35 6f 4c de 35 ef 95 61 35
       -4.139696e-08 9.578098e-07 1.6562534e-06 8.4037214e-07
0001b0 15 29 8f b2 99 1a c5 b4 6c 19 0d b5 24 d3 0d b3
       -1.6666073e-08 -3.6713462e-07 -5.2563587e-07 -3.3021152e-08
0001c0 9e 8a 2d 34 c4 f2 53 b2 9d e4 c2 b1 f4 9a a9 b2
       1.6162309e-07 -1.2337015e-08 -5.6721334e-09 -1.9744654e-08
0001d0 28 fc a2 34 84 07 8b b5 89 c2 e0 b2 78 18 ba 35
       3.035832e-07 -1.0358494e-06 -2.6165496e-08 1.3865201e-06
0001e0 c1 82 6a 33 15 65 e7 32 c2 bd 33 b5 7f 1b 9b b4
       5.460129e-08 2.6937906e-08 -6.695883e-07 -2.8891006e-07
0001f0 d8 82 06 34 81 a3 39 b6 21 8f 8f b6 f8 89 43 b6
       1.2527323e-07 -2.766232e-06 -4.2783945e-06 -2.9137573e-06
000200 61 a2 46 33 82 46 54 35 d1 0c 96 35 3d 5a cd 33
       4.624815e-08 7.9078757e-07 1.1179601e-06 9.5624706e-08
000210 67 ad d5 b4 17 4f 17 33 34 5d c2 32 c5 f8 a8 33
       -3.9800508e-07 3.522936e-08 2.2626956e-08 7.8683605e-08
000220 8e d5 0b b6 c4 33 e2 35 98 84 90 33 8d ac 67 b6
       -2.083692e-06 1.6853378e-06 6.729641e-08 -3.452212e-06
000230 03 b9 08 b3 8b 8e 0c b4 84 f8 98 b4 7e e3 17 34
       -3.1833235e-08 -1.3090373e-07 -2.8493025e-07 1.4145732e-07
000240 4a 89 40 b3 57 f7 94 35 70 be 47 34 a9 e6 fa 35
       -4.4828347e-08 1.1098845e-06 1.86026e-07 1.8693582e-06
000250 08 b1 37 b2 15 88 92 33 f5 ba c7 33 3d 67 e4 b2
       -1.0692254e-08 6.823408e-08 9.300667e-08 -2.658964e-08
000260 00 b0 19 b4 5d f5 36 b2 99 f8 b0 b2 2a a9 57 b3
       -1.4313264e-07 -1.0649583e-08 -2.0602146e-08 -5.0212442e-08
000270 d6 07 23 36 75 29 c2 35 b6 3e 0f b2 6b d4 99 b3
       2.4293454e-06 1.4466192e-06 -8.337954e-09 -7.163256e-08
000280 4f d6 7a b1 6d 09 3d 32 66 58 d3 33 e1 4b 16 31
       -3.6501608e-09 1.1003391e-08 9.841533e-08 2.1871005e-09
000290 3d 8b 26 b2 73 78 97 33 07 7d e5 34 a3 d8 11 33
       -9.694131e-09 7.053395e-08 4.2745543e-07 3.3957473e-08
0002a0 ea 9e 70 b1 38 ee 00 b2 f8 04 78 b3 d2 97 02 b2
       -3.5014929e-09 -7.504745e-09 -5.774652e-08 -7.601516e-09
0002b0 d6 a1 27 33 9e da 09 b1 17 9f 74 2f 75 b8 0b b2
       3.9029906e-08 -2.0060393e-09 2.2248191e-10 -8.1328055e-09
0002c0 60 90 01 34 7e 1b eb b3 02 7a ad b1 0a b5 d2 34
       1.2066585e-07 -1.0948041e-07 -5.0488334e-09 3.924727e-07
0002d0 c4 50 aa b3 2c a2 41 b4 8a 98 16 34 0b 01 bf 34
       -7.930933e-08 -1.8033523e-07 1.4025332e-07 3.557728e-07
0002e0 a0 c5 3f b4 49 30 a5 36 ab 5e 84 36 12 e3 c8 35
       -1.7860157e-07 4.9230043e-06 3.9449274e-06 1.4967247e-06
0002f0 01 c3 90 b3 0d 05 8f b4 21 d9 1e b5 11 5a ea b3
       -6.7409935e-08 -2.66395e-07 -5.917555e-07 -1.0912857e-07
000300 0e 90 d3 35 f3 a0 61 b3 dd be 80 b3 54 86 00 b4
       1.576265e-06 -5.2533277e-08 -5.995182e-08 -1.1969797e-07
000310 f8 33 51 35 fb 8f d8 b4 75 cb 0a b4 76 a4 a4 35
       7.793419e-07 -4.0337895e-07 -1.2926269e-07 1.2266817e-06

exp_avg_sq f4 [10, 20]
000000 15 40 22 2e dd d2 70 2e 9e 9a 42 33 25 69 78 34
       3.689145e-11 5.4756966e-11 4.530977e-08 2.3135051e-07
000010 8d a1 b3 2e 6f a7 13 33 22 b7 a1 30 d8 fc 89 35
       8.168675e-11 3.4378385e-08 1.1766341e-09 1.0280883e-06
000020 fb 7f cd 2f 33 47 10 32 dd 4a 6e 30 98 c1 2b 34
       3.7380218e-10 8.398092e-09 8.669028e-10 1.5996045e-07
000030 16 84 c0 34 d0 eb d1 32 cc 54 20 2e 23 6f e7 33
       3.5858892e-07 2.4438037e-08 3.6455103e-11 1.07769914e-07
000040 be 83 a4 33 05 b1 a0 34 60 dd ef 2d a7 b1 7d 33
       7.660809e-08 2.993112e-07 2.7269464e-11 5.9067727e-08
000050 a5 65 fb 2d 43 64 e1 30 0e 74 27 32 19 9d 80 34
       2.8580536e-11 1.6399401e-09 9.747067e-09 2.3956161e-07
000060 25 d9 10 2f d6 4e 17 34 28 82 b3 31 ee 9b 12 35
       1.3173869e-10 1.4091651e-07 5.2243827e-09 5.4616146e-07
000070 d2 0b 45 2f 14 35 0e 33 d6 3e 1c 31 bc c9 c1 33
       1.7921245e-10 3.3110226e-08 2.2736706e-09 9.023958e-08
000080 40 56 4d 34 eb c2 6c 32 b7 73 a1 2d 88 82 9a 33
       1.912349e-07 1.3781327e-08 1.8354969e-11 7.194927e-08
000090 aa 56 12 34 d9 94 57 34 ef a3 2b 2e da 6e 81 33
       1.3628838e-07 2.0077586e-07 3.90265e-11 6.0271944e-08
0000a0 02 61 05 30 b4 7a ab 32 1c bb 91 34 7e 04 6a 34
       4.8522975e-10 1.9962819e-08 2.7144495e-07 2.1794582e-07
0000b0 50 71 12 31 8c 76 f4 34 07 52 a5 34 39 af e1 35
       2.1310207e-09 4.5534796e-07 3.0793328e-07 1.6814803e-06
0000c0 70 1c 08 32 d0 5e ac 33 e8 8b d2 34 fe 8d 0b 33
       7.922708e-09 8.0266204e-08 3.9217343e-07 3.24926e-08
0000d0 48 b4 12 34 6d 65 dc 34 1e 0c 35 2f 60 f1 1f 32
       1.3662896e-07 4.105199e-07 1.6466159e-10 9.3099e-09
0000e0 77 8d 5b 36 f9 64 12 35 1f 94 c5 2f da 9b ca 34
       3.2715886e-06 5.4536173e-07 3.5939338e-10 3.773883e-07
0000f0 a4 4f 33 2f 2b 9f b3 33 50 68 ba 34 73 e0 88 31
       1.6308249e-10 8.3642895e-08 3.4721097e-07 3.983638e-09
000100 61 2b 11 30 8b 81 13 2f de a8 0e 33 f9 40 27 35
       5.281234e-10 1.3415595e-10 3.3215535e-08 6.2306896e-07
000110 0b fa 3b 33 c9 e6 07 32 1d e4 9b 32 69 ee f4 30
       4.3766743e-08 7.910509e-09 1.8148109e-08 1.7821097e-09
000120 79 96 dc 32 79 79 e9 34 1c b0 fa 2e c0 d1 23 2e
       2.5679798e-08 4.3488015e-07 1.1399967e-10 3.7248205e-11
000130 04 b7 c3 35 dc ef 30 33 69 ab 1a 30 5d 90 9d 31
       1.4581897e-06 4.1196344e-08 5.626846e-10 4.5857136e-09
000140 b6 2f 22 2f f5 e9 85 32 4a af 06 34 5c a2 23 34
       1.4750764e-10 1.558963e-08 1.2543492e-07 1.5239624e-07
000150 8d 64 13 30 f5 99 b7 33 88 71 2b 33 78 60 73 35
       5.362118e-10 8.549606e-08 3.9917296e-08 9.0664935e-07
000160 80 ef 01 32 f9 f1 13 33 45 db 69 33 af b6 88 33
       7.563244e-09 3.4446177e-08 5.4448964e-08 6.3662235e-08
000170 81 72 22 34 af 3c 22 34 84 75 a0 2e 23 7e 25 33
       1.5129082e-07 1.5109502e-07 7.2968326e-11 3.8531777e-08
000180 a8 19 82 35 25 26 a9 34 db ab e6 2e b5 c4 6a 33
       9.693222e-07 3.1506457e-07 1.0489717e-10 5.4661275e-08
000190 4c 61 fd 2c d6 5e ca 2f 29 ca da 31 40 37 30 2f
       7.2014946e-12 3.681097e-10 6.367618e-09 1.6026735e-10
0001a0 f0 39 1a 2e c7 91 95 30 5b 2b 75 30 48 c0 41 32
       3.5067005e-11 1.0882609e-09 8.919209e-10 1.1277798e-08
0001b0 b2 24 e0 2f 85 a3 e5 30 c5 b5 b1 30 00 5f 07 2f
       4.0771436e-10 1.6708418e-09 1.2930107e-09 1.2311929e-10
0001c0 62 fb 35 2f 92 8d 66 32 66 9a 6e 2c 1f c9 bd 2d
       1.6551163e-10 1.3419951e-08 3.3907543e-12 2.1576128e-11
0001d0 d2 06 81 33 34 6d 45 31 20 60 39 2c 6e 4f 79 32
       6.008271e-08 2.8729348e-09 2.6343441e-12 1.4511768e-08
0001e0 dc 1f e0 2c bd 85 3d 2e 34 1d e6 30 ec 96 2d 34
       6.37e-12 4.3092408e-11 1.6743003e-09 1.6166786e-07
0001f0 ec 53 1d 2e 7c 1f 28 33 94 02 6d 30 63 29 84 34
       3.5772205e-11 3.9144183e-08 8.622376e-10 2.461703e-07
000200 77 af 3e 2c 34 db c6 2f 81 4d 82 2f f2 74 be 32
       2.7098027e-12 3.6171743e-10 2.3701932e-10 2.2172092e-08
000210 8f 35 a4 33 20 63 3e 31 5b a8 fa 2c 30 ea 7d 32
       7.6465874e-08 2.7704985e-09 7.1241186e-12 1.4779786e-08
000220 1e 28 38 33 d3 c7 a2 33 db 95 86 2d d7 3a 1c 33
       4.2877325e-08 7.580061e-08 1.5300585e-11 3.6375095e-08
000230 3a 50 d0 2f 84 af b3 33 43 5c 2a 35 4b 72 42 35
       3.7891984e-10 8.367263e-08 6.3464194e-07 7.243695e-07
000240 c3 6c 88 30 a2 da c2 33 d1 4e 5a 32 8c d0 a1 36
       9.926214e-10 9.073598e-08 1.2707191e-08 4.822452e-06
000250 09 e9 4e 33 20 4a 0b 30 7f 35 50 31 43 6d 04 35
       4.8175057e-08 5.0673243e-10 3.0298393e-09 4.933283e-07
000260 0e 6c 99 35 cc 2a 17 35 4b c5 ad 2f 56 da a8 34
       1.1430836e-06 5.631416e-07 3.1608702e-10 3.14513e-07
000270 c5 07 fa 35 80 56 8d 35 0b e5 0b 30 3e 4d 4c 34
       1.8628713e-06 1.0530493e-06 5.0893395e-10 1.9027081e-07
000280 74 9d b5 2c 45 20 ad 30 dd 49 b4 31 25 f8 5b 31
       5.16181e-12 1.2596578e-09 5.2470868e-09 3.2009748e-09
000290 11 dd cb 2d 8d e7 03 30 89 4a c6 31 96 c1 4a 32
       2.3176601e-11 4.7986576e-10 5.771032e-09 1.1801964e-08
0002a0 94 43 a1 2f ca ce 3c 31 1c 45 c0 31 2b bc 31 30
       2.9333747e-10 2.7475147e-09 5.5957923e-09 6.465963e-10
0002b0 87 c5 ab 30 87 2f 3b 32 75 a7 2e 2c 91 c1 b4 2f
       1.2498028e-09 1.0895639e-08 2.4819845e-12 3.2879346e-10
0002c0 89 8c 54 33 63 64 e0 31 d5 76 4e 2c 51 1a 35 31
       4.9487912e-08 6.5306707e-09 2.9340326e-12 2.6353926e-09
0002d0 5b b8 03 2e 03 ce 0e 32 2a fd 6d 33 16 18 ac 33
       2.9949692e-11 8.3123295e-09 5.5411114e-08 8.013755e-08
0002e0 b0 4c c8 2e 41 09 aa 32 42 f8 c7 30 ba 66 eb 34
       9.1085695e-11 1.9794813e-08 1.4549715e-09 4.3846904e-07
0002f0 6c 01 94 31 f9 14 cb 2e 77 cc e5 2f db 66 74 33
       4.3075286e-09 9.235097e-11 4.1800138e-10 5.6904224e-08
000300 81 19 fd 33 ed 51 54 33 75 49 e8 2d 4d e7 26 33
       1.178587e-07 4.9434608e-08 2.6407968e-11 3.8860254e-08
000310 ed b4 1f 34 68 74 d0 33 99 42 88 2e 23 20 92 32
       1.487385e-07 9.706929e-08 6.196394e-11 1.7011251e-08

exp_avg f4 [10]
000000 d0 cb 84 36 5a 2b a2 b8 f9 17 61 3a 90 df 05 b6
       3.9576335e-06 -7.732837e-05 0.0008586641 -1.9948675e-06
000010 42 48 32 b9 26 a0 89 36 32 ea 3f b7 72 d2 37 36
       -0.00017002321 4.101562e-06 -1.1439015e-05 2.739162e-06
000020 fc a4 61 35 b5 46 91 37
       8.4059116e-07 1.7318273e-05

exp_avg_sq f4 [10]
000000 21 40 30 35 23 39 30 35 1c 88 e4 36 c0 16 a8 35
       6.565843e-07 6.5648254e-07 6.8107747e-06 1.2523597e-06
000010 f1 de e8 35 80 c2 96 33 45 59 77 34 af 33 94 36
       1.7350231e-06 7.020299e-08 2.3036144e-07 4.4167605e-06
000020 53 27 50 33 29 90 d7 34
       4.846454e-08 4.015176e-07

exp_avg f4 [2, 10]
000000 e9 d7 8d b7 f6 d5 a1 37 33 ab 28 3a 79 84 5d b6
       -1.690905e-05 1.9292329e-05 0.0006434202 -3.3008675e-06
000010 cc 24 03 b7 63 33 20 b7 3c 98 bc b6 ec 84 03 b7
       -7.816776e-06 -9.548708e-06 -5.620559e-06 -7.839157e-06
000020 46 65 bd b6 d4 17 5d b6 d4 d2 e7 37 ba b1 e7 37
       -5.6444287e-06 -3.2945436e-06 2.763552e-05 2.7620106e-05
000030 b0 78 90 b9 ef c4 47 b6 d1 8f c9 b7 87 b2 01 b7
       -0.0002755574 -2.9767941e-06 -2.4028037e-05 -7.730566e-06
000040 61 82 76 b5 14 59 ba b6 31 64 c8 b6 45 2e 49 b4
       -9.183187e-07 -5.553602e-06 -5.9721283e-06 -1.8736417e-07

exp_avg_sq f4 [2, 10]
000000 39 d1 6a 35 22 0f 55 35 66 8b 40 37 82 43 e6 34
       8.747625e-07 7.9370704e-07 1.1476548e-05 4.2889957e-07
000010 96 b4 47 36 5b e7 65 32 ed be 3f 33 c7 f9 ec 35
       2.9758426e-06 1.33821585e-08 4.46443e-08 1.7656065e-06
000020 cb 8c 64 34 d4 4d 72 33 a4 af cf 34 e5 06 ba 34
       2.1285375e-07 5.64158e-08 3.868455e-07 3.4650216e-07
000030 80 f3 2b 37 5c 03 e8 34 42 bc 1a 36 ae 97 65 32
       1.02490885e-05 4.3215812e-07 2.3057369e-06 1.3364042e-08
000040 34 40 48 31 ed a1 87 35 54 3a b7 34 4e f1 19 33
       2.9140326e-09 1.010541e-06 3.4128846e-07 3.5842554e-08

exp_avg f4 [2]
000000 1a d8 0e 3b 46 ef cd 3a
       0.0021796287 0.0015711568

exp_avg_sq f4 [2]
000000 16 67 0e 39 a3 14 f9 38
       0.00013580578 0.00011877089
