neural_network/lightning_logs/version_49/checkpoints/epoch=3-step=7500.ckpt (torch, 13835 bytes, 18 tensors)

layers.0.weight f4 [20, 4]
1.9453418 -1.4301338 -0.10624682 -0.4494882 -0.023858568 -1.0635406 0.37432683 1.4489609
-0.4866383 -2.2223341 0.0015662038 0.49630776 -0.38576406 -0.046500027 0.30029526 1.5545189
-1.1986198 0.25644812 -0.15959392 -0.26991075 -2.3637118 -1.8717568 0.8875668 -0.055075523
-1.4942319 -0.23502451 -0.42828542 0.36616975 -0.72557116 1.1150173 -0.5479155 0.05853623
0.43799824 -1.9759692 -0.21328661 1.269526 1.4577178 0.4433306 -0.7437266 0.062313806
0.47639698 0.84737825 -1.0156407 0.11989399 1.5337391 0.79182076 0.22660372 -0.67587364
1.2567201 1.4257058 -0.14389184 -1.5582395 -0.857067 -1.8900644 -0.45934543 1.0316877
0.11963744 1.7182854 -1.234294 0.2659272 -1.4685186 -0.31556353 0.30120343 -0.9730919
-2.251312 -1.5614579 0.7928373 -0.6284237 -0.75625426 -3.0504885 0.06678653 -1.8374373
-4.4005 -1.9533051 1.1380239 0.6119188 -0.012675778 -0.8682508 -0.512412 0.5748026
00000000: f600 f93f a00e b7bf ef97 d9bd 5123 e6be
00000010: 0b73 c3bc 1922 88bf c4a7 bf3e 8d77 b93f
00000020: a828 f9be b93a 0ec0 1449 cd3a 0d1c fe3e
00000030: de82 c5be d076 3ebd 4dc0 993e 7afa c63f
00000040: 606c 99bf 2b4d 833e 976c 23be be31 8abe
00000050: 0e47 17c0 ba95 efbf 9437 633f df96 61bd
00000060: fe42 bfbf 44aa 70be 3a48 dbbe 9a7a bb3e
00000070: 08bf 39bf e3b8 8e3f 3144 0cbf b0c3 6f3d
00000080: 4e41 e03e 8fec fcbf ce67 5abe d47f a23f
00000090: 7f96 ba3f 3afc e23e de64 3ebf c33c 7f3d
000000a0: 4eea f33e c8ed 583f 8400 82bf fb8a f53d
000000b0: 9051 c43f c4b4 4a3f ce0a 683e 0e06 2dbf
000000c0: 34dc a03f 877d b63f 6258 13be 6474 c7bf
000000d0: be68 5bbf a1ed f1bf 532f ebbe 580e 843f
000000e0: 7904 f53d c7f0 db3f 59fd 9dbf 9c27 883e
000000f0: 6bf8 bbbf 8b91 a1be 5637 9a3e 8d1c 79bf
00000100: 7f15 10c0 dadd c7bf 63f7 4a3f 60e0 20bf
00000110: e199 41bf 343b 43c0 60c7 883d 2531 ebbf
00000120: e5d0 8cc0 e705 fabf c4aa 913f b6a6 1c3f
00000130: 11ae 4fbc af45 5ebf 6f2d 03bf 4326 133f

layers.0.bias f4 [20]
0.8696035 -1.8024691 1.2531706 1.3906062 1.857013 0.014519316 2.4033515 -0.21803418
-0.050928377 1.097633 -1.1584166 -0.9931962 -2.566341 0.028896987 -2.0529504 1.3857356
1.5944442 -0.5471196 -0.7482594 1.1610708
00000000: 569e 5e3f 4fb7 e6bf e567 a03f 62ff b13f
00000010: 9ab2 ed3f 6de2 6d3c 83d0 1940 5a44 5fbe
00000020: 469a 50bd 3d7f 8c3f ff46 94bf 1b42 7ebf
00000030: ee3e 24c0 60b9 ec3c 8a63 03c0 c95f b13f
00000040: bf16 cc3f 0810 0cbf ee8d 3fbf f89d 943f

layers.2.weight f4 [10, 20]
1.0045471 -1.6991585 0.8281158 0.34802917 -2.553952 -1.0279992 0.396322 0.5962597
-0.9414005 -0.95377326 2.2079995 -1.9216281 2.4555616 -0.50019026 1.5596759 -2.9829075
-1.6810666 2.504001 -6.2481923 0.029752403 0.3719311 0.635693 -0.11091828 0.10272852
-1.4041469 0.32574493 -0.40094614 -0.5045414 1.312943 -0.591611 -0.14990756 1.8307315
-3.1887546 1.1481289 -0.24620205 -2.3954947 -3.7169611 -0.9038965 3.7269824 0.22584143
-1.8675871 0.80117637 -0.84269327 -1.0406991 0.81585073 -1.894093 -1.4492562 0.7942026
-0.68720365 0.45823732 0.14244671 -0.98089314 -3.2629485 0.26412472 0.16238283 0.05096729
-0.51208174 -4.695802 -1.3459948 -0.16863787 -0.07800546 0.08952584 -2.9855833 -3.919018
0.36476249 0.6202534 -0.34288484 -0.5259524 -0.8887565 -0.14863138 -1.0226138 -1.1300501
-2.5396833 -1.1183871 -1.1601235 0.6417184 0.9394521 -0.07114898 5.261563 -2.412228
0.5761343 -0.18291691 -2.215571 -5.3947997 0.48668087 2.181739 -3.9727614 -0.52126205
-0.12436993 0.38624033 -0.7985127 -0.7275672 -0.68673 -0.42592084 -0.71293557 0.5315269
0.2592433 0.41152665 -0.16277412 -2.0297148 0.83730847 -1.1534271 1.4753981 0.58786863
0.14207038 0.8359867 1.6114309 -0.96132916 1.0901701 -0.03151606 -0.89368415 0.75547004
-1.6467366 0.07944289 -0.78667116 -0.6326434 1.342732 -3.1595013 3.382233 0.5026655
1.0412091 -0.6145857 0.4787957 -0.19326924 -1.3328673 1.0614538 -0.027495895 -0.98872733
-0.012952939 -0.8797565 0.37618423 0.34894976 0.89148813 -0.13078757 0.028141292 -0.31383213
0.058963206 0.62835103 -0.22574171 -0.15199192 -0.36779317 -3.952654 1.4539564 0.10798414
0.3677384 0.9599432 -0.72554624 -0.40694398 -1.5465069 -1.3529207 -1.220601 -1.6325845
-2.0213258 -0.898985 -1.059201 0.5212685 0.898383 -2.79232 1.3541393 -0.6915693
1.2515341 0.3532413 0.33830923 -0.16846955 0.8602671 -0.009652709 0.23612192 -0.76608163
-1.2309164 0.38358715 -0.8580248 -0.9828299 -1.680323 -0.024925034 -1.4490373 0.6729104
0.9498551 -1.995756 -1.8032291 -0.13208573 0.97250175 -1.4748079 0.30471563 0.6403319
-3.4914198 -0.09404816 0.93149734 0.62553626 -0.6755336 -1.5407803 2.3770847 -2.299889
3.3282638 -0.31785968 2.3415556 -3.6991866 -1.8273139 4.8078847 -4.429557 -0.036007747
00000000: 0095 803f 077e d9bf 66ff 533f e130 b23e
00000010: f373 23c0 7a95 83bf b8ea ca3e 7aa4 183f
00000020: a0ff 70bf 7c2a 74bf dd4f 0d40 e9f7 f5bf
00000030: ec27 1d40 780c 00bf 76a3 c73f f5e7 3ec0
00000040: 312d d7bf 8d41 2040 31f1 c7c0 50bb f33c
00000050: c16d be3e c7bc 223f 2029 e3bd 5563 d23d
00000060: 16bb b3bf 0ac8 a63e d048 cdbe a029 01bf
00000070: 840e a83f d273 17bf 5e81 19be 6955 ea3f
00000080: 8e14 4cc0 e3f5 923f 641c 7cbe c94f 19c0
00000090: b1e2 6dc0 c365 67bf e186 6e40 fa42 673e
000000a0: 180d efbf e519 4d3f bfba 57bf a135 85bf
000000b0: 98db 503f a471 f2bf 3a81 b9bf dd50 4b3f
000000c0: 94ec 2fbf 159e ea3e 8ddd 113e d01b 7bbf
000000d0: 26d4 50c0 5b3b 873e af47 263e 14c3 503d
000000e0: ca17 03bf 0344 96c0 8f49 acbf 68af 2cbe
000000f0: 54c1 9fbd 5359 b73d cc13 3fc0 31d1 7ac0
00000100: 26c2 ba3e edc8 1e3f 9a8e afbe d1a4 06bf
00000110: 8c85 63bf d332 18be 02e5 82bf 7ba5 90bf
00000120: 2c8a 22c0 4f27 8fbf ed7e 94bf a847 243f
00000130: ef7f 703f 8eb6 91bd b95e a840 f261 1ac0
00000140: 8a7d 133f 924e 3bbe eacb 0dc0 33a2 acc0
00000150: 3c2e f93e 9da1 0b40 b941 7ec0 6e71 05bf
00000160: a9b5 febd 4bc1 c53e 546b 4cbf d841 3abf
00000170: 8acd 2fbf 4c12 dabe f282 36bf 2612 083f
00000180: 8abb 843e 9fb3 d23e 42ae 26be d9e6 01c0
00000190: d959 563f 80a3 93bf d8d9 bc3f 8f7e 163f
000001a0: e67a 113e 3903 563f 5e43 ce3f ab19 76bf
000001b0: b28a 8b3f fc16 01bd 7cc8 64bf 7c66 413f
000001c0: 44c8 d2bf f4b2 a23d 4863 49bf ebf4 21bf
000001d0: a4de ab3f 4535 4ac0 8176 5840 b0ae 003f
000001e0: 5746 853f 7d55 1dbf b624 f53e 5fe8 45be
000001f0: 659b aabf b8dd 873f 123f e1bc 3c1d 7dbf
00000200: 9038 54bc b937 61bf 389b c03e 8ba9 b23e
00000210: 9138 643f 2ded 05be 9188 e63c 9bae a0be
00000220: 6783 713d 9ddb 203f d628 67be c5a3 1bbe
00000230: 634f bcbe 48f8 7cc0 3e1b ba3f ca26 dd3d
00000240: 3548 bc3e d6be 753f 66bd 39bf f65a d0be
00000250: f0f3 c5bf 812c adbf a73c 9cbf 87f8 d0bf
00000260: 675d 01c0 e223 66bf e693 87bf da71 053f
00000270: 6efc 653f 5fb5 32c0 7054 ad3f b00a 31bf
00000280: 4532 a03f 0bdc b43e de36 ad3e 4883 2cbe
00000290: 773a 5c3f 6526 1ebc f2c9 713e ed1d 44bf
000002a0: ab8e 9dbf 8965 c43e 83a7 5bbf be9a 7bbf
000002b0: d314 d7bf 962f ccbc 0e7a b9bf db43 2c3f
000002c0: b429 733f ef74 ffbf 36d0 e6bf 7b41 07be
000002d0: e0f5 783f 81c6 bcbf b003 9c3e cbec 233f
000002e0: 6c73 5fc0 529c c0bd 9c76 6e3f 2523 203f
000002f0: c5ef 2cbf 4a38 c5bf 2822 1840 6231 13c0
00000300: 4602 5540 81be a2be 0cdc 1540 79bf 6cc0
00000310: 6ce5 e9bf 31da 9940 eebe 8dc0 dc7c 13bd

layers.2.bias f4 [10]
-1.3698465 -1.1720244 1.0564787 0.62665135 0.659759 0.8767444 -1.4796933 0.6470776
1.8936841 -2.785166
00000000: 2157 afbf e504 96bf b23a 873f 396c 203f
00000010: f7e5 283f 5272 603f 9766 bdbf e1a6 253f
00000020: 3e64 f23f 2940 32c0

layers.4.weight f4 [3, 10]
2.5455022 -0.15072875 0.43400693 -0.7048027 -1.4473695 -0.5917012 0.108491845 2.1903975
1.1791883 1.5964276 2.4187856 -2.4290264 -3.386547 -2.0082679 -0.022054099 1.473999
0.7887487 -0.22713082 -1.1242005 4.8665543 0.013717372 -0.0018877112 0.0022849683 -0.0055379346
-0.0012516639 0.0011230648 -0.003518803 -0.006141731 -3.7297847e-05 -0.015337318
00000000: 82e9 2240 a358 1abe 2836 de3e f36d 34bf
00000010: 6743 b9bf bb79 17bf f930 de3d 792f 0c40
00000020: a4ef 963f bd57 cc3f 62cd 1a40 2b75 1bc0
00000030: 30bd 58c0 7687 00c0 ccaa b4bc 00ac bc3f
00000040: 6feb 493f fb94 68be cde5 8fbf d0ba 9b40
00000050: d4be 603c 146d f7ba 68bf 153b 9077 b5bb
00000060: df0e a4ba cd33 933a b89b 66bb 9340 c9bb
00000070: 4270 1cb8 6049 7bbc

layers.4.bias f4 [3]
0.6802268 -1.8574908 -0.00071668683
00000000: 5823 2e3f 42c2 edbf 0ae0 3bba

exp_avg f4 [20, 4]
-0.0019940727 -0.0029552586 0.0062209535 0.0056886594 -0.029360367 -0.03526672 -0.08121273 -0.04947329
0.0028781663 -0.0022238402 -0.028499855 -0.0064143464 -0.02992779 -0.008844571 -0.123646736 0.07831653
0.015304686 0.010978705 -0.007936244 -0.04437925 0.002093457 0.0029670869 0.008739431 -0.01407329
0.019677602 0.03235739 0.0754495 0.027928766 -6.021691e-05 -1.7291535e-05 -0.0002828594 0.00018926575
-0.0023140947 0.009737554 0.0027879477 0.027311746 0.008856422 0.0103522865 0.02998853 -0.0077951327
-0.00016054408 -8.66263e-05 -0.00031779087 0.00051248446 -0.0070657246 0.0076006763 0.03199538 0.020802727
-0.007751958 -0.003799285 -0.043910436 0.050221175 0.006599562 0.004970502 0.037971597 0.03443188
2.1166676e-05 0.00015287958 0.00020661457 0.0005654031 -0.0012395628 -0.01194734 -0.030127864 -0.03580501
-0.009059884 -0.009734694 -0.09195619 -0.12059469 0.01725596 0.010115123 0.056150027 -0.044560272
0.043460567 0.040417697 0.2539989 0.16828194 0.00010966206 0.0024989026 0.0036608547 0.0069955746
00000000: fdae 02bb 03ad 41bb 24d9 cb3b ef67 ba3b
00000010: 2785 f0bc d673 10bd dc52 a6bd 81a4 4abd
00000020: 9e9f 3c3b d9bd 11bb 8778 e9bc 702f d2bb
00000030: 202b f5bc d2e8 10bc 803a fdbd 6b64 a03d
00000040: 81c0 7a3c 07e0 333c 0507 02bc 04c7 35bd
00000050: 6132 093b 7573 423b d52f 0f3c a893 66bc
00000060: ec32 a13c 2f89 043d 4485 9a3d deca e43c
00000070: 6a91 7cb8 4a0d 91b7 bf4c 94b9 a375 4639
00000080: 11a8 17bb 438a 1f3c 00b6 363b e2bc df3c
00000090: 871a 113c a39c 293c 81aa f53c 506e ffbb
000000a0: b957 28b9 24ab b5b8 2b9d a6b9 4058 063a
000000b0: 9887 e7bb 180f f93b 960d 033d 7b6a aa3c
000000c0: 2304 febb 6dfd 78bb 6edb 33bd b8b4 4d3d
000000d0: 2341 d83b 98df a23b 1b88 1b3d 7108 0d3d
000000e0: 178f b137 4d4e 2039 ada6 5839 8f37 143a
000000f0: d378 a2ba c7be 43bc b6ce f6bc 46a8 12bd
00000100: e86f 14bc 447e 1fbc 8753 bcbd 59fa f6bd
00000110: 5f5c 8d3c e7b9 253c 92fd 653d d584 36bd
00000120: b503 323d 078d 253d 250c 823e 1a52 2c3e
00000130: 5ffa e538 a1c4 233b f3ea 6f3b 223b e53b

exp_avg_sq f4 [20, 4]
0.001847919 0.0020724558 0.016761152 0.010129574 0.010740932 0.012433917 0.11727442 0.088928625
0.0034303055 0.0020023542 0.063264504 0.024166005 0.012693627 0.009393903 0.21699496 0.032288853
0.0059948005 0.007125831 0.07977097 0.045109887 0.0012934863 0.0007853405 0.027696162 0.016297473
0.00871571 0.009822652 0.12876765 0.06661541 2.520301e-07 4.0510585e-07 2.5171882e-06 1.4469941e-06
0.0048697107 0.0043780906 0.06898257 0.038761836 0.0023027663 0.0025833987 0.027221944 0.0124148
1.9333156e-06 9.010846e-06 2.7479939e-05 3.0789277e-05 0.017516222 0.020180648 0.2357663 0.04823427
0.005758527 0.0056195464 0.08552455 0.05298783 0.00031666504 0.00022033243 0.006375826 0.0071594818
1.6430821e-06 2.1360347e-06 1.4084009e-05 7.117562e-06 0.005818624 0.006275753 0.084320955 0.022141358
0.007593844 0.00461502 0.16157797 0.12162535 0.004169511 0.0027778775 0.072950974 0.053987212
0.0032339278 0.00203524 0.08271998 0.06556217 0.00030472776 0.00025118777 0.0047958284 0.0018345291
00000000: df35 f23a 0ad2 073b af4e 893c 83f6 253c
00000010: bcfa 2f3c a1b7 4b3c 922d f03d 3620 b63d
00000020: face 603b ee39 033b d290 813d c9f7 c53c
00000030: eef8 4f3c e3e8 193c ed33 5e3e 5141 043d
00000040: 0870 c43b ce7f e93b f65e a33d 25c5 383d
00000050: 338a a93a 4fdf 4d3a 10e3 e23c 4782 853c
00000060: 56cc 0e3c 30ef 203c abdb 033e a96d 883d
00000070: c14e 8734 537d d934 f7ec 2836 5736 c235
00000080: 1892 9f3b 1676 8f3b bc46 8d3d bbc4 1e3d
00000090: 02ea 163b 3d4e 293b 8e00 df3c 7267 4b3c
000000a0: 1cbe 0136 4a2d 1737 b884 e637 bc23 0138
000000b0: 2e7e 8f3c e351 a53c b96c 713e 4c91 453d
000000c0: 07b2 bc3b 2c24 b83b 7f27 af3d c409 593d
000000d0: 1006 a639 0909 6739 4eec d03b 169a ea3b
000000e0: df87 dc35 cc58 0f36 5c4a 6c37 64d3 ee36
000000f0: 28aa be3b d5a4 cd3b 77b0 ac3d cb61 b53c
00000100: c8d5 f83b 9839 973b b274 253e b616 f93d
00000110: 65a0 883b 0d0d 363b 5267 953d b221 5d3d
00000120: 4ef0 533b a961 053b 1869 a93d 7645 863d
00000130: dec3 9f39 dab1 8339 5326 9d3b 9574 f03a

exp_avg f4 [20]
0.0032186108 -0.03250236 -0.008503145 -0.04792662 -0.0071302005 0.0075077936 0.029357482 -0.00014691561
-0.0004252278 0.008711386 -0.00015324535 0.013865176 -0.017901318 0.016912913 6.869382e-05 -0.014564552
-0.04063075 0.027314277 0.100630715 0.0017142707
00000000: 54ef 523b 3221 05bd c650 0bbc b44e 44bd
00000010: 75a4 e9bb f003 f63b 1a7f f03c 5c0d 1ab9
00000020: 1cf1 deb9 33ba 0e3c 7cb0 20b9 c32a 633c
00000030: c9a5 92bc f38c 8a3c b70f 9038 29a0 6ebc
00000040: 6e6c 26bd 31c2 df3c 7a17 ce3d 61b1 e03a

exp_avg_sq f4 [20]
0.002798572 0.019897532 0.011042281 0.03647511 0.013732615 0.0046653696 0.02363518 4.103367e-07
0.0119501725 0.0048072403 3.9176102e-06 0.039928645 0.014373123 0.0011456121 2.2634397e-06 0.014473162
0.026187072 0.012647178 0.013245678 0.00088717334
00000000: 3f68 373b 2600 a33c afea 343c ed66 153d
00000010: c3fe 603c f5df 983b 919e c13c 3f4c dc34
00000020: a8ca 433c 0e86 9d3b 0474 8336 388c 233d
00000030: 3f7d 6b3c 5d28 963a 99e5 1736 d720 6d3c
00000040: 4586 d63c 1c36 4f3c 6604 593c 3291 683a

exp_avg f4 [10, 20]
-0.00083083997 -0.00044065912 -0.00020527099 -0.0013196105 -0.0006646305 -0.000305725 -0.0003756576 8.232737e-06
-0.00023213177 -0.00019134396 1.8052444e-05 -0.0012016625 -0.0009936081 -0.00010638016 2.4421499e-05 -0.0011355707
-0.00096951163 -0.00048536214 -0.0003731678 -8.9863504e-05 0.00066952175 0.016215172 0.016952477 -0.0035372053
0.0057740416 0.0065831942 0.014288243 -4.4879e-05 0.017343216 -0.02195518 -5.993565e-05 -0.011737655
-0.0008552586 0.0064062946 -0.000101885285 0.0011075356 0.008771599 0.00057137635 0.016986996 0.0077168555
-8.5060936e-05 -2.6342708e-05 6.039039e-05 -0.0012221173 -0.00033577115 5.1738312e-05 -8.428345e-05 3.2670623e-06
5.6264253e-05 -0.0004081652 8.544869e-06 -9.411788e-05 0.00020703592 7.0482914e-05 1.1025233e-05 -0.00039785696
-0.0004607777 -0.00011525818 0.00012561356 1.3583254e-05 0.025857335 -0.00027232486 0.00071051664 0.0063212635
0.017686427 0.0072117713 0.0023553937 -0.00025410578 -0.00024091825 0.0026389123 -0.0004773056 0.019640666
0.0045085503 -0.00039367948 -0.0006986783 0.034143426 0.03785015 0.01032799 0.0024899289 -0.00011039588
0.04525733 -0.000778019 -0.00026740562 0.0019652753 0.030184016 0.0019808733 0.00026198316 -0.00032779595
-0.000792455 0.012447976 -0.00062090956 0.053930707 0.045765184 -0.0009983858 -0.0009169083 0.062454537
0.046742685 0.029493477 -0.000610174 -0.00033931754 0.009832186 0.008206297 -0.00015731761 0.085713774
0.01646232 0.0040531945 0.010302331 -0.00024927172 0.00071208546 0.027274612 -0.0006176509 0.023041308
0.004538424 -0.0022065113 -0.00078816066 0.020031726 0.019134233 -8.77099e-05 -0.0015208606 0.00071444904
0.0004942902 2.8080285e-05 7.004246e-05 -0.00030577346 0.0016865882 -0.00064008904 1.1534995e-05 -2.9562848e-06
6.3362546e-05 -0.0012330601 2.590577e-06 -0.008143439 -0.010974024 0.00010085618 -7.647969e-06 0.00035090625
0.0049657472 0.0028934034 7.402762e-05 5.2125433e-05 -0.0028291414 0.00078907347 -0.0042840866 -0.03283003
-0.013691308 -0.015495308 -0.010708569 0.00016980474 0.0015790837 0.0023283495 0.0004188478 -0.00010946677
2.0803147e-05 0.00015821109 0.00055322435 -0.01688342 -0.029472254 -0.00048870407 -0.006023326 0.00033880727
-0.026213087 -0.0060675303 0.0013311176 -0.091898315 -0.029677827 -0.0074437973 -0.012405424 0.00035981546
0.0039647412 -0.029199827 0.00086301425 -0.035972174 -0.0126888985 0.0033932636 0.0011417274 -0.04152631
-0.0404972 -0.0078025768 -0.0024034756 0.0015883346 -0.0005988841 -0.00032304652 -0.00021644123 3.0769465e-05
-0.00023908634 -0.0002869823 -0.00022259813 3.7918483e-06 -0.00023291806 0.00020226148 7.014893e-06 -0.0008822855
-0.00097365805 -0.00014535259 9.997801e-06 -0.0005645257 -0.000374772 -0.00028662648 -0.00040404015 -8.308712e-05
00000000: bacc 59ba 4408 e7b9 033e 57b9 c8f6 acba
00000010: 993a 2eba b749 a0b9 e9f3 c4b9 561f 0a37
00000020: 6668 73b9 81a3 48b9 546f 9737 1a81 9dba
00000030: f53b 82ba 6a18 dfb8 c5dc cc37 6ed7 94ba
00000040: d326 7eba 3478 feb9 bca5 c3b9 1a75 bcb8
00000050: d882 2f3a aed5 843c ecdf 8a3c 75d0 67bb
00000060: 2c34 bd3b d6b7 d73b 3c19 6a3c 763c 3cb8
00000070: 5c13 8e3c 5adb b3bc 6a63 7bb8 4b4f 40bc
00000080: 6f33 60ba e5eb d13b 3fab d5b8 ba2a 913a
00000090: c1b6 0f3c 6bc8 153a 5028 8b3c addd fc3b
000000a0: be62 b2b8 89fa dcb7 b04b 7d38 742f a0ba
000000b0: 710a b0b9 9701 5938 55c1 b0b8 b43f 5b36
000000c0: 48fd 6b38 01ff d5b9 ef5b 0f37 2761 c5b8
000000d0: c817 5939 3ad0 9338 04f9 3837 7597 d0b9
000000e0: 8994 f1b9 c4b6 f1b8 22b7 0339 a2e3 6337
000000f0: c3d2 d33c d3c6 8eb9 f741 3a3a 9a22 cf3b
00000100: 20e3 903c b950 ec3b f35c 1a3b 8039 85b9
00000110: 009f 7cb9 9af1 2c3b e03e fab9 76e5 a03c
00000120: 76bc 933b c466 ceb9 8227 37ba fad9 0b3d
00000130: c208 1b3d bb36 293c 132e 233b 5684 e7b8
00000140: c05f 393d f9f3 4bba 9332 8cb9 d9cb 003b
00000150: 7844 f73c 8ad1 013b c95a 8939 07dc abb9
00000160: c1bc 4fba 98f2 4b3c 89c4 22ba 72e6 5c3d
00000170: 4674 3b3d 45dc 82ba ad5c 70ba 54d0 7f3d
00000180: 4275 3f3d 4e9c f13c 15f4 1fba 6ee6 b1b9
00000190: 2d17 213c b473 063c a0f5 24b9 b48a af3d
000001a0: fddb 863c a9d0 843b 1ccb 283c afb0 82b9
000001b0: 3fab 3a3a 026f df3c dae9 21ba 20c1 bc3c
000001c0: 0fb7 943b 1e9b 10bb 919c 4eba 9319 a43c
000001d0: 65bf 9c3c e5f0 b7b8 9d57 c7ba dd49 3b3a
000001e0: 4193 013a f48d eb37 c2e3 9238 3850 a0b9
000001f0: 8210 dd3a a6cb 27ba 6d86 4137 9664 46b6
00000200: 82e1 8438 a29e a1ba c6d9 2d36 0f6c 05bc
00000210: 65cc 33bc c082 d338 c74f 00b7 d7f9 b739
00000220: b5b7 a23b 419f 3d3b 473f 9b38 42a1 5a38
00000230: 1e69 39bb d3d9 4e3a 8661 8cbb c878 06bd
00000240: 8251 60bc 08e0 7dbc fe72 2fbc 9d0d 3239
00000250: 42f9 ce3a 3997 183b cd98 db39 8691 e5b8
00000260: 6b82 ae37 77e5 2539 4206 113a 194f 8abc
00000270: cc6f f1bc 601c 00ba 525f c5bb f1a1 b139
00000280: d4bc d6bc 22d2 c6bb e578 ae3a 2f35 bcbd
00000290: ea1e f3bc 19eb f3bb 1f40 4bbc 9da5 bc39
000002a0: a9ea 813b 7a34 efbc e83b 623a 8f57 13bd
000002b0: 19e5 4fbc 8461 5e3b 04a6 953a 7e17 2abd
000002c0: 64e0 25bd c2ac ffbb a183 1dbb aa2f d03a
000002d0: 6efe 1cba 925e a9b9 80f4 62b9 760e 0138
000002e0: 40b3 7ab9 1d76 96b9 3b69 69b9 7577 7e36
000002f0: 773b 74b9 2716 5439 7961 eb36 2d49 67ba
00000300: 163d 7fba ca69 18b9 3abc 2737 aefc 13ba
00000310: 0c7d c4b9 5b46 96b9 5ad5 d3b9 0f3f aeb8

exp_avg_sq f4 [10, 20]
1.5865757e-05 9.122218e-06 5.748785e-06 0.00016635866 4.220256e-06 4.5513755e-07 4.9958594e-06 3.1493768e-09
9.232667e-06 8.117094e-06 7.697387e-09 1.7735047e-05 1.2952713e-05 2.4618467e-07 1.2121204e-08 1.0992475e-05
8.041572e-06 1.7986332e-06 3.3228537e-07 2.3232046e-06 0.0022847203 0.022037001 0.005328578 0.21359375
0.0005782222 0.0010279807 0.005843592 2.1689568e-06 0.015273143 0.0061279926 4.39557e-06 0.004576007
2.8230656e-05 0.001434107 5.4315406e-06 1.9664412e-05 0.00033596277 4.320825e-05 0.0014050807 0.0049114777
8.460538e-06 3.6750373e-06 9.807195e-07 5.0178383e-05 1.0484254e-05 4.8069785e-07 1.5420292e-06 1.5034003e-09
2.4391863e-06 5.689695e-06 6.303908e-09 2.8608993e-05 9.578293e-06 1.838653e-07 8.4822105e-09 1.9785753e-05
1.1368043e-05 3.2725375e-06 2.4272757e-07 7.1128767e-07 0.006614923 3.914598e-06 8.074588e-06 0.00025109394
0.004083211 0.0006650162 0.00011099179 6.5048727e-07 2.9337427e-06 0.00025106774 2.1227459e-06 0.0053315763
0.0011060993 2.219523e-06 4.1128187e-06 0.012963578 0.013919466 0.0023883316 1.0377002e-05 9.85402e-07
0.0105469795 6.2417284e-06 1.7392304e-06 3.9427337e-05 0.00722426 0.0003818312 3.282941e-05 6.993625e-07
5.324188e-06 0.0010665809 2.4572955e-06 0.016104044 0.012126473 5.054969e-06 4.888931e-06 0.0244731
0.017694632 0.00683393 3.3336473e-06 1.6057015e-06 0.009664909 0.0073450007 0.001976556 0.09986601
0.0055864174 0.0009233435 0.0030498977 2.0826612e-06 0.004745502 0.004928952 5.5330197e-06 0.015713157
0.004368057 0.00042294257 8.547373e-06 0.011167612 0.010198912 0.00053769554 0.00047041694 0.0015863163
0.0009951944 7.380644e-07 2.8698162e-07 1.42940635e-05 0.00028063118 7.553958e-06 2.0044212e-07 5.1076853e-08
7.1775935e-07 0.0002448294 1.5558098e-07 0.0022614743 0.0019660408 6.90693e-07 2.9075645e-07 0.001330198
0.00059047935 0.00025271432 6.276764e-07 2.49378e-07 0.0039307517 7.165442e-05 0.0004729591 0.013799647
0.0034239308 0.0010963535 0.0011099891 8.8884224e-07 0.00010270079 0.00025734614 2.7945403e-06 0.0019935782
2.3830533e-05 1.6520247e-05 4.8112047e-06 0.005829548 0.009995601 7.140686e-05 9.841899e-05 8.911119e-05
0.015366983 0.004700506 0.0012764011 0.083171554 0.009351237 0.0011387946 0.002471818 2.2972663e-06
0.002726353 0.0048507294 6.503662e-06 0.02205216 0.009902376 0.00024355671 1.072705e-05 0.026236989
0.022028876 0.005826116 0.000105936015 0.001057339 0.0003090399 1.1497321e-05 2.7987255e-06 0.00012778623
7.767424e-05 9.2929595e-06 3.7251334e-06 1.5145622e-08 7.4013465e-06 1.5653548e-05 3.3124218e-07 0.0003516174
0.00046278187 6.395496e-07 8.7485226e-08 0.0005132298 0.00040333343 0.00043039702 7.220233e-07 2.2795853e-06
00000000: 7417 8537 a10b 1937 b0e5 c036 9070 2e39
00000010: b99b 8d36 a159 f434 1ba2 a736 6c6c 5831
00000020: 01e6 1a37 a72e 0837 773d 0432 b9c5 9437
00000030: 7b4f 5937 5d2b 8434 9e3d 5032 526c 3837
00000040: 4aea 0637 9168 f135 f464 b234 5ae8 1b36
00000050: 3fbb 153b f186 b43c 5a9b ae3b 52b8 5a3e
00000060: d693 173a 4fbd 863a 9a7b bf3b 658e 1136
00000070: 343c 7a3c 54cd c83b a97d 9336 54f2 953b
00000080: dfd0 ec37 a5f8 bb3a 9440 b636 01f5 a437
00000090: 2924 b039 813a 3538 af2a b83a 76f0 a03b
000000a0: bcf1 0d37 a9a0 7636 44a1 8335 a176 5238
000000b0: 87e5 2f37 4e09 0135 b8f7 ce35 32a0 ce30
000000c0: e7b0 2336 1cea be36 c399 d831 58fd ef37
000000d0: 75b2 2037 826c 4534 28b9 1132 95f9 a537
000000e0: 5fb9 3e37 c49d 5b36 3950 8234 51ef 3e35
000000f0: ffc1 d83b 245a 8336 1778 0737 42a5 8339
00000100: 75cc 853b 7b54 2e3a 43c4 e838 259d 2e35
00000110: 51e1 4436 bea1 8339 7f74 0e36 81b4 ae3b
00000120: 89fa 903a 1df3 1436 d800 8a36 3065 543c
00000130: 790e 643c 8e85 1c3b e218 2e37 2842 8435
00000140: 3dcd 2c3c 0a70 d136 806f e935 c85e 2538
00000150: 7cb9 ec3b 8430 c839 50b2 0938 d3bb 3b35
00000160: 6da6 b236 84cc 8b3a 04e8 2436 a1ec 833c
00000170: 1dae 463c da9d a936 990b a436 d07b c83c
00000180: 55f4 903c 29ef df3b a0b7 5f36 7c83 d735
00000190: 9159 1e3c 55ae f03b 1b89 013b 8d86 cc3d
000001a0: 440e b73b 890c 723a cbe0 473b d9c3 0b36
000001b0: 2880 9b3b 0c83 a13b 47a8 b936 e1b8 803c
000001c0: eb21 8f3b 64be dd39 b066 0f37 5cf8 363c
000001d0: 5619 273c 23f4 0c3a 4ba2 f639 f1eb cf3a
000001e0: 2f71 823a 661f 4635 7412 9a34 89d0 6f37
000001f0: ae21 9339 0178 fd36 1c39 5734 985f 5b33
00000200: 0cac 4035 725c 8039 c60d 2734 3e35 143b
00000210: b1d8 003b 1068 3935 4319 9c34 0a5a ae3a
00000220: 66ca 1a3a be7e 8439 987d 2835 40e2 8534
00000230: 89cd 803b 2c45 9638 7ff7 f739 ea17 623c
00000240: 0764 603b 85b3 8f3a 0e7d 913a c698 6e35
00000250: 1161 d738 6aec 8639 d689 3b36 b1a6 023b
00000260: aee7 c737 f694 8a37 ef6f a136 cb05 bf3b
00000270: 97c4 233c 44c0 9538 4b66 ce38 35e1 ba38
00000280: ccc5 7b3c b406 9a3b ea4c a73a d955 aa3d
00000290: ee35 193c 9b43 953a 39fe 213b bc2a 1a36
000002a0: 9dac 323b def2 9e3b 083a da36 bba6 b43c
000002b0: 933d 223c 4263 7f39 54f8 3337 f4ee d63c
000002c0: e775 b43c 01e9 be3b f729 de38 6996 8a3a
000002d0: a206 a239 9ee4 4037 bdd1 3b36 5bfe 0539
000002e0: 0ae5 a238 f5e8 1b37 4efd 7936 9319 8232
000002f0: 1559 f836 bd4f 8337 94d5 b134 4a59 b839
00000300: 88a1 f239 84ad 2b35 83df bb33 458a 063a
00000310: 7f76 d339 e9a6 e139 10d1 4135 fafa 1836

exp_avg f4 [10]
-0.0005889556 -0.003336224 -0.00041969327 0.014436025 0.02164598 0.027168168 0.00026243477 -0.011744911
-0.035421923 -0.00010588557
00000000: 2464 1aba 8da4 5abb 470a dcb9 1485 6c3c
00000010: e952 b13c c78f de3c 6697 8939 ba6d 40bc
00000020: 9416 11bd e20e deb8

exp_avg_sq f4 [10]
1.2115507e-05 0.008435806 9.984581e-06 0.0022224465 0.0029092468 0.0087764375 0.00021897991 0.0032594209
0.009587616 4.514387e-05
00000000: b543 4b37 5636 0a3c 7383 2737 77a6 113b
00000010: 10a9 3e3b 0ccb 0f3c f99d 6539 029c 553b
00000020: 6015 1d3c dc58 3d38

exp_avg f4 [3, 10]
0.003674973 -0.040277768 0.0036786343 -0.008180551 -0.038317867 -0.16572744 -0.020327903 -0.035281356
-0.06606687 0.0037282766 -0.0003278936 -0.022732057 0.00034706027 -0.012282626 0.0017361438 0.011936662
-0.016362509 0.013098819 0.033200186 -0.0006757799 -0.0011696006 0.0076632597 0.00052772375 0.017494109
0.037228186 0.016456762 -0.018352346 -0.004037998 0.069581054 -0.0016923526
00000000: d1d7 703b 4dfa 24bd 3e15 713b b807 06bc
00000010: 32f3 1cbd 74b4 29be b486 a6bc 2f83 10bd
00000020: 114e 87bd 1a56 743b 22e9 abb9 9438 babc
00000030: a4f5 b539 113d 49bc 528f e33a fd91 433c
00000040: ab0a 86bc 6e9c 563c ebfc 073d d226 31ba
00000050: 494d 99ba 151c fb3b f156 0a3a ce4f 8f3c
00000060: 957c 183d 55d0 863c a957 96bc 2f51 84bb
00000070: 8380 8e3d eed1 ddba

exp_avg_sq f4 [3, 10]
3.5013298e-05 0.018745575 5.345012e-05 0.0017382948 0.014788592 0.14751868 0.0012162417 0.0033736173
0.041070476 5.0068084e-05 3.7319063e-05 0.019620683 5.4019216e-05 0.0019487962 0.013984295 0.16320588
0.0011071688 0.002905249 0.044459935 5.2962518e-05 0.00026256737 0.083201684 0.00031153267 0.0043575405
0.05729441 1.394457 0.0040592593 0.008618724 0.38652718 0.0003840216
00000000: 3edb 1238 5290 993c a12f 6038 7fd7 e33a
00000010: da4b 723c 230f 173e 4d6a 9f3a e817 5d3b
00000020: 8439 283d 3200 5238 0a87 1c38 8ebb a03c
00000030: b192 6238 c06e ff3a 621e 653c 711f 273e
00000040: 6c1e 913a fd65 3e3b 9f1b 363d 1224 5e38
00000050: 32a9 8939 a565 aa3d 3555 a339 b3c9 8e3b
00000060: 8bad 6a3d 917d b23f 8903 853b 8c35 0d3c
00000070: e4e6 c53e 8256 c939

exp_avg f4 [3]
-0.030387271 0.008090174 0.0056331237
00000000: baee f8bc a68c 043c 1196 b83b

exp_avg_sq f4 [3]
0.004033266 0.0046591368 0.045454383
00000000: 7d29 843b acab 983b 602e 3a3d
