lightning_logs/version_122/checkpoints/epoch=39-step=320.ckpt (torch, 10635 bytes, 18 tensors)

layers.0.weight f4 [10, 4]
00000000: 0038 6d3e 50cf 35be 92f0 a5be 1cb9 a13e
00000010: 3641 d8bd b2ee c6be 53ff 993e b7dd 44be
00000020: a448 f8be bab7 8fbe acf6 fbbe 20bd 94bd
00000030: 1c86 f5be 9052 81be d44a 50be e8c9 9ebd
00000040: 7c27 cd3e 689a 7fbe 9f92 0ebe c7f5 f73d
00000050: 6c7c a53e 09d2 88bd 70eb 653e e6dc 353e
00000060: 676d b4be fd19 02bf 8b31 1abd 9f05 03bf
00000070: 33f7 99be c5e3 dcbe 9324 d63e 1138 90bd
00000080: 800f 53bc 00bc 003b a896 f5bd 44d6 56be
00000090: 7e8b 973e 282f 66be e255 f4be 5023 6c3d
0.23165894 -0.17754865 -0.32410103 0.3158654 -0.10559313 -0.38853985 0.3007761 -0.19225203
-0.4849292 -0.2806986 -0.49211633 -0.07262635 -0.4795388 -0.25258303 -0.20341045 -0.07753354
0.40069187 -0.24961245 -0.13923119 0.12107425 0.3232149 -0.06680686 0.22453094 0.17760047
-0.35239717 -0.50820905 -0.037644904 -0.5118045 -0.3007141 -0.43142524 0.4182478 -0.07041944
-0.012882113 0.0019643307 -0.11991626 -0.20980173 0.29598612 -0.22478926 -0.47721773 0.057650864

layers.0.bias f4 [10]
00000000: d440 98be 57e6 95be a8eb b4be d248 8a3e
00000010: d0a3 893d 11f9 5bbe 2317 673e 523f 3cbd
00000020: 48dc 5dbe 2c9e 06be
-0.2973696 -0.29277298 -0.3533604 0.27008682 0.06720698 -0.2148173 0.2256742 -0.045958824
-0.21666062 -0.13146275

layers.2.weight f4 [5, 10]
00000000: 2f8a 60bd dd85 1c3e c73e dc3d 3c0a 7cbe
00000010: 69ce 953e a872 15be 35b0 783e bc8e 1b3e
00000020: e44e b03d 0290 6f3e 7646 9bbc 8db8 503e
00000030: ee77 50be a0b2 9a3c 72c2 6f3d d426 343e
00000040: c822 3dbd 4cd7 2cbe 556b 933d 21d7 2d3e
00000050: 6eab adbd 6028 89be 7927 9ebe 963b 0dbb
00000060: 848d 35be 35db 843d 1acc 8dbe e2eb 1abe
00000070: 6679 673e eba5 95be 655f 70bb 8877 8a3e
00000080: f2f5 4c3e 30b3 5f3d 4a23 7dbb 910f e3bc
00000090: e496 90be 177b 22be b04c 03be 858d 22be
000000a0: 3f54 d3bd 8b5f e53c 5cf4 8fbe f6a0 843e
000000b0: 5893 36be 08fa 33bd c8fb a8bd 39bf 62be
000000c0: d25c 37be 37d8 833d
-0.054819282 0.1528544 0.10754161 -0.24613279 0.2925904 -0.14594519 0.24285968 0.15191168
0.08608797 0.23394778 -0.018954497 0.203829 -0.2035825 0.018884003 0.058535047 0.17592937
-0.046175748 -0.16879004 0.07198206 0.16976596 -0.08479963 -0.26788616 -0.3088949 -0.0021550409
-0.17729765 0.06487123 -0.2769478 -0.15129045 0.22604904 -0.29228148 -0.0036677953 0.2704432
0.20015696 0.054614246 -0.003862577 -0.027717384 -0.2824012 -0.15867268 -0.12822223 -0.15874298
-0.10318803 0.02799966 -0.2811612 0.25904053 -0.17829645 -0.04393962 -0.082511485 -0.22143258
-0.17906502 0.06437724

layers.2.bias f4 [5]
00000000: 122c d8bd 9c91 4d3d a2c3 9ebe 8e7f 1dbd
00000010: 31c0 423d
-0.10555281 0.050187692 -0.3100863 -0.038451724 0.04754657

layers.4.weight f4 [2, 5]
00000000: 102a b13c 83db efbc 7e94 d03d 5999 8a3e
00000010: 3319 96be 6c6c 91be 994f e73c 0a67 003e
00000020: 5ead 6d3d 2e68 153e
0.021626502 -0.029279476 0.10184573 0.2707012 -0.293161 -0.28403032 0.028236197 0.12539306
0.058026664 0.14590523

layers.4.bias f4 [2]
00000000: f67d b83a 699d dc3c
0.0014075625 0.026930528

exp_avg f4 [10, 4]
00000000: 0000 0000 0000 0000 0000 0000 0000 0000
00000010: a5ed a5b5 1ca8 52b6 81f8 42b7 fb57 1c36
00000020: 0000 0000 0000 0000 0000 0000 0000 0000
00000030: 0000 0000 0000 0000 0000 0000 0000 0000
00000040: ce5d 2b1c bcd8 b61b 0988 f31d 0577 821d
00000050: 076e 45b5 24cc 20b6 7cb5 9733 734b 0a37
00000060: f04b 9223 8782 7924 1120 2526 5974 d123
00000070: 9e5f 3d35 793a 1a36 4202 8cb3 a0a0 04b7
00000080: 0000 0000 0000 0000 0000 0000 0000 0000
00000090: 0000 0000 0000 0000 0000 0000 0000 0000
0.0 0.0 0.0 0.0 -1.2362622e-06 -3.139029e-06 -1.162116e-05 2.3297023e-06
0.0 0.0 0.0 0.0 0.0 0.0 0.0 0.0
5.6700394e-22 3.0249436e-22 6.446222e-21 3.4533777e-21 -7.354833e-07 -2.3960683e-06 7.064497e-08 8.243008e-06
1.5861513e-17 5.410383e-17 5.7289333e-16 2.27091e-17 7.054713e-07 2.2981824e-06 -6.519669e-08 -7.9052115e-06
0.0 0.0 0.0 0.0 0.0 0.0 0.0 0.0

exp_avg_sq f4 [10, 4]
00000000: 0000 0000 0000 0000 0000 0000 0000 0000
00000010: e19a 0030 8cc4 5630 d6b1 9634 ac5f f532
00000020: 0000 0000 0000 0000 0000 0000 0000 0000
00000030: 0000 0000 0000 0000 0000 0000 0000 0000
00000040: 965e 8327 6e8f 9526 a8a7 042b 3449 182a
00000050: 1f11 142e 6ffe 9a2e 765e ff32 4c00 d531
00000060: f988 102e bd5c 232f 6efb 8a32 dc31 dd2e
00000070: 5f98 6c2e f9c3 442f 7cc4 f732 57a9 3c31
00000080: 0000 0000 0000 0000 0000 0000 0000 0000
00000090: 0000 0000 0000 0000 0000 0000 0000 0000
0.0 0.0 0.0 0.0 4.6786225e-10 7.8132056e-10 2.806907e-07 2.856526e-08
0.0 0.0 0.0 0.0 0.0 0.0 0.0 0.0
3.6462354e-15 1.0377829e-15 4.712849e-13 1.352571e-13 3.366651e-11 7.048306e-11 2.9728863e-08 6.1991496e-09
3.2863465e-11 1.4857711e-10 1.6179651e-08 1.0058773e-10 5.379552e-11 1.789572e-10 2.8843935e-08 2.745386e-09
0.0 0.0 0.0 0.0 0.0 0.0 0.0 0.0

exp_avg f4 [10]
00000000: 0000 0000 416c 84b6 0000 0000 0000 0000
00000010: befb 8d1d d6fa 2c36 dff4 a625 cfce 25b6
00000020: 0000 0000 0000 0000
0.0 -3.946509e-06 0.0 0.0 3.7582685e-21 2.5776003e-06 2.896234e-16 -2.4707294e-06
0.0 0.0

exp_avg_sq f4 [10]
00000000: 0000 0000 d897 c233 0000 0000 0000 0000
00000010: fe5c 342a d81a 3332 d7d4 9331 c37c 1832
00000020: 0000 0000 0000 0000
0.0 9.061449e-08 0.0 0.0 1.6019475e-13 1.0425275e-08 4.30246e-09 8.875932e-09
0.0 0.0

exp_avg f4 [5, 10]
00000000: 0000 0000 1d8f b42a 0000 0000 0000 0000
00000010: 0000 0000 b4a0 ce2a 83d3 f722 b676 962b
00000020: 0000 0000 0000 0000 0000 0000 e03a ecb6
00000030: 0000 0000 0000 0000 66d5 5f1b f29e a336
00000040: 3332 9b1f d088 5b36 0000 0000 0000 0000
00000050: 0000 0000 0000 0000 0000 0000 0000 0000
00000060: 0000 0000 0000 0000 0000 0000 0000 0000
00000070: 0000 0000 0000 0000 0000 0000 0000 0000
00000080: 0000 0000 0000 0000 0000 0000 0000 0000
00000090: 0000 0000 0000 0000 0000 0000 0000 0000
000000a0: 0000 0000 0000 0000 0000 0000 0000 0000
000000b0: 0000 0000 0000 0000 0000 0000 0000 0000
000000c0: 0000 0000 0000 0000
0.0 3.2073728e-13 0.0 0.0 0.0 3.670446e-13 6.717343e-18 1.069109e-12
0.0 0.0 0.0 -7.040202e-06 0.0 0.0 1.851508e-22 4.876282e-06
6.57281e-20 3.2713178e-06 0.0 0.0 0.0 0.0 0.0 0.0
0.0 0.0 0.0 0.0 0.0 0.0 0.0 0.0
0.0 0.0 0.0 0.0 0.0 0.0 0.0 0.0
0.0 0.0 0.0 0.0 0.0 0.0 0.0 0.0
0.0 0.0

exp_avg_sq f4 [5, 10]
00000000: 0000 0000 75ba 1a33 0000 0000 0000 0000
00000010: 0000 0000 0bd4 ef33 ea74 8c2e 0e20 5d34
00000020: 0000 0000 0000 0000 0000 0000 2ec0 b032
00000030: 0000 0000 0000 0000 8120 e025 60fc f433
00000040: 9814 d12c c6e0 3234 0000 0000 0000 0000
00000050: 0000 0000 0000 0000 0000 0000 0000 0000
00000060: 0000 0000 0000 0000 0000 0000 0000 0000
00000070: 0000 0000 0000 0000 0000 0000 0000 0000
00000080: 0000 0000 0000 0000 0000 0000 0000 0000
00000090: 0000 0000 0000 0000 0000 0000 0000 0000
000000a0: 0000 0000 0000 0000 0000 0000 0000 0000
000000b0: 0000 0000 0000 0000 0000 0000 0000 0000
000000c0: 0000 0000 0000 0000
0.0 3.60255e-08 0.0 0.0 0.0 1.1167875e-07 6.387231e-11 2.059389e-07
0.0 0.0 0.0 2.057649e-08 0.0 0.0 3.8879831e-16 1.1408042e-07
5.9424236e-12 1.6659314e-07 0.0 0.0 0.0 0.0 0.0 0.0
0.0 0.0 0.0 0.0 0.0 0.0 0.0 0.0
0.0 0.0 0.0 0.0 0.0 0.0 0.0 0.0
0.0 0.0 0.0 0.0 0.0 0.0 0.0 0.0
0.0 0.0

exp_avg f4 [5]
00000000: ef67 da2b b2b3 7537 0000 0000 0000 0000
00000010: 0000 0000
1.5518679e-12 1.46449765e-05 0.0 0.0 0.0

exp_avg_sq f4 [5]
00000000: 51dd 1c35 ec49 1935 0000 0000 0000 0000
00000010: 0000 0000
5.8436586e-07 5.710451e-07 0.0 0.0 0.0

exp_avg f4 [2, 5]
00000000: 0e53 22a6 8913 b4b6 0000 0000 0000 0000
00000010: 0000 0000 1848 95a7 8143 a4b7 0000 0000
00000020: 0000 0000 0000 0000
-5.63176e-16 -5.366692e-06 0.0 0.0 0.0 -4.143397e-15 -1.9581757e-05 0.0
0.0 0.0

exp_avg_sq f4 [2, 5]
00000000: 8ae4 0333 261f 7f36 0000 0000 0000 0000
00000010: 0000 0000 7726 0632 7651 a034 0000 0000
00000020: 0000 0000 0000 0000
3.070867e-08 3.8016092e-06 0.0 0.0 0.0 7.8085725e-09 2.9861593e-07 0.0
0.0 0.0

exp_avg f4 [2]
00000000: b460 07b9 476b ca39
-0.00012910628 0.0003860837

exp_avg_sq f4 [2]
00000000: e06a 2439 3bc9 2e37
0.00015680073 1.0418061e-05
