neural_network/lightning_logs/version_46/checkpoints/epoch=0-step=1875.ckpt (torch, 13835 bytes, 18 tensors)

layers.0.weight f4 [20, 4]
000000 af 1d 3c bf 4f 21 fb bf dd 92 dd be 04 be 3c bf
       -0.73482794 -1.961954 -0.4327611 -0.7372744
000010 93 fa 2a 3d 08 66 1e c0 f9 4c f2 3e 45 30 30 bf
       0.041742872 -2.4749775 0.4732435 -0.68823653
000020 8d 98 87 bf c0 db 35 c0 5f 36 06 bf 8e 62 87 3f
       -1.059343 -2.8415375 -0.52426714 1.0576952
000030 07 77 45 3e 26 aa 7e 40 45 0a d9 3e fd 3a de 3b
       0.19283687 3.979135 0.42390648 0.0067819343
000040 c9 f4 06 bf c2 7a 8f be d9 75 92 3d 9b 51 8e 3e
       -0.5271726 -0.28023344 0.07151384 0.27796635
000050 06 54 09 be f8 a1 2e 40 9c 2e ac 3e f6 c3 a0 3d
       -0.13410959 2.7286358 0.3362931 0.078498766
000060 2b 44 4c bf c4 28 f2 3e b1 23 aa 3e a5 ee 9c 3f
       -0.79791516 0.47296727 0.33230355 1.2260329
000070 c1 4a 52 bf 24 38 0f c0 52 c8 bd be 70 09 2b bf
       -0.82145315 -2.2378016 -0.37066895 -0.66811275
000080 cd 3b 6a bf 0a 74 e3 bf be 31 39 3e 54 39 73 bf
       -0.914975 -1.7769787 0.18085381 -0.9500935
000090 16 16 6c bf 6d f7 6e c0 ad a8 bb bb b8 68 7c be
       -0.922212 -3.7338517 -0.005726895 -0.24649322
0000a0 88 24 dd 3e 04 3f b7 3f 3b d3 aa be 43 2e 35 3c
       0.43191934 1.4316106 -0.3336428 0.011058393
0000b0 ad 28 0c bf bf db f0 be fd b3 2e be 77 f4 97 3f
       -0.54749566 -0.47042653 -0.17060848 1.187148
0000c0 17 c0 39 3c d4 66 41 3f 4f 50 38 be 8c 1e bb bf
       0.011337302 0.7554753 -0.17999385 -1.4618697
0000d0 44 ce 16 bf 6d 98 a4 3f b7 86 fe 3e 61 fb 83 3e
       -0.58908486 1.2859017 0.49712154 0.25777724
0000e0 44 ee 30 bf ef 59 91 be 18 77 5d 3e 81 63 5b bf
       -0.69113564 -0.28388926 0.21627462 -0.85698706
0000f0 0a 17 08 3e 3f 0b e5 3f 8d ce 55 bd 77 ba e3 3c
       0.13290039 1.7894057 -0.052198935 0.027798874
000100 86 81 af bd e5 6c 76 c0 32 c0 5c 3d 6d aa 01 3f
       -0.085696265 -3.8503964 0.05389423 0.50650674
000110 c7 1f 69 bf a1 0f 3c c0 b3 bc 3f be 97 8d 3c 3f
       -0.91064113 -2.938454 -0.18724327 0.7365355
000120 b6 14 2e be 49 54 c3 bf 52 f3 9b 3e 48 fd af be
       -0.17000088 -1.5260097 0.30459076 -0.34372926
000130 9f d7 a5 3e 23 3f 50 3f 46 e4 c2 bd fd 81 eb bc
       0.32391068 0.8134634 -0.09516196 -0.028748507

layers.0.bias f4 [20]
000000 28 f3 13 3f 15 35 1f 3f a5 6d 9a 3e 1a e9 91 bf
       0.577929 0.6219037 0.30161777 -1.1399262
000010 ae 78 4c 3f 01 42 47 bf e6 da 09 bf ec dd b5 3f
       0.7987164 -0.7783509 -0.5384964 1.420835
000020 ba ed 08 3e 53 f2 02 40 0c 6f 36 bf 85 69 02 be
       0.13371935 2.0460403 -0.71263194 -0.12735565
000030 72 bb 98 bf 6a d4 4d bf 9a ee d4 be 6d f6 30 3e
       -1.1932204 -0.80402243 -0.4158829 0.17281504
000040 57 d5 ed 3f 07 4d 8d 3f 3e a8 53 3f d7 f0 87 bf
       1.8580731 1.1039132 0.8267859 -1.0620373

layers.2.weight f4 [10, 20]
000000 c0 4f 19 3a 9c e0 5b be 75 26 f6 bf 7b 3a 26 bf
       0.00058483705 -0.214724 -1.9230486 -0.64932984
000010 0c 14 01 bf 43 04 cb be 71 63 04 3e 56 ea 86 be
       -0.50421214 -0.3965169 0.12928559 -0.2635066
000020 6c 78 69 be 46 40 1a bf 3b 5a 1d 3e 52 0a 1a be
       -0.22799844 -0.60254323 0.15366451 -0.15043
000030 7c 44 2d be ea d1 cc be ff a3 80 3b c8 45 34 bf
       -0.16920656 -0.40003902 0.0039258 -0.7041898
000040 65 c9 15 bc 1b 92 d2 be ef 07 bf be 14 16 0b 3f
       -0.0091422545 -0.41127095 -0.3731074 0.54330564
000050 e8 a1 5f be 03 80 15 bf 0d 79 43 bf 71 ab f0 bd
       -0.21839106 -0.58398455 -0.76356584 -0.1175145
000060 fd f2 d4 be 3b 6d 88 be 3f 4e 47 be 17 07 27 bf
       -0.41591635 -0.26645836 -0.19463442 -0.65245193
000070 1c ac 21 bf 31 14 0a bf 20 7c 0f bd f9 42 00 bf
       -0.63153243 -0.5393706 -0.035030484 -0.5010219
000080 1b 48 3f 3e 27 ef 77 be 7c b9 86 bd b2 d5 91 be
       0.1867985 -0.24212323 -0.06578347 -0.2848335
000090 a7 79 16 3d d0 9d 3a bd 66 f5 42 be 6f 69 f5 3e
       0.03673711 -0.045560658 -0.19038925 0.47932002
0000a0 2f 2b 94 3e a6 b0 20 3f 58 6a 29 3f cf df b0 bf
       0.28939196 0.62769544 0.6617789 -1.3818301
0000b0 b8 8c 77 3e 66 f5 43 bf 84 a0 22 c0 7b a7 c5 3f
       0.24174774 -0.76546323 -2.541047 1.5441736
0000c0 f2 d9 10 3e 89 fc a8 3f 03 e1 1a bf df 11 b6 bf
       0.1414564 1.3202068 -0.6049959 -1.4224204
0000d0 b5 08 cf bf ac ff 84 bf 78 bf b8 be cd c0 29 be
       -1.6174532 -1.0390525 -0.3608358 -0.16577454
0000e0 a1 db 22 3f 70 ae 0a c0 9d 05 1c 3f fb 3e 34 bf
       0.6361638 -2.1668968 0.60946065 -0.704086
0000f0 d8 83 3b bf ac 92 0e 3f 1a 9d 0e c0 36 8e 8c bf
       -0.7324805 0.55692554 -2.2283387 -1.0980899
000100 f4 03 38 3d 6b 78 dd be 92 39 12 bf fd 24 39 3d
       0.044925645 -0.43255934 -0.57119095 0.04520129
000110 70 79 06 bf d5 12 47 3f e9 f4 7e bf d7 81 96 bf
       -0.5252905 0.7776311 -0.99592453 -1.1758374
000120 e7 ad e6 bf 7f 93 ef be 30 42 44 bf a2 f5 fb bd
       -1.8021821 -0.46792218 -0.76663494 -0.1230271
000130 c8 7b 3f 3f 54 2d bf 3e 4d b2 f6 3e 4d d7 14 be
       0.7479825 0.3733927 0.48182908 -0.14535256
000140 26 07 17 bf 59 b5 b5 bf e3 42 5a bf c5 b2 4e bf
       -0.5899528 -1.4195968 -0.8525831 -0.8074153
000150 c0 52 b1 3e 27 34 dc bc 0b 0c c5 be 1a 22 c4 bf
       0.34633446 -0.026880337 -0.3848575 -1.5322907
000160 41 72 c2 bf c3 19 83 3f 9d 99 b3 be d5 42 7a be
       -1.5191118 1.0242237 -0.35078135 -0.24439557
000170 d4 55 73 bd 6c ad d1 be a1 be a7 bf 9a d6 0d 3e
       -0.059408024 -0.40952623 -1.310505 0.13851395
000180 9d 6c 36 3f 5e 2f b3 3e 1a 9e ff 3e 85 7d 91 be
       0.7125948 0.34997076 0.4992531 -0.28416076
000190 88 2d 35 bf cd cd af 3d 88 f4 04 c0 c8 b3 6a bf
       -0.707726 0.08584175 -2.077425 -0.91680574
0001a0 36 0e a8 3e 55 6d d0 be f4 90 82 bf d4 4c 89 bf
       0.32823342 -0.40708414 -1.0200486 -1.0726571
0001b0 e1 4f 3d bf e0 21 8c 3f 72 47 26 bf ac f7 2a bf
       -0.7395001 1.0947838 -0.64952767 -0.6678417
0001c0 87 16 41 bf aa d0 46 be 81 86 f1 be 7a ab d7 bd
       -0.75425 -0.19415537 -0.4717293 -0.105307534
0001d0 c2 80 a9 3f d5 91 1b 3f 62 06 e9 3e 92 c0 01 bf
       1.3242419 0.607694 0.45512682 -0.50684464
0001e0 77 df 5b bc 36 9c 0d c0 94 85 65 3f 7d f6 bc bf
       -0.013419977 -2.2126594 0.8965695 -1.4762722
0001f0 ac de 68 3c d0 c3 fd be 88 df 85 bd 5a 6b 76 3e
       0.014213245 -0.49563456 -0.06536776 0.24064389
000200 88 6b d1 be 38 76 8f 3f f9 fb f9 be b5 d1 d3 3d
       -0.40902352 1.1207952 -0.48825052 0.10342733
000210 12 6f c5 3e 08 1b 64 be a2 84 4f be f0 3f 20 3d
       0.38561302 -0.22275937 -0.20265439 0.039123476
000220 6e 65 52 3f e3 66 3f 3f 7b 7b f7 3d c7 1a 0b bf
       0.8218602 0.7476637 0.12084099 -0.54337734
000230 94 9d 65 3f 1f 68 fd 3e df 1a 1e 3f b8 69 c6 bf
       0.8969357 0.494935 0.6175975 -1.5501013
000240 5e 23 47 bf a4 b3 a4 bf 76 7a 6f bc 5f 44 7f 3f
       -0.7778834 -1.2867322 -0.014616599 0.997137
000250 a2 58 67 3f 2e c3 fc 3d 3e 0e 33 be 77 b4 47 bd
       0.9036962 0.12341915 -0.17485902 -0.04875609
000260 c5 bc de 3e bc 43 6a bf f7 d6 e6 3e 8c f3 a6 bf
       0.43503395 -0.91509604 0.4508588 -1.3043075
000270 2d 3b f7 bf 65 d5 a7 bd 6f 7e d1 bd 8d a3 22 3f
       -1.9314934 -0.08194999 -0.102291934 0.6353081
000280 e3 70 2a 3e 45 2f e5 bc 16 5f 13 3f 27 c7 77 bd
       0.16644625 -0.027976641 0.57566965 -0.06049266
000290 b8 be ac 3c 22 77 96 be 4e 76 1b be 08 4c 08 3e
       0.021087036 -0.29387766 -0.15181848 0.13310254
0002a0 7d 13 a3 bd d4 ed 2a be 60 25 23 bd 56 15 af bc
       -0.079627015 -0.16692287 -0.039830565 -0.021372478
0002b0 69 0a 01 bb f3 6e 33 be 87 ff 04 be b2 b6 9f 3d
       -0.0019690043 -0.17522793 -0.12988101 0.07798518
0002c0 06 29 ad be bb 4f a7 3d 40 23 df bd 3c 8f 88 3d
       -0.3382036 0.08169504 -0.10895395 0.06667945
0002d0 5e ee 1c 3e 61 a1 8f bd 8e 48 21 be 8d 3c 09 bf
       0.15325305 -0.070132025 -0.15750334 -0.5360802
0002e0 08 b3 f4 3d 72 25 3f bd 31 46 ac 3e 6d 94 d0 3e
       0.1194821 -0.04666657 0.33647302 0.4073824
0002f0 38 80 25 be fd 28 67 be 21 c7 05 3e 52 87 9d bb
       -0.16162193 -0.2257423 0.13064243 -0.004807391
000300 42 69 41 bf f1 e6 78 be ec 6b 9f be 35 e9 98 bd
       -0.75551236 -0.24306847 -0.31137025 -0.07466356
000310 69 2a 29 be 41 09 c0 be b7 51 d6 bd 60 ae fe 3d
       -0.16520084 -0.3750706 -0.104648046 0.12435603

layers.2.bias f4 [10]
000000 5a ae b0 be 77 e1 16 bf d8 36 ae 3f b3 88 0c 3f
       -0.3450802 -0.5893778 1.3610487 0.54896086
000010 a3 66 20 3f 66 c3 3e 3f 3d 98 46 3f d2 de f9 be
       0.6265661 0.74516904 0.7757605 -0.4880281
000020 3a f0 c3 be 1b d2 94 be
       -0.38269216 -0.29066548

layers.4.weight f4 [3, 10]
000000 e8 34 c7 3e e0 5c 13 3d d1 16 db be 36 4f 07 40
       0.38907552 0.035977244 -0.42790845 2.1142097
000010 12 30 02 bf 0b 43 df 3f 84 f7 b9 bf e1 e0 8c bf
       -0.508546 1.7442335 -1.4528661 -1.1006128
000020 ae 91 76 be e5 4e ab 3e 20 ed 29 3e 42 63 30 3f
       -0.2407901 0.3345863 0.16594362 0.68901455
000030 9a 11 f5 bf 07 28 c9 3b 31 96 a6 3f e0 e3 7c 3f
       -1.9145997 0.006138805 1.3014585 0.9878521
000040 a9 7b 22 3f 05 71 46 3f 04 10 61 be aa 70 3d be
       0.6346994 0.77516204 -0.21978766 -0.18500009
000050 47 81 f1 bc e1 a5 06 bc 8f 32 d8 b9 f2 ac 14 bb
       -0.02948059 -0.00821826 -0.000412364 -0.0022686091
000060 e9 9e 0d 3a a2 2c 07 3b f2 0d 07 3b b6 04 11 bb
       0.00054024026 0.0020625968 0.0020607677 -0.0022128052
000070 a1 3a 20 bc 72 d8 b3 3c
       -0.009779603 0.021953795

layers.4.bias f4 [3]
000000 b5 fa 5a 3e d1 de 7d 3d 16 2d 2e 3a
       0.213847 0.061980072 0.00066442916

exp_avg f4 [20, 4]
000000 15 f4 b5 3b ec c0 42 3b a1 29 06 3d b4 a5 96 bc
       0.0055527785 0.0029717041 0.032754544 -0.01838956
000010 0d 2c 8b bc db 26 5e bc 3e 5c 26 be 0b 6d 45 bd
       -0.016988778 -0.013559069 -0.16246125 -0.048199695
000020 97 60 ae bb e8 17 51 bb 7c ee d7 bc a3 3e 10 bd
       -0.005321573 -0.0031905118 -0.026358835 -0.035215985
000030 1f 7d cd ba 96 2d aa 39 7d 2c da 3c ff 8f e0 bc
       -0.0015677548 0.0003245889 0.026632542 -0.027412413
000040 ac d9 79 3b a2 02 1a 3b 97 c7 b2 3c 6b 0c c2 ba
       0.0038124127 0.0023500104 0.021823687 -0.0014804726
000050 a1 a6 91 3a 9a 5a ec 3a 58 82 de 3c 17 c8 a9 39
       0.0011112281 0.0018032372 0.027161762 0.0003238327
000060 02 99 c8 ba 2e 3c ac 3a e8 09 cf 3c d0 32 93 bb
       -0.0015304389 0.0013140494 0.025273278 -0.0044921413
000070 b2 7a bc 3b c3 ba fd 3a 09 81 f0 3c 97 73 48 bd
       0.005751931 0.0019358027 0.029358404 -0.04893836
000080 b8 33 32 3b ec d7 8f 39 a0 76 5f 3c 5d a0 0f bc
       0.0027191471 0.0002743596 0.013639122 -0.008766261
000090 e6 a0 04 3c 9d b9 a6 3b 6d 60 e5 3c 6b 7b ca 3c
       0.008095002 0.005088045 0.028000081 0.024717053
0000a0 c8 65 87 37 5a 86 89 b7 cd 70 c0 39 a3 d1 aa b7
       1.614065e-05 -1.6394235e-05 0.00036705137 -2.0363199e-05
0000b0 1b 87 19 3b 99 bd 5b 3b 21 f4 34 3d c5 17 df 3b
       0.0023426476 0.0033529757 0.044178132 0.0068082535
0000c0 fd 9b 96 bb 45 ed 94 bb 58 b3 0c bd fb 60 26 3d
       -0.004596232 -0.0045448863 -0.034350723 0.04061983
0000d0 8b 9e 0b bb 46 32 ec b9 67 42 a2 b9 ed e9 03 bc
       -0.0021304216 -0.00045050884 -0.0003094852 -0.008051378
0000e0 51 c5 e7 3a d1 b0 79 39 73 2f 5a 3c a9 06 bf b9
       0.0017682706 0.0002381236 0.013316977 -0.0003643532
0000f0 a4 16 51 3b 1f ce 34 3b 1e c0 0f 3d 49 a0 3e bc
       0.0031904364 0.0027588678 0.035095327 -0.011634895
000100 62 73 b2 b9 0c 65 1f bb 9e 2c 15 bd f4 44 17 3d
       -0.00034036773 -0.0024321703 -0.036419503 0.036930993
000110 08 d8 62 3b 8e 66 f9 3a 3d 4d d1 3c bb f6 8a 3c
       0.0034613628 0.0019027756 0.025549525 0.016963353
000120 17 0c 53 3a 21 21 ff 39 24 ed fc ba 9c 44 b0 3b
       0.0008050813 0.00048662073 -0.0019296748 0.0053792726
000130 d2 c2 68 b8 c5 ca 23 b8 09 a5 95 b9 3c e1 17 39
       -5.549455e-05 -3.9051072e-05 -0.00028542455 0.00014484389

exp_avg_sq f4 [20, 4]
000000 b6 43 55 39 bd 2c ef 38 62 44 21 3c 42 d2 12 3c
       0.00020338487 0.00011404741 0.009842964 0.008961262
000010 56 7d 97 3a 54 3b 34 3a e8 25 7d 3d 10 0f 90 3c
       0.0011557739 0.00068752957 0.06180373 0.017585307
000020 0e 49 a1 3a 81 98 13 3a 76 60 7a 3d 05 de 6e 3d
       0.0012305097 0.000563033 0.06112715 0.058317203
000030 e4 04 c5 3a cb a6 8a 3a 0c 34 91 3d 56 5e 62 3d
       0.0015031365 0.0010578273 0.07090005 0.055265747
000040 7e f9 43 39 e7 80 fa 38 6c ff 0d 3c fe ac 09 3c
       0.00018689592 0.00011944939 0.008666854 0.008403061
000050 76 5f ac 39 13 ee 80 39 91 aa 7e 3c ca b1 60 3c
       0.0003287752 0.00024591442 0.015543596 0.013714263
000060 0f 34 17 3a b1 68 c3 39 dc 93 e3 3c 86 ca 2e 3c
       0.000576795 0.000372713 0.027780466 0.010668403
000070 f1 b0 92 3a 4d 0c 38 3a ff e5 65 3d b6 50 f8 3c
       0.0011191649 0.0007020876 0.056127544 0.030311923
000080 fe 8e db 39 36 a2 88 39 7b 3b ab 3c 50 81 1d 3c
       0.00041877473 0.00026060798 0.020902386 0.00961335
000090 55 67 af 3a 96 4e 65 3a 19 03 80 3d 75 9e 3a 3d
       0.0013382236 0.0008747367 0.06250591 0.045561273
0000a0 10 b1 2f 34 1b 82 09 34 22 7e b3 36 cf 16 5f 36
       1.636256e-07 1.2806451e-07 5.3492995e-06 3.3242866e-06
0000b0 7f 2c d0 39 d5 09 41 39 80 bf 8a 3c 37 66 1a 3c
       0.00039706004 0.00018409577 0.016937017 0.009423784
0000c0 e7 b6 6c 3a b5 2e 0c 3a 5c 6a 23 3d 2c 9e 26 3d
       0.000902994 0.0005347536 0.039896354 0.04067819
0000d0 1d 48 44 39 62 87 18 39 65 e6 14 3c 38 33 c4 3b
       0.00018718881 0.00014546284 0.009088133 0.005987551
0000e0 12 d6 87 39 25 04 2a 39 72 87 4f 3c 0f e4 d2 3b
       0.000259087 0.00016214007 0.01266657 0.006435878
0000f0 73 fb 3c 39 39 b1 0c 39 59 55 0b 3c 08 53 32 3c
       0.0001802275 0.00013417461 0.008504235 0.010884054
000100 22 91 d9 3a 2e d8 7c 3a 03 f7 a0 3d 61 72 12 3d
       0.0016599039 0.00096452504 0.07859614 0.03575361
000110 21 9e 06 3a 1e 93 bc 39 53 75 04 3d e8 bc 1d 3c
       0.00051352574 0.00035967765 0.03233845 0.009627558
000120 ff 94 d6 39 06 17 89 39 fe 17 99 3c a6 e4 3b 3c
       0.00040928271 0.0002614783 0.018688198 0.011468088
000130 68 3e 3f 33 b0 ce 27 33 7a 99 e9 35 e6 aa eb 35
       4.452741e-08 3.90707e-08 1.740452e-06 1.7558602e-06

exp_avg f4 [20]
000000 92 2a 97 3c 61 da a7 bd ab 6f 39 bc 42 89 35 3c
       0.018452916 -0.08195949 -0.011318128 0.011080088
000010 7a 25 25 3c a1 c4 49 3c 7a e2 31 3c f0 5f 4a 3c
       0.010079736 0.012314946 0.010857219 0.012351975
000020 6a b0 e4 3b 1f ef 5d 3c 0f af 51 39 50 fc a8 3c
       0.006979038 0.01354578 0.00019997008 0.020628124
000030 c9 da 69 bc 8d e6 88 b9 52 1a ff 3b a3 39 85 3c
       -0.014273354 -0.00026111715 0.00778512 0.016262835
000040 c0 6a 8e bc 05 3a 67 3c 3b 2f f6 ba 2f 3f 08 b9
       -0.017384887 0.014112954 -0.0018782386 -0.00012993508

exp_avg_sq f4 [20]
000000 ca ce 2c 3b fc 02 85 3c 5d 61 86 3c 33 d1 8f 3c
       0.0026368373 0.016236775 0.016403848 0.017555809
000010 80 1b 0d 3b a1 06 7a 3b dd 39 e4 3b 4b 93 6f 3c
       0.0021531284 0.0038150924 0.0069649057 0.01462252
000020 29 c0 ac 3b 2c dd 7e 3c ab f7 a8 35 a6 3e 90 3b
       0.0052719307 0.015555661 1.2589056e-06 0.0044019995
000030 0b 7a 26 3c 4c c0 0b 3b d4 b4 51 3b be 09 09 3b
       0.010160933 0.0021324335 0.003199865 0.0020910348
000040 9a 3e a4 3c 0e 87 10 3c 09 75 9a 3b a6 84 e6 34
       0.020049382 0.008821262 0.0047136587 4.2937353e-07

exp_avg f4 [10, 20]
000000 06 fd 89 b5 a9 b1 a6 b8 e3 ed 19 38 ed 18 12 b4
       -1.0280935e-06 -7.9485886e-05 3.6699592e-05 -1.3606378e-07
000010 ea 7f 32 b7 a4 36 c8 36 86 fc 1e 38 3b 66 e2 b7
       -1.0639409e-05 5.9668255e-06 3.7905316e-05 -2.6988904e-05
000020 a2 07 d3 b7 63 32 57 b8 71 8e 4e 36 81 f6 64 38
       -2.5156714e-05 -5.130692e-05 3.0779304e-06 5.458901e-05
000030 2d ab 64 37 32 a3 0e 37 ac 2d 17 b7 75 f5 10 b7
       1.3629714e-05 8.501856e-06 -9.010935e-06 -8.640219e-06
000040 2d 1e 8b 36 76 2e 7b 38 22 a5 78 b8 67 3e f3 34
       4.1460357e-06 5.9886333e-05 -5.92816e-05 4.530768e-07
000050 f2 16 40 b8 06 b9 08 b9 9f 7a 82 38 14 ee 03 35
       -4.5797737e-05 -0.00013038897 6.221723e-05 4.914775e-07
000060 8a 15 11 39 f2 0c 00 38 de a1 5a 39 04 76 9c b8
       0.00013836302 3.0529634e-05 0.000208504 -7.460642e-05
000070 8a ca 04 b9 f1 94 28 37 27 3d aa 36 20 f0 0f 39
       -0.00012663953 1.0048258e-05 5.073514e-06 0.00013726996
000080 fe 6e 1c b9 8f 0f 91 38 97 a1 fa b8 4d 58 03 38
       -0.00014918667 6.917037e-05 -0.000119510274 3.131507e-05
000090 dc 14 51 39 7c 13 19 39 8a b8 3a b8 ae 95 74 b5
       0.00019939564 0.00014598476 -4.451772e-05 -9.1114896e-07
0000a0 1a 4d 28 3c 22 d7 1b 3d 2c 32 50 ba 8f 00 34 3c
       0.010272289 0.038046964 -0.00079420465 0.010986461
0000b0 82 13 8b b9 37 63 a3 3b 08 68 e0 ba dc 59 a1 3c
       -0.0002652668 0.0049861926 -0.0017120847 0.019696169
0000c0 06 b9 ed 3c 57 26 97 3c 3b ca 18 b9 c8 84 8b ba
       0.02901889 0.018450899 -0.00014571186 -0.001064443
0000d0 e9 87 ce 3c ec 43 e3 39 70 32 ca 3c e0 7f cb 3b
       0.025211291 0.0004334742 0.024682254 0.0062103122
0000e0 59 67 6f 3a 21 95 6a bb de 18 d3 3c 99 7b fa b8
       0.00091325265 -0.0035794454 0.025768694 -0.00011943951
0000f0 b5 5a c8 ba a4 79 32 bd ad ae 93 3a a3 68 5b bc
       -0.0015285822 -0.043573037 0.0011267267 -0.013391647
000100 82 d2 bf bc 62 51 20 bc 88 17 52 bc 43 d5 62 bc
       -0.023415808 -0.009785028 -0.012822993 -0.013844791
000110 01 cc 77 bc 7f 8d 2b bd 37 8b b7 39 0c 22 a9 ba
       -0.015124322 -0.041882988 0.00035008203 -0.0012903824
000120 91 fb 68 bb a7 bd 10 bc b3 0d 2c bc b0 e7 5a bc
       -0.0035550336 -0.008834279 -0.010501313 -0.013360903
000130 7a 8b 23 bd b8 b6 ad bb fe 9a 25 bd 10 ee b6 39
       -0.039927937 -0.005301323 -0.040431015 0.00034891116
000140 7a be 11 ba 89 ce 65 3c b5 af 22 3c f1 35 37 3c
       -0.0005559694 0.014026293 0.009929587 0.011182294
000150 ae ce 04 3d 1a 81 44 3c 0f 5c 29 3d 8b e9 06 3b
       0.032423668 0.011993671 0.04134756 0.002058598
000160 a8 ca 56 3a 77 ba c8 3c 45 42 8c b9 2d 85 cc 3c
       0.000819365 0.024502976 -0.00026752256 0.024965847
000170 8d 7c 9e ba 34 8d 66 3c da a2 cd b8 bd 06 70 3c
       -0.0012091562 0.014071751 -9.805495e-05 0.014650044
000180 67 aa 53 3d 67 9a df 3c 08 a7 a5 3c 03 11 a2 b9
       0.05167618 0.027295304 0.020221248 -0.00030911723
000190 41 39 21 bb 0b 7d 1d bd f3 e3 d9 ba df b5 3d bc
       -0.0024600776 -0.03844933 -0.001662372 -0.011579006
0001a0 b9 24 2f bc 0a d1 ea bb 0e 3c ab ba a9 f6 5b bc
       -0.010689908 -0.0071660327 -0.0013064162 -0.013425508
0001b0 e5 74 7e bc f9 89 f5 bc bd 32 7a 39 30 ef 4a 3b
       -0.0155307995 -0.029973017 0.0002386076 0.003096532
0001c0 82 c8 98 bb ec a4 a8 bb 84 cc 33 bc 83 8f 0a bc
       -0.0046625743 -0.0051466133 -0.010974053 -0.008457067
0001d0 62 60 91 bc 86 eb 81 3b 3f fa fb bc 07 93 69 39
       -0.017746154 0.003964844 -0.030758975 0.00022275384
0001e0 ad 4f 31 b8 de 9f 3d 3c 5f 43 0a bb 89 c5 b7 3a
       -4.2274292e-05 0.01157376 -0.0021097285 0.0014020662
0001f0 38 60 26 3c c5 74 e2 3a 98 cb 27 b9 24 c5 44 3a
       0.010154776 0.0017277232 -0.00016002206 0.0007506183
000200 a0 d0 02 39 68 25 7a 3c ca 11 00 b9 03 b6 9c bb
       0.00012475485 0.015267707 -0.00012213658 -0.0047824397
000210 74 5d f9 b9 9b 2c ae 39 93 5a 0f 39 aa e3 bc 3b
       -0.0004756261 0.000332211 0.00013671284 0.0057644444
000220 33 19 8d 3c 2b a9 38 3b e2 30 63 3c 7b 28 12 b9
       0.01722393 0.0028177004 0.013866635 -0.00013938725
000230 5f 14 da bb a3 07 84 bc 34 62 80 39 01 24 45 bb
       -0.0066552605 -0.016116923 0.0002448723 -0.0030081274
000240 55 c4 02 ba fc 23 ff ba d9 c4 ea 39 7b 53 19 bc
       -0.0004988362 -0.001946568 0.0004477862 -0.009358282
000250 cb b9 67 bc 2e 44 1d bc c4 59 80 38 fe bd a0 39
       -0.014143418 -0.009598775 6.120236e-05 0.00030659133
000260 e5 b6 6f bc 0e f7 98 b8 32 04 4a bc c0 34 29 bb
       -0.014631008 -7.293942e-05 -0.012330102 -0.0025818795
000270 62 a9 82 3a 0f ee 56 39 a8 b4 3b bc f0 4c 5d 38
       0.0009968693 0.00020497314 -0.011456646 5.276216e-05
000280 b9 e4 28 37 62 5e 8d 38 74 d4 0a b8 bf 67 11 b7
       1.0066834e-05 6.740984e-05 -3.3099626e-05 -8.666829e-06
000290 2a ae d8 b7 46 1f 83 b7 df fc 88 b8 8b b3 00 38
       -2.5830308e-05 -1.563098e-05 -6.532086e-05 3.068479e-05
0002a0 5e 7b 26 38 8b 55 c5 37 8a fa 47 b6 04 4c 7a b8
       3.969238e-05 2.3524064e-05 -2.9799144e-06 -5.967544e-05
0002b0 f3 7b c2 37 8d e9 b1 b7 bc 4e ee 37 c5 78 fa b6
       2.318432e-05 -2.12088e-05 2.8408474e-05 -7.46464e-06
0002c0 59 5b 3d b8 0a 62 89 b8 22 f8 1e 38 ec 74 f0 b2
       -4.5146186e-05 -6.55093e-05 3.7901227e-05 -2.7992847e-08
0002d0 b6 56 91 37 47 ff a3 b7 9f 6b 40 b6 d6 1e 4a b7
       1.7325725e-05 -1.9549987e-05 -2.8672873e-06 -1.2047318e-05
0002e0 2d 46 b3 b8 37 b4 94 b7 38 9d ab b8 a5 1d c2 36
       -8.5484564e-05 -1.7726894e-05 -8.1832e-05 5.7851016e-06
0002f0 7b e8 f3 37 25 61 7b b8 59 58 9e 34 7c 6e f0 b7
       2.9076115e-05 -5.9933536e-05 2.9494075e-07 -2.8661678e-05
000300 4e 11 90 38 c2 e6 06 b8 7b 86 24 38 8b 28 00 b8
       6.869678e-05 -3.2163e-05 3.922589e-05 -3.0555337e-05
000310 c1 11 e5 b8 d1 8e eb b7 86 34 34 b8 10 6a 7d 35
       -0.00010922878 -2.8080687e-05 -4.296426e-05 9.4404186e-07

exp_avg_sq f4 [10, 20]
000000 e3 06 83 33 f3 2a e7 34 b1 8e 77 35 74 d1 57 36
       6.1014156e-08 4.3058353e-07 9.2222314e-07 3.2159414e-06
000010 f8 12 0f 37 e7 ec 2a 36 a9 1f 9a 37 e3 fe ee 33
       8.527881e-06 2.546987e-06 1.8372973e-05 1.1129102e-07
000020 53 ce 79 34 af f6 23 36 44 f9 5c 30 73 a7 06 37
       2.3264992e-07 2.4432481e-06 8.038976e-10 8.02601e-06
000030 4d e5 a2 34 8e 42 30 36 9d 9b 76 34 c6 75 0c 36
       3.034169e-07 2.6264784e-06 2.2967147e-07 2.0930179e-06
000040 a1 72 9d 37 dc 10 2c 37 dc 86 e4 35 3d 04 25 30
       1.8769237e-05 1.0255924e-05 1.7026573e-06 6.0032673e-10
000050 41 47 c2 33 86 6f e0 34 96 c1 1b 35 47 42 a2 35
       9.04679e-08 4.1804395e-07 5.8023704e-07 1.208923e-06
000060 25 a3 3c 36 9f 8a 1a 35 65 9f bc 36 b2 2b c2 33
       2.8109146e-06 5.757119e-07 5.6213926e-06 9.041777e-08
000070 48 25 6a 34 a6 88 e9 35 6a 2c cd 2f 43 b5 7f 36
       2.1806511e-07 1.7399623e-06 3.732084e-10 3.810347e-06
000080 03 02 15 35 19 df 04 35 21 a2 a2 34 ce bc 28 35
       5.5509753e-07 4.949848e-07 3.0292816e-07 6.2859624e-07
000090 5b fc f7 36 ba 47 93 36 a1 8e a6 35 d7 56 73 2f
       7.3905517e-06 4.3892915e-06 1.2409474e-06 2.2131573e-10
0000a0 e5 c8 01 3b cd 63 8d 3c 6d eb 93 36 40 ce 6f 3b
       0.001980358 0.017259503 4.4083486e-06 0.003659144
0000b0 91 eb 29 3b 67 2d 00 3b 46 59 82 39 37 8c 9e 3b
       0.0025927762 0.0019558312 0.00024862046 0.0048384923
0000c0 34 25 17 3c 54 cb 48 3c 21 f4 51 35 db 71 59 37
       0.0092251785 0.012255508 7.821382e-07 1.2960717e-05
0000d0 2e 4c 12 3c 9d 4c 07 3a 28 03 02 3c b6 97 25 3b
       0.008929295 0.00051612576 0.007935323 0.0025267429
0000e0 92 09 4f 3b 91 ec 82 39 c6 fc 8e 3c 4d f2 3e 35
       0.0031591398 0.00024971788 0.017454516 7.113311e-07
0000f0 ed 17 d2 38 16 30 bb 3b bd c0 af 38 ce dd 1b 3b
       0.00010018037 0.0057125194 8.3805506e-05 0.002378333
000100 4e 1c a8 3b 1a 85 eb 3a bd f0 49 3b fc 6a 5d 3a
       0.0051303273 0.0017968745 0.0030813657 0.0008446423
000110 6d 82 a1 3a 4d 2c 0c 3c 3a eb 2c 35 25 c7 33 3a
       0.0012322195 0.008555484 6.441729e-07 0.0006857983
000120 46 bb a2 39 cb 8a 5a 3a 6b 80 7b 3a 5c 9b 14 3b
       0.00031038577 0.0008336722 0.0009594026 0.002267561
000130 59 79 0a 3c 46 c1 f5 3a e0 c1 03 3c e0 39 3e 35
       0.008451783 0.0018749617 0.008041829 7.0864735e-07
000140 38 1d 88 35 63 8d 1b 3a b9 72 3f 3a 3e bc b0 3a
       1.0141293e-06 0.0005933849 0.0007303167 0.0013483835
000150 ed 14 89 3b 2b 7d a1 3a 76 16 d1 3b de 21 04 38
       0.0041834028 0.0012320628 0.0063808514 3.1502794e-05
000160 5a bc c7 37 82 72 1f 3b f7 8f 88 34 84 3a 31 3b
       2.3810357e-05 0.0024329727 2.5436722e-07 0.0027042935
000170 69 2d 64 36 fa 68 74 3a 02 38 80 37 76 c5 a6 3a
       3.400108e-06 0.0009323504 1.528487e-05 0.0012723643
000180 2d 5e ee 3b 98 4f 55 3b 52 27 ce 3a f0 64 b2 34
       0.00727441 0.0032548662 0.0015728271 3.3228525e-07
000190 ea 47 b9 39 ae 8d ea 3b d4 40 45 3a b7 86 a5 3b
       0.0003533953 0.007158003 0.0007524614 0.0050514597
0001a0 86 9c 33 3c 7f f0 7a 3b 63 1a 2d 3c 1d 97 89 3a
       0.010962611 0.003829032 0.010565373 0.0010497306
0001b0 41 44 de 3a be 3a 49 3c 5b 57 85 35 f4 68 73 3b
       0.0016957597 0.012282072 9.934696e-07 0.0037141414
0001c0 0b 49 16 3a fb 89 14 3b 03 6a b8 3a f1 01 8e 3b
       0.000573293 0.002266525 0.001406968 0.0043337275
0001d0 2f ea 8d 3c b7 33 c4 3b fe 61 48 3c 71 8b a0 35
       0.017323582 0.00598761 0.012230394 1.1961512e-06
0001e0 7a ad db 35 51 a6 de 39 44 3b c2 3a 5e 1f f8 3a
       1.636726e-06 0.00042467055 0.0014818688 0.0018930247
0001f0 d6 0c f9 3b 75 eb 01 3b 5e a4 55 3c f0 9c d4 37
       0.007600407 0.0019824181 0.0130396765 2.534545e-05
000200 01 d5 7c 37 03 38 64 3b 45 b8 d5 34 52 84 bc 3b
       1.5069964e-05 0.0034823425 3.9808415e-07 0.0057530785
000210 bd c2 a9 36 99 04 e4 3a f9 b4 f0 36 30 ea 08 3b
       5.059263e-06 0.001739639 7.1736254e-06 0.002089154
000220 8a e7 55 3c eb 27 d7 3b df e1 e5 3a d4 36 0e 35
       0.0130556915 0.006566038 0.0017538628 5.297891e-07
000230 02 45 a2 3a 0e 64 f9 3b aa f7 09 36 4f 68 8c 3a
       0.0012380185 0.0076108044 2.055875e-06 0.0010712239
000240 06 d5 19 39 3d 82 e2 39 8d bf 17 36 06 08 29 3b
       0.00014670574 0.00043203114 2.261225e-06 0.0025792136
000250 4d 7c ab 3b d3 dd 82 3b ec 94 73 34 a7 81 02 36
       0.0052333237 0.0039937287 2.2685316e-07 1.9446977e-06
000260 f8 44 b9 3b fb 46 75 38 dc 76 94 3b 02 63 14 3a
       0.0056539737 5.8478658e-05 0.0045307707 0.0005660505
000270 0a c6 be 38 87 74 d8 35 d1 bf e1 3b 3c bd 31 34
       9.096794e-05 1.6127168e-06 0.0068893214 1.6553253e-07
000280 89 15 e2 34 05 cc 8a 35 a5 4c 5d 33 f0 59 54 35
       4.211145e-07 1.0341179e-06 5.152528e-08 7.910703e-07
000290 09 9d 74 34 21 70 ba 34 5f 76 42 34 f0 ab a9 34
       2.27814e-07 3.4726784e-07 1.8110721e-07 3.1603804e-07
0002a0 72 e4 46 35 1d e2 7d 35 d5 37 dd 30 f4 7e bd 33
       7.409318e-07 9.457888e-07 1.6095735e-09 8.824091e-08
0002b0 d7 58 ee 34 c0 de db 33 cf f7 1d 35 44 63 56 34
       4.4395594e-07 1.02385e-07 5.8847667e-07 1.9966416e-07
0002c0 1f a0 73 34 04 c5 3f 34 d6 6e e1 35 d9 c1 ac 2d
       2.268939e-07 1.7859935e-07 1.6796064e-06 1.9640222e-11
0002d0 68 4b ed 35 9d ea 88 36 20 ad b9 34 5f ba b1 35
       1.7679822e-06 4.0804284e-06 3.45849e-07 1.3241769e-06
0002e0 a5 68 3f 36 a4 cd a0 35 da df 3f 36 4c 90 10 36
       2.852213e-06 1.1980778e-06 2.8591517e-06 2.1541664e-06
0002f0 02 b3 45 36 91 b3 a5 36 b6 87 dc 2f f1 44 7e 35
       2.9459484e-06 4.9382875e-06 4.0114195e-10 9.4722697e-07
000300 ef 6b 3d 36 90 55 2e 35 f8 3d 12 36 2e 84 90 35
       2.822602e-06 6.494456e-07 2.1791766e-06 1.0767305e-06
000310 e2 8f 4c 36 fa 02 11 36 54 cd ea 36 ed 0b ac 2f
       3.048212e-06 2.1608416e-06 6.997647e-06 3.1295092e-10

exp_avg f4 [10]
000000 bb e6 31 b8 4b e9 5c 38 f1 63 57 3c 48 fa 09 bd
       -4.2414973e-05 5.266936e-05 0.0131463865 -0.033685952
000010 ee ea db 3c 02 33 bf bc ef 72 47 3c 36 ab 85 bb
       0.026845422 -0.023339752 0.012173398 -0.004079248
000020 5e fe 12 37 19 f0 9d b8
       8.761503e-06 -7.531065e-05

exp_avg_sq f4 [10]
000000 6d f0 7b 36 1c f7 ab 35 9f fe 9d 3b 5e 3f 8c 3b
       3.754186e-06 1.2812411e-06 0.004821613 0.004280015
000010 22 e3 f1 3a 06 75 dc 3b 7c dd 33 3b 1c 69 a2 3a
       0.0018454532 0.0067278175 0.0027445247 0.0012390944
000020 8a 21 77 34 ed c2 bb 35
       2.3015869e-07 1.3989317e-06

exp_avg f4 [3, 10]
000000 af 34 21 39 d8 f8 8f 39 d4 2a 42 bd 59 e8 0a bd
       0.00015373783 0.00027460488 -0.047404125 -0.03391299
000010 af ac 0c bc 77 e3 2c bd 1e ca 65 3c d9 6e 4b 3c
       -0.008586093 -0.042209115 0.014025239 0.012416565
000020 73 6e 25 39 1c 9c 2e b8 14 c5 ba b9 89 60 0e b9
       0.00015776772 -4.163022e-05 -0.0003562352 -0.00013578137
000030 05 95 c0 bc 02 08 98 3c ee ed 1a 3d 65 b1 24 3d
       -0.023508558 0.018558506 0.037824564 0.04020824
000040 32 94 60 3d 55 93 d4 bc 0d 49 21 b9 94 ad fc 38
       0.05482883 -0.02594916 -0.0001538137 0.00012048628
000050 fb 5b b6 3a e3 03 96 3a 1e 94 67 bc 12 47 0f bc
       0.001391291 0.001144525 -0.014134435 -0.008744972
000060 16 be 07 bd b5 f9 c7 bc a6 05 b2 bd 56 1d d9 bc
       -0.033140264 -0.024411062 -0.086924836 -0.026503246
000070 db 30 c3 39 d9 9c 17 3a
       0.00037229699 0.0005783565

exp_avg_sq f4 [3, 10]
000000 67 06 88 36 c5 80 70 36 a2 11 e7 3c fd a5 8d 3b
       4.053861e-06 3.583774e-06 0.02820665 0.004322766
000010 d8 a7 b3 3b 6f 6e 5d 3c 00 ea 87 3c e3 e4 54 3c
       0.005482655 0.013515099 0.016591072 0.012994024
000020 25 48 45 35 9c bc 1b 36 ae 74 5f 36 aa a7 5d 36
       7.3493203e-07 2.3206585e-06 3.3297506e-06 3.302916e-06
000030 5c 7a eb 3c 67 1b 88 3b 5f 98 af 3b 09 b7 50 3c
       0.028744869 0.0041536572 0.00535874 0.0127389515
000040 2f 00 80 3c f0 9b 4c 3c 3f b7 50 35 ca 83 2b 36
       0.015625088 0.01248835 7.7752696e-07 2.5557697e-06
000050 2b 03 1a 38 c9 17 02 38 3c 1f 2f 3e 9d c4 be 3c
       3.671941e-05 3.1016567e-05 0.17101759 0.023287112
000060 00 c3 03 3d 16 63 ad 3d 5f e2 b3 3d 6f a8 57 3d
       0.03216839 0.08466165 0.08783411 0.052650865
000070 88 14 f8 36 8d 56 bb 37
       7.393366e-06 2.233244e-05

exp_avg f4 [3]
000000 d0 ee 6a bc 3d 81 18 3c 7d d2 e3 bc
       -0.014339164 0.009308157 -0.02781033

exp_avg_sq f4 [3]
000000 76 fe 5f 3b 81 ab 54 3b ab 77 11 3d
       0.003417877 0.0032450857 0.035514515
