lightning_logs/version_0/checkpoints/epoch=7-step=64.ckpt (torch, 10635 bytes, 18 tensors)

layers.0.weight f4 [10, 4]
-0.44532633 -0.29166353 0.4538852 -0.17767489 0.3785173 0.012196573 -0.29635856 -0.3455786
-0.42282602 0.47780266 0.17843086 0.4346793 -0.3594308 0.14485407 -0.3236127 -0.38734084
0.20879734 -0.4464326 0.044304132 0.067783 0.36339718 -0.26685572 0.13969353 -0.25528967
0.12719405 -0.12554222 0.20652676 0.35470593 -0.2462755 0.4272313 -0.33216694 0.30666637
-0.18054998 0.10125679 0.16055208 -0.1989727 0.27087224 -0.30011952 0.4725392 -0.1318844
00000000: d001 e4be ec54 95be a463 e83e 68f0 35be
00000010: 05cd c13e 23d4 473c 4fbc 97be aeef b0be
00000020: a77c d8be 8da2 f43e 94b6 363e 498e de3e
00000030: 5007 b8be a054 143e 90b0 a5be 8a51 c6be
00000040: f8ce 553e d092 e4be 4078 353d d0d1 8a3d
00000050: 320f ba3e 50a1 88be d20b 0f3e 54b5 82be
00000060: 283f 023e 248e 00be c07b 533e 049c b53e
00000070: a52f 7cbe 10be da3e c911 aabe 6003 9d3e
00000080: 18e2 38be b85f cf3d c467 243e 80bf 4bbe
00000090: c4af 8a3e 44a9 99be a8f0 f13e b40c 07be

layers.0.bias f4 [10]
0.014088988 -0.29686847 -0.013810016 0.0031463504 -0.07911217 -0.14955392 -0.2807306 -0.0025986782
0.48092932 0.3000061
00000000: 80d5 663c 25ff 97be 6843 62bc 0033 4e3b
00000010: 9005 a2bd aa24 19be ecbb 8fbe 964e 2abb
00000020: 5e3c f63e 669a 993e

layers.2.weight f4 [5, 10]
0.2792225 0.0040178522 -1.2892472e-05 -0.06252947 0.12346574 -0.17214651 -0.0029138871 -0.122816026
-0.12038067 0.082150005 -0.14291094 0.07579542 -0.06503012 -0.08496516 0.09430493 0.2642444
-0.046929277 -0.10638626 -0.2409926 0.0030955127 0.025439072 -0.06281533 0.19988364 -0.21981168
0.2746623 -0.18222193 0.07071053 -0.102353185 -0.20808333 -0.21770447 -0.15157159 0.12136443
-0.16097523 -0.15434611 0.012620335 -0.06175016 0.1670181 0.16015922 -0.30040982 -0.042835012
0.26004085 -0.019247932 0.04153932 0.28298482 0.27865112 0.14731316 0.020104453 -0.14863351
-0.20340931 -0.31297645
00000000: 40f6 8e3e 30a8 833b bf4c 58b7 730f 80bd
00000010: 9bdb fc3d 2d47 30be eaf6 3ebb f886 fbbd
00000020: 248a f6bd 433e a83d 3f57 12be a13a 9b3d
00000030: 832e 85bd 3702 aebd f122 c13d 0b4b 873e
00000040: ea38 40bd 0ae1 d9bd c4c6 76be 16de 4a3b
00000050: 9a65 d03c 53a5 80bd 4cae 4c3e 5016 61be
00000060: 89a0 8c3e 6398 3abe afd0 903d 8c9e d1bd
00000070: cc13 55be eced 5ebe 9535 1bbe ea8d f83d
00000080: b1d6 24be e80c 1ebe 86c5 4e3c bced 7cbd
00000090: cb06 2b3e c700 243e 51cf 99be c473 2fbd
000000a0: 1324 853e d7ad 9dbc 2225 2a3d 63e3 903e
000000b0: 5cab 8e3e 43d9 163e 18b2 a43c 6233 18be
000000c0: 884a 50be 733e a0be

layers.2.bias f4 [5]
0.21655965 -0.13168283 0.11061383 -0.23960224 0.04132071
00000000: d0c1 5d3e ddd7 06be 8189 e23d 4a5a 75be
00000010: e83f 293d

layers.4.weight f4 [2, 5]
-0.0052476083 -0.39179555 0.024988407 0.39928055 0.002865041 0.1712109 -0.40992028 0.2205179
-0.23537534 0.18486154
00000000: 21f4 abbb 6d99 c8be 7db4 cc3c 806e cc3e
00000010: 69c3 3b3b e951 2f3e 12e1 d1be 72cf 613e
00000020: 3c06 71be 584c 3d3e

layers.4.bias f4 [2]
-0.3322878 -0.34704885
00000000: a021 aabe 63b0 b1be

exp_avg f4 [10, 4]
0.0 0.0 0.0 0.0 12.714487 15.591224 0.82941884 0.35862696
-14.518158 -17.802984 -0.9470796 -0.4095015 0.0 0.0 0.0 0.0
0.0 0.0 0.0 0.0 -5.1703277 -6.340149 -0.33728197 -0.14583513
0.0 0.0 0.0 0.0 16.417505 20.132076 1.070982 0.46307495
0.0 0.0 0.0 0.0 0.0 0.0 0.0 0.0
00000000: 0000 0000 0000 0000 0000 0000 0000 0000
00000010: 8a6e 4b41 a775 7941 cb54 543f f49d b73e
00000020: 604a 68c1 836c 8ec1 cf73 72bf 2eaa d1be
00000030: 0000 0000 0000 0000 0000 0000 0000 0000
00000040: 0000 0000 0000 0000 0000 0000 0000 0000
00000050: 5373 a5c0 80e2 cac0 39b0 acbe ce55 15be
00000060: 0000 0000 0000 0000 0000 0000 0000 0000
00000070: 0d57 8341 7e0e a141 f015 893f 2918 ed3e
00000080: 0000 0000 0000 0000 0000 0000 0000 0000
00000090: 0000 0000 0000 0000 0000 0000 0000 0000

exp_avg_sq f4 [10, 4]
0.0 0.0 0.0 0.0 25.411823 38.211876 0.10813984 0.020217333
13.560438 20.390896 0.05770635 0.010788516 0.0 0.0 0.0 0.0
0.0 0.0 0.0 0.0 14.400652 21.654325 0.061281867 0.011456977
0.0 0.0 0.0 0.0 24.390352 36.67589 0.103793 0.019404666
0.0 0.0 0.0 0.0 0.0 0.0 0.0 0.0
00000000: 0000 0000 0000 0000 0000 0000 0000 0000
00000010: 6a4b cb41 f6d8 1842 6c78 dd3d d29e a53c
00000020: 8ef7 5841 8e20 a341 7e5d 6c3d 51c2 303c
00000030: 0000 0000 0000 0000 0000 0000 0000 0000
00000040: 0000 0000 0000 0000 0000 0000 0000 0000
00000050: 1269 6641 0f3c ad41 b202 7b3d 0bb6 3b3c
00000060: 0000 0000 0000 0000 0000 0000 0000 0000
00000070: 711f c341 1db4 1242 6d91 d43d 89f6 9e3c
00000080: 0000 0000 0000 0000 0000 0000 0000 0000
00000090: 0000 0000 0000 0000 0000 0000 0000 0000

exp_avg f4 [10]
0.0 0.4928361 -0.5627495 0.0 0.0 -0.20041107 0.0 0.6363716
0.0 0.0
00000000: 0000 0000 0355 fc3e 5a10 10bf 0000 0000
00000010: 0000 0000 8f38 4dbe 0000 0000 40e9 223f
00000020: 0000 0000 0000 0000

exp_avg_sq f4 [10]
0.0 0.038180616 0.020374216 0.0 0.0 0.021636613 0.0 0.036645893
0.0 0.0
00000000: 0000 0000 4763 1c3d d4e7 a63c 0000 0000
00000010: 0000 0000 443f b13c 0000 0000 011a 163d
00000020: 0000 0000 0000 0000

exp_avg f4 [5, 10]
0.0 0.0 0.0 0.0 0.0 0.0 0.0 0.0
0.0 0.0 0.0 0.11452853 0.013753563 0.0 0.0 0.009298359
0.0 0.09982506 0.0 0.0 0.0 0.0 0.0 0.0
0.0 0.0 0.0 0.0 0.0 0.0 0.0 36.1129
15.924163 0.0 0.0 2.4937072 0.0 27.984926 0.0 0.0
0.0 0.0 0.0 0.0 0.0 0.0 0.0 0.0
0.0 0.0
00000000: 0000 0000 0000 0000 0000 0000 0000 0000
00000010: 0000 0000 0000 0000 0000 0000 0000 0000
00000020: 0000 0000 0000 0000 0000 0000 ef8d ea3d
00000030: a056 613c 0000 0000 0000 0000 2558 183c
00000040: 0000 0000 1571 cc3d 0000 0000 0000 0000
00000050: 0000 0000 0000 0000 0000 0000 0000 0000
00000060: 0000 0000 0000 0000 0000 0000 0000 0000
00000070: 0000 0000 0000 0000 0000 0000 9c73 1042
00000080: 5fc9 7e41 0000 0000 0000 0000 e698 1f40
00000090: 0000 0000 21e1 df41 0000 0000 0000 0000
000000a0: 0000 0000 0000 0000 0000 0000 0000 0000
000000b0: 0000 0000 0000 0000 0000 0000 0000 0000
000000c0: 0000 0000 0000 0000

exp_avg_sq f4 [5, 10]
0.0 0.0 0.0 0.0 0.0 0.0 0.0 0.0
0.0 0.0 0.0 41.084126 0.5664968 0.0 0.0 0.29431325
0.0 31.239496 0.0 0.0 0.0 0.0 0.0 0.0
0.0 0.0 0.0 0.0 0.0 0.0 0.0 138.02585
10.2675295 0.0 0.0 0.47096333 0.0 96.56514 0.0 0.0
0.0 0.0 0.0 0.0 0.0 0.0 0.0 0.0
0.0 0.0
00000000: 0000 0000 0000 0000 0000 0000 0000 0000
00000010: 0000 0000 0000 0000 0000 0000 0000 0000
00000020: 0000 0000 0000 0000 0000 0000 2556 2442
00000030: ef05 113f 0000 0000 0000 0000 3ab0 963e
00000040: 0000 0000 7dea f941 0000 0000 0000 0000
00000050: 0000 0000 0000 0000 0000 0000 0000 0000
00000060: 0000 0000 0000 0000 0000 0000 0000 0000
00000070: 0000 0000 0000 0000 0000 0000 9e06 0a43
00000080: cd47 2441 0000 0000 0000 0000 1b22 f13e
00000090: 0000 0000 5a21 c142 0000 0000 0000 0000
000000a0: 0000 0000 0000 0000 0000 0000 0000 0000
000000b0: 0000 0000 0000 0000 0000 0000 0000 0000
000000c0: 0000 0000 0000 0000

exp_avg f4 [5]
0.0 0.009622876 0.0 3.7905447 0.0
00000000: 0000 0000 44a9 1d3c 0000 0000 4998 7240
00000010: 0000 0000

exp_avg_sq f4 [5]
0.0 0.28833053 0.0 1.1952499 0.0
00000000: 0000 0000 0fa0 933e 0000 0000 f3fd 983f
00000010: 0000 0000

exp_avg f4 [2, 5]
0.0 0.0003768955 0.0 0.62513834 0.0 0.0 -0.004178783 0.0
-23.68364 0.0
00000000: 0000 0000 0f9a c539 0000 0000 1109 203f
00000010: 0000 0000 0000 0000 2cee 88bb 0000 0000
00000020: 1878 bdc1 0000 0000

exp_avg_sq f4 [2, 5]
0.0 0.0007633421 0.0 0.5847564 0.0 0.0 0.092699304 0.0
113.75194 0.0
00000000: 0000 0000 051b 483a 0000 0000 98b2 153f
00000010: 0000 0000 0000 0000 22d9 bd3d 0000 0000
00000020: fe80 e342 0000 0000

exp_avg f4 [2]
0.35071376 -15.0849695
00000000: c190 b33e 095c 71c1

exp_avg_sq f4 [2]
0.05144771 14.793884
00000000: d5ba 523d c0b3 6c41
