lightning_logs/version_20/checkpoints/epoch=0-step=1601.ckpt (torch, 13579 bytes, 18 tensors)

layers.0.weight f4 [20, 4]
00000000: 710c 58be bbba 603d 7870 523e 92e3 c33e
00000010: 3a97 51bf 5f39 903f 4e27 383d e68d cf3e
00000020: ecdf 023f 2cdd 88bc 34fc ce3e b1d1 3cbe
00000030: 871b 8bbe 9739 2b3f d50e d3be 9a7e e8be
00000040: 4140 7ebe 320b b53e 5d39 adbd 096b 33be
00000050: 7a8a 22be 691a d1be 92b8 a63e cdc9 ddbe
00000060: d540 903e 38db 29bf a3a6 a13c 48d1 b73e
00000070: 9efb 00be de88 db3e 326a 59bd 0935 873e
00000080: 2d7d 053f 959e fa3b 2f1a 8abe 26d4 afbd
00000090: 473f b1be 920a 91be 12f9 e2bc 2b29 e93d
000000a0: b631 663f 40ea 483f 5b96 05be 4f77 2d3e
000000b0: 1326 2d3f 0cdd af3e fe3c d2be 3bbd 363e
000000c0: 13c6 e6be f91d f63c c9b5 bebe 9fc8 09bf
000000d0: a67c b23e 87f4 9e3e fd2d 34bd af6d 5cbd
000000e0: cc3d eabe d052 b1be f5a8 a23e f7aa 643e
000000f0: 5df2 eebe d7b0 32bf e41e 993e 2251 ad3e
00000100: 4db6 453e d0dc b7be 04ed 85be 2749 8a3e
00000110: 3f7b b43b 65a6 c9bd c311 f9be 9ade 853d
00000120: 8c04 c83c 90dd 05bf 1608 dd3e 5ea3 cbbe
00000130: 170d 41be 6b96 b53e 8103 3abe 98d5 aabe
-0.21098496 0.05486558 0.20550716 0.3825956 -0.8187138 1.1267508 0.04495936 0.40537947
0.5112293 -0.016707025 0.4042679 -0.18439366 -0.2716944 0.6688475 -0.41222253 -0.4540909
-0.24829198 0.35360104 -0.08458207 -0.175213 -0.15873137 -0.40840462 0.3256269 -0.43318024
0.28174463 -0.66350126 0.019732779 0.35901856 -0.12595984 0.4287786 -0.05307979 0.2640765
0.5214413 0.007648299 -0.26973101 -0.08585386 -0.3461859 -0.28328377 -0.027706657 0.11384805
0.899196 0.7848244 -0.13045637 0.16940044 0.6763622 0.34348333 -0.41062158 0.17845623
-0.45072994 0.030043589 -0.37248066 -0.5382175 0.34860724 0.31045935 -0.04398917 -0.05381554
-0.45750272 -0.34633493 0.3176953 0.22330843 -0.46669284 -0.69801086 0.2990638 0.33850962
0.19307823 -0.35910654 -0.2615739 0.27008936 0.005507856 -0.0984619 -0.48646364 0.065365985
0.02441623 -0.522912 0.43170232 -0.39773077 -0.1885265 0.35466322 -0.18165399 -0.33366084

layers.0.bias f4 [20]
00000000: b4e2 b83c 9923 56be 7ead af3e 9908 59be
00000010: f55e 93bd 88a1 0abf a00b 883c 2e55 673e
00000020: 2529 5bbc 0847 213e a0ec 30be 9b75 86be
00000030: 6c10 9d3e ad73 a3be 475b ab3e fb18 15be
00000040: fd76 bb3d c3d0 08be f113 efbe 95f0 da3d
0.022569038 -0.20912017 0.34312052 -0.21194686 -0.07195846 -0.5415273 0.016607106 0.22591087
-0.013376509 0.15749753 -0.17277765 -0.262616 0.3067659 -0.3192419 0.33468077 -0.1456031
0.091535546 -0.13360886 -0.46694902 0.10690419

layers.2.weight f4 [10, 20]
00000000: 9a7c c43d f06b 323d 1daa 5ebe b08f 7f3e
00000010: 951a 4e3d 6c90 e03d 3d54 bcbd 4d92 86bd
00000020: 3998 adbd 8291 4f3d 3e37 713d b070 8b3e
00000030: a12c 42bd 9162 dfbd afd5 c13d 742e f63d
00000040: 41c6 823e f2be 873e c3e7 aa3d 7cb0 1f3e
00000050: 5099 633d 2106 87bd d5df c9bd 4262 f2bd
00000060: 67b5 8b3d 5737 253d 5404 153e 3cee 25bc
00000070: f8b4 44be 6800 8d3d ce35 a3be fdb7 bebd
00000080: 47d7 e73d c47f 3cbe d060 9b3d 784b 363e
00000090: 3116 3e3e 57de 2a3e ab83 fd3d 4743 50be
000000a0: b326 56bc a92d a3be c8c1 00bd 4eb4 8abc
000000b0: 1ffa c23c 0f7d efbd ed4a 663e 221d b1bd
000000c0: 8617 e73d 4246 b03c 075b 283e 7f9f d63d
000000d0: db7b 5fbd 0bc4 32be 076d 2b3e 331e 373e
000000e0: 59ca 203e 3901 d6bd dcd1 82be 8040 2cbe
000000f0: 31e3 e93c a006 eb3e 6286 26be 7eac a53d
00000100: 6282 063e 6dc0 6a3e 901c 6cbe 72fe 843e
00000110: 8877 93bd 94c5 de3c 5e31 2dbe d66f 03be
00000120: 0255 1dbe 54fc 9e3e cb94 2f3c 3e73 98bc
00000130: 550c 073e c9d2 f2bd 3fa6 303e 8850 8fbd
00000140: a072 833e fa00 1fbe 8ed1 323e 35a6 83be
00000150: 2fd5 d83c 7a27 0ebd 0a05 01bd dc8c 0d3e
00000160: 001d 08bc 8226 253e a6eb 563e 2572 ecbc
00000170: d41b a7bc 656f 613d f845 c23d dd74 8fbd
00000180: 31e6 323e f7ab 29be 1c79 ee3d c0fa 25be
00000190: 9c2b a83d 67dd de3d 9a6b c6bd a528 5dbe
000001a0: a062 86bb 90a5 c4bd efe6 863e e6b6 d7bd
000001b0: 1238 2e3d 9458 0e3e 11e8 683e d6e0 91be
000001c0: d4c6 a23d 0715 36bd 3330 62bd 9f52 423d
000001d0: 08bc 64bd 255f 7dbe 250c a63c 8aa2 6bbe
000001e0: 27cc 2b3d c8dc f438 a7f5 4fbd e8e6 013c
000001f0: 6544 e53d c6ba 933d 9d6e 58bd 5f18 e2bd
00000200: 6942 e1bd 7d1b 8e3c ae3b a8bb d432 0cbe
00000210: 35f2 693e 5e96 9b3d 5a1f ad3d 8f69 36bc
00000220: b49a cd3c 15f7 f93d 11f7 18be cffd 433e
00000230: 796b b53b aaa6 85be f1f9 66be 2ee4 703e
00000240: 3559 c5bd 7bad f8bd 37ee 483d ec4d 1abe
00000250: 6bda 0c3e d6f0 513e 7c4d cc3d b0b7 413e
00000260: d171 bc3d 0acf 1fbd 9276 02be 4981 923d
00000270: ed4d 47be 65c2 d53d fa54 f93d 5a64 aebd
00000280: 92f2 a63b 9f56 2b3f 6c80 81be a877 e1bd
00000290: 1b1e 033e 51d0 a03e c727 40be 40c3 653e
000002a0: 9302 0cbe 0c89 40be 25ba abbc 178a 39bd
000002b0: 2ffd 183e 50dc 303e 32f9 d7bc eb9e 07bd
000002c0: ef24 abbd f89b 29be 4f38 2abd b139 183e
000002d0: 45be 30be ab7d cbbe ce9a 68bd 3c17 54be
000002e0: 7e51 98bb d284 83be fd22 5c3e 99e1 74be
000002f0: 82bf acbd 19e9 81bd b2a7 b93e b7d3 5b3c
00000300: f30c 323e 1c16 f13c 65e1 073e 0573 133e
00000310: 3210 923d d7b1 d43c 4655 13be c098 85bd
0.09594078 0.04355997 -0.2174458 0.24957156 0.05031832 0.10965046 -0.09195755 -0.065708734
-0.084763 0.050675876 0.058890574 0.2723441 -0.047405843 -0.10907472 0.09464585 0.12020579
0.2554188 0.26512867 0.08344986 0.15594667 0.055566132 -0.06592966 -0.09857146 -0.118351474
0.06821709 0.04033598 0.14552432 -0.0101276 -0.19209659 0.06884843 -0.31876987 -0.09312437
0.11320358 -0.18408114 0.07586825 0.17802227 0.18563153 0.16686378 0.12378629 -0.20338164
-0.01307075 -0.31870773 -0.031434804 -0.01693168 0.023800908 -0.11693775 0.2248952 -0.08648135
0.112837836 0.021517877 0.16440974 0.1047964 -0.054561477 -0.17457597 0.1674081 0.17882614
0.1570219 -0.10449452 -0.25550735 -0.1682148 0.028550716 0.45903492 -0.162622 0.08089541
0.13135675 0.22924967 -0.2305777 0.25975376 -0.07200533 0.027193822 -0.16913363 -0.12835631
-0.15364459 0.31051886 0.010716627 -0.01860964 0.13188298 -0.1185661 0.17250918 -0.06997782
0.2567339 -0.15527716 0.17462751 -0.25712743 0.026468841 -0.034705617 -0.031498946 0.13823265
-0.008307695 0.16127971 0.2098833 -0.028863022 -0.020399012 0.055037875 0.09486002 -0.07004712
0.17470624 -0.16569506 0.116441935 -0.16208935 0.08211443 0.10882073 -0.09688492 -0.21597536
-0.0041011125 -0.09601891 0.26348063 -0.10532932 0.04253394 0.13900977 0.22744776 -0.2849185
0.0794808 -0.044453647 -0.055221748 0.047442075 -0.055843383 -0.24743326 0.020269463 -0.23011222
0.04194274 0.000116759504 -0.05077138 0.0079285875 0.11194686 0.072133586 -0.052839864 -0.11039805
-0.10998995 0.017347092 -0.0051340675 -0.13691264 0.22846301 0.0759704 0.084532455 -0.011133566
0.025098182 0.1220533 -0.14937998 0.19139789 0.0055364934 -0.26103717 -0.22556283 0.23524544
-0.096361555 -0.12142464 0.049055304 -0.15068787 0.13755195 0.20502028 0.099757165 0.18917727
0.09201396 -0.039015807 -0.12740543 0.071535654 -0.1946332 0.104374684 0.12174411 -0.08515234
0.0050948346 0.6692905 -0.2529329 -0.11009151 0.12804453 0.31408933 -0.18765174 0.22437763
-0.13672857 -0.18802279 -0.020962784 -0.04529771 0.14940332 0.17271543 -0.026363943 -0.03311054
-0.08356654 -0.16563404 -0.041557606 0.14865758 -0.17260082 -0.39744315 -0.05678826 -0.20711988
-0.0046483865 -0.2568727 0.21497722 -0.23914184 -0.08434965 -0.06343288 0.36260754 0.013417176
0.17387752 0.029429488 0.13269575 0.14399345 0.07131995 0.025963707 -0.14387998 -0.065232754

layers.2.bias f4 [10]
00000000: aaf6 e2bd 59ec a0bd 1614 c4bb aaa5 1bbe
00000010: 08e6 8cbd 5aea fcbd aa64 eb3d 7a03 1b3e
00000020: 3978 81be aed2 633e
-0.11082204 -0.0785758 -0.0059838397 -0.15199915 -0.068798125 -0.123493865 0.114938095 0.15138045
-0.25287035 0.22248337

layers.4.weight f4 [2, 10]
00000000: c9f6 61bd c300 91bc c769 c43d b5ff 87bd
00000010: 93cb 2f3e 73ff ec3d 845d 32be 9182 1f3c
00000020: 3a1c 9bbd d28e 50bc 512b 603e 343d 8abe
00000030: 5010 23bd 86a1 aa3e 5b6f 6f3c 101d c93c
00000040: a04d df3d b8bc ddbb 46b8 933e 41f9 b2be
-0.055166993 -0.017700559 0.09590488 -0.06640569 0.17167501 0.115721606 -0.17418486 0.009735719
-0.07573743 -0.0127293635 0.21891524 -0.2699982 -0.03981048 0.33326358 0.014613952 0.02454999
0.10903478 -0.006766882 0.28851527 -0.3495579

layers.4.bias f4 [2]
00000000: 00e4 5ebd fe87 c93d
-0.054416656 0.098403916

exp_avg f4 [20, 4]
00000000: eee5 2235 2303 0935 cca7 9536 53b4 7536
00000010: 0be0 18b6 b2b4 ffb5 abff e7b7 4d5f 42b7
00000020: 2dfb 4334 6407 7d34 5b29 7b36 d503 5236
00000030: 942c a4b2 eb1c 88b2 bf28 5fb4 f184 c4b3
00000040: 3955 beaf 1ca4 53b0 d1e9 afb2 95e0 5ab2
00000050: 32c5 28b2 5bc1 14b2 f290 16b4 7182 78b3
00000060: e93e e435 8716 b435 ebae 9937 bd6f f236
00000070: 0c4d 7b34 6958 7c34 baed b335 e7ab 2c36
00000080: a932 8bb1 8b03 1bb1 d027 2bb2 1a7f 4032
00000090: 5989 fd34 4069 9a34 b4cf a036 6457 5b36
000000a0: 0da3 b733 551c feb4 612f bf36 84ac 8c36
000000b0: 7b44 3331 15ae 4331 5bb9 6333 95e1 0533
000000c0: 1449 3bb1 f032 5fb1 d372 4ab3 55f5 34b3
000000d0: bf99 66b2 c2fc 32b2 41ad fcb3 35b7 5cb3
000000e0: a878 7c35 9e1c 4b35 54a0 2837 c478 8a36
000000f0: fdd2 b035 31ed 8735 26e3 5337 d4cc 9536
00000100: 67b9 9c32 281f 7b32 07b0 3c34 d63a ab33
00000110: 123d 9cb1 6eb8 afb1 bade b9b3 04df 7cb3
00000120: 83c6 7cb4 5bda 13b2 741d 37b6 78cd 5bb5
00000130: 97c6 f1b2 3f0c c7b2 d76e 9bb4 baa3 12b4
6.0684295e-07 5.104104e-07 4.46008e-06 3.6612807e-06 -2.2780175e-06 -1.905157e-06 -2.76564e-05 -1.158549e-05
1.8252167e-07 2.356515e-07 3.7425987e-06 3.129467e-06 -1.9112385e-08 -1.5845634e-08 -2.0783317e-07 -9.151143e-08
-3.4621353e-10 -7.6994566e-10 -2.0479009e-08 -1.2740334e-08 -9.823724e-09 -8.658698e-09 -1.402257e-07 -5.7860635e-08
1.7005633e-06 1.3417601e-06 1.8320474e-05 7.22517e-06 2.3404226e-07 2.3501492e-07 1.3405727e-06 2.5730058e-06
-4.051192e-09 -2.2557483e-09 -9.962562e-09 1.12047704e-08 4.7224856e-07 2.8761315e-07 4.7925514e-06 3.268441e-06
8.55126e-08 -4.73318e-07 5.697759e-06 4.1924086e-06 2.6086855e-09 2.8475189e-09 5.3021136e-08 3.117164e-08
-2.7253622e-09 -3.2479726e-09 -4.7136222e-08 -4.2132644e-08 -1.342272e-08 -1.0418434e-08 -1.1766179e-07 -5.1389367e-08
9.4052893e-07 7.5665037e-07 1.005091e-05 4.1267795e-06 1.3174428e-06 1.0127316e-06 1.2629467e-05 4.464391e-06
1.8245101e-08 1.4617207e-08 1.7572903e-07 7.97351e-08 -4.5471404e-09 -5.1141376e-09 -8.6552475e-08 -5.8876154e-08
-2.3541547e-07 -8.606174e-09 -2.728627e-06 -8.1882854e-07 -2.81464e-08 -2.3172218e-08 -2.8951646e-07 -1.3656873e-07

exp_avg_sq f4 [20, 4]
00000000: ed66 c431 6939 a631 1f0c 9d35 c282 3e34
00000010: 6e93 5530 c057 5a30 6bf6 0934 e257 ca32
00000020: 2622 dd31 98a5 c331 6827 b135 5f28 5334
00000030: f1d0 832b 4858 682b 4706 492f 381e ef2d
00000040: c700 e52c df04 992d 0984 3430 efa0 c02e
00000050: 39ad 0f30 6436 b82f 7ff7 f733 675d 3032
00000060: ca7b 0f31 addd 0831 cfe5 dc34 5675 8833
00000070: 3b9e d931 ce86 bd31 8a75 af35 7660 4b34
00000080: bec0 0c2c 5183 012c 70a7 e52f 34ad 8b2e
00000090: 28a7 aa31 c977 8e31 606c 8635 19dc 2134
000000a0: 154f 152f dcc6 282f 1684 a831 bfa4 6a30
000000b0: c57a 5b2a e7e5 462a e6a1 342e 2288 d62c
000000c0: 8ce0 e02a 776f bb2a bf66 bc2e 0b97 572d
000000d0: 2317 ef2e dced ee2e ba65 6e32 aaca 4031
000000e0: 3ef8 4232 aef3 3232 b037 1c36 ba83 c134
000000f0: 78cc 3932 a0d6 2e32 171f 1436 d49f b734
00000100: 3df6 1b29 5d9b 0829 d0ff 022d 776c a62b
00000110: 801a 0e2c 59a5 f92b e20b e32f c70d 872e
00000120: d436 4a32 5177 1e32 ebbd 1936 8b8f 9134
00000130: 14c5 4f2c 2448 312c b58d 2030 919f bb2e
5.716052e-09 4.8377626e-09 1.1700939e-06 1.7742698e-07 7.769846e-10 7.943264e-10 1.2848766e-07 2.355586e-08
6.4358288e-09 5.6940728e-09 1.3198996e-06 1.9665593e-07 9.366103e-13 8.254547e-13 1.8283074e-10 2.7184574e-11
6.5086578e-12 1.739625e-11 6.567125e-10 8.759737e-11 5.226926e-10 3.3508052e-10 1.1546853e-07 1.02657856e-08
2.0879605e-09 1.9916613e-09 4.11454e-07 6.354337e-08 6.33352e-09 5.5159495e-09 1.3072724e-06 1.894094e-07
2.000219e-12 1.8404898e-12 4.177383e-10 6.351755e-11 4.9666546e-09 4.146362e-09 1.0015319e-06 1.5074365e-07
1.3579567e-10 1.535016e-10 4.90446e-09 8.536282e-10 1.9493702e-13 1.7665696e-13 4.1071056e-11 6.0973596e-12
3.9946204e-13 3.3295217e-13 8.5675016e-11 1.2254873e-11 1.08725716e-10 1.0865239e-10 1.3876553e-08 2.8054878e-09
1.134873e-08 1.041637e-08 2.3278226e-06 3.6044895e-07 1.0814908e-08 1.0176933e-08 2.2071815e-06 3.4202696e-07
3.463049e-14 3.0332822e-14 7.446446e-12 1.1825114e-12 2.0194124e-12 1.7738407e-12 4.1299503e-10 6.1415366e-11
1.1770414e-08 9.22394e-09 2.2909323e-06 2.7112796e-07 2.952587e-12 2.519326e-12 5.840904e-10 8.53212e-11

exp_avg f4 [20]
00000000: 32ef 3136 0f07 84b7 b9d1 1836 dff9 fdb3
00000010: 46a1 51b2 d2ab abb3 f606 2e37 b51c 7435
00000020: fd90 85b1 3114 4136 44e4 7f36 29d2 0533
00000030: ded1 f7b2 86fd 8eb3 be39 bf36 0781 ed36
00000040: 9e94 d633 5a4a 5db3 ab22 e8b5 367f 31b4
2.6514285e-06 -1.5738913e-05 2.277184e-06 -1.1826682e-07 -1.22020705e-08 -7.994062e-08 1.0372829e-05 9.093886e-07
-3.8872927e-09 2.8770994e-06 3.813083e-06 3.1157615e-08 -2.8850021e-08 -6.658506e-08 5.6989657e-06 7.078171e-06
9.992185e-08 -5.1523195e-08 -1.7295437e-06 -1.6530689e-07

exp_avg_sq f4 [20]
00000000: aea5 d634 d0ef 3933 52d3 f034 e875 882e
00000010: 0c07 3a2f ceee 2e33 8d03 1534 4d52 ef34
00000020: b3a4 1b2f c799 b734 044f b530 67c4 752d
00000030: 5070 012e 1f60 9a31 4285 5335 1308 4835
00000040: 9225 352c 0865 1a2f 8ad8 5235 0c82 5a2f
3.9981154e-07 4.3291777e-08 4.485724e-07 6.205508e-11 1.6919105e-10 4.0729724e-08 1.3877998e-07 4.45771e-07
1.4155681e-10 3.4198294e-07 1.3191941e-09 1.3970248e-11 2.9430958e-11 4.4929176e-09 7.879754e-07 7.4517556e-07
2.5742503e-12 1.4042112e-10 7.85462e-07 1.9873186e-10

exp_avg f4 [10, 20]
00000000: a906 f9b3 9edf 03b3 0659 42b4 037c 1931
00000010: 60d4 2930 97a5 2d30 eef1 55b3 ad65 8ab3
00000020: ea87 7030 c023 76b2 ea16 1932 838c b630
00000030: ad42 c630 90f0 3030 70e6 3ab4 133e bcb3
00000040: 5241 ba2f 00cb ef30 9185 43b2 5210 5b30
00000050: 8d67 3d37 70c5 1d36 f762 ac37 9e75 73b4
00000060: c133 88b3 040c 8db3 13e9 9436 dcea db36
00000070: 31f9 acb3 802c 4f35 d7e0 b435 5d62 06b4
00000080: 3b41 26b4 c1e9 6bb3 0f4d 8b37 243f e936
00000090: 8309 34b3 7d7f 49b4 1a1a 5035 4805 aab3
000000a0: a77b 2b37 a3fd 7536 1d34 6637 8917 4ab4
000000b0: 4017 67b3 4b09 8cb3 799d a536 c156 c836
000000c0: 5594 95b3 e417 e035 9833 aab3 f828 cfb3
000000d0: a51a 0bb4 ba1c 5db3 9412 6e37 ee13 0037
000000e0: e798 99b2 b342 10b4 bb97 e734 a4d6 9ab3
000000f0: 2418 2cb4 3f35 2db3 d0b9 88b4 f86a 5531
00000100: 7d3e 6b30 64b3 6a30 ffb2 91b3 7cf0 bdb3
00000110: 2d55 a830 a4b1 a3b2 d41f 6d32 6e18 0131
00000120: 84a1 0831 5ec9 7730 6b79 82b4 6d6d 02b4
00000130: f82a 0730 3365 2831 53d5 90b2 d4eb 9630
00000140: 0ae6 8637 17d1 d336 0e9f ad37 648c 9cb4
00000150: b12f b4b3 0032 e5b3 696e 0437 8c59 2037
00000160: 2753 e4b3 f576 3a36 70b5 9f34 e2f8 18b4
00000170: 8b60 5cb4 4c7a a7b3 2e90 b637 bccd 4637
00000180: 2466 cdb2 a9ba 5ab4 10aa db34 7563 f4b3
00000190: 8a16 de33 77fb 3233 5765 0c34 1435 00b1
000001a0: 4812 14b0 5466 3fb0 b654 5c33 dcac 8433
000001b0: 00c3 39b0 a6b1 9c32 e888 3431 e3bd 75b0
000001c0: 8dcd b5b0 6733 08b0 25ec 1434 2956 a333
000001d0: a08b 1baf e840 b1b0 4e1c 0e31 fead 49b0
000001e0: 7414 a6b7 ef88 e9b6 a34f e4b7 e493 c434
000001f0: d657 df33 7df7 0434 c98a 1cb7 cd49 41b7
00000200: bdea 1234 a64f 50b6 5f6f 8534 ecff 4d34
00000210: 2390 8634 0ebc d733 b99e e8b7 62d0 76b7
00000220: b87e 2533 4fbd 8e34 443c 82b5 eb0e 1534
00000230: b053 4132 e6a5 8631 2a8d 8532 b12f 65af
00000240: 0011 82ae ce08 9aae 77a4 b531 2b9d e031
00000250: bb9b abae 4e98 f030 3174 3aaf c06e f1ae
00000260: b288 1caf ce07 7cae fdc1 8732 36c2 0f32
00000270: 6b34 c4ad 38e6 26af 0154 1d30 6d63 adae
00000280: 64f0 27b4 fa36 33b3 ecb1 82b4 3dd3 4e31
00000290: 96ff 6430 d117 6b30 3e9f 90b3 9be3 bab3
000002a0: 3ce3 a130 7897 a7b2 9018 4932 c457 f530
000002b0: f2bd 0531 e23a 6e30 c0b4 7bb4 65cd fdb3
000002c0: 812c f92f c44b 2131 3fc3 81b2 facb 9330
000002d0: 1f64 1437 f9d3 9835 1328 8937 eb49 42b4
000002e0: 3f09 4fb3 a99e 1fb3 3268 5936 b5d5 9836
000002f0: 7dfe a1b3 d9bd 2d35 adcf d2b5 86c3 06b4
00000300: 51b2 e5b3 c950 6fb3 23f2 7537 649b e636
00000310: 10ed 27b3 6397 26b4 e0c3 ce35 8e0c 7db3
-1.15961775e-07 -3.0704193e-08 -1.8100044e-07 2.2334923e-09 6.1783645e-10 6.317235e-10 -4.981296e-08 -6.4446205e-08
8.7504637e-10 -1.4327213e-08 8.910982e-09 1.3282179e-09 1.4425346e-09 6.4370287e-10 -1.7406433e-07 -8.7657234e-08
3.3879616e-10 1.7447235e-09 -1.1380863e-08 7.969493e-10 1.1289388e-05 2.3509747e-06 2.0550082e-05 -2.2673927e-07
-6.3424075e-08 -6.56801e-08 4.437877e-06 6.55405e-06 -8.054702e-08 7.7178265e-07 1.3476482e-06 -1.2515507e-07
-1.5483685e-07 -5.49278e-08 1.6605974e-05 6.9512917e-06 -4.1918167e-08 -1.8765964e-07 7.752402e-07 -7.9172025e-08
1.0221184e-05 3.665548e-06 1.3721202e-05 -1.8821278e-07 -5.3805024e-08 -6.5209484e-08 4.9357154e-06 5.970564e-06
-6.9653346e-08 1.6696254e-06 -7.925627e-08 -9.646641e-08 -1.2955077e-07 -5.14817e-08 1.4190231e-05 7.634035e-06
-1.7881076e-08 -1.343531e-07 4.31375e-07 -7.210227e-08 -1.602753e-07 -4.032813e-08 -2.546717e-07 3.1056384e-09
8.5581303e-10 8.5383633e-10 -6.784648e-08 -8.844742e-08 1.2247817e-09 -1.9056479e-08 1.38024525e-08 1.8785857e-09
1.9882416e-09 9.0144237e-10 -2.430273e-07 -1.2147002e-07 4.9173776e-10 2.4504743e-09 -1.6860815e-08 1.0980963e-09
1.6081165e-05 6.3126313e-06 2.0697273e-05 -2.9159412e-07 -8.390578e-08 -1.06727384e-07 7.89352e-06 9.557592e-06
-1.0632203e-07 2.7785402e-06 2.974807e-07 -1.4246646e-07 -2.0524219e-07 -7.798789e-08 2.176323e-05 1.1849621e-05
-2.391159e-08 -2.0370739e-07 4.0915666e-07 -1.13802265e-07 1.03417804e-07 4.167256e-08 1.3075383e-07 -1.8656623e-09
-5.3868066e-10 -6.963081e-10 5.1299786e-08 6.178172e-08 -6.757972e-10 1.8241575e-08 2.627127e-09 -8.9400326e-10
-1.3227904e-09 -4.954956e-10 1.3869483e-07 7.6059514e-08 -1.4146773e-10 -1.2896892e-09 2.067981e-09 -7.337063e-10
-1.9798266e-05 -6.9598823e-06 -2.7216802e-05 3.661545e-07 1.0400224e-07 1.2383494e-07 -9.330638e-06 -1.15208795e-05
1.3682707e-07 -3.1040777e-06 2.4854214e-07 1.9185217e-07 2.5064318e-07 1.00459246e-07 -2.7730466e-05 -1.47112605e-05
3.8532306e-08 2.65873e-07 -9.703294e-07 1.3882133e-07 1.1253107e-08 3.9187737e-09 1.5547432e-08 -2.0844372e-10
-5.9147354e-11 -7.004673e-11 5.286491e-09 6.537126e-09 -7.803843e-11 1.7505586e-09 -1.6957881e-10 -1.0979084e-10
-1.4236681e-10 -5.7305098e-11 1.5804284e-08 8.367854e-09 -2.2305898e-11 -1.5179402e-10 5.7235644e-10 -7.884791e-11
-1.564054e-07 -4.1726686e-08 -2.4343842e-07 3.009702e-09 8.3309126e-10 8.5526347e-10 -6.7344885e-08 -8.702701e-08
1.1778876e-09 -1.9510239e-08 1.1705325e-08 1.7851041e-09 1.9462019e-09 8.6667573e-10 -2.3441953e-07 -1.18185916e-07
4.5324458e-10 2.3471651e-09 -1.5106364e-08 1.0753631e-09 8.844799e-06 1.1386575e-06 1.6350334e-05 -1.8094549e-07
-4.8204353e-08 -3.7164373e-08 3.239617e-06 4.554832e-06 -7.543438e-08 6.4723787e-07 -1.5706661e-06 -1.2550854e-07
-1.0696079e-07 -5.5719998e-08 1.4659515e-05 6.872624e-06 -3.9098325e-08 -1.5515029e-07 1.5405203e-06 -5.891757e-08

exp_avg_sq f4 [10, 20]
00000000: 27cb 1437 59ca 9830 2697 ca36 4507 8f30
00000010: 3a2a 6b2e 5e3f 1231 4ce4 f335 2acd 1935
00000020: ccec 0930 715b 0b36 7e8a 202f 8181 7830
00000030: 5f0a ed2f 1959 9b2e 3e41 7137 28a3 d936
00000040: f099 ec2f 9f99 1330 0049 3b33 1a80 d62e
00000050: 585d 9035 64c0 3e32 2a1a 9635 1898 422f
00000060: 68f9 d82c 14c6 f030 ac71 2b34 52b7 2b34
00000070: 6ddc 772e c0a9 6434 edd6 c92d 6f67 ef2e
00000080: f607 b22e a285 e22e fbdb f235 bd1d 4635
00000090: e144 762e b337 de2e ef16 b832 361f c62d
000000a0: 55f2 1135 5b7d ae31 f135 3535 85cb dc2e
000000b0: 86bc f02b 340c 0731 2d62 7033 d472 f033
000000c0: 7f90 e42d 2d29 d233 7116 2a2e e480 632e
000000d0: 02c6 5d2e 9961 1f2e 91ed 7235 fa19 ba34
000000e0: 13fb 052e 4dc0 852e d388 9f32 51c3 7d2d
000000f0: 249a c22f d2b6 b22b 4284 a42f 90d2 5a29
00000100: 2582 2227 6b18 f82a 57dd 8c2e bf53 1d2e
00000110: a760 ae28 6553 aa2e fb0a 9429 b8b7 2129
00000120: 55a9 c028 aeae 9928 7eed 1f30 688f 892f
00000130: b538 9e28 28b6 f028 f881 9e2c 4784 c127
00000140: 7e83 9836 9648 a732 50f4 9036 4ff7 3a30
00000150: 98e1 b62d 7da0 0e32 947e 3e35 f79d 1f35
00000160: 2450 832f 4d4b 7d35 f999 fa2e 04ab f72f
00000170: 869a ad2f 4f6b 462f 9be6 fa36 6da0 5136
00000180: c0cd 812f 33d6 d42f 2010 b733 0e5b b72e
00000190: 27f1 1030 39cd 212c fddd e12f 7520 9b29
000001a0: dc41 5927 1952 b12a 209b d92e 7e1a 4f2e
000001b0: c64f 0329 ea4e 002f 2b54 4828 6fe8 6f29
000001c0: e6ab 0629 d54d ae28 33f3 6c30 add2 cf2f
000001d0: b003 e928 72e2 2529 0355 9f2c 829f 0328
000001e0: 9f1b 6537 52ad 8032 3ab7 2a37 ba81 ea30
000001f0: 5b85 ab2e aa10 1032 1c6c 3136 5898 9135
00000200: 5830 5130 745c 5036 9013 d32f 225c be30
00000210: f081 4830 f3b1 562f 5f84 ba37 2f31 2537
00000220: 1990 3830 cd44 7930 b0eb ea33 6f0b 3e2f
00000230: c023 2d35 9f53 0931 4052 4135 3ebb ee2e
00000240: b759 172c 262a 1131 d061 b033 1361 ee33
00000250: aa78 0c2e d174 0834 644d f72c 763e 8a2e
00000260: 262f 682e 3de6 882c 2f43 8f35 3771 e434
00000270: 21d7 1b2e 7f6f 8d2e a88d a932 bc02 822d
00000280: 5dc1 c82f ae5e 572d 9846 b82f f819 7729
00000290: 1319 4527 5ce1 fc2a 96f8 8a2e aee5 522e
000002a0: 5f09 af28 339f 9f2e 056c 252c 8a52 1f29
000002b0: e5d8 ed28 eeee 3428 08ca 2230 8268 872f
000002c0: dfd2 9528 1692 0929 ebfb 9b2c 18a3 ed27
000002d0: 28ef 2035 04d8 8432 2c19 7a35 c112 172f
000002e0: 73b0 cf2c 6268 a430 c139 5a33 5c64 1934
000002f0: 2ced 052e 2684 b433 1a0c 1730 287b 8e2e
00000300: 868d 8c2e ec84 ba2f 5520 9335 898f cd34
00000310: b4a1 0a2e 10e3 ba2e e572 a032 e65f a82d
8.8687875e-06 1.1116966e-09 6.037665e-06 1.0406686e-09 5.347032e-11 2.1281816e-09 1.8171354e-06 5.7295495e-07
5.017682e-10 2.076584e-06 1.4601118e-10 9.040591e-10 4.3117418e-10 7.064411e-11 1.437991e-05 6.486098e-06
4.303753e-10 5.3696597e-10 4.3605723e-08 9.754349e-11 1.0756003e-06 1.11032e-08 1.1183486e-06 1.7698232e-10
6.166779e-12 1.7518595e-09 1.596697e-07 1.5992308e-07 5.6357075e-11 2.129591e-07 2.29465e-11 1.0886835e-10
8.095917e-11 1.0301028e-10 1.8094428e-06 7.380402e-07 5.59951e-11 1.01052854e-10 2.1430848e-08 2.2523854e-11
5.436935e-07 5.0783178e-09 6.750625e-07 1.0040594e-10 1.7105351e-12 1.9652022e-09 5.5968645e-08 1.1196758e-07
2.5984768e-11 9.786377e-08 3.8673457e-11 5.1728302e-11 5.042545e-11 3.62391e-11 9.049773e-07 3.46641e-07
3.0463698e-11 6.082299e-11 1.8572257e-08 1.4424754e-11 3.5397918e-10 1.2698404e-12 2.99254e-10 4.8588358e-14
2.2552568e-15 4.4070593e-13 6.405781e-11 3.577205e-11 1.9359797e-14 7.745519e-11 6.574425e-14 3.5908532e-14
2.1389718e-14 1.7062168e-14 5.818136e-10 2.502205e-10 1.7566117e-14 2.672435e-14 4.5050595e-12 5.3711676e-15
4.5452607e-06 1.9474367e-08 4.319976e-06 6.801785e-10 2.0791188e-11 8.301979e-09 7.096471e-07 5.9461985e-07
2.3885705e-10 9.435942e-07 1.1396035e-10 4.5050552e-10 3.1578312e-10 1.8046119e-10 7.4774266e-06 3.1236807e-06
2.3611157e-10 3.8714773e-10 8.524535e-08 8.338051e-11 5.2729593e-10 2.2993398e-12 4.1084994e-10 6.889013e-14
3.0150502e-15 3.1498483e-13 9.895573e-11 4.708988e-11 2.9157036e-14 1.1669568e-10 1.1120481e-14 5.3270265e-14
2.9903075e-14 1.9351635e-14 8.6201907e-10 3.7802775e-10 2.5869796e-14 3.683377e-14 4.52849e-12 7.3065486e-15
1.3655895e-05 1.4979978e-08 1.017545e-05 1.7062611e-09 7.7998684e-11 8.385692e-09 2.6437983e-06 1.084768e-06
7.610246e-10 3.104823e-06 3.8394576e-10 1.3850505e-09 7.294423e-10 1.9526407e-10 2.2234568e-05 9.846218e-06
6.7143585e-10 9.0683444e-10 1.09393454e-07 1.7284461e-10 6.4499545e-07 1.9983657e-09 7.201779e-07 1.0856248e-10
2.1508192e-12 2.1124236e-09 8.213431e-08 1.1100396e-07 3.1939486e-11 1.2708485e-07 7.0287543e-12 6.286609e-11
5.279257e-11 3.890914e-12 1.0673883e-06 4.2550684e-07 3.5433993e-11 6.431743e-11 1.9738607e-08 1.4780503e-11
3.651718e-10 1.2242358e-11 3.3519565e-10 5.4867542e-14 2.7352835e-15 4.4920567e-13 6.319671e-11 4.795247e-11
1.9432967e-14 7.258762e-11 2.3507873e-12 3.5376683e-14 2.6406349e-14 1.0043817e-14 5.922236e-10 2.4630614e-10
1.6633774e-14 3.054682e-14 4.4333335e-12 6.595754e-15 5.9952663e-07 1.5465055e-08 9.316889e-07 1.3740033e-10
5.9028837e-12 1.1962238e-09 5.0809607e-08 1.4285746e-07 3.045135e-11 8.405941e-08 5.495068e-10 6.479289e-11
6.3916025e-11 3.392765e-10 1.0961763e-06 3.828866e-07 3.152119e-11 8.498635e-11 1.86787e-08 1.9141976e-11

exp_avg f4 [10]
00000000: c440 44b4 30c5 9f37 1744 7337 056f 89b4
00000010: 225a b937 1ab0 1634 3bed eeb7 608f 8b32
00000020: bc19 84b4 59d1 8437
-1.8277484e-07 1.90461e-05 1.4499782e-05 -2.5599016e-07 2.209569e-05 1.4033904e-07 -2.848228e-05 1.624693e-08
-2.460564e-07 1.5833111e-05

exp_avg_sq f4 [10]
00000000: 823b 0837 ab3f a735 4ada 3435 cc70 c62f
00000010: c866 a336 2eee 0d30 4c69 5a37 fd23 4835
00000020: 8010 d42f 0a23 7a35
8.120087e-06 1.2460999e-06 6.737288e-07 3.6096137e-10 4.869744e-06 5.1633975e-10 1.3018329e-05 7.4558176e-07
3.85743e-10 9.3183246e-07

exp_avg f4 [2, 10]
00000000: 71ac 41b4 086e 3637 fb53 c037 3ed6 2bb4
00000010: 83b1 4f38 e38e d8b3 7731 6237 e193 aab4
00000020: 48d4 f0b4 e73c 7237 acb9 bd33 8038 d6b3
00000030: 5704 feb6 30cd db33 8154 8fb7 30ff ba33
00000040: c618 a6b6 da12 e833 84a3 7e34 f899 02b7
-1.803726e-07 1.0873664e-05 2.292729e-05 -1.6003557e-07 4.9517967e-05 -1.0084275e-07 1.3482167e-05 -3.1772564e-07
-4.4857939e-07 1.4438504e-05 8.834772e-08 -9.975429e-08 -7.570295e-06 1.02353056e-07 -1.7086279e-05 8.707718e-08
-4.9500695e-06 1.0806771e-07 2.371508e-07 -7.7844525e-06

exp_avg_sq f4 [2, 10]
00000000: 1c44 9037 c2bb 8d35 bff3 6137 3cfa 2a30
00000010: e8af 8a37 a947 c130 477c f437 82be cc35
00000020: 6a92 1d31 adfd ac37 9860 c336 346f 7c34
00000030: 978d 4836 28bd 082f 95ea 5236 93ae f52f
00000040: aa61 2037 7fc4 8b34 5cc7 0e30 bf43 c636
1.7197854e-05 1.0559963e-06 1.3467797e-05 6.2201244e-10 1.6532795e-05 1.4062965e-09 2.9144938e-05 1.525463e-06
2.2929734e-09 2.0622125e-05 5.822698e-06 2.3509784e-07 2.9884739e-06 1.243633e-10 3.1428983e-06 4.4689283e-10
9.559482e-06 2.6033737e-07 5.1942606e-10 5.9087465e-06

exp_avg f4 [2]
00000000: 6bb0 0a39 eb60 52b8
0.00013226426 -5.0158164e-05

exp_avg_sq f4 [2]
00000000: 044d f638 0494 0638
0.000117445394 3.208594e-05
