neural_network/lightning_logs/version_37/checkpoints/epoch=0-step=1875.ckpt (torch, 13835 bytes, 18 tensors)

layers.0.weight f4 [20, 4]
0	0x3eff21b3	0.49830398
1	0xbe619890	-0.22030854
2	0xbe910938	-0.28327346
3	0x3e9971bb	0.29969582
4	0x3e24ba35	0.16086657
5	0xbed1660d	-0.4089817
6	0x3da6788f	0.081284635
7	0xbdac1202	-0.08401872
8	0x3f27b621	0.6551228
9	0xbdaaedf6	-0.08346169
10	0x3e17e10d	0.14831944
11	0x3c61dd71	0.013785706
12	0xbe154cd6	-0.14580092
13	0x3ecc1b4c	0.39864576
14	0xbeec5272	-0.4615665
15	0xbe669b6a	-0.22520223
16	0x3e2ab9a5	0.1667238
17	0x3ee0b354	0.43886817
18	0xbefeb2c4	-0.49745762
19	0x3ee35b8a	0.44405776
20	0xbf0ad7c7	-0.542355
21	0x3ed32907	0.4124224
22	0x3de38ce0	0.11110854
23	0x3e287f6f	0.16454862
24	0xbef4b0b1	-0.47791055
25	0xbf306e0e	-0.6891793
26	0x3ec2f4a3	0.38077268
27	0x3d41a2f7	0.047274556
28	0x3e117e36	0.14208302
29	0x3e0378d8	0.12839067
30	0xbd8c6dde	-0.06856893
31	0xbd2e0add	-0.04249083
32	0xbe375191	-0.17902209
33	0xbef859b9	-0.48505953
34	0x3db30f7e	0.08743189
35	0x3b529e4a	0.0032137805
36	0xbf16a351	-0.5884295
37	0x3f1460cd	0.57960206
38	0xbd2a6861	-0.04160345
39	0xbd012ba8	-0.031535774
40	0xbd51c76b	-0.05121557
41	0x3ee8f4fc	0.45499408
42	0xbe4b7f3d	-0.19872756
43	0x3eb1959e	0.3468446
44	0xbe5440a9	-0.20727791
45	0x3eea4f17	0.45763466
46	0xbdcad826	-0.09904508
47	0x3dc8b1c5	0.09799532
48	0x3e2e9979	0.17050733
49	0x3c887bd9	0.016660618
50	0x3ee5d941	0.44892314
51	0x3dd87455	0.105690636
52	0x3d7aa346	0.061190866
53	0x3f1e6ffa	0.6188961
54	0xbea16215	-0.31520143
55	0xbeb2dfea	-0.34936458
56	0xbed3fe3e	-0.4140491
57	0xbea3f70b	-0.32024416
58	0x3e80bf55	0.25145975
59	0x3c7a3bde	0.0152730625
60	0xbda45abd	-0.080251195
61	0x3ede6806	0.4343874
62	0xbe8762e3	-0.26442632
63	0xbc96ef09	-0.018424528
64	0x3d4a1735	0.04933854
65	0xbdb1d710	-0.08683598
66	0xbe9e8144	-0.30957997
67	0x3ea35279	0.3189886
68	0xbf2e73af	-0.6814527
69	0xbf18779e	-0.5955752
70	0x3e7508c6	0.23929128
71	0xbe229937	-0.1587876
72	0x3f1b0960	0.6056118
73	0xbed8c078	-0.42334342
74	0x3eae8b09	0.3409045
75	0x3df12188	0.11773974
76	0xbdaf8766	-0.08570747
77	0x3c754ca0	0.014971882
78	0x3e1b30b9	0.15155305
79	0xbdaaa0d9	-0.083314605

layers.0.bias f4 [20]
0	0x3f06283c	0.5240514
1	0xbd1caadd	-0.038248885
2	0xbf4f4d9f	-0.80977815
3	0xbda38689	-0.07984645
4	0x3e8849b3	0.26618728
5	0x3f074600	0.52841187
6	0xbe8a15a3	-0.26969633
7	0xbec1ecd7	-0.37876007
8	0x3e7e0c52	0.24809387
9	0x3ec6def2	0.3884197
10	0xbef87377	-0.48525593
11	0x3de70825	0.1128085
12	0xbddc75fd	-0.10764692
13	0xbe830484	-0.25589383
14	0xbe3e61ed	-0.18592043
15	0x3ebeff32	0.37304074
16	0xbe590082	-0.211916
17	0xbdf23289	-0.11826045
18	0xbf0aae20	-0.54171944
19	0xbec7a85a	-0.3899563

layers.2.weight f4 [10, 20]
0	0xbe6bf1f2	-0.23041514
1	0xbe4b47ac	-0.1985156
2	0xbe58f49d	-0.21187063
3	0xbcdd41e2	-0.027008954
4	0x3c7fa70c	0.015603792
5	0x3b66723f	0.003516331
6	0xbce4959a	-0.027903367
7	0x3ccf3691	0.025294574
8	0x3dc43865	0.09581069
9	0xbe8c86c3	-0.27446565
10	0xbdcec661	-0.100964315
11	0xbe536518	-0.20644033
12	0xbcd3e9b2	-0.02586827
13	0xbb98d3f6	-0.0046639396
14	0xbd6bb0cd	-0.057541657
15	0xbd8d6228	-0.069034874
16	0x3d395e48	0.04525593
17	0x3d5cec77	0.053936448
18	0xbe709e66	-0.23497924
19	0xbd6c28cc	-0.057656094
20	0x3d7d2dd8	0.061811298
21	0xbe027bae	-0.12742493
22	0x3bd72f49	0.006566916
23	0xbdcea703	-0.10090449
24	0xbd7d499b	-0.061837774
25	0xbd988d82	-0.074488655
26	0xbcf0a635	-0.029376129
27	0x3e0c0bff	0.13676451
28	0xbe554776	-0.20828041
29	0x3d0be8a8	0.034157425
30	0x3e0ef911	0.13962199
31	0x3d985f27	0.07440024
32	0xbdb71dc7	-0.089412265
33	0x3d9af5fb	0.07566448
34	0x3ddfb3a6	0.10922937
35	0x3dab41b8	0.08362144
36	0x3dec9f9e	0.11553882
37	0x3dc78f29	0.097441025
38	0x3d14e6fd	0.0363531
39	0xbe9ec2d6	-0.31008023
40	0x3e04b9ab	0.12961452
41	0x3de26ada	0.110555366
42	0x3ead9a5c	0.3390683
43	0xbe0274ed	-0.12739916
44	0xbe0b3a39	-0.13596429
45	0xbe86199f	-0.26191422
46	0x3e931fdc	0.28735244
47	0x3dc1cd6a	0.09463008
48	0xbdae7068	-0.085175335
49	0xbe0e566e	-0.13900158
50	0xbf14e320	-0.58159065
51	0xbdd53dc1	-0.10412169
52	0xbe6e457d	-0.23268695
53	0x3e9277dd	0.28607073
54	0x3e30bdcd	0.17259903
55	0xbed5267b	-0.4163092
56	0x3d86a54c	0.065744966
57	0xbea40984	-0.3203851
58	0x3e0ea86c	0.13931435
59	0x3e9b14d6	0.30289334
60	0xbcb37e2f	-0.021910755
61	0x3e3c089b	0.18362658
62	0x3ebace5c	0.36485565
63	0xbc80d7e9	-0.015727954
64	0xbddb2e2b	-0.10702165
65	0x3e090ffe	0.13385007
66	0x3c57c1bc	0.0131687485
67	0x3e5857b1	0.21127202
68	0x3debcb9b	0.11513444
69	0xbe3b1954	-0.1827138
70	0xbd8d9b9a	-0.06914444
71	0xbe1ba7e4	-0.15200764
72	0xbe844645	-0.2583486
73	0xbd6c3198	-0.057664484
74	0xbe72af69	-0.23699726
75	0x3da28094	0.079346806
76	0x3e0e5a45	0.13901623
77	0xbe5e5d20	-0.21715212
78	0xbd80add3	-0.06283154
79	0xbd112227	-0.03543296
80	0xbe2b59bc	-0.1673345
81	0xbe43a2ef	-0.19105123
82	0x3e346be3	0.1761928
83	0x3e75ef70	0.2401712
84	0xbe89c2ea	-0.2690652
85	0xbe5f7d78	-0.21825206
86	0xbd389310	-0.045062125
87	0x3e028041	0.12744237
88	0x3d308112	0.04309184
89	0x3d425852	0.04744751
90	0x3cd630a2	0.026146237
91	0x3d9c4b79	0.07631583
92	0xbe0fec94	-0.14055091
93	0xbe6be5e8	-0.23036921
94	0x3da1214f	0.07867681
95	0x3c9080ad	0.017639482
96	0xbe2cc693	-0.16872625
97	0xbe411367	-0.18855058
98	0xbdea7abc	-0.11449191
99	0x3ca0bbc3	0.019620782
100	0x3e06a859	0.13150157
101	0xbe0e96d1	-0.1392472
102	0xbea20a95	-0.31648698
103	0x3eb6ba9f	0.35689256
104	0xbee212b4	-0.44154894
105	0xbd827c4e	-0.063713655
106	0x3daba461	0.08380962
107	0x3e60b93e	0.21945664
108	0xbaa476fd	-0.0012547668
109	0x3dd76fcb	0.1051937
110	0xbeae2b78	-0.3401754
111	0x3d73eb9f	0.059550878
112	0xbd19858d	-0.03748088
113	0x3ee32863	0.4436675
114	0x3e12aeee	0.14324543
115	0x3dbdcc89	0.092675276
116	0xbe359dfe	-0.1773605
117	0x3c957c69	0.0182478
118	0xbe8cc00a	-0.27490264
119	0xbc8c2901	-0.017109396
120	0x3d2485dd	0.040166724
121	0xbd54a1b6	-0.051912032
122	0x3f1493d8	0.5803809
123	0x3e7586cf	0.23977207
124	0xbe1cb948	-0.15305054
125	0xbeb636bf	-0.35588643
126	0x3ce1c6d2	0.027560625
127	0xbd20e269	-0.03927842
128	0x3c6eacc8	0.014567561
129	0xbe91cfcb	-0.28478846
130	0xbe832278	-0.25612235
131	0xbec580a0	-0.38574696
132	0xbdcbd60b	-0.09952935
133	0x3d796fe3	0.06089772
134	0x3db1b167	0.08676415
135	0xbe8da593	-0.27665386
136	0x3d66dd5c	0.05636345
137	0xbdf7a4b2	-0.1209196
138	0xbe979329	-0.29604462
139	0xbd201797	-0.039084997
140	0xbdbaf495	-0.091286816
141	0x3cfbb066	0.030723762
142	0xbe71f6dc	-0.23629326
143	0x3dbfab17	0.09358805
144	0x3e25f788	0.16207707
145	0x3e655176	0.22394356
146	0x3e534d5d	0.2063498
147	0xbda900f9	-0.08252139
148	0x3dbad6c0	0.091229916
149	0x3dbd15fa	0.09232707
150	0x3dd946b7	0.10609191
151	0x3d2be0d8	0.041962475
152	0xbdf24635	-0.11829797
153	0xbd6347bc	-0.055488333
154	0x3e11d3ba	0.14240924
155	0x3e54885c	0.20755142
156	0xbe5512b6	-0.20807919
157	0x3d315ce9	0.043301497
158	0xbe5b69a3	-0.21427016
159	0x3a7764de	0.00094373326
160	0xbddd6f20	-0.10812211
161	0xbd5239d7	-0.05132469
162	0x3f38c2d4	0.72172284
163	0xbcbd3f1a	-0.023101378
164	0x3da1acb6	0.0789427
165	0xbe39e22b	-0.18152682
166	0xbf0745ce	-0.5284089
167	0x3e5479b8	0.20749557
168	0xbe4cabe4	-0.19987446
169	0xbe0f4fdc	-0.13995308
170	0x3db09b57	0.08623379
171	0xbd3cee6e	-0.04612582
172	0xbd50883f	-0.050911184
173	0xbf8f9cec	-1.1219764
174	0xbe4c4315	-0.19947465
175	0x3dc8ef9e	0.09811328
176	0x3de00cc7	0.10939937
177	0xbef10626	-0.47075003
178	0xbda75137	-0.081697874
179	0xbdc0288c	-0.09382734
180	0xbe72d926	-0.23715648
181	0xbe97ab7b	-0.29623017
182	0xbe8630f3	-0.2620922
183	0xbd57a2dd	-0.052645553
184	0x3c57e93d	0.013178167
185	0xbcef042d	-0.029176796
186	0xbe1a2824	-0.15054375
187	0xbd0aa4db	-0.033848625
188	0x3e03d0c7	0.12872611
189	0xbd22267b	-0.03958748
190	0x3be08884	0.0068522114
191	0xbe030fd7	-0.12799011
192	0xbe6478f6	-0.22311768
193	0xbe0b92b5	-0.13630183
194	0x3d9e8225	0.07739667
195	0xbdca32f4	-0.09873
196	0x3e175adb	0.14780752
197	0xbd1f88c9	-0.038948808
198	0xbe6635d9	-0.22481479
199	0xbe8aa0b2	-0.27075726

layers.2.bias f4 [10]
0	0x3d981b33	0.07427063
1	0xbe2daf27	-0.16961347
2	0xbdfb52ef	-0.12271678
3	0xbd453a11	-0.04815108
4	0x3d71803b	0.05896018
5	0x3e4e3da3	0.201407
6	0x3c5608d3	0.013063627
7	0x3e83ec7e	0.25766367
8	0xbe1cffa3	-0.15331893
9	0x3e349add	0.176372

layers.4.weight f4 [2, 10]
0	0xbd510087	-0.051025894
1	0xbe447950	-0.19186902
2	0x3e737013	0.23773222
3	0x3d286153	0.04110844
4	0x3c9ad0ce	0.018898394
5	0x3d85f2a5	0.065404214
6	0xbd3b7e0b	-0.0457745
7	0x3c1d4fc5	0.009601538
8	0xbdc2aac7	-0.095052294
9	0xbe4ba244	-0.19886118
10	0xbd86d07e	-0.065827355
11	0x3df263e0	0.11835456
12	0x3e7c3981	0.24631311
13	0x3e6c5870	0.23080611
14	0x3e3c01a9	0.18360008
15	0xbd91e238	-0.07123226
16	0x3c9007ff	0.017581938
17	0xbe4a7332	-0.19770506
18	0x3e285662	0.16439202
19	0xbe37fc77	-0.17967401

layers.4.bias f4 [2]
0	0x3b1d4bea	0.0024001547
1	0x3e0cb78d	0.13741894

exp_avg f4 [20, 4]
0	0x37095818	8.186347e-06
1	0x36dbdb61	6.5522477e-06
2	0xb6a08ba7	-4.7846293e-06
3	0x358d52c3	1.0529405e-06
4	0x35c3a253	1.4575875e-06
5	0x3669628a	3.4777063e-06
6	0x36510ed8	3.1152067e-06
7	0x378768b4	1.614201e-05
8	0x37a8a6d7	2.0104852e-05
9	0x3834ce5e	4.310754e-05
10	0x38133b1f	3.5102592e-05
11	0x37d50cb1	2.5397489e-05
12	0x34a12a58	3.0019396e-07
13	0x34b0aae4	3.2906894e-07
14	0x35cc7ba2	1.5235166e-06
15	0x3482c410	2.435704e-07
16	0xb7df2693	-2.6601634e-05
17	0xb7ce3e91	-2.4586248e-05
18	0xb81e57e1	-3.775198e-05
19	0xb72329d6	-9.725298e-06
20	0x362dba2e	2.588738e-06
21	0xb60b9a0d	-2.0802283e-06
22	0x383e3cf4	4.5356297e-05
23	0x38abdec9	8.1954124e-05
24	0x3834eef7	4.3137898e-05
25	0x380daded	3.3779e-05
26	0x390c9385	0.00013406396
27	0x3892007e	6.961914e-05
28	0x340b8183	1.29925e-07
29	0x34415e7e	1.8008902e-07
30	0x35055741	4.967333e-07
31	0xb4c1bdb3	-3.6087076e-07
32	0x37a94d52	2.0182375e-05
33	0x37a07e71	1.9132365e-05
34	0x3887ebcd	6.481223e-05
35	0x3838f524	4.4097324e-05
36	0x3719d1e5	9.1683805e-06
37	0x3741e010	1.1555865e-05
38	0x38837d40	6.2698964e-05
39	0x37d7c813	2.5723164e-05
40	0xb71f24e8	-9.485731e-06
41	0xb6b82846	-5.4883158e-06
42	0xb7eb1b59	-2.8026918e-05
43	0xb7f0d60b	-2.8709901e-05
44	0x35193fe1	5.70899e-07
45	0x36a01e1a	4.771876e-06
46	0x378ff974	1.7163089e-05
47	0x376d12cf	1.413068e-05
48	0xb5b1a01e	-1.3234128e-06
49	0xb5dbbe1a	-1.6372098e-06
50	0xb7f583ba	-2.9267616e-05
51	0xb8053ea3	-3.1768006e-05
52	0x3740d4ea	1.1493665e-05
53	0x36b3174b	5.3373274e-06
54	0x3860d8a4	5.3607524e-05
55	0xb872d044	-5.789126e-05
56	0x386c6aa8	5.6366116e-05
57	0x3865bafa	5.477199e-05
58	0x3953e67b	0.00020208389
59	0x38b5b4c7	8.664425e-05
60	0xb83097c3	-4.210301e-05
61	0xb84db9f3	-4.9048987e-05
62	0xb8c7dcbf	-9.5301766e-05
63	0xb7cc8bdd	-2.4383824e-05
64	0xb3239118	-3.8083357e-08
65	0x359033b7	1.0743887e-06
66	0xb6cd3255	-6.1153355e-06
67	0xb726ffd7	-9.953938e-06
68	0xb5c7b06d	-1.4878002e-06
69	0xb644d7bb	-2.9331848e-06
70	0xb730489f	-1.0507326e-05
71	0x36f051c5	7.1620766e-06
72	0xb7c61267	-2.3612009e-05
73	0xb7e0f93f	-2.6818945e-05
74	0xb9092ee3	-0.00013082805
75	0xb8dabf71	-0.00010430709
76	0x34d28beb	3.9217352e-07
77	0x3513fe07	5.5131426e-07
78	0x36aa70b6	5.079516e-06
79	0xb6a38509	-4.873266e-06

exp_avg_sq f4 [20, 4]
0	0x324b34b4	1.18281385e-08
1	0x32313e0c	1.0316864e-08
2	0x348dccc9	2.6412297e-07
3	0x346284b2	2.1096164e-07
4	0x31f0f682	7.012944e-09
5	0x31db0c4b	6.3751364e-09
6	0x3416f93d	1.4060511e-07
7	0x33a0768b	7.4721434e-08
8	0x3411f100	1.3591853e-07
9	0x340cdfc3	1.311992e-07
10	0x3592e7aa	1.0945271e-06
11	0x35058415	4.9738566e-07
12	0x2d63fc56	1.2959486e-11
13	0x2e119490	3.3101133e-11
14	0x2f445dba	1.7859395e-10
15	0x2f494b9e	1.8307708e-10
16	0x32bd4b52	2.2036748e-08
17	0x32b4bd42	2.1040822e-08
18	0x3506cd70	5.021784e-07
19	0x34c09c4d	3.587651e-07
20	0x33dc0c02	1.02467325e-07
21	0x33d61d09	9.970433e-08
22	0x35f4b2bb	1.8231434e-06
23	0x35330723	6.669308e-07
24	0x3283dd92	1.5351166e-08
25	0x3289066a	1.5951816e-08
26	0x3511f071	5.43666e-07
27	0x346ec0ca	2.2235614e-07
28	0x2d5220b6	1.1944381e-11
29	0x2dbd9455	2.1552685e-11
30	0x2f31753e	1.6139709e-10
31	0x2f00a30b	1.1699457e-10
32	0x3318311a	3.5434915e-08
33	0x330855d2	3.174302e-08
34	0x355ac5df	8.149927e-07
35	0x34b2e89b	3.3324326e-07
36	0x3318be0f	3.5563115e-08
37	0x3324996b	3.832376e-08
38	0x352b3ce3	6.3791066e-07
39	0x34563e7a	1.9953032e-07
40	0x32460bf6	1.15278365e-08
41	0x3280bf3a	1.4988121e-08
42	0x34c1efaf	3.6123444e-07
43	0x34e35d54	4.234995e-07
44	0x32453f90	1.1481362e-08
45	0x32658edb	1.3362036e-08
46	0x3491f283	2.7184805e-07
47	0x33dc34ec	1.0254175e-07
48	0x3293f09a	1.7222465e-08
49	0x32a0195e	1.8637987e-08
50	0x34e08fef	4.1827977e-07
51	0x3415a07d	1.3935092e-07
52	0x32a9f42d	1.9785228e-08
53	0x32988aff	1.7758337e-08
54	0x34bff439	3.5754218e-07
55	0x34af8ebc	3.2700143e-07
56	0x331ccf7d	3.651029e-08
57	0x331faab7	3.7175337e-08
58	0x358c8059	1.0468167e-06
59	0x35535d11	7.8739055e-07
60	0x33a55838	7.699458e-08
61	0x33b8f24e	8.612243e-08
62	0x361543c3	2.2242173e-06
63	0x3581a714	9.659875e-07
64	0x32c7f901	2.3279883e-08
65	0x32f204f7	2.8174766e-08
66	0x3549a274	7.5114735e-07
67	0x354d282e	7.642692e-07
68	0x3193af31	4.29818e-09
69	0x319da0df	4.5875903e-09
70	0x342c5eb2	1.6053198e-07
71	0x34163772	1.399001e-07
72	0x338c5762	6.535153e-08
73	0x33946c08	6.911438e-08
74	0x3585d9d3	9.972667e-07
75	0x34d2ac01	3.9240697e-07
76	0x311ef630	2.3131967e-09
77	0x312acff1	2.4856457e-09
78	0x3387ea96	6.329098e-08
79	0x3392b216	6.8310484e-08

exp_avg f4 [20]
0	0x36522306	3.1312825e-06
1	0x34bb80bd	3.4925134e-07
2	0x37b89e87	2.200833e-05
3	0x35129317	5.460328e-07
4	0xb7bcc2d2	-2.2502067e-05
5	0x34c0120d	3.577592e-07
6	0x386e0741	5.6750378e-05
7	0x349257b5	2.7258434e-07
8	0x37c412f0	2.337384e-05
9	0x37993607	1.826418e-05
10	0xb767e56e	-1.3822091e-05
11	0x3601e3d2	1.9355107e-06
12	0xb64bb534	-3.0354831e-06
13	0x37dd98b0	2.6416354e-05
14	0x38aa4d59	8.120639e-05
15	0xb83479d3	-4.3028802e-05
16	0xb65f634e	-3.3287392e-06
17	0xb61f3c37	-2.3727896e-06
18	0xb8007795	-3.0628948e-05
19	0x36179dd3	2.259262e-06

exp_avg_sq f4 [20]
0	0x33821b57	6.05857e-08
1	0x32fc33d0	2.9360223e-08
2	0x344815a1	1.863432e-07
3	0x2e17bcdf	3.4501176e-11
4	0x33ef23c2	1.1135809e-07
5	0x34cac527	3.776888e-07
6	0x33f88156	1.1571926e-07
7	0x2e00767a	2.920906e-11
8	0x343fa9de	1.7850058e-07
9	0x3409de65	1.2840026e-07
10	0x33a05ab2	7.467078e-08
11	0x3378154e	5.7761376e-08
12	0x33bd89f3	8.826091e-08
13	0x33a72fe7	7.785257e-08
14	0x346c90ff	2.2031962e-07
15	0x35019fb6	4.8288655e-07
16	0x342a0eed	1.5837914e-07
17	0x33199e4a	3.576705e-08
18	0x345222ad	1.9570389e-07
19	0x32700792	1.397156e-08

exp_avg f4 [10, 20]
0	0x35765ebc	9.178e-07
1	0xb3f49b6b	-1.1390406e-07
2	0x34eea9bd	4.4454455e-07
3	0xb29ec431	-1.8482838e-08
4	0x34a14baa	3.004364e-07
5	0x3537518f	6.8291496e-07
6	0xb44e3b5f	-1.9206844e-07
7	0xb12481b2	-2.3938864e-09
8	0xb47356b4	-2.2662681e-07
9	0xb4b0b6d1	-3.291557e-07
10	0x323a3dbb	1.0840661e-08
11	0x33cdbf59	9.580862e-08
12	0x35b5cf14	1.3545819e-06
13	0xb3a969a3	-7.888891e-08
14	0xb4453077	-1.8364686e-07
15	0xb3abb0fa	-7.995e-08
16	0xb22cdc54	-1.00618145e-08
17	0xb4ebbb22	-4.3908318e-07
18	0x35bd01d1	1.4082126e-06
19	0xb4062393	-1.2492664e-07
20	0x356bf9b7	8.7907705e-07
21	0xb509f35a	-5.13906e-07
22	0xb4314dfe	-1.6512783e-07
23	0x3289f079	1.6058253e-08
24	0x35aef5e7	1.3035577e-06
25	0xb514c16a	-5.541575e-07
26	0xb48c86e4	-2.6175178e-07
27	0x31d72a69	6.262145e-09
28	0xb4abb18d	-3.1980417e-07
29	0xb536dcfc	-6.812186e-07
30	0x33ea5cc4	1.0913348e-07
31	0x343710ff	1.7049386e-07
32	0xb6088f9c	-2.034917e-06
33	0x31b991dc	5.400791e-09
34	0xb4aa7ef3	-3.1757335e-07
35	0x34b44d03	3.3583646e-07
36	0xb3e2a4d0	-1.0553924e-07
37	0xb5854297	-9.928652e-07
38	0xb555a2b6	-7.958546e-07
39	0xb4135783	-1.3722278e-07
40	0xb68a9247	-4.1297494e-06
41	0x3505ec9e	4.9890684e-07
42	0xb5f26371	-1.8059346e-06
43	0x33ab5afa	7.9793566e-08
44	0xb5cfb63b	-1.5475738e-06
45	0xb6571f49	-3.2055707e-06
46	0x354661be	7.390298e-07
47	0x3245c7fd	1.1512381e-08
48	0x356981d4	8.698819e-07
49	0x35ab82a2	1.2778512e-06
50	0xb3bd1f72	-8.806718e-08
51	0xb5031481	-4.883114e-07
52	0xb6c3a658	-5.830818e-06
53	0x34a66e6b	3.100025e-07
54	0x354885a5	7.4700284e-07
55	0x348fcf6d	2.6786748e-07
56	0x337f0e40	5.9384774e-08
57	0x36006bd1	1.9136244e-06
58	0xb6c41b4a	-5.844432e-06
59	0x350cecbe	5.249857e-07
60	0xb60afd65	-2.0711097e-06
61	0x332575bc	3.8524135e-08
62	0xb5a8ff55	-1.2591287e-06
63	0x337bafe5	5.8600467e-08
64	0xb450dc55	-1.9451666e-07
65	0xb614da91	-2.218094e-06
66	0x34bfc648	3.572079e-07
67	0x322e2c9e	1.0138278e-08
68	0x34de8b05	4.1451872e-07
69	0x3503965d	4.902011e-07
70	0x32876a0e	1.5764297e-08
71	0xb44da5d9	-1.9152448e-07
72	0xb69f35fb	-4.7448534e-06
73	0x345f951b	2.0822738e-07
74	0x34aa2a26	3.1695635e-07
75	0x34c8771d	3.733957e-07
76	0xb2d2afd9	-2.4527184e-08
77	0x35335267	6.680261e-07
78	0xb68bf50b	-4.1710496e-06
79	0x348c6314	2.614912e-07
80	0xb5cf6498	-1.5451978e-06
81	0xb1cea1a5	-6.013766e-09
82	0xb582a817	-9.734675e-07
83	0x3346a915	4.6254247e-08
84	0xb3a01841	-7.4549924e-08
85	0xb5ecb458	-1.7635857e-06
86	0x34866adc	2.5037195e-07
87	0x320f0c71	8.326524e-09
88	0x349b2843	2.8900294e-07
89	0x34ac2e92	3.207138e-07
90	0x32910d9b	1.6886409e-08
91	0xb416909a	-1.4022444e-07
92	0xb67ead4b	-3.794982e-06
93	0x342a7734	1.587585e-07
94	0x346a8cff	2.1844242e-07
95	0x34a48506	3.0644168e-07
96	0xb2d90af1	-2.52671e-08
97	0x34ef018b	4.4518342e-07
98	0xb65a406f	-3.2522037e-06
99	0x344cb164	1.9063515e-07
100	0x37b8f1cf	2.204711e-05
101	0x37852b76	1.5875074e-05
102	0x367f0afc	3.8004355e-06
103	0xb5da96ba	-1.6286133e-06
104	0xb5d475ef	-1.5829554e-06
105	0x3903ba7f	0.00012562609
106	0x372bcb9e	1.0239803e-05
107	0xb525f5cd	-6.1824977e-07
108	0x379fec15	1.9064211e-05
109	0x38787d84	5.9244703e-05
110	0xb5b9df60	-1.3848585e-06
111	0x37e71b04	2.7549926e-05
112	0x39355287	0.00017292249
113	0x36157f2e	2.2276759e-06
114	0x37383d1f	1.09814855e-05
115	0xb5c730b0	-1.4840825e-06
116	0xb5d4dfaf	-1.5860331e-06
117	0x38135456	3.5126075e-05
118	0x386bb230	5.6194316e-05
119	0x365fd7a3	3.3355107e-06
120	0x34765ab0	2.2943527e-07
121	0xb4081c81	-1.2676357e-07
122	0x32176987	8.813351e-09
123	0x313fce01	2.7911258e-09
124	0x3496c8a9	2.8085677e-07
125	0xb41b6f6f	-1.4476039e-07
126	0xb3be593d	-8.863797e-08
127	0x30d8b598	1.576768e-09
128	0xb3e7ed11	-1.0799898e-07
129	0xb4612a7a	-2.0970211e-07
130	0x32991f2c	1.782572e-08
131	0x3300664d	2.9895364e-08
132	0xb4dab860	-4.0739815e-07
133	0xb1f71b6e	-7.1917645e-09
134	0xb3c9ae1b	-9.3914615e-08
135	0x3383d18a	6.138278e-08
136	0xb2c8269d	-2.3300624e-08
137	0xb48ad051	-2.5856073e-07
138	0xb38b8781	-6.49734e-08
139	0xb336a185	-4.252208e-08
140	0xb8195dc1	-3.6565358e-05
141	0x3482bbd3	2.4351047e-07
142	0xb6ec76a9	-7.047162e-06
143	0xb5f52cbe	-1.8266944e-06
144	0xb814aa26	-3.5444413e-05
145	0x38d7600d	0.0001026989
146	0xb698ea2f	-4.5572156e-06
147	0xb4d5424a	-3.9722573e-07
148	0xb6d9209c	-6.4709e-06
149	0xb6a2ef66	-4.855846e-06
150	0xb65bbf24	-3.2744802e-06
151	0x3736d092	1.0896607e-05
152	0x390b6e70	0.00013297214
153	0xb6fb17b6	-7.4831432e-06
154	0xb6cded79	-6.1371215e-06
155	0xb8113b07	-3.4625667e-05
156	0x369030ce	4.297216e-06
157	0xb795a766	-1.7840135e-05
158	0x38cfd557	9.910267e-05
159	0xb7709f55	-1.4342212e-05
160	0xb4bf2888	-3.5606013e-07
161	0xb4a343f4	-3.0410558e-07
162	0xb5267cf1	-6.202163e-07
163	0x33143167	3.4503866e-08
164	0x3536b645	6.806552e-07
165	0xb5aeb53b	-1.3016755e-06
166	0xb336a9a5	-4.2529468e-08
167	0x320fabae	8.362731e-09
168	0xb36db900	-5.534912e-08
169	0xb4716a65	-2.248358e-07
170	0x33a0a918	7.4813386e-08
171	0x32ebc65b	2.7447802e-08
172	0xb65882e9	-3.2262708e-06
173	0x339cd1b1	7.302459e-08
174	0xb3a8bfae	-7.857976e-08
175	0x34bc9272	3.5124282e-07
176	0xb39524db	-6.945057e-08
177	0xb4af6e2e	-3.2676456e-07
178	0xb6142a2b	-2.2078264e-06
179	0x32c59e4e	2.3005807e-08
180	0x364c6204	3.0455421e-06
181	0xb4f86f87	-4.6274747e-07
182	0x35b4bbea	1.3465735e-06
183	0xb368e9b8	-5.4229275e-08
184	0x35a2c5a6	1.2127464e-06
185	0x360787ca	2.0195607e-06
186	0xb52f4098	-6.5286577e-07
187	0xb1d4147c	-6.172341e-09
188	0xb54f3b19	-7.719951e-07
189	0xb59c0175	-1.162333e-06
190	0x337b3d18	5.8496056e-08
191	0x34b54034	3.376059e-07
192	0x367ed340	3.7971913e-06
193	0xb483e8e3	-2.45701e-07
194	0xb52b5131	-6.3820613e-07
195	0xb43ea7c9	-1.7756169e-07
196	0xb3646a91	-5.318231e-08
197	0xb5d359f4	-1.5746905e-06
198	0x368d6ca3	4.2147744e-06
199	0xb4e01c23	-4.1743724e-07

exp_avg_sq f4 [10, 20]
0	0x3223172c	9.493117e-09
1	0x3182aaea	3.8029286e-09
2	0x2d3cab5c	1.0724612e-11
3	0x2d621197	1.2850518e-11
4	0x3202ff5c	7.625058e-09
5	0x340c38ae	1.3059136e-07
6	0x331d1051	3.656925e-08
7	0x2bd730c7	1.5290207e-12
8	0x339215f1	6.802646e-08
9	0x33aecd20	8.1398184e-08
10	0x310d5608	2.0567104e-09
11	0x32ef12f2	2.7831877e-08
12	0x3432f95d	1.666826e-07
13	0x32dd2f4a	2.574929e-08
14	0x33a7fd14	7.822578e-08
15	0x32b9eaa5	2.1643539e-08
16	0x31975a75	4.404962e-09
17	0x33d3f9b0	9.870871e-08
18	0x3259ee46	1.26852395e-08
19	0x30a99b5d	1.2340525e-09
20	0x34780df1	2.3101872e-07
21	0x338f8814	6.683709e-08
22	0x300f2a05	5.208281e-10
23	0x2fa4ba1b	2.9963662e-10
24	0x345a3cd9	2.0324968e-07
25	0x36536f55	3.1506254e-06
26	0x352abb15	6.3602175e-07
27	0x2e143520	3.369849e-11
28	0x35b8a9e4	1.3758513e-06
29	0x35dc1bae	1.6399333e-06
30	0x3334a7a0	4.206197e-08
31	0x3536e584	6.813427e-07
32	0x366a241a	3.488973e-06
33	0x34df61b7	4.1608084e-07
34	0x35d96aaa	1.6198803e-06
35	0x350c28bd	5.2213346e-07
36	0x33d481ec	9.895652e-08
37	0x35f0a8eb	1.7930555e-06
38	0x347b91f8	2.34293e-07
39	0x32a28c42	1.8923064e-08
40	0x3003622a	4.779702e-10
41	0x2efe7c15	1.1572624e-10
42	0x2f3b896f	1.7056377e-10
43	0x2a83fc63	2.3445403e-13
44	0x2f3d74b6	1.7230914e-10
45	0x31144e75	2.1581432e-09
46	0x2e9680b7	6.8440746e-11
47	0x2954e4e4	4.7271987e-14
48	0x2f89e846	2.5085195e-10
49	0x2faf6f45	3.1911376e-10
50	0x2d346abc	1.0255515e-11
51	0x2f41a18b	1.761064e-10
52	0x316ff411	3.4917813e-09
53	0x2efe6fc8	1.1570439e-10
54	0x2f6f5acd	2.1769182e-10
55	0x2f1c7b0b	1.4231831e-10
56	0x2d462701	1.12636575e-11
57	0x2f44a514	1.7884744e-10
58	0x30524bc6	7.6505235e-10
59	0x2e6c8224	5.3775775e-11
60	0x34e7f58f	4.320577e-07
61	0x2e1f3b8d	3.6205306e-11
62	0x2e53f6b4	4.8194962e-11
63	0x2fb1fb21	3.237455e-10
64	0x34b0a1f0	3.290038e-07
65	0x368ada00	4.138099e-06
66	0x30bace3a	1.3591894e-09
67	0x2dfcc03c	2.8734452e-11
68	0x34e23d6c	4.214047e-07
69	0x3516c64d	5.616792e-07
70	0x3395a03a	6.967498e-08
71	0x3592d34b	1.0939342e-06
72	0x35fa8813	1.8666054e-06
73	0x2e39fe7a	4.229015e-11
74	0x3560e37c	8.3777536e-07
75	0x35409026	7.173534e-07
76	0x34369a0b	1.7006111e-07
77	0x32c4aa56	2.2894863e-08
78	0x32c84b75	2.3317378e-08
79	0x2dd13a0a	2.3786324e-11
80	0x3485f4f2	2.4951402e-07
81	0x33178346	3.527682e-08
82	0x2f5d1c37	2.0109857e-10
83	0x2fc31d1a	3.549097e-10
84	0x343eabbb	1.7757604e-07
85	0x36771a12	3.6821043e-06
86	0x35099cdb	5.126473e-07
87	0x2e29ee61	3.8637874e-11
88	0x35c46850	1.4633497e-06
89	0x35eb273d	1.7520284e-06
90	0x3336c752	4.2556458e-08
91	0x35533980	7.86873e-07
92	0x368080bf	3.8296853e-06
93	0x349f308d	2.9651383e-07
94	0x35f10e84	1.7960124e-06
95	0x35252ebc	6.15353e-07
96	0x33da9cfd	1.0179972e-07
97	0x35cd847b	1.5312247e-06
98	0x346c4cb0	2.2007112e-07
99	0x3201a794	7.546891e-09
100	0x3410a063	1.3469393e-07
101	0x3368d9bf	5.421475e-08
102	0x33085698	3.1743724e-08
103	0x2ec1bc2d	8.8100506e-11
104	0x336f962e	5.578311e-08
105	0x3569a0e5	8.7033396e-07
106	0x33449cc7	4.5777394e-08
107	0x2dafb4c2	1.997547e-11
108	0x33e10b4d	1.04794346e-07
109	0x342f512a	1.6327672e-07
110	0x312130cc	2.3456321e-09
111	0x338051a2	5.9753134e-08
112	0x35b3b937	1.3390444e-06
113	0x3366b001	5.3711123e-08
114	0x33c3a6cb	9.1107346e-08
115	0x33560cd5	4.983743e-08
116	0x31ab165c	4.979297e-09
117	0x3404b804	1.2360402e-07
118	0x345814b0	2.0124094e-07
119	0x3308b166	3.182631e-08
120	0x305c8f0d	8.023882e-10
121	0x32b7b944	2.1388253e-08
122	0x3062f6d0	8.256906e-10
123	0x2c98e56f	4.345572e-12
124	0x2f42d3dc	1.7719465e-10
125	0x3280a833	1.497765e-08
126	0x34438d8f	1.8212289e-07
127	0x2b9f0334	1.1298519e-12
128	0x3424f5e4	1.5363145e-07
129	0x342db02c	1.6175971e-07
130	0x2e1953c3	3.4862568e-11
131	0x2f92bfbc	2.669348e-10
132	0x346ca53a	2.2039322e-07
133	0x3416e91e	1.4054646e-07
134	0x33dc8475	1.0268642e-07
135	0x30f481de	1.7790247e-09
136	0x2d947a09	1.6879846e-11
137	0x34f4e2be	4.5613518e-07
138	0x332ddf65	4.0482877e-08
139	0x31b55e06	5.2784825e-09
140	0x3580d61b	9.599056e-07
141	0x345704a9	2.002513e-07
142	0x34553ddc	1.9859675e-07
143	0x301e5240	5.759695e-10
144	0x34fc1b41	4.6958488e-07
145	0x36c848c5	5.968936e-06
146	0x347b973d	2.3431217e-07
147	0x2ef7d198	1.1269491e-10
148	0x3548ccc7	7.4803796e-07
149	0x35877220	1.0091499e-06
150	0x32eeb3f4	2.778868e-08
151	0x351d6fb0	5.8649584e-07
152	0x36f60b54	7.33269e-06
153	0x3433fc94	1.6762561e-07
154	0x3565c22c	8.5591705e-07
155	0x34f0dc1f	4.4863643e-07
156	0x33555b41	4.9675922e-08
157	0x352d2d01	6.451301e-07
158	0x3586e083	1.004912e-06
159	0x33f7f6db	1.15467365e-07
160	0x347f7cfc	2.3794195e-07
161	0x303a560c	6.7788686e-10
162	0x32b138be	2.0631315e-08
163	0x2ef10baf	1.09614866e-10
164	0x3452961d	1.9612385e-07
165	0x35c017d8	1.4312054e-06
166	0x2ea3521e	7.426969e-11
167	0x2d0d9a98	8.049249e-12
168	0x33c7ceea	9.304297e-08
169	0x341e7be6	1.475997e-07
170	0x337faca7	5.952884e-08
171	0x34e35502	4.2343896e-07
172	0x352c7bc4	6.4255096e-07
173	0x2f870659	2.4560867e-10
174	0x34801c48	2.3862435e-07
175	0x34896bf4	2.5596785e-07
176	0x33f21bb3	1.12740416e-07
177	0x2f966a58	2.7360403e-10
178	0x32d7fa5e	2.5143148e-08
179	0x2e410fb6	4.3897073e-11
180	0x3438caf7	1.7210174e-07
181	0x31d22c22	6.1168217e-09
182	0x30fc2687	1.8346363e-09
183	0x2f84beda	2.4146268e-10
184	0x34f229b6	4.510636e-07
185	0x3675e195	3.663915e-06
186	0x322c54e9	1.0031024e-08
187	0x2e5bcc20	4.9976134e-11
188	0x34b1e13d	3.3132702e-07
189	0x34ad0013	3.2223815e-07
190	0x3228fcf2	9.8364e-09
191	0x34f8a218	4.6311538e-07
192	0x36113d3e	2.1642331e-06
193	0x30451804	7.170231e-10
194	0x353241d3	6.6405954e-07
195	0x34b2001f	3.3155172e-07
196	0x333543e7	4.2204103e-08
197	0x338a65eb	6.4446645e-08
198	0x3395c20d	6.973651e-08
199	0x31527370	3.062464e-09

exp_avg f4 [10]
0	0x34bb2241	3.4856387e-07
1	0xb5ed7ab7	-1.7693591e-06
2	0xb5ede664	-1.7724929e-06
3	0xb6036ff9	-1.9585698e-06
4	0xb5dd7d7d	-1.6502305e-06
5	0x392b31dc	0.00016326405
6	0xb4f35b0a	-4.5328517e-07
7	0x37c85af1	2.3884206e-05
8	0xb602d41a	-1.949497e-06
9	0x3542434f	7.236858e-07

exp_avg_sq f4 [10]
0	0x340c7382	1.3080538e-07
1	0x36380d4f	2.7425883e-06
2	0x3113d08a	2.1509856e-09
3	0x35a5eb1a	1.2361882e-06
4	0x3648c251	2.991543e-06
5	0x35643e45	8.5027233e-07
6	0x3476a4e2	2.297052e-07
7	0x36984198	4.537589e-06
8	0x34c64775	3.6932366e-07
9	0x35ab5fc7	1.2768368e-06

exp_avg f4 [2, 10]
0	0x36526e28	3.1356558e-06
1	0xb599704f	-1.1432074e-06
2	0x34e2f38a	4.2272978e-07
3	0xb5ae6a8b	-1.2995018e-06
4	0x36513008	3.1171385e-06
5	0x39f4fd45	0.00046728007
6	0x35a1554a	1.2020257e-06
7	0x398ff186	0.00027455034
8	0xb6f1e2cf	-7.2087637e-06
9	0x36852b23	3.9687307e-06
10	0x36cce970	6.1068495e-06
11	0x3633178e	2.668679e-06
12	0x36650802	3.412832e-06
13	0x36540043	3.1590614e-06
14	0x36ccbdb7	6.1017595e-06
15	0x394f47b8	0.00019767776
16	0x36c63808	5.9073827e-06
17	0x394075f3	0.00018354486
18	0xb510d396	-5.395208e-07
19	0x371d898c	9.389954e-06

exp_avg_sq f4 [2, 10]
0	0x3491f4b8	2.718641e-07
1	0x3523b75d	6.098906e-07
2	0x31f0cce6	7.0082136e-09
3	0x32cf8fa6	2.4163295e-08
4	0x3317d323	3.5349455e-08
5	0x37535994	1.2597437e-05
6	0x33c5e4cf	9.2151474e-08
7	0x37a5501f	1.9706842e-05
8	0x33e8acc9	1.0834771e-07
9	0x3389b756	6.412908e-08
10	0x3694ec5a	4.4382587e-06
11	0x37444056	1.169749e-05
12	0x31f23885	7.0495525e-09
13	0x356fff34	8.940581e-07
14	0x358bd4d6	1.041825e-06
15	0x38391596	4.412754e-05
16	0x350ebaa1	5.3170703e-07
17	0x3808b871	3.25967e-05
18	0x345628cf	1.9945149e-07
19	0x355c3b07	8.204228e-07

exp_avg f4 [2]
0	0x39c509e8	0.0003758215
1	0xba61b08f	-0.0008609378

exp_avg_sq f4 [2]
0	0x3909d341	0.00013144036
1	0x39217291	0.00015396836
