neural_network/lightning_logs/version_19/checkpoints/epoch=1-step=3750.ckpt (torch, 13835 bytes, 18 tensors)

layers.0.weight f4 [20, 4]
000000 cf 53 b8 be d7 bb 7e be e7 a4 07 3e 0e c7 01 ba
       -0.3600144 -0.24876343 0.13246499 -0.0004950621
000010 c4 96 e8 3e 29 7e 87 3f 22 0b 1a bf e8 7c b9 bc
       0.45427525 1.0585376 -0.6017324 -0.022642568
000020 bb fb e4 be 28 0a 52 3e 61 6c e9 3c c7 38 38 3c
       -0.44723305 0.20511687 0.028494062 0.0112440055
000030 a5 e1 20 be d0 59 52 bf 06 fa 0f be ab 4e 36 3e
       -0.15711077 -0.82168293 -0.1406022 0.17803447
000040 d7 17 e7 be d5 db b7 be fe 0a d1 bd 41 ea 1b 3e
       -0.45135376 -0.35909906 -0.10207175 0.1522608
000050 50 f7 ac bd 53 87 ce 3e ee ec 92 be f9 67 07 3e
       -0.084456086 0.4033762 -0.28696388 0.13223256
000060 09 59 f3 3d c7 c5 81 3f c2 53 17 bf 95 ec 11 3e
       0.118822165 1.0138482 -0.5911218 0.14250405
000070 bf e5 2a bc 41 ec eb bd 93 07 5e be b1 2d a5 3e
       -0.010430752 -0.11519671 -0.21682577 0.32261422
000080 b5 38 e8 be ba 8b 68 be 1d 4f 11 3e 20 10 a4 3a
       -0.45355764 -0.22709551 0.14190336 0.0012517013
000090 8e ed 1f 3e 34 31 6e 3d 1a a4 0b 3e 68 31 2a 3d
       0.15617964 0.058152393 0.13636819 0.041551024
0000a0 d6 44 5d 3f 96 e2 2d bf 28 5f a1 be 6b b3 2d 3d
       0.8643316 -0.6792387 -0.3151791 0.042407434
0000b0 1c 24 6e bf da e1 b5 be 4b 45 4a 3e cb b2 8b 3d
       -0.9302385 -0.35523874 0.19752996 0.068212114
0000c0 7c 90 83 be 02 e4 38 3e 19 31 91 bc 66 13 a3 ba
       -0.2569617 0.18055728 -0.017723607 -0.0012441694
0000d0 d9 15 47 bf bc f5 10 bf 8e 2c ea 3e 19 14 b9 3b
       -0.7776771 -0.5662496 0.45737118 0.005648148
0000e0 3d e8 ba be d5 43 aa 3e 6e 91 38 3e ec e3 b3 bd
       -0.3650531 0.33254877 0.18024227 -0.08783707
0000f0 f1 23 a0 be 1f a6 06 be e1 9b a7 be 39 74 8f 3e
       -0.3127742 -0.13149308 -0.32736114 0.28018358
000100 0b 6f 2b bd a0 2f 33 3e 14 74 c4 be da 98 c6 be
       -0.041853946 0.17498636 -0.3836981 -0.3878849
000110 e3 00 a7 3f 33 fc 3d bf 78 3f f5 3e 55 fb 5d 3c
       1.3047146 -0.7421295 0.47899985 0.013548692
000120 9d 59 83 3e ba 1a e6 3d 91 3a 0d bf d7 61 0c be
       0.25654307 0.112355664 -0.5516749 -0.13709198
000130 f1 b5 52 bf d7 f4 0c 3f 1e 5a 25 be 84 79 88 3c
       -0.8230887 0.55061096 -0.16147658 0.016659506

layers.0.bias f4 [20]
000000 76 85 61 be ee 52 0d 3e 55 d2 67 3e 82 9e 36 3e
       -0.22023568 0.13801166 0.22638829 0.17833903
000010 05 fc 63 be 6b a4 8f bc 1c 89 f0 3d ba 9f de be
       -0.22264107 -0.017534455 0.117449015 -0.43481237
000020 13 94 ab be 4d 79 47 bf 7c 44 99 be d0 23 8e 3d
       -0.3351141 -0.77919465 -0.29935062 0.069404244
000030 23 66 de be 1a 07 7c be 39 ac 46 bf dd 03 ff bc
       -0.434373 -0.24612084 -0.7760654 -0.031129772
000040 2c a2 17 bf 53 77 ad bf f0 d3 51 3d 01 ab fc 3d
       -0.5923183 -1.355204 0.05122751 0.12337304

layers.2.weight f4 [10, 20]
000000 5b 5c 31 3e 6a 56 0e be 41 41 2c bf 93 85 40 3d
       0.17320387 -0.13900152 -0.6728707 0.047002386
000010 7b 5d 88 be a3 3d 81 3d 03 e4 93 3c a7 69 05 bf
       -0.2663382 0.063105844 0.01805306 -0.5211434
000020 af 49 11 bd 1d 10 29 3d f5 82 07 be 21 95 88 3d
       -0.03547066 0.041275132 -0.1323355 0.06669069
000030 e2 fb 01 be eb b7 5d be 06 a2 27 be 57 bd d0 bc
       -0.12693742 -0.2165219 -0.16370401 -0.02548091
000040 ee f7 4d 3c 79 d5 42 be 6c 22 38 3f b1 50 6f be
       0.012571318 -0.19026746 0.71927524 -0.23370625
000050 c4 71 b8 3d 75 be 44 be bc 45 41 be 0f 62 a2 bd
       0.09006074 -0.19213279 -0.18874258 -0.079288594
000060 65 5c 21 3e e0 40 8b be 52 f1 27 bc d5 1e ed 3a
       0.15757902 -0.27197933 -0.010250406 0.0018090854
000070 a1 cc b1 bd 95 7a 9b be 5a a6 97 bc 56 f7 e1 bc
       -0.08681608 -0.3036696 -0.01851194 -0.02758376
000080 b8 30 28 be 46 df b4 3b a4 9c b6 bd f3 a9 47 3c
       -0.16424835 0.0055197803 -0.089165956 0.012186515
000090 1a a8 32 be 6a 22 35 be 87 dd 23 3e 0b eb 15 bd
       -0.17446938 -0.17688909 0.16002475 -0.036601108
0000a0 f6 89 a0 be e5 50 94 bb b3 2d eb bc 3e 10 73 be
       -0.31355256 -0.004526245 -0.028708315 -0.23736665
0000b0 eb 23 62 bd 90 51 f0 bd 7a 00 7e bc 09 74 ab bd
       -0.055210035 -0.11734307 -0.015503043 -0.08371741
0000c0 1a bf 03 3e c8 c2 c2 3e 78 83 34 3e 2c d1 c7 be
       0.12865868 0.3803923 0.17628276 -0.39026773
0000d0 f8 b3 a1 bd 3a 31 57 bd 3b e3 04 be 28 31 c4 3d
       -0.078956544 -0.05253718 -0.12977307 0.09579688
0000e0 08 a0 00 bf 28 88 20 3f 64 ae c1 3d 3e 07 0a be
       -0.5024419 0.6270776 0.094570905 -0.13479325
0000f0 6a e3 04 3e 1a 4d 30 be de 78 bf bd 98 6c 25 3e
       0.12977377 -0.17216912 -0.093492255 0.16154706
000100 9c 64 1d be db 93 3c 3d 29 32 09 3f 08 ae 56 3e
       -0.1537041 0.046039443 0.53592163 0.20964825
000110 62 25 25 bd 3a 8d 24 3d 85 36 e8 bd 83 f6 9e bc
       -0.040318854 0.040173747 -0.11338524 -0.019404655
000120 91 a5 c2 bd d6 a3 9d 3d cf 35 93 3d e0 97 b4 3d
       -0.095042355 0.07697265 0.071879975 0.0881803
000130 20 c1 2f be 26 7f ce bd c6 01 88 3e d1 36 97 3d
       -0.17163515 -0.100828454 0.26563853 0.07383502
000140 2d 5b 7f bd 74 fb 68 3e 81 6d cc bd 6b f9 10 be
       -0.06234281 0.22752172 -0.09981824 -0.14157645
000150 d2 6d e9 3d 9c df fb 3d 87 20 e4 3e 05 7d 97 3c
       0.113979 0.122985095 0.44556066 0.018492231
000160 b8 dd 92 3d c5 7b ab bc d5 0c cb 3d 36 4d f0 3d
       0.07171196 -0.020933041 0.09914557 0.11733477
000170 a2 25 62 3d 0a 91 ae bd bf b4 b0 be 3e 28 43 3d
       0.05521167 -0.08523758 -0.34512898 0.0476458
000180 5b 7c 28 be 48 8f c1 be 75 5e 50 be ec d8 3d be
       -0.16453688 -0.37804627 -0.20348532 -0.1853978
000190 50 b1 c2 bc 6c 70 a4 3c 8a 71 23 bd 5a ca 80 3c
       -0.02376619 0.020073138 -0.0399032 0.015721489
0001a0 7a bf 4e 3d 5e c7 6e be 79 64 20 3e 16 5f 02 be
       0.050475575 -0.2331824 0.15663327 -0.12731585
0001b0 9e 6d 23 3e 1d 65 06 be 58 2e 01 bf 34 7f 50 be
       0.15959784 -0.13124509 -0.5046134 -0.20361024
0001c0 b2 2e 5c be a7 9f a7 bd 63 76 82 3d 04 e8 be 3d
       -0.21502188 -0.08184748 0.06370237 0.09321597
0001d0 a9 f6 50 be 79 1f 34 be e6 b4 08 bd 50 b5 20 be
       -0.20406593 -0.17590131 -0.033375643 -0.15694165
0001e0 a9 36 35 be d1 f5 83 bd dd ce 90 be 00 9d 8b be
       -0.17696632 -0.0644337 -0.28282824 -0.2726822
0001f0 b6 fa 82 be 01 da a6 bd ac 93 35 bd 1a f6 92 3d
       -0.25581902 -0.0814705 -0.044330284 0.071758464
000200 2b 9b 58 bd 46 ed c5 bd 7e ae df bd c2 df a8 be
       -0.052882355 -0.09664397 -0.109219536 -0.32983214
000210 af 3a 8c 3e 01 b2 f1 3d e6 dd a2 be 7d 71 84 3d
       0.27388522 0.1180153 -0.3180992 0.06466959
000220 bd d7 ff bd db 6e 81 be 0f 97 8f be 27 e1 0a 3d
       -0.12492321 -0.2527989 -0.28044936 0.03390613
000230 94 8a af 3d ec 54 9e 3e a8 b3 ef 3c a9 91 8c 3c
       0.085713536 0.30924165 0.029260471 0.0171593
000240 bd 8e 32 3d a0 25 8d bd b9 56 0c be 2d 3c f2 bb
       0.043593157 -0.06891942 -0.13704957 -0.0073924274
000250 8e dc 26 3e 71 9c 79 be 81 ca 60 bd 73 18 0d 3d
       0.16295072 -0.24376084 -0.054880623 0.034447145
000260 37 b1 b2 3d dc ee 79 3e 42 2c 21 3d ae 25 01 be
       0.08725207 0.24407524 0.03934885 -0.1261203
000270 1e 54 10 3e 3f e7 df be 9f 6b 40 3c ac 56 fb 3d
       0.14094588 -0.43731114 0.011744409 0.12272391
000280 57 2e 5d bd 1a a0 8e 3d 34 ec 34 be 1e ad 8c be
       -0.05399927 0.06964131 -0.1766823 -0.27475828
000290 ef 2b df 3d 99 1a 1d bd 1c 62 45 bc 06 0b bf bd
       0.108970515 -0.038355444 -0.012047317 -0.093282744
0002a0 4d 0c 24 be 3a ab 9b be 47 42 af bb af dd 73 be
       -0.16020317 -0.30404073 -0.005348477 -0.23815034
0002b0 b8 6e f2 be 83 eb 22 3d 96 f8 19 bd 5a 0d 2f bd
       -0.47350097 0.039775383 -0.037590586 -0.042737342
0002c0 fe d3 10 3e f9 80 d1 bd ca 26 b0 3d 67 e5 96 be
       0.14143369 -0.10229678 0.086011484 -0.29471895
0002d0 74 90 84 be d9 e9 36 be b6 06 2e bc b3 ca 82 3c
       -0.2589146 -0.17862643 -0.010621717 0.015965795
0002e0 8f 7a 3a be 0a 39 d7 bc 77 a6 6a be 3a 8f ce 3d
       -0.18210815 -0.026272316 -0.22915064 0.10085912
0002f0 c0 2c 0b bc b4 82 dc 3d 51 85 a0 be 7c 44 87 3d
       -0.008494556 0.10767117 -0.31351712 0.06604859
000300 02 1a 7d be 20 8b 81 3d 82 8f 0b be 92 49 78 be
       -0.24716952 0.06325364 -0.13628963 -0.24246815
000310 c7 9d 4b be 27 c5 17 be 10 16 be be b0 fc 9f bd
       -0.19884406 -0.14821301 -0.37126207 -0.07811868

layers.2.bias f4 [10]
000000 08 32 5c bc 5b be 25 bc 40 f0 7e be 55 ec e9 bc
       -0.013439663 -0.010116185 -0.24896336 -0.028555075
000010 80 f3 d5 3d d5 d9 21 be 56 5a 3f be 34 1a 7d 3e
       0.104468346 -0.15805753 -0.18686804 0.24717027
000020 14 6b 88 bd ab 5c 33 be
       -0.066610485 -0.17515819

layers.4.weight f4 [2, 10]
000000 ec a2 d4 3d 14 fb 13 be 68 2f c4 3d fb 59 b9 bd
       0.103826374 -0.14451247 0.095793545 -0.090503655
000010 61 33 a0 bd 0e 6b 09 bd 8d 05 8c bc 8d c3 66 3c
       -0.078223 -0.03354936 -0.01709249 0.014084709
000020 d4 85 86 3c 9a 8e c9 bd d0 da 28 bd 87 2d 07 3e
       0.016421236 -0.09841652 -0.0412243 0.13200961
000030 a9 ad ca 3e 19 04 4a bc ab ed 8f bd d3 0e da bd
       0.39585617 -0.0123300785 -0.070277534 -0.10647359
000040 10 b6 5f bd 81 f1 75 be 00 d6 0b bc 7b 37 bf bd
       -0.054616988 -0.24017908 -0.008534908 -0.09336754

layers.4.bias f4 [2]
000000 12 92 79 3c 46 a9 dd 3d
       0.01523258 0.10823302

exp_avg f4 [20, 4]
000000 31 5f c2 b5 e9 aa 87 b5 23 4b 82 b6 61 4b a7 b5
       -1.4481831e-06 -1.0108025e-06 -3.883049e-06 -1.2464408e-06
000010 57 66 9f b7 45 d5 a3 36 9a bd 60 37 d3 8a 2f 38
       -1.9001933e-05 4.8826064e-06 1.33955855e-05 4.185254e-05
000020 38 18 9f b7 a2 06 8b b7 1b 12 4f b8 84 44 93 b8
       -1.8965555e-05 -1.657318e-05 -4.9369508e-05 -7.022268e-05
000030 a9 a0 28 b5 80 4e 4d b4 e3 66 e3 b4 ca 94 24 36
       -6.281867e-07 -1.9120671e-07 -4.2356905e-07 2.452451e-06
000040 96 e7 9d b4 46 42 96 b3 bb be 5a b5 d2 e7 d8 34
       -2.941203e-07 -6.9969744e-08 -8.148888e-07 4.0401807e-07
000050 39 b7 8d b7 1e 71 b3 b7 5e 39 ce b7 9e e8 dc b6
       -1.689383e-05 -2.1391137e-05 -2.4583827e-05 -6.583591e-06
000060 20 c5 4b b6 b6 a2 7d 36 b9 5c af 38 ae c2 10 39
       -3.03641e-06 3.7794648e-06 8.361921e-05 0.00013805434
000070 16 6b 5e 37 06 9f 48 37 9e 5d 5a 38 1a f9 93 38
       1.3257164e-05 1.19579545e-05 5.2062438e-05 7.055905e-05
000080 90 4e b7 34 91 a3 20 35 30 e5 e4 35 aa 93 07 36
       3.4143568e-07 5.9842665e-07 1.7054026e-06 2.020252e-06
000090 ef 9a fc 35 f2 54 87 35 5b 1f 9b 36 c7 5c cf 34
       1.8820555e-06 1.0083006e-06 4.62301e-06 3.862426e-07
0000a0 30 c1 61 35 14 de 22 35 d4 bd 14 36 9e 5d 64 35
       8.4100157e-07 6.067287e-07 2.2164213e-06 8.507285e-07
0000b0 a8 34 aa 37 6f 17 8e 37 55 eb 83 38 00 32 04 39
       2.02901e-05 1.6938631e-05 6.290401e-05 0.00012607127
0000c0 3d fd e1 b4 d6 d7 11 b4 04 e0 7d b5 b4 0d 95 34
       -4.209377e-07 -1.3582698e-07 -9.457583e-07 2.7763383e-07
0000d0 f8 18 93 36 3f 0e 88 37 cc af 50 38 03 ca 0e 39
       4.383848e-06 1.6219097e-05 4.9754788e-05 0.0001361743
0000e0 70 3a 10 37 25 cd 4b 37 1a 8f 03 38 4b 27 3a b8
       8.596675e-06 1.2147507e-05 3.1366108e-05 -4.438245e-05
0000f0 86 81 12 b6 d8 03 14 b6 e3 25 82 b7 18 fb dd b7
       -2.1831088e-06 -2.2055956e-06 -1.551485e-05 -2.6462178e-05
000100 49 df 1b b6 83 66 dd b5 76 4d dd b6 d6 66 36 b6
       -2.322677e-06 -1.6495618e-06 -6.595331e-06 -2.7179972e-06
000110 bf 9a c5 39 ff 07 70 39 2d 66 79 3a 08 cb a3 39
       0.00037690063 0.00022891162 0.00095138216 0.00031241053
000120 ff 39 85 34 87 07 99 33 80 18 6d 35 fd bf 02 b4
       2.4815378e-07 7.125987e-08 8.832503e-07 -1.2177038e-07
000130 3a 0a 1a b5 19 6e 5b 34 c5 6b 5a b5 c1 83 9e 35
       -5.738435e-07 2.0436018e-07 -8.1368154e-07 1.1810263e-06

exp_avg_sq f4 [20, 4]
000000 f5 bf 9c 31 b3 45 a3 31 86 32 c8 33 89 04 49 33
       4.5620205e-09 4.7518482e-09 9.322416e-08 4.6803084e-08
000010 ec 7d 5d 33 ee 50 74 33 c0 17 a8 34 c1 9e 60 34
       5.1570098e-08 5.6884282e-08 3.130972e-07 2.091938e-07
000020 13 ad 0c 33 bb bf d0 32 47 1a a4 34 ae ba 13 34
       3.27537e-08 2.4301576e-08 3.05665e-07 1.3758356e-07
000030 8a 44 1d 32 d3 ec df 31 a7 ad 1c 34 b9 e8 94 33
       9.154187e-09 6.517078e-09 1.4591807e-07 6.934119e-08
000040 fd 2d 0a 2e e9 29 0d 2e d0 b1 e4 30 93 1b 45 31
       3.1418413e-11 3.2096912e-11 1.6639721e-09 2.8682947e-09
000050 99 fb 97 32 47 7d 51 32 c0 9e 43 34 76 76 b5 33
       1.7693127e-08 1.2193886e-08 1.8218543e-07 8.450017e-08
000060 c3 aa d2 32 b3 5d 08 33 ef 42 8d 34 c5 57 7d 34
       2.4524871e-08 3.1750186e-08 2.6311997e-07 2.3594392e-07
000070 6f 98 49 32 9a e0 2c 32 fe 95 03 34 ec 04 af 33
       1.1734399e-08 1.0062786e-08 1.2254893e-07 8.149968e-08
000080 bd 85 28 30 d0 14 17 30 93 06 ca 32 b6 53 6d 32
       6.13081e-10 5.4963056e-10 2.3518885e-08 1.3814249e-08
000090 40 7a 97 33 51 57 9c 33 b3 32 54 35 05 f5 b9 34
       7.0537226e-08 7.280199e-08 7.904993e-07 3.463721e-07
0000a0 b2 32 69 32 7e 54 db 31 a9 22 a8 33 96 74 33 33
       1.3573912e-08 6.3833445e-09 7.829414e-08 4.178272e-08
0000b0 56 74 3b 32 d8 6c 21 32 79 ae 6e 34 cf 7f c2 33
       1.0911284e-08 9.396182e-09 2.222895e-07 9.057077e-08
0000c0 14 09 fc 30 2c 3c 16 31 f8 e5 f1 32 b7 38 93 32
       1.8337993e-09 2.1862077e-09 2.816067e-08 1.7138843e-08
0000d0 f7 19 c4 32 62 8b c2 32 c5 40 59 35 21 00 6e 34
       2.282921e-08 2.2647956e-08 8.093305e-07 2.2165524e-07
0000e0 19 e9 40 32 81 b6 76 32 12 38 43 34 cf 02 b4 33
       1.1228871e-08 1.4360581e-08 1.8181188e-07 8.382414e-08
0000f0 43 e5 f5 30 83 6d d9 30 95 54 73 33 fc bf 9d 33
       1.7891256e-09 1.5819953e-09 5.6654773e-08 7.345804e-08
000100 54 63 ca 31 e3 f2 c4 31 7c b8 9e 33 06 22 94 33
       5.890266e-09 5.731964e-09 7.391006e-08 6.897976e-08
000110 6c 80 5f 35 62 5e 26 35 24 0d e9 36 9d 57 60 36
       8.326085e-07 6.1977164e-07 6.945471e-06 3.3429599e-06
000120 23 10 d6 30 b9 fd c1 30 4b 7d 45 32 1e 23 31 32
       1.5575136e-09 1.411471e-09 1.14953975e-08 1.0310741e-08
000130 72 7e 5c 32 2f 80 77 32 ba 52 56 34 5a 04 d9 33
       1.2834436e-08 1.4406438e-08 1.9960399e-07 1.01056415e-07

exp_avg f4 [20]
000000 56 9a c7 b5 5b f8 7f 35 97 05 90 b7 cc f4 2f b3
       -1.4871573e-06 9.535631e-07 -1.716874e-05 -4.0968004e-08
000010 5c ee bd b4 0a a4 e1 b6 51 8d 2b 38 c6 c7 b6 37
       -3.5377423e-07 -6.724619e-06 4.090119e-05 2.1789117e-05
000020 84 72 35 35 9f 90 ee 35 0a 60 60 35 61 1d f2 37
       6.7594397e-07 1.7774472e-06 8.358626e-07 2.8862329e-05
000030 aa 6f c7 b4 c9 7e 3b 38 0d da 58 37 0a 5f 13 b7
       -3.7147885e-07 4.4702352e-05 1.2925372e-05 -8.784011e-06
000040 b4 41 2a b6 a5 96 d5 39 b3 61 d3 34 3f df 81 b4
       -2.5370218e-06 0.00040738765 3.9372898e-07 -2.4190555e-07

exp_avg_sq f4 [20]
000000 c5 59 a5 32 14 64 74 33 98 b2 7d 33 55 57 f9 32
       1.924935e-08 5.6901698e-08 5.9068583e-08 2.902713e-08
000010 7c 68 e7 2f 60 06 21 33 1b 97 68 33 2b 3e d1 32
       4.2092896e-10 3.749153e-08 5.415414e-08 2.4359073e-08
000020 ef 9b bc 31 49 71 17 34 75 a6 85 32 e7 82 3d 33
       5.4892477e-09 1.4104184e-07 1.5558934e-08 4.4124047e-08
000030 95 69 bb 31 bf 7e 38 34 bf 58 0f 33 8f 37 6b 32
       5.4544196e-09 1.7182445e-07 3.3375496e-08 1.3691433e-08
000040 1c 1a 75 32 0b 33 a0 35 1d f3 23 31 24 a6 24 33
       1.42668135e-08 1.1935784e-06 2.3857816e-09 3.833533e-08

exp_avg f4 [10, 20]
000000 07 ef f4 30 3e 71 50 34 fe 24 ea 34 04 b3 ca 33
       1.7821272e-09 1.9412707e-07 4.3612812e-07 9.438921e-08
000010 fe 0b 16 af 07 bb df 30 56 5c 1c 34 08 e4 c3 b3
       -1.3646681e-10 1.6278542e-09 1.4562224e-07 -9.121874e-08
000020 e2 11 b1 30 d0 8a 9c b1 cf 4d de b1 93 3f a4 34
       1.2883528e-09 -4.5559787e-09 -6.469896e-09 3.0593637e-07
000030 ed 21 67 b1 e3 81 8e 35 3c ef 0b 34 06 55 87 31
       -3.3634209e-09 1.0617626e-06 1.3032417e-07 3.938683e-09
000040 73 28 40 b2 b2 f1 3b b4 f9 04 0f b2 4f 39 36 32
       -1.1185068e-08 -1.750366e-07 -8.324826e-09 1.0606825e-08
000050 ed 1b 4b b1 d7 23 79 b4 a8 08 53 b5 27 27 5f b4
       -2.9556262e-09 -2.320297e-07 -7.861622e-07 -2.0782737e-07
000060 9f d4 5c b1 a4 0d 89 b2 b7 07 a4 b4 00 6f 30 32
       -3.2135075e-09 -1.5955102e-08 -3.0552994e-07 1.0269787e-08
000070 8f 83 43 b1 ba 22 cc 31 fe 82 5a 32 f2 bf 1b b5
       -2.8451017e-09 5.9411294e-09 1.2719054e-08 -5.8021317e-07
000080 0c 54 4e 31 85 e0 ce b5 51 32 84 b4 29 77 cc b2
       3.002472e-09 -1.541354e-06 -2.4623526e-07 -2.3802913e-08
000090 cb f5 ad 32 8d 41 55 35 f1 f7 69 32 2b 87 d0 b2
       2.0251624e-08 7.944407e-07 1.361876e-08 -2.4275854e-08
0000a0 45 ac e8 b5 84 8b 80 38 5d 00 8e 37 6a 28 70 b6
       -1.7335484e-06 6.1295024e-05 1.6927888e-05 -3.578631e-06
0000b0 df 35 99 b6 a7 db cb b6 2e 77 78 38 a4 fd 89 b7
       -4.5660267e-06 -6.0754423e-06 5.9238802e-05 -1.6449783e-05
0000c0 a6 fc 24 b6 56 e3 89 b5 66 35 79 b6 34 c1 6c b6
       -2.4584965e-06 -1.0273459e-06 -3.7134973e-06 -3.52792e-06
0000d0 c6 a9 3d b6 79 6c 73 38 92 d2 34 b6 36 28 98 b6
       -2.8262016e-06 5.8036738e-05 -2.6944658e-06 -4.534634e-06
0000e0 90 b9 1c b7 c1 9b 8a 39 f8 ec c5 b6 46 d5 48 b6
       -9.341529e-06 0.00026437457 -5.8986443e-06 -2.9926464e-06
0000f0 58 a7 ca 33 32 68 01 b8 c4 02 12 36 79 9c 03 b5
       9.436798e-08 -3.0853036e-05 2.1757305e-06 -4.9029e-07
000100 4b e7 27 34 f4 f5 ff 34 64 e9 e1 b6 fe b7 7a 37
       1.5637231e-07 4.7676406e-07 -6.732693e-06 1.4944e-05
000110 48 06 af 33 6f 37 f5 b3 76 2f 83 b4 15 0f 45 37
       8.150215e-08 -1.1418785e-07 -2.4435184e-07 1.1745627e-05
000120 b6 ee e8 b3 d0 87 9b 36 34 0b 97 b4 06 5a 1c 35
       -1.0846763e-07 4.6351706e-06 -2.8134093e-07 5.824553e-07
000130 b7 94 56 b5 82 1b bf b7 d2 11 01 b5 ae 16 55 b5
       -7.993762e-07 -2.2781784e-05 -4.8082177e-07 -7.9381687e-07
000140 ec 33 51 b4 4c 77 d5 b7 67 39 b4 b6 a6 2b 78 36
       -1.9483531e-07 -2.544713e-05 -5.3711005e-06 3.6980286e-06
000150 d8 a8 23 33 e8 53 ac 35 05 a7 c1 36 a1 d6 ae 37
       3.8104957e-08 1.2839419e-06 5.771292e-06 2.084236e-05
000160 31 08 55 b4 53 a8 32 34 9e e7 38 b5 c7 0a bd 36
       -1.9840151e-07 1.6638778e-07 -6.888239e-07 5.6338936e-06
000170 2a 71 b4 b3 65 25 09 b8 fc 85 57 b6 30 a3 01 36
       -8.4024876e-08 -3.269817e-05 -3.2115486e-06 1.9317486e-06
000180 0e 3e 13 b6 d8 9e 94 b7 c9 a5 97 b5 6a 82 a9 33
       -2.1940828e-06 -1.7716942e-05 -1.1298627e-06 7.893398e-08
000190 fe 14 4d 30 9d 6c e7 b3 7f a9 b1 33 ca eb b7 33
       7.46084e-10 -1.07765324e-07 8.273036e-08 8.564491e-08
0001a0 9f 59 0d 32 78 13 e6 32 c2 20 11 34 50 c0 64 34
       8.227658e-09 2.6784377e-08 1.3516095e-07 2.1304118e-07
0001b0 6b 96 25 31 37 c3 8b 31 f9 29 b0 af a7 c5 a3 33
       2.4096163e-09 4.067626e-09 -3.2044037e-10 7.626232e-08
0001c0 ef 45 d5 31 2b 7d b5 b4 5f 77 a4 33 bc 9c fe 32
       6.2070664e-09 -3.380495e-07 7.6585586e-08 2.9640766e-08
0001d0 ff f9 5a 31 b6 8f 6b b5 dd 6c 8f 31 1d e5 7c 32
       3.1865282e-09 -8.775345e-07 4.174224e-09 1.4720425e-08
0001e0 5e cf c1 2f 40 e0 7f b3 1e 7f 6d 33 59 11 40 33
       3.525384e-10 -5.957577e-08 5.5296475e-08 4.471926e-08
0001f0 85 d9 81 31 25 fe 50 32 be b8 81 33 16 58 e6 33
       3.7791232e-09 1.2164979e-08 6.040635e-08 1.0726232e-07
000200 84 67 98 30 1f bc e8 30 8b 2b 4a b0 52 9e 65 33
       1.1088876e-09 1.6933689e-09 -7.354905e-10 5.346221e-08
000210 a7 17 3e 31 79 ed 20 b4 0f 40 1a 33 04 24 7d 32
       2.7662084e-09 -1.4987553e-07 3.591418e-08 1.4734727e-08
000220 d1 e3 34 30 f8 a1 ec b4 83 ab c2 30 b7 e6 ec 31
       6.5807365e-10 -4.4076273e-07 1.4164104e-09 6.8947332e-09
000230 42 84 85 34 11 3a bf b7 5a 05 96 38 64 07 df 37
       2.486941e-07 -2.2796014e-05 7.153554e-05 2.6587113e-05
000240 f2 45 a9 35 da 1f ff 35 df c8 05 38 c3 8a f7 37
       1.2611838e-06 1.900825e-06 3.1896747e-05 2.950931e-05
000250 22 ca df 34 86 e8 88 b3 9b fe d0 b5 85 5a 7f 38
       4.1684058e-07 -6.375289e-08 -1.5571308e-06 6.088104e-05
000260 d0 85 bb 34 a0 55 49 38 85 51 b1 37 40 68 d1 36
       3.4928826e-07 4.800188e-05 2.1138005e-05 6.2408217e-06
000270 75 b5 34 b6 45 16 43 b9 50 b5 b4 b5 ff 67 52 36
       -2.6927712e-06 -0.00018604945 -1.3463814e-06 3.1352972e-06
000280 0b 3f b5 2f fa 35 03 33 bd 2f 97 33 55 dc 8d 32
       3.2968503e-10 3.0549906e-08 7.040169e-08 1.6514756e-08
000290 71 16 6d 2f 0b 47 76 30 ea 0c e2 32 e3 ab 4b b2
       2.1562997e-10 8.9595237e-10 2.6315735e-08 -1.1855238e-08
0002a0 ab 7f a4 2f 8e ba 26 b0 95 a2 7d b0 45 60 4f 33
       2.992214e-10 -6.065556e-10 -9.2271907e-10 4.82835e-08
0002b0 d6 66 c1 af 2a dc 30 34 fb f9 c6 32 14 aa 9e 30
       -3.5179565e-10 1.6471373e-07 2.3163912e-08 1.1544352e-09
0002c0 2f 2a c9 b0 76 ce 41 b3 ed 29 96 b0 0a ab 0f 31
       -1.4636664e-09 -4.512409e-08 -1.0925852e-09 2.0906463e-09
0002d0 ae 7b f8 af 6c ce 85 b4 55 10 03 b4 c2 b3 3c 33
       -4.5198817e-10 -2.4923372e-07 -1.2206267e-07 4.393565e-08
0002e0 e6 29 02 32 fd 7b c4 32 5f 09 29 33 03 ee 9a 34
       7.5765225e-09 2.2873786e-08 3.93569e-08 2.8857912e-07
0002f0 1c 0a b4 30 de 44 c8 31 0a 5d a8 30 40 94 2c b3
       1.3099597e-09 5.8285954e-09 1.2250052e-09 -4.0181703e-08
000300 ba 7a f9 31 c2 20 78 b5 e4 6f 9b b1 e5 17 fe 32
       7.260806e-09 -9.243487e-07 -4.523814e-09 2.9580358e-08
000310 86 95 c1 31 7e 68 5f b5 38 26 de 31 8f 66 03 32
       5.634038e-09 -8.322603e-07 6.4653953e-09 7.648523e-09

exp_avg_sq f4 [10, 20]
000000 d3 20 52 32 38 77 e0 30 d0 3d c0 31 b6 b8 c3 33
       1.2231072e-08 1.6332029e-09 5.5949627e-09 9.113994e-08
000010 7e 72 82 2e 0e e1 81 33 5c 2c b9 31 9e 7a ae 32
       5.9320535e-11 6.047968e-08 5.3892517e-09 2.0312026e-08
000020 5b 78 9b 30 0b d6 52 32 19 3d c4 30 da 3b 77 33
       1.1311941e-09 1.22722765e-08 1.4278242e-09 5.7563604e-08
000030 16 14 a7 31 a1 d6 a7 32 f1 23 ca 31 69 0c 96 30
       4.862623e-09 1.953896e-08 5.88306e-09 1.0917464e-09
000040 bc 84 0b 32 90 cb 5c 33 08 3e 00 2e 2b 99 46 33
       8.121045e-09 5.140788e-08 2.9158925e-11 4.6239773e-08
000050 12 c1 a8 34 3a c1 14 30 c1 4f 15 33 a1 26 6c 35
       3.1432916e-07 5.411668e-10 3.47643e-08 8.7973064e-07
000060 a6 65 c4 2e 55 4d 8c 34 32 65 bf 33 45 23 69 34
       8.9311045e-11 2.6133299e-07 8.912538e-08 2.1712647e-07
000070 7f 52 1d 33 50 d7 4d 33 e3 16 12 30 79 02 9a 35
       3.662944e-08 4.7926108e-08 5.3147015e-10 1.1474614e-06
000080 8c 44 a6 31 49 74 df 34 7c 8c a9 33 7e 4c ec 32
       4.8390287e-09 4.1621595e-07 7.89523e-08 2.75088e-08
000090 81 69 43 32 ac 78 15 35 a1 e3 09 2e f7 43 42 35
       1.1374483e-08 5.5682426e-07 3.135237e-11 7.2369534e-07
0000a0 af fa 2e 33 f4 43 91 32 c3 1c f8 32 d6 13 cf 31
       4.0740527e-08 1.6911123e-08 2.888408e-08 6.026748e-09
0000b0 ee a0 27 2f 37 91 11 34 41 c2 43 33 51 80 e7 33
       1.5245735e-10 1.3557006e-07 4.557865e-08 1.0780116e-07
0000c0 7b 65 5f 32 13 ff a7 31 ab af 7f 31 53 0d c6 32
       1.3003382e-08 4.8893383e-09 3.720724e-09 2.3056293e-08
0000d0 c1 00 23 31 18 a9 82 33 81 99 a7 30 1c 1d 8d 32
       2.372005e-09 6.084355e-08 1.2194478e-09 1.6427798e-08
0000e0 35 12 43 30 89 2e f1 34 78 10 d9 2f 78 7a 90 31
       7.096646e-10 4.4923607e-07 3.9483772e-10 4.2048747e-09
0000f0 3f bb 70 33 4d ed 1a 32 55 e9 16 33 80 77 05 35
       5.6049654e-08 9.017936e-09 3.513681e-08 4.9720256e-07
000100 c2 f5 5f 2f 10 f5 c4 34 5a 2b 97 32 47 8c 1a 34
       2.0369043e-10 3.668615e-07 1.7598428e-08 1.43934e-07
000110 11 7e 3d 31 9d 26 8f 33 75 1b e8 32 5b 75 b6 34
       2.757478e-09 6.66598e-08 2.702084e-08 3.398553e-07
000120 bd e0 2e 33 11 7f aa 33 8a fa f9 32 2d 61 15 31
       4.071693e-08 7.939355e-08 2.9101347e-08 2.1737592e-09
000130 55 63 27 33 a2 a8 7a 34 cc 8d a9 2e ec ae a6 34
       3.897306e-08 2.3344413e-07 7.7104184e-11 3.1047182e-07
000140 e9 19 d0 32 29 4a b2 32 94 99 4b 34 2a 99 82 34
       2.422617e-08 2.0755651e-08 1.896172e-07 2.4325828e-07
000150 b7 ec d4 2f 69 2d fa 34 02 c0 d7 32 82 85 6a 34
       3.873077e-10 4.659917e-07 2.511661e-08 2.1841518e-07
000160 7f dc ce 30 3d f2 52 33 56 2b c4 32 85 1c 2b 34
       1.5051141e-09 4.911475e-08 2.283711e-08 1.5935991e-07
000170 8e 37 0a 33 b9 74 a3 33 9a 6d 5b 32 cd 59 28 31
       3.2181156e-08 7.611511e-08 1.2772398e-08 2.4498263e-09
000180 dd 05 0b 33 0b 38 51 34 e4 b4 7f 30 b5 6b 14 34
       3.2368792e-08 1.948503e-07 9.302552e-10 1.3822758e-07
000190 66 1f 82 32 97 d7 88 30 e3 5c da 31 b1 a9 81 33
       1.514827e-08 9.956577e-10 6.355195e-09 6.037897e-08
0001a0 50 69 e9 2c 2d 08 ce 32 db 7c 3c 31 c9 3a a3 32
       6.6339503e-12 2.3985274e-08 2.7428573e-09 1.900243e-08
0001b0 16 64 47 30 71 61 ed 31 bd 13 1f 2e 10 bc 4d 33
       7.253801e-10 6.9086856e-09 3.6169946e-11 4.7901324e-08
0001c0 61 4c a8 30 11 14 8f 32 4c f8 0f 32 22 98 2c 30
       1.2245317e-09 1.6656516e-08 8.380152e-09 6.278943e-10
0001d0 1d bb 1f 31 83 bc 44 33 98 af 96 2b 42 49 0b 33
       2.3243907e-09 4.5806257e-08 1.0706878e-12 3.2430087e-08
0001e0 e5 47 10 30 ec c9 1a 2f a3 6d 23 2f ee d5 17 30
       5.2489063e-10 1.4077955e-10 1.4863714e-10 5.523749e-10
0001f0 56 a6 14 2d c2 15 11 31 90 30 cb 2f 57 6d d7 30
       8.44976e-12 2.1112645e-09 3.695999e-10 1.5674385e-09
000200 8f 38 9d 2e 00 d7 34 2f 41 98 24 2f 87 93 bc 2f
       7.14958e-11 1.6447288e-10 1.4969805e-10 3.4301825e-10
000210 32 9f a6 2f 91 0d 1c 30 4c 7e b2 2e f9 37 d4 2e
       3.030834e-10 5.677175e-10 8.116938e-11 9.6505866e-11
000220 fd 6f 6a 2f 25 4f b8 30 42 f3 fa 2b 29 9d cb 2f
       2.1321962e-10 1.3410256e-09 1.7831086e-12 3.7037154e-10
000230 5a 88 93 33 fd 43 79 33 ce 6d 11 35 68 5f 10 35
       6.870023e-08 5.8036665e-08 5.4176496e-07 5.3783015e-07
000240 b7 03 6b 30 4a 60 43 35 b5 57 81 33 2b 8d d5 34
       8.549778e-10 7.278328e-07 6.0229844e-08 3.9777055e-07
000250 4a 00 06 32 d3 fd ca 33 a9 a5 ec 32 ba 63 f2 34
       7.799892e-09 9.4525284e-08 2.754935e-08 4.5148573e-07
000260 98 ec 60 33 dc cf 7b 34 f9 5d 2f 33 4f 5d 1e 32
       5.2369245e-08 2.3451815e-07 4.083083e-08 9.218026e-09
000270 14 a7 b8 33 28 f6 e8 34 32 18 0d 31 6f 73 ae 34
       8.598559e-08 4.339247e-07 2.0531954e-09 3.2494015e-07
000280 2c db 8b 31 a3 0f 91 2f 35 8e e9 30 39 bf 8f 30
       4.0703494e-09 2.6386457e-10 1.6993399e-09 1.0458968e-09
000290 4c b6 41 2e e5 56 bf 32 da c3 f0 30 cc 7f 56 32
       4.404503e-11 2.2274842e-08 1.7517963e-09 1.2485497e-08
0002a0 5b 01 91 2f e6 c2 32 2f ed 7f 71 2d 34 4b 17 31
       2.637631e-10 1.6258248e-10 1.3727669e-11 2.201614e-09
0002b0 47 ee 85 2c 82 c6 84 31 54 1b 7f 30 a6 d5 e8 2f
       3.8065415e-12 3.8642733e-09 9.2807295e-10 4.235236e-10
0002c0 01 b1 6a 2f 63 f5 6b 32 b6 fa ae 2c 0e 5a f5 2f
       2.134506e-10 1.3734595e-08 4.973212e-12 4.4629228e-10
0002d0 c0 61 45 32 67 20 15 2e a4 7a b8 31 18 e9 df 33
       1.1489135e-08 3.3907457e-11 5.3690474e-09 1.0426646e-07
0002e0 d2 fe 7a 2c a0 7f cd 32 64 31 30 31 8d 1d 90 32
       3.566859e-12 2.3923178e-08 2.5639446e-09 1.6777244e-08
0002f0 74 02 e0 2f 94 b3 4b 32 75 67 1d 2f 62 24 95 33
       4.0747106e-10 1.18569865e-08 1.4315822e-10 6.944971e-08
000300 f3 8e b2 31 e8 9a 65 32 d8 a3 1d 32 6b 2c 0e 30
       5.1967333e-09 1.3364776e-08 9.1758565e-09 5.172242e-10
000310 92 83 fc 31 4a 7c 1f 33 7a e0 01 2c e8 22 83 33
       7.349123e-09 3.7133113e-08 1.8456612e-12 6.106512e-08

exp_avg f4 [10]
000000 e4 3f 4a 35 82 aa 86 b5 5e 6a fe 39 c5 1a dc 37
       7.5343837e-07 -1.0033402e-06 0.00048525905 2.623851e-05
000010 10 78 10 38 45 a8 51 b5 1e 8e ac b4 69 ca f1 37
       3.4444092e-05 -7.810343e-07 -3.21409e-07 2.8823693e-05
000020 6f 75 c5 33 77 e6 86 b5
       9.1948884e-08 -1.0050852e-06

exp_avg_sq f4 [10]
000000 c1 5c b4 34 9b bf 8e 35 43 a2 77 35 19 4a 60 35
       3.35951e-07 1.0635589e-06 9.225079e-07 8.355433e-07
000010 7d c1 17 36 ea 47 83 33 b5 0a 11 31 7d 7a ce 36
       2.2613378e-06 6.113244e-08 2.1106363e-09 6.153538e-06
000020 28 01 60 32 8d e6 56 33
       1.3038779e-08 5.0035442e-08

exp_avg f4 [2, 10]
000000 1f 5c 8d b6 58 f4 c0 b5 39 b0 00 39 be 20 30 b8
       -4.2128518e-06 -1.4376228e-06 0.0001227268 -4.1992163e-05
000010 2c e3 05 38 7e 19 1d b6 d4 b6 42 b6 c3 5f f7 39
       3.192124e-05 -2.3409661e-06 -2.9014673e-06 0.0004718286
000020 52 fe a4 b5 8c 76 d5 b5 e5 52 8c 35 8b c9 3a b5
       -1.2292969e-06 -1.5904238e-06 1.0454938e-06 -6.9583683e-07
000030 4d fc f0 38 b8 19 fc b8 86 b2 53 b9 22 b9 82 b5
       0.000114910865 -0.00012021087 -0.00020189033 -9.739636e-07
000040 84 2d d6 b4 b4 2d c4 b9 97 39 28 35 5f 61 a1 b5
       -3.9893723e-07 -0.00037418085 6.266868e-07 -1.2023773e-06

exp_avg_sq f4 [2, 10]
000000 e8 ef 4a 35 04 7f ce 34 45 58 00 34 9d 58 46 36
       7.5599974e-07 3.8462906e-07 1.1953041e-07 2.955588e-06
000010 27 22 a2 36 0c 2d db 30 98 84 89 32 be 77 47 37
       4.831952e-06 1.594715e-09 1.6009196e-08 1.1889204e-05
000020 97 7e 08 34 e2 c1 a2 31 36 ee 02 36 02 3d 36 36
       1.271204e-07 4.7368625e-09 1.9510167e-06 2.7155625e-06
000030 a9 18 62 34 15 10 de 36 8c d8 7a 36 e5 09 6c 31
       2.1056861e-07 6.6179878e-06 3.737895e-06 3.4348144e-09
000040 4a 63 8e 34 00 4d 42 37 78 a0 b1 34 34 f1 aa 32
       2.6521803e-07 1.1581229e-05 3.3085576e-07 1.9900291e-08

exp_avg f4 [2]
000000 c1 29 4b 3a be 06 c1 38
       0.0007750057 9.204213e-05

exp_avg_sq f4 [2]
000000 12 1b 1c 39 8a cc 02 39
       0.00014887404 0.00012473963
