lightning_logs/version_16/checkpoints/epoch=1-step=3202.ckpt (torch, 13579 bytes, 18 tensors)

layers.0.weight f4 [20, 4]
000000 f4 46 bb 3e 99 c0 c5 be cc 52 eb be 3a 70 04 3f
       0.3657757 -0.38623503 -0.45961607 0.51733744
000010 65 74 11 3e ad 89 b1 3d 35 d3 10 bf dc 95 73 3e
       0.14204557 0.08668838 -0.56572276 0.23787636
000020 a0 72 47 bf 4e ff c1 3e 99 97 3e be fe f6 a0 3e
       -0.7790928 0.37890095 -0.18612517 0.3143844
000030 d2 d0 5c be e6 41 70 3e 70 37 d1 3e b5 9f 9d bd
       -0.21564034 0.23462638 0.40862608 -0.07696477
000040 94 34 86 3f fa 8f 82 be 3d 58 a8 be 1e 6a ad be
       1.0484796 -0.2550047 -0.3287982 -0.33870023
000050 76 ed ee be ad 73 d6 3e 40 4a e0 3d a4 45 7b be
       -0.46665543 0.4188513 0.10951662 -0.24538285
000060 d6 f8 69 3f 71 01 92 3f ab 23 33 be 16 ce c4 bd
       0.9139532 1.140669 -0.17494075 -0.0960962
000070 73 56 55 bd 53 40 c4 3e 4b fc 82 be 91 2d c3 3e
       -0.052084398 0.38330325 -0.2558311 0.38120702
000080 70 ba 8a bc f6 a7 ff 3b 2c af 69 be 56 25 67 3e
       -0.016934603 0.007802005 -0.22820729 0.22572836
000090 0b 95 c4 be a7 5b a2 3e 9c 9c bc 3d f8 11 a6 be
       -0.3839496 0.3171055 0.09209558 -0.32435584
0000a0 47 ce c6 be 7c dd 87 3e df 0d 52 be db 79 a0 3d
       -0.38829252 0.26536167 -0.20513104 0.07835742
0000b0 71 56 b4 3c 1e e9 60 be e5 66 e6 bd 47 86 12 be
       0.022013875 -0.21963927 -0.11250094 -0.14309035
0000c0 c4 eb 17 be 89 a3 e5 3e e7 19 db 3d b0 4a c8 be
       -0.14836031 0.4485133 0.106983 -0.39119482
0000d0 b6 f8 b4 bd f8 01 22 3f ec 2b 71 3e 16 36 8f 3e
       -0.088365 0.63284254 0.23551911 0.27970952
0000e0 a5 85 fb be 68 cb b0 3e 21 d4 39 bd c3 91 c1 be
       -0.491254 0.34530187 -0.045368318 -0.3780652
0000f0 be 80 2d bf 09 3f ee 3e 75 90 09 bd 14 60 68 bd
       -0.6777457 0.46532467 -0.03358503 -0.056732252
000100 b1 4f 2b 3e d6 be de bd 38 0d f7 3d c1 65 c5 be
       0.16729619 -0.10876243 0.12063068 -0.38554195
000110 d3 95 97 3e e1 0b 7d 3d fa a3 a4 bd 73 aa 92 3e
       0.29606494 0.061778907 -0.080390885 0.28645667
000120 f5 2d 85 be e3 38 0d 3f 7d 76 7e 3e 0d 02 c4 be
       -0.26011625 0.5516493 0.24849887 -0.38282815
000130 cc 42 9a be 79 d0 80 be 75 46 e7 3d 1b e4 ce be
       -0.30129087 -0.25159052 0.112927355 -0.40408406

layers.0.bias f4 [20]
000000 50 50 fc 3e 93 c0 fa be 6d 51 0e be 19 2b 9a bb
       0.49280024 -0.48975047 -0.13898249 -0.0047048447
000010 8b b1 4d be ac e7 5d be a1 7e 8f bd 33 3c 2f be
       -0.20087259 -0.21670407 -0.070065744 -0.17112808
000020 2c 6a 36 be 69 60 b6 3e 4a ae 1a be 41 e0 8e be
       -0.17813939 0.3562043 -0.15105549 -0.27905467
000030 a8 43 6b be 8b 35 48 be 84 ea c8 be 1f ff a1 3e
       -0.22975028 -0.19551675 -0.3924142 0.31639954
000040 8e 3b a0 be b3 0f 10 bf b6 b6 79 3e 00 c1 52 be
       -0.31295437 -0.56273955 0.24386105 -0.20581436

layers.2.weight f4 [10, 20]
000000 c7 23 70 bd a2 03 eb 3d 03 06 e1 bd 52 cd 84 be
       -0.05862787 0.11475302 -0.10987475 -0.25937897
000010 18 a5 19 bd cc 21 04 3e 52 e9 d4 bc 69 dc 41 bd
       -0.03751096 0.12903517 -0.025990162 -0.04732934
000020 73 4f 81 3d c4 0e 5a 3d c1 04 7f 3d ff 91 df 3d
       0.06313982 0.053236738 0.062260393 0.109165184
000030 14 66 89 be 62 4d c7 bd 6a fb 9f 3e 1c a4 24 be
       -0.26835692 -0.097315565 0.312465 -0.16078228
000040 96 73 56 3c bb 1d 22 bc c7 0b bb 3d 1a c6 03 bd
       0.013089081 -0.009894784 0.09133106 -0.032171346
000050 25 ac 05 3e d1 33 57 bd 0f 1b e4 3d e6 45 92 3e
       0.13053949 -0.05253965 0.111379735 0.28568953
000060 7a 9e 91 be b7 5d 12 3e 2c 91 a4 be 8e 52 ef bc
       -0.2844122 0.14293562 -0.32142007 -0.02921417
000070 14 20 9d 3d 6b a6 ed 3d df fc 02 3e d9 2f 8d 3d
       0.07672134 0.11604007 0.12791775 0.06893892
000080 73 35 ee 3b e0 d1 98 3e 38 74 22 3e 41 e6 2d 3e
       0.0072695552 0.29847622 0.15864646 0.16982366
000090 c8 1f 84 3d 2c 52 00 3c 23 f2 94 3e b6 75 ab 3c
       0.06451374 0.007832091 0.29090986 0.020930152
0000a0 6f 55 4d bd 77 11 6b be 1f 05 d8 bd 4a 45 eb 3d
       -0.050130304 -0.22955881 -0.10547852 0.11487825
0000b0 9e de 0d 3e 41 36 92 bd a0 4e 76 bd 36 f4 f5 bd
       0.13854453 -0.07139254 -0.060133576 -0.1200947
0000c0 8b 7f a1 bd a5 92 10 bd ed 3a 56 be 9c d4 b4 3d
       -0.07885655 -0.0352961 -0.20920916 0.088296145
0000d0 a4 fa 12 be 53 0f a4 3e 98 3f df 3d 71 b5 31 be
       -0.14353424 0.3204294 0.109008014 -0.1735437
0000e0 3f 29 3f be ff 70 80 bb d7 27 b1 3d d9 e0 01 be
       -0.18668078 -0.00391972 0.08650177 -0.12683429
0000f0 4b d5 b8 bd 3f 7a 12 3e d5 19 49 bd 43 53 49 bd
       -0.090250574 0.14304446 -0.0490969 -0.04915167
000100 41 18 28 3d b7 f1 d9 bd b0 33 ae be 1d 8c 31 bb
       0.041038755 -0.106418066 -0.3402381 -0.002709157
000110 e9 8a 8c 3e ca 3b 3c ba 47 a6 24 bd 8f 20 e3 3d
       0.2744973 -0.000718054 -0.040197637 0.110901944
000120 fb c9 24 bc 88 3b 7d bd 37 67 c0 3d 37 83 75 3e
       -0.0100579215 -0.06182435 0.09394687 0.23975836
000130 79 58 6d be 3d f8 9e 3e 93 e8 38 3c 24 7e 2f be
       -0.23178281 0.31048766 0.011285919 -0.17137963
000140 be e2 18 3e 7b 93 6f 3c 59 e1 cf bc 2d ec 01 3c
       0.14930245 0.014622564 -0.025376009 0.007929844
000150 c6 3b 9b 3c 91 02 a4 bd 62 1b a1 3d ac 82 39 3e
       0.0189494 -0.08008302 0.07866551 0.18116254
000160 de 89 82 3e a9 65 dd bc 9d 1d 34 be 50 e6 1a be
       0.2549581 -0.027026014 -0.17589422 -0.1512692
000170 f4 50 60 3d d7 e6 38 bd c8 5a 9b 3d 3d 42 69 be
       0.054764703 -0.04514202 0.075856745 -0.22779174
000180 cf e6 5b 3e 52 08 0c 3d cb 3f 2d be e2 ea 1a be
       0.21474765 0.034187622 -0.16918866 -0.15128663
000190 b5 4e 0e 3e f6 59 01 3e 8b 83 6e 3e 06 93 6b be
       0.13897212 0.12631974 0.23292367 -0.23005304
0001a0 70 17 9a 3e 23 53 05 3e 94 f1 2f 3e c5 97 97 3e
       0.30096006 0.13019995 0.17181998 0.29607978
0001b0 61 ca 92 3d 62 73 7a bd bc b6 b6 3d 6e 9e c4 bc
       0.07167507 -0.061145194 0.089215726 -0.024001326
0001c0 a4 4e 74 be f1 2d 38 be ee 59 be 3d 38 41 06 be
       -0.23858124 -0.17986275 0.092944965 -0.13110816
0001d0 d2 18 a1 be a6 3a a4 be c3 60 1c be c6 02 27 3b
       -0.3146425 -0.32075995 -0.15271287 0.002548383
0001e0 2c 2f 1b 3e 39 41 24 bd 8f c5 40 3e e2 02 61 be
       0.15154713 -0.040101264 0.18825363 -0.21973756
0001f0 ca 6a 50 3c 9e 0b f4 3e 94 53 52 bd f8 d8 de bd
       0.012720773 0.47665113 -0.051349238 -0.10881227
000200 9a e3 62 be d4 8f 26 be 8c 6e ca 3d e4 09 94 bd
       -0.22157136 -0.16265804 0.098843664 -0.07228449
000210 c1 d2 5e be a5 6b c2 bd b7 41 91 3e 90 fe 0d be
       -0.21760084 -0.09493188 0.2837045 -0.13866639
000220 73 a2 14 3e 53 de 4f be 02 db 79 3d 31 82 25 3e
       0.14515094 -0.20299654 0.060999878 0.16162945
000230 fd 17 cf 3b 68 b3 c0 3d ba 9a 21 be d9 8c 83 bd
       0.0063199983 0.09409219 -0.1578168 -0.06423349
000240 f4 73 da b9 4c 48 46 3d 5c b2 30 3e d3 0a c9 bd
       -0.00041666592 0.04840879 0.17255539 -0.09816518
000250 c3 1e cf b9 7b bd d3 bd 94 9c 09 3e e9 a3 3e be
       -0.00039505036 -0.10338875 0.13438636 -0.18617214
000260 d8 f8 88 3e b5 98 1f be 30 ee 50 3c 29 45 92 bc
       0.26752353 -0.15585597 0.012752101 -0.017855244
000270 da ca 8c bd 71 84 77 3d 85 5a c1 3d 0f f6 1f be
       -0.06874628 0.06042904 0.09441093 -0.15621208
000280 e9 fd 8f be 80 47 39 3e 22 80 38 3e 34 6d c4 bd
       -0.28123406 0.18093681 0.18017629 -0.09591141
000290 27 8a 3f 3e fe ac 41 bd 20 9b 82 bd 9f fd d3 bd
       0.18705045 -0.04728412 -0.06377244 -0.10351109
0002a0 94 4f db 3d d7 10 97 be a2 3c 93 3e 90 95 9b 3e
       0.10708538 -0.29505035 0.28757197 0.30387545
0002b0 c1 ae 12 be 3e 25 3a bd 82 fc 73 3e d2 f8 9e bd
       -0.14324476 -0.045445673 0.23826793 -0.077623025
0002c0 d5 b6 90 bd 4a b2 df bd db 4f 88 be c1 b9 54 bd
       -0.070661224 -0.10922678 -0.26623425 -0.05193496
0002d0 16 73 0a be a3 35 eb 3c 49 9b 2f 3d d4 6e 3e be
       -0.13520464 0.0287121 0.0428727 -0.18596965
0002e0 64 65 8c bd 4a 52 30 3e 33 4e 4d be 6d 63 e6 3d
       -0.06855276 0.17218891 -0.20049362 0.11249433
0002f0 be 35 52 3d 8b 33 2d bd 1c 39 c7 bc 07 7e c1 bd
       0.051320784 -0.042285483 -0.024319224 -0.09447866
000300 59 54 bf bd d2 7a a5 bc 32 6d 2e 3e a5 61 96 bd
       -0.0934226 -0.020200167 0.17033842 -0.07342843
000310 75 44 24 bd 8c 13 ba 3e 48 5f 42 3e 49 4b 35 bd
       -0.04010435 0.36343038 0.1898166 -0.04426125

layers.2.bias f4 [10]
000000 b4 2b 2c bd e6 e4 45 3e 9e f9 1e bc de 50 76 bc
       -0.042033866 0.19325599 -0.009703068 -0.015033929
000010 e3 0f 42 be e6 a0 3d bd c1 d5 23 be ab db 93 bd
       -0.18951373 -0.046296023 -0.1599951 -0.07219633
000020 01 0e 4c 3d b9 08 34 be
       0.049818043 -0.17581452

layers.4.weight f4 [2, 10]
000000 ae 34 4f 3e 10 6c df bd b0 17 22 3e 53 5b 0a be
       0.2023494 -0.10909283 0.15829349 -0.135114
000010 9b b9 a7 bd 3d 14 40 3e 56 5a 82 be 68 e6 24 3e
       -0.08189698 0.1875772 -0.25459546 0.16103518
000020 08 83 77 bd 07 24 b2 bd d4 ea e8 bd 4e 68 89 3e
       -0.060427696 -0.08698278 -0.11372915 0.2683739
000030 93 8b a0 3e 56 b4 85 3d ff 8b 5c bd ff 78 b0 be
       0.31356487 0.06528537 -0.05384445 -0.34467313
000040 a0 7c 3b be 21 c7 e1 bd eb 90 4d be 55 c0 1f 3e
       -0.1830926 -0.11024309 -0.20074813 0.15600713

layers.4.bias f4 [2]
000000 c0 18 41 3d 11 9f 5f be
       0.047142744 -0.21838023

exp_avg f4 [20, 4]
000000 e3 74 94 32 f9 fe 89 34 3f dd 5a b6 71 04 b7 b5
       1.7282622e-08 2.5703756e-07 -3.2613314e-06 -1.3635855e-06
000010 75 bb e3 b0 38 ed 00 b2 c2 45 34 33 d3 51 6a b2
       -1.6569702e-09 -7.504518e-09 4.197296e-08 -1.3639197e-08
000020 4c 96 96 b1 b4 a1 3d b1 29 76 60 b3 e1 06 b0 b2
       -4.3826613e-09 -2.7595037e-09 -5.226153e-08 -2.0492225e-08
000030 84 4f 1c b5 68 f8 11 35 20 0a 83 b7 97 f6 00 b6
       -5.823024e-07 5.437819e-07 -1.5621132e-05 -1.921702e-06
000040 f1 90 1d 32 c1 68 2a 31 b3 55 16 34 92 76 2b 33
       9.171559e-09 2.4797802e-09 1.4001016e-07 3.992188e-08
000050 a2 69 b4 31 6d f1 eb b2 43 38 36 34 20 5a 97 34
       5.2506985e-09 -2.7467388e-08 1.6970539e-07 2.8191516e-07
000060 ff 33 b9 b5 84 9c a9 b5 aa 1c 14 b7 5d 7e af b6
       -1.3798707e-06 -1.2637033e-06 -8.828161e-06 -5.230117e-06
000070 bd b4 5f b0 c4 6c 86 b1 c1 49 c3 32 e3 77 ec b1
       -8.138377e-10 -3.9122785e-09 2.2734527e-08 -6.8821335e-09
000080 c2 14 53 b1 7d 7e 0a b1 aa 4e 1b b3 22 14 7a b2
       -3.071634e-09 -2.0153543e-09 -3.6160294e-08 -1.4556493e-08
000090 99 02 b2 b4 57 71 ca b2 ef 51 be b6 c1 c6 ba b5
       -3.3156974e-07 -2.3567436e-08 -5.6719796e-06 -1.3915925e-06
0000a0 bd 66 cf b1 7c 83 c7 b1 9b 4c 63 b3 d9 00 02 b3
       -6.036173e-09 -5.8066103e-09 -5.292223e-08 -3.0268755e-08
0000b0 74 e1 3b b0 d9 dd 54 31 bd 0b 37 b3 db 62 92 af
       -6.835059e-10 3.0976166e-09 -4.2618684e-08 -2.6627486e-10
0000c0 56 f2 5c b1 ff e5 e3 b1 72 01 08 b2 70 99 7b b2
       -3.2151966e-09 -6.632717e-09 -7.9165705e-09 -1.46450105e-08
0000d0 25 49 ba b4 43 b0 9f 35 55 db 93 b7 96 7b cd b4
       -3.469842e-07 1.1897722e-06 -1.76259e-05 -3.8274146e-07
0000e0 91 2c 3b b1 7a bc 90 31 c4 61 c1 b3 c7 c8 06 b2
       -2.7237415e-09 4.212379e-09 -9.005046e-08 -7.845478e-09
0000f0 33 ec 33 b5 60 3d e7 b4 1d b4 02 b7 49 8b 51 b6
       -6.702641e-07 -4.307176e-07 -7.79054e-06 -3.1224502e-06
000100 d6 9f 93 b1 ef 0b bb b1 23 1a da b2 fb e0 c5 b2
       -4.2964343e-09 -5.443773e-09 -2.5390426e-08 -2.3036128e-08
000110 b5 27 fd af cb 17 7a ac b0 b1 0f b2 2b 20 06 b1
       -4.6048645e-10 -3.5540345e-12 -8.364097e-09 -1.9517852e-09
000120 e5 1b 28 b5 c2 9b f7 34 c6 1b 83 b7 1c 67 13 b6
       -6.262547e-07 4.6120664e-07 -1.562935e-05 -2.1964725e-06
000130 f7 b0 1a b1 d3 28 84 b1 37 20 6b b1 cb 2d 5b b2
       -2.2510542e-09 -3.846347e-09 -3.4215313e-09 -1.275789e-08

exp_avg_sq f4 [20, 4]
000000 35 85 94 30 8e e8 84 30 d0 ee 6d 34 c0 3a 40 33
       1.0806277e-09 9.67036e-10 2.2159224e-07 4.4756916e-08
000010 92 b1 41 2a 73 c2 34 2a b2 7a 0f 2e 1f d4 b6 2c
       1.720345e-13 1.6054675e-13 3.262341e-11 5.1963013e-12
000020 6e 18 cb 28 74 79 ad 28 33 d5 98 2c fb b5 a8 2b
       2.2548122e-14 1.925953e-14 4.3437697e-12 1.1987628e-12
000030 a0 98 0d 31 ad 24 06 31 24 17 c1 34 fd 2b 67 33
       2.0604958e-09 1.9520414e-09 3.5965888e-07 5.3823886e-08
000040 39 98 46 29 e2 c4 57 29 4c ae 06 2d 56 0a ae 2b
       4.4096864e-14 4.791036e-14 7.65572e-12 1.2366312e-12
000050 3e 5a d1 2a 33 35 6b 2b f6 b2 80 2e 82 94 f8 2c
       3.7188476e-13 8.35626e-13 5.852556e-11 7.0650716e-12
000060 64 0c 5b 2e 48 34 6b 2e b8 16 dc 30 f4 87 8a 2f
       4.980584e-11 5.347925e-11 1.6013564e-09 2.5198654e-10
000070 43 fc 4a 2a 9c 54 5b 2a 1a 60 16 2e e0 b7 bc 2c
       1.8028725e-13 1.9480462e-13 3.4191407e-11 5.3636956e-12
000080 5b 76 84 2e 8e 83 c5 2e fa 76 4b 32 e4 2d 90 31
       6.023689e-11 8.9818916e-11 1.1843207e-08 4.1961687e-09
000090 71 cc 36 30 c7 f8 34 30 f0 3f 0c 34 19 7e c6 32
       6.6501743e-10 6.583715e-10 1.3061776e-07 2.3107576e-08
0000a0 96 3a 00 2a 96 97 ea 29 04 c4 c9 2d fe 92 8c 2c
       1.138901e-13 1.04179835e-13 2.2938103e-11 3.9953587e-12
0000b0 37 8f 01 2a 9e 9b 0a 2a 85 8b cd 2d 8d 6a 71 2c
       1.1507189e-13 1.2310853e-13 2.336776e-11 3.4307307e-12
0000c0 13 90 39 2f de a0 95 2f d7 82 13 33 59 a1 53 31
       1.6876837e-10 2.7217245e-10 3.4345103e-08 3.0796257e-09
0000d0 51 f7 a3 31 ed 24 9c 31 27 7f 61 35 ba 84 08 34
       4.772041e-09 4.5443955e-09 8.400406e-07 1.2714273e-07
0000e0 a0 d6 29 2a cc 99 33 2a f0 95 fa 2d 29 14 95 2c
       1.5084678e-13 1.5951753e-13 2.8488295e-11 4.237073e-12
0000f0 fb f7 92 2f b2 ba a0 2f f4 54 69 33 a3 4b 21 32
       2.6733446e-10 2.9236485e-10 5.4326804e-08 9.388631e-09
000100 96 7b f1 2b 34 ce 25 2c 64 d1 84 2f 96 bc c6 2d
       1.7158382e-12 2.3562376e-12 2.415944e-10 2.2593743e-11
000110 7c 7b dc 2d 06 cd 04 2e 57 85 72 31 25 1e 95 30
       2.5065942e-11 3.0195423e-11 3.529143e-09 1.0849744e-09
000120 85 c3 24 31 c4 d0 1e 31 e9 58 e6 34 3d 10 9b 33
       2.397628e-09 2.3110696e-09 4.290553e-07 7.220704e-08
000130 3f fc 38 2d e4 ac d2 2c 8f 38 1f 31 2f 0c 5d 2f
       1.0515199e-11 5.9877537e-12 2.3169695e-09 2.0104161e-10

exp_avg f4 [20]
000000 d5 32 18 b6 20 b7 09 33 fa 21 07 b3 66 d8 2d b7
       -2.2679353e-06 3.206435e-08 -3.146304e-08 -1.0361988e-05
000010 f4 6d bc 33 fd 4a 03 34 fa 02 9d b6 a7 46 94 32
       8.7744326e-08 1.2227606e-07 -4.679311e-06 1.7261597e-08
000020 af 50 ba b2 19 2f 72 b6 38 98 ff b2 5d 64 fc b2
       -2.168994e-08 -3.6088225e-06 -2.9755128e-08 -2.9382301e-08
000030 24 ac 3c af 80 e5 4a b7 cc d9 81 b3 ac 01 9d b6
       -1.7159657e-10 -1.2093573e-05 -6.0466476e-08 -4.6791592e-06
000040 0f 4c 55 b2 9f 76 b7 b1 1f f7 2c b7 2b da 08 30
       -1.24155255e-08 -5.3394866e-09 -1.0309536e-05 4.9786547e-10

exp_avg_sq f4 [20]
000000 7f b1 a1 33 71 8f 42 2d 65 30 d0 2b f8 9d 02 34
       7.529433e-08 1.1059474e-11 1.4792721e-12 1.2164662e-07
000010 51 e5 32 2c 12 e5 97 2d c4 a7 ef 2f f9 d1 47 2d
       2.5422618e-12 1.726844e-11 4.3593051e-10 1.1358464e-11
000020 1f 20 81 31 a7 32 3c 33 8e b3 08 2d 0f 9d 09 2d
       3.758046e-09 4.381823e-08 7.770574e-12 7.822422e-12
000030 ae ef 3b 32 eb 9a 98 34 cf 89 27 2d 0f 95 9b 32
       1.0939329e-08 2.8424924e-07 9.523451e-12 1.8112159e-08
000040 78 33 aa 2e 20 01 99 30 bb 2e 1b 34 bb d7 62 30
       7.7398477e-11 1.1132535e-09 1.44525e-07 8.252489e-10

exp_avg f4 [10, 20]
000000 09 83 1e 33 e6 22 8d b1 70 0a a2 b0 e4 f2 4e 34
       3.6906417e-08 -4.1076076e-09 -1.1790018e-09 1.9273608e-07
000010 14 51 2d b1 c2 cb b0 b0 a7 23 a7 32 b0 b0 af b0
       -2.52209e-09 -1.2863597e-09 1.9457572e-08 -1.2783143e-09
000020 d8 0d c4 b0 2c d5 dd 33 66 d4 d4 b0 41 49 ee b0
       -1.4264812e-09 1.032989e-07 -1.5485397e-09 -1.7337599e-09
000030 72 e2 51 b0 f5 88 df 33 c4 a4 19 b1 9f a8 73 33
       -7.6355555e-10 1.0409159e-07 -2.2358089e-09 5.6731206e-08
000040 3c 62 80 b0 0f c6 e9 b0 90 12 1c 34 61 6d 64 b0
       -9.341146e-10 -1.7009273e-09 1.4535385e-07 -8.3101354e-10
000050 56 9b 35 b6 cd 0b e7 34 69 ec 10 34 03 81 a2 b7
       -2.706152e-06 4.303569e-07 1.349705e-07 -1.937198e-05
000060 ac 86 81 34 c3 4b 5f 34 8f 11 d6 b5 68 78 26 34
       2.412611e-07 2.0796055e-07 -1.5949353e-06 1.5503758e-07
000070 81 bd 27 34 e5 c8 4c b7 7d 0b 2d 34 0d 1a 32 34
       1.5622028e-07 -1.2206122e-05 1.611606e-07 1.6587019e-07
000080 8a 83 8b 33 08 a8 00 b7 f5 a1 61 34 c0 1b cf b6
       6.496619e-08 -7.668517e-06 2.1013678e-07 -6.1723113e-06
000090 ea 39 a4 33 4f 49 51 34 78 8e 86 b7 84 1a 77 33
       7.6473796e-08 1.9491311e-07 -1.6040387e-05 5.7533285e-08
0000a0 5f 6b c4 35 c7 2e c1 33 ee 64 4d 33 85 76 30 b6
       1.4634387e-06 8.9957716e-08 4.7822077e-08 -2.6295031e-06
0000b0 96 52 3c 32 2b 84 36 34 6d 6c ff 34 4d ec 93 33
       1.0961818e-08 1.6998153e-07 4.7576341e-07 6.888204e-08
0000c0 a8 51 3e 33 60 df a5 b6 68 5d 08 33 75 df fd 31
       4.4312088e-08 -4.9433875e-06 3.174992e-08 7.3886732e-09
0000d0 54 6e 52 b2 cf 20 86 36 b5 fe 19 31 70 86 e3 b5
       -1.22486945e-08 3.9973306e-06 2.2409214e-09 -1.6951944e-06
0000e0 ac a1 b3 b2 eb 9a 95 33 91 56 9f b6 46 c7 27 b3
       -2.0911862e-08 6.9665326e-08 -4.748647e-06 -3.9063956e-08
0000f0 c3 fa d1 b2 ab fa 35 31 ff b3 4f 30 16 03 06 b4
       -2.4444835e-08 2.6481455e-09 7.556195e-10 -1.2480845e-07
000100 5c c7 e0 30 e5 cc 59 30 ea c7 63 b2 fc 5f 5f 30
       1.6354806e-09 7.923531e-10 -1.3258594e-08 8.126333e-10
000110 f5 fe 7b 30 51 91 8d b3 6a 55 89 30 b3 cd 9a 30
       9.1675584e-10 -6.592257e-08 9.992338e-10 1.1263438e-09
000120 5b 68 08 30 03 49 94 b3 b1 a6 c7 30 94 58 1c b3
       4.962481e-10 -6.905068e-08 1.4526532e-09 -3.640214e-08
000130 37 2d 28 30 7c 57 95 30 78 d8 c8 b3 fa a5 17 30
       6.11823e-10 1.0866041e-09 -9.352601e-08 5.5169347e-10
000140 13 03 44 b2 82 ef 30 30 42 0a 0f 2f 90 a1 12 b3
       -1.14094005e-08 6.436879e-10 1.3009419e-10 -3.4140214e-08
000150 12 dc 0a 30 14 12 24 af f1 79 b4 b1 70 b1 d9 2e
       5.0516846e-10 -1.4922136e-10 -5.2525526e-09 9.899537e-11
000160 2b 1b 52 2f 79 e1 23 b2 0a 56 88 2f 78 06 bf 2f
       1.9109041e-10 -9.539115e-09 2.479939e-10 3.4747294e-10
000170 85 cc 52 2f da d0 08 b3 45 2a 00 30 d1 8a 05 b2
       1.9172049e-10 -3.1854917e-08 4.66262e-10 -7.773182e-09
000180 07 e9 88 2f 11 d2 4c 2f ef 31 a2 b2 c7 9a 95 2f
       2.4903832e-10 1.8628322e-10 -1.888199e-08 2.7212918e-10
000190 03 8b 36 33 27 aa d5 b1 0b c0 03 b1 79 8c 97 34
       4.2501608e-08 -6.21846e-09 -1.9172173e-09 2.822815e-07
0001a0 a6 20 74 b1 d1 07 40 b1 32 26 d1 32 d0 c0 15 b1
       -3.5525232e-09 -2.794412e-09 2.4348171e-08 -2.1791955e-09
0001b0 62 c6 19 b1 49 13 39 34 cd 3e 20 b1 ed d6 27 b1
       -2.2377198e-09 1.7236484e-07 -2.3318762e-09 -2.442387e-09
0001c0 3d 01 87 b0 74 04 01 34 37 76 55 b1 a2 17 be 33
       -9.822895e-10 1.2015681e-07 -3.1062777e-09 8.851863e-08
0001d0 cb 62 a0 b0 5b 39 3e b1 21 55 76 34 73 01 7c b0
       -1.1669611e-09 -2.7681242e-09 2.2941505e-07 -9.1679125e-10
0001e0 3d 31 16 b3 13 05 fe 30 03 66 c1 2f f0 e6 d5 b3
       -3.496938e-08 1.8482375e-09 3.517898e-10 -9.960593e-08
0001f0 f4 5b cd 30 44 ef 1b b0 0e 1e 89 b2 32 1c 86 2f
       1.4941848e-09 -5.672869e-10 -1.5962566e-08 2.4394492e-10
000200 93 49 13 30 ef a9 d4 b2 ba 4c 44 30 6e 43 8d 30
       5.3582844e-10 -2.4757325e-08 7.141342e-10 1.0278265e-09
000210 9c 1b 1f 30 a9 ba d1 b3 18 4d be 30 05 f9 bb b2
       5.78831e-10 -9.766274e-08 1.3846231e-09 -2.1882906e-08
000220 b5 bc 4f 30 ac 3d 0a 30 ac 4d 62 b3 53 45 66 30
       7.557433e-10 5.029175e-10 -5.2690368e-08 8.377203e-10
000230 ce 3d 01 33 6a ba 6e b1 4d 82 8a b0 b9 32 2e 34
       3.0091364e-08 -3.4739522e-09 -1.0077855e-09 1.6223466e-07
000240 74 1a 11 b1 40 fc 9e b0 65 81 89 32 b8 51 97 b0
       -2.1115314e-09 -1.1567707e-09 1.6007741e-08 -1.1009922e-09
000250 61 af a6 b0 97 6b be 33 4b d9 b3 b0 81 7b c7 b0
       -1.2127935e-09 8.867135e-08 -1.3085723e-09 -1.4514258e-09
000260 0c 9d 2d b0 18 82 b6 33 da 5f 00 b1 30 09 4f 33
       -6.316021e-10 8.498699e-08 -1.8680937e-09 4.82043e-08
000270 1e 9e 53 b0 36 e0 c7 b0 2c d2 04 34 8b 86 39 b0
       -7.698605e-10 -1.454288e-09 1.2369918e-07 -6.7493805e-10
000280 68 2a 30 b1 87 77 a4 b0 d3 5c 01 b0 7e a3 49 33
       -2.5635476e-09 -1.1966542e-09 -4.706184e-10 4.6947655e-08
000290 4b 89 03 b0 6c 34 a4 b0 aa 28 ae 2f f2 87 27 b0
       -4.785263e-10 -1.194747e-09 3.167931e-10 -6.0947436e-10
0002a0 b2 12 07 b0 b1 24 44 33 fc f4 f0 af f2 22 b4 af
       -4.913928e-10 4.5668177e-08 -4.3829818e-10 -3.276664e-10
0002b0 ba 3c 6e ae 8e ee cf b1 5b cb d0 af 99 de a4 32
       -5.416887e-11 -6.0516134e-09 -3.7979472e-10 1.9193338e-08
0002c0 e6 13 0d ae 53 e1 3b b0 12 03 5d 33 3e 83 c6 2e
       -3.207736e-11 -6.835041e-10 5.1458365e-08 9.027311e-11
0002d0 5d f1 a9 b2 d6 f0 45 31 94 1c 73 30 99 a1 0c b4
       -1.9783949e-08 2.8804172e-09 8.8443497e-10 -1.3097305e-07
0002e0 cb 14 e3 30 5c 47 af 30 62 df 3f b2 4f 06 8a 30
       1.6522334e-09 1.2753207e-09 -1.1168455e-08 1.0042615e-09
0002f0 7b 38 8e 30 49 ca aa b3 cc 6d 94 30 45 ff 9b 30
       1.0347913e-09 -7.953037e-08 1.0799623e-09 1.1350286e-09
000300 fb 42 fc 2f 23 6d 72 b3 14 7b c6 30 f3 21 30 b3
       4.5886125e-10 -5.6444275e-08 1.4441377e-09 -4.100907e-08
000310 47 08 16 30 c9 b0 af 30 92 cd e3 b3 ec 2c ed 2f
       5.4581445e-10 1.2783171e-09 -1.0607904e-07 4.3141968e-10

exp_avg_sq f4 [10, 20]
000000 13 80 d6 2d f7 c7 84 2d de 09 5a 2c 74 91 e0 32
       2.438586e-11 1.5095465e-11 3.098514e-12 2.6143177e-08
000010 48 75 ad 2d 3e 4b e4 2b a6 76 20 2d 6e 3a c9 2c
       1.9719906e-11 1.6221258e-12 9.121292e-12 5.7192506e-12
000020 93 0f 36 2d ba e7 9c 31 47 50 33 2b f9 84 f1 2c
       1.034896e-11 4.566542e-09 6.370498e-13 6.864395e-12
000030 a2 45 bc 2c 43 5e 53 32 b6 75 1b 2d fe f8 88 32
       5.351012e-12 1.2303249e-08 8.836867e-12 1.5945712e-08
000040 16 b7 a6 2b dc 4d 91 2f b2 20 2d 32 c9 20 6b 2b
       1.1845826e-12 2.643067e-10 1.0077359e-08 8.353427e-13
000050 52 92 72 32 45 8e dd 2e 51 6d 3e 2d a2 a8 88 34
       1.4119523e-08 1.00751886e-10 1.0824523e-11 2.545467e-07
000060 46 6c d3 2e 2b eb 89 2c 0c e6 09 31 33 83 85 2d
       9.614402e-11 3.919883e-12 2.006689e-09 1.5178614e-11
000070 23 6e c8 2d 8e 9c 92 33 65 0d 49 2d d7 ee 1d 2e
       2.2786278e-11 6.827132e-08 1.1428501e-11 3.59098e-11
000080 20 de e4 2e e6 61 fd 33 99 00 53 2e 45 9e 63 33
       1.0407697e-10 1.1799038e-07 4.7976376e-11 5.29965e-08
000090 7b 34 4d 2d 90 18 08 30 b5 5e 07 34 6b 1b 80 2f
       1.1664554e-11 4.9511417e-10 1.2607309e-07 2.3302546e-10
0000a0 dd 30 5a 33 49 da 89 2f 1a 00 df 2d e2 1e 32 35
       5.080152e-08 2.5075256e-10 2.535221e-11 6.635511e-07
0000b0 49 38 8c 2f cf 0b f6 2c f1 79 3b 31 aa f3 13 2e
       2.5505845e-10 6.9930515e-12 2.7281397e-09 3.3640347e-11
0000c0 4f b0 8b 2d 3a 07 53 34 49 20 03 2e 65 55 ce 2e
       1.5880767e-11 1.9653535e-07 2.9814626e-11 9.3829645e-11
0000d0 10 2a 0c 30 ea 62 9f 34 ea bd 04 2f 99 1c 0f 34
       5.099148e-10 2.9688027e-07 1.2072801e-10 1.3328317e-07
0000e0 de 4e 82 2d 04 f0 ff 2f f2 75 b8 34 85 e1 6d 30
       1.4814313e-11 4.655477e-10 3.4358487e-07 8.654058e-10
0000f0 af 20 13 2c 85 93 1e 29 fb 0e b7 27 3a 9a c0 2e
       2.09081e-12 3.5211e-14 5.0808945e-15 8.758545e-11
000100 f2 17 12 29 6c 4b 0f 27 d7 06 32 29 13 8e fb 27
       3.243928e-14 1.9886123e-15 3.9529872e-14 6.982053e-15
000110 50 05 21 28 f3 13 11 2e b6 9e 8e 27 2d 42 4e 28
       8.938447e-15 3.29869e-11 3.958499e-15 1.1449647e-14
000120 2a 62 ad 28 8e 46 0c 2e 2a b8 72 28 6d a2 a5 2d
       1.924943e-14 3.189498e-11 1.3473633e-14 1.883046e-11
000130 28 cb cc 26 b1 ca 5e 2a c5 f1 6f 2e fa 94 e0 2b
       1.4210409e-15 1.9787884e-13 5.4557043e-11 1.5957507e-12
000140 34 a4 00 30 da d6 87 2b 33 5d f7 29 b5 0d 49 31
       4.6799475e-10 9.65196e-13 1.0985171e-13 2.9257141e-09
000150 ad 02 81 2b d1 bf 71 28 dd 37 70 2a 1a b9 ed 29
       9.166744e-13 1.3419781e-14 2.1335664e-13 1.0557024e-13
000160 64 13 72 29 0e aa 7f 30 eb 0a 20 2a f0 3c aa 2a
       5.3751613e-14 9.301012e-10 1.4214643e-13 3.024035e-13
000170 33 f5 f5 28 92 45 c5 30 7a 46 d5 2a 3d b8 6f 2f
       2.7306802e-14 1.435341e-09 3.7885304e-13 2.1802378e-10
000180 24 5c 51 29 5d 5b 1c 2a bc 21 d9 30 38 38 51 2d
       4.648724e-14 1.3887281e-13 1.5798416e-09 1.1892758e-11
000190 7c 17 27 2c cf 3e ac 28 8b 4c 1c 27 82 b1 4e 2e
       2.3745164e-12 1.9123075e-14 2.1690843e-15 4.6996636e-11
0001a0 1c 75 ab 28 85 66 77 26 14 42 cb 2a c7 27 66 27
       1.9035602e-14 8.583428e-16 3.6105895e-13 3.1940475e-15
0001b0 fa ce bb 27 4c d7 55 2d 09 5b 13 27 4c 15 ff 27
       5.212733e-15 1.2155454e-11 2.0449698e-15 7.079981e-15
0001c0 d0 2b c4 28 30 27 c0 2d f5 6b 2a 28 0a 14 47 2d
       2.1779372e-14 2.1845276e-11 9.460305e-15 1.131629e-11
0001d0 51 6b 1f 27 bb ef 07 2a 9f 63 c7 2d 21 d4 2c 29
       2.212386e-15 1.2073582e-13 2.2667921e-11 3.8375665e-14
0001e0 a5 ef 67 2c 0c d6 ac 28 ee 97 21 27 99 28 51 2e
       3.2960104e-12 1.9188664e-14 2.24256e-15 4.7557156e-11
0001f0 bb 94 bd 28 4b c8 7e 26 6f 25 32 2a 30 f4 76 27
       2.1047717e-14 8.83954e-16 1.5822563e-13 3.4271732e-15
000200 48 6f c4 27 14 60 6b 2d 2c 68 10 27 07 78 08 28
       5.452158e-15 1.3379537e-11 2.0040486e-15 7.575543e-15
000210 cb ef c4 28 56 5c bb 2d a3 62 30 28 44 db 54 2d
       2.1864365e-14 2.1300444e-11 9.791351e-15 1.20994915e-11
000220 b2 81 a6 26 b1 45 13 2a e1 8b d0 2d fb be 75 29
       1.1553718e-15 1.3080402e-13 2.3708981e-11 5.4566577e-14
000230 e4 71 b6 2f 97 9d e7 2b ab 50 e6 29 c0 2b 9e 31
       3.318653e-10 1.6457277e-12 1.02280455e-13 4.603379e-09
000240 c3 f9 d7 2b 7d 0c 6d 28 b9 6f 98 2a e2 1e 10 2a
       1.5345992e-12 1.3158851e-14 2.7078147e-13 1.2800484e-13
000250 0f a6 27 2a b3 ce f8 30 87 fc 7d 2a f9 ab 25 2b
       1.4890193e-13 1.8103122e-09 2.2558527e-13 5.8858436e-13
000260 58 5f 3d 29 d2 51 f3 30 59 49 43 2b bb 01 b1 2f
       4.2049128e-14 1.7703832e-09 6.9379707e-13 3.2197342e-10
000270 5a 1f 05 29 15 56 48 2a 25 54 4c 31 9a 75 71 2c
       2.9559126e-14 1.7793434e-13 2.9733738e-09 3.4313442e-12
000280 7b a8 95 31 15 93 11 2f 9e 72 cf 2d e8 de 7d 34
       4.3556247e-09 1.3239927e-10 2.3584076e-11 2.3643554e-07
000290 47 1c 55 2f 37 59 86 2d 47 dd b9 2e b7 f0 48 2e
       1.9382283e-10 1.5273656e-11 8.452133e-11 4.5688533e-11
0002a0 d6 fa 07 2f 90 22 09 33 b0 77 c6 2c e0 96 93 2e
       1.2367293e-10 3.1929233e-08 5.6407864e-12 6.711587e-11
0002b0 b7 26 5a 2d 1a 2f ff 33 ac f6 c5 2e 94 0f 28 34
       1.2400462e-11 1.18829306e-07 9.0023405e-11 1.5651887e-07
0002c0 58 17 50 2d 60 73 67 31 1b 9e 9c 33 de 87 16 2d
       1.18286145e-11 3.3680507e-09 7.293075e-08 8.556681e-12
0002d0 0a 04 ad 2f 1a bd 21 2c b8 ab ff 29 0b e3 d7 31
       3.1471387e-10 2.2984449e-12 1.1354063e-13 6.2831353e-09
0002e0 36 ee 16 2c 5a 68 d6 28 a7 45 bd 2a 46 cb 38 2a
       2.1448516e-12 2.3804028e-14 3.3621475e-13 1.6413008e-13
0002f0 9c 23 7f 2a b5 9c 2e 31 b9 9f ad 2a e0 07 6d 2b
       2.2660904e-13 2.540941e-09 3.0841803e-13 8.4210243e-13
000300 87 3c 95 29 b6 9f 19 31 6f b6 8d 2b e0 cb f1 2f
       6.627429e-14 2.2355215e-09 1.0069288e-12 4.3982507e-10
000310 64 36 f9 28 7f 50 98 2a 57 26 8e 31 44 dd e9 29
       2.7668141e-14 2.705648e-13 4.1371027e-09 1.0385662e-13

exp_avg f4 [10]
000000 37 99 ae 34 a0 17 0d b8 89 d7 d2 b6 31 32 61 b4
       3.2521504e-07 -3.3639022e-05 -6.2835793e-06 -2.0973017e-07
000010 e0 db 63 b3 7d d1 02 35 b0 6f 24 b4 1e 71 93 34
       -5.305253e-08 4.873362e-07 -1.5314322e-07 2.7463187e-07
000020 f5 ee c0 33 d1 77 72 b4
       8.984163e-08 -2.2581595e-07

exp_avg_sq f4 [10]
000000 be 6d 1d 34 f5 e1 40 35 60 29 e7 35 8b 6d 81 2f
       1.4661688e-07 7.1854384e-07 1.7222883e-06 2.3542798e-10
000010 24 ad c6 31 0b 19 1b 2f 89 ae 1d 2f 04 e1 2f 32
       5.7822422e-09 1.4106065e-10 1.4341074e-10 1.0237503e-08
000020 de d2 b1 35 86 be 7b 32
       1.3248898e-06 1.4653443e-08

exp_avg f4 [2, 10]
000000 e0 58 8b b4 20 fe 9f 38 80 cd aa 37 d3 df a9 b3
       -2.5955433e-07 7.629045e-05 2.0361273e-05 -7.910389e-08
000010 78 a3 b7 b4 c2 a5 cb b4 98 19 e0 b4 47 aa 3b b4
       -3.4205345e-07 -3.79323e-07 -4.1741873e-07 -1.7477679e-07
000020 2d aa b2 b4 49 66 ac b4 4d b1 11 34 2d 14 4a b8
       -3.3278903e-07 -3.211192e-07 1.3568679e-07 -4.8179343e-05
000030 1b 38 ee b6 ab 29 9e 32 93 b7 8a 34 ef aa 84 34
       -7.0994843e-06 1.841257e-08 2.583807e-07 2.4711287e-07
000040 84 0f 98 34 0d db cd 33 bf 7d 81 34 52 a5 4a 34
       2.8323495e-07 9.5859015e-08 2.4119615e-07 1.8872859e-07

exp_avg_sq f4 [2, 10]
000000 da 24 4f 31 3e 38 e5 35 77 04 37 34 91 74 aa 2c
       3.0143412e-09 1.7078198e-06 1.7044827e-07 4.844632e-12
000010 89 b8 36 30 58 ca 09 2e 96 e8 8c 2e 3d 65 1c 32
       6.6473455e-10 3.132991e-11 6.4077785e-11 9.103414e-09
000020 03 fd 8a 32 01 26 3b 31 b0 06 8e 32 b4 b3 c6 36
       1.618037e-08 2.7233684e-09 1.6534017e-08 5.92178e-06
000030 2e e2 02 35 7a cd cc 2d 12 53 3a 31 f9 68 de 2e
       4.875791e-07 2.3283365e-11 2.7113782e-09 1.0114038e-10
000040 4d f5 6e 2f 02 de 81 32 06 ab b7 33 aa 2a b5 31
       2.1733122e-10 1.5118534e-08 8.5527105e-08 5.2726437e-09

exp_avg f4 [2]
000000 80 5a f3 38 09 46 a7 b8
       0.00011604 -7.9762256e-05

exp_avg_sq f4 [2]
000000 eb 02 ab 36 03 4b b1 37
       5.096537e-06 2.1134974e-05
