lightning_logs/version_123/checkpoints/epoch=884-step=7080.ckpt (torch, 10635 bytes, 18 tensors)

layers.0.weight f4 [10, 4]
-0.2905665 -0.35241464 0.32659003 -0.21255547 0.14870517 -0.8165897 0.2918499 -0.14042129
0.04828682 0.060811564 0.4428412 -0.17740665 -0.39133775 -0.49493355 -0.4617144 -0.021694124
-0.1311152 -0.023450911 0.011614919 -0.28219074 -0.27753475 -0.3736429 0.11014846 0.106232956
0.25735134 0.038054466 -0.461883 0.40622115 -0.18665253 0.35756552 0.21851788 -0.010118034
0.1549077 0.088065386 -0.23930144 0.05211562 0.32694954 -0.03988254 -0.28126836 -0.2699889
00000000: 22c5 94be b16f b4be cf36 a73e 24a8 59be
00000010: 2b46 183e 060c 51bf 5a6d 953e 99ca 0fbe
00000020: 67c8 453d 8c15 793d 15bc e23e 17aa 35be
00000030: 6c5d c8be ee67 fdbe d465 ecbe e0b7 b1bc
00000040: 1043 06be 201c c0bc 804c 3e3c 4e7b 90be
00000050: 0919 8ebe 1f4e bfbe 8495 e13d aa90 d93d
00000060: 8ec3 833e 00df 1b3d ee7b ecbe 38fc cf3e
00000070: d721 3fbe d412 b73e 27c3 5f3e 1cc6 25bc
00000080: 20a0 1e3e a05b b43d 700b 75be 3077 553d
00000090: ee65 a73e e05b 23bd 6802 90be fc3b 8abe

layers.0.bias f4 [10]
0.14924331 0.390063 -0.43993294 0.32002777 -0.019791663 -0.30126497 0.1136753 0.07736444
-0.43078625 -0.36467946
00000000: 3dd3 183e 56b6 c73e e43e e1be aeda a33e
00000010: 2022 a2bc 673f 9abe 98ce e83d 3f71 9e3d
00000020: 0490 dcbe 44b7 babe

layers.2.weight f4 [5, 10]
0.3143949 0.4206353 -0.19801441 0.17983732 0.2453552 -0.20784837 0.04782025 0.09599379
0.2175516 -0.2527372 -0.024600836 -0.16111828 -0.30289364 -0.017398769 -0.16953789 0.17228267
-0.26487467 0.27069584 -0.25918242 -0.27928966 0.11892199 0.1450342 0.38669392 0.2312133
-0.08021703 0.047018226 0.14626981 -0.31697953 -0.04397102 -0.03305645 0.1884942 -0.26877543
0.30482414 0.11491543 -0.0024840627 -0.17750256 0.21555538 0.35809737 0.09043187 -0.133726
-0.26781005 -0.19260709 -0.20478298 -0.20551932 0.0675135 0.14511989 0.21062948 -0.29098773
0.0035059985 0.10577101
00000000: 5ef8 a03e 835d d73e 4ac4 4abe 4627 383e
00000010: 653e 7b3e 34d6 54be 2bdf 433d 6498 c43d
00000020: d9c5 5e3e c566 81be b187 c9bc 31fc 24be
00000030: e014 9bbe dd87 8ebc 579b 2dbe de6a 303e
00000040: a79d 87be a598 8a3e 8fb3 84be 0eff 8ebe
00000050: 5f8d f33d d883 143e bffc c53e 2ec3 6c3e
00000060: d448 a4bd 2f96 403d c1c7 153e 244b a2be
00000070: f51a 34bd 3366 07bd a004 413e ef9c 89be
00000080: e911 9c3e c858 eb3d a8cb 22bb 3bc3 35be
00000090: 8dba 5c3e 8a58 b73e 5834 b93d 78ef 08be
000000a0: 661e 89be cb3a 45be a1b2 51be a873 52be
000000b0: 8544 8a3d 4f9a 143e 41af 573e 58fc 94be
000000c0: e5c4 653b 799e d83d

layers.2.bias f4 [5]
0.055927496 -0.27426362 -0.0678507 0.09075727 -0.20105776
00000000: 3b14 653d 486c 8cbe 4ff5 8abd f3de b93d
00000010: 16e2 4dbe

layers.4.weight f4 [2, 5]
-0.2545841 0.36462954 0.35840434 -0.19714358 -0.0409939 -0.41223633 -0.34081194 0.09799608
0.36740026 0.16501246
00000000: d958 82be b9b0 ba3e c680 b73e 02e0 49be
00000010: 38e9 27bd a410 d3be e77e aebe 2bb2 c83d
00000020: e31b bc3e 07f9 283e

layers.4.bias f4 [2]
0.16730617 0.16557343
00000000: 4f52 2b3e 158c 293e

exp_avg f4 [10, 4]
-1.9590232e-07 -1.8758966e-06 -1.8290923e-05 -3.3587705e-06 -9.634849e-07 -1.2699951e-07 -2.2687615e-05 -2.0693355e-05
1.0326877e-06 3.3664958e-06 4.283184e-05 1.4368092e-05 0.0 0.0 0.0 0.0
0.0 0.0 0.0 0.0 6e-45 6e-45 6e-45 6e-45
0.0 0.0 0.0 0.0 1.1982327e-07 -5.2234504e-06 -3.2027412e-05 9.361606e-06
0.0 0.0 0.0 0.0 0.0 0.0 0.0 0.0
00000000: 3859 52b4 51c7 fbb5 756f 99b7 3d67 61b6
00000010: 1751 81b5 5c5d 08b4 4851 beb7 a496 adb7
00000020: e19a 8a35 f5eb 6136 57a6 3338 7c0e 7137
00000030: 0000 0000 0000 0000 0000 0000 0000 0000
00000040: 0000 0000 0000 0000 0000 0000 0000 0000
00000050: 0400 0000 0400 0000 0400 0000 0400 0000
00000060: 0000 0000 0000 0000 0000 0000 0000 0000
00000070: c5a8 0034 1945 afb6 2c55 06b8 cb0f 1d37
00000080: 0000 0000 0000 0000 0000 0000 0000 0000
00000090: 0000 0000 0000 0000 0000 0000 0000 0000

exp_avg_sq f4 [10, 4]
2.457427e-10 2.654373e-10 9.215354e-08 1.0771139e-08 4.0451242e-10 5.4277804e-10 2.391335e-07 3.6945828e-08
5.7587113e-10 6.8759504e-10 2.4341105e-07 2.8375432e-08 0.0 0.0 0.0 0.0
0.0 0.0 0.0 0.0 8.34081e-12 8.850205e-12 5.5587805e-09 9.038965e-10
0.0 0.0 0.0 0.0 1.2032615e-09 1.1716522e-09 3.7500266e-07 3.3074365e-08
0.0 0.0 0.0 0.0 0.0 0.0 0.0 0.0
00000000: 3619 872f fbec 912f f2e5 c533 f80b 3932
00000010: 1062 de2f 9c32 1530 4262 8034 5eae 1e33
00000020: 544b 1e30 3301 3d30 29ae 8234 3cbe f332
00000030: 0000 0000 0000 0000 0000 0000 0000 0000
00000040: 0000 0000 0000 0000 0000 0000 0000 0000
00000050: abbb 122d c8b1 1b2d 8dff be31 1076 7830
00000060: 0000 0000 0000 0000 0000 0000 0000 0000
00000070: 0060 a530 d907 a130 f953 c934 a60d 0e33
00000080: 0000 0000 0000 0000 0000 0000 0000 0000
00000090: 0000 0000 0000 0000 0000 0000 0000 0000

exp_avg f4 [10]
-1.2703645e-05 -1.3262324e-05 2.8252078e-05 0.0 0.0 6e-45 0.0 -2.4240426e-05
0.0 0.0
00000000: bd21 55b7 3f81 5eb7 e0fe ec37 0000 0000
00000010: 0000 0000 0400 0000 0000 0000 eb57 cbb7
00000020: 0000 0000 0000 0000

exp_avg_sq f4 [10]
2.9085788e-08 7.994009e-08 7.8319765e-08 0.0 0.0 1.8705093e-09 0.0 1.1413433e-07
0.0 0.0
00000000: 53d8 f932 87ab ab33 bf30 a833 0000 0000
00000010: 0000 0000 598a 0031 0000 0000 031a f533
00000020: 0000 0000 0000 0000

exp_avg f4 [5, 10]
-2.6241467e-05 -3.6851583e-05 -8.271349e-06 0.0 0.0 -6e-45 0.0 -2.387702e-05
0.0 0.0 0.0 0.0 0.0 0.0 0.0 0.0
0.0 0.0 0.0 0.0 2.7496595e-05 3.366427e-05 1.0536327e-05 0.0
0.0 6e-45 0.0 2.1991853e-05 0.0 0.0 -8.124627e-06 -5.488086e-06
-4.6121872e-06 0.0 0.0 6e-45 0.0 -3.7221696e-06 0.0 0.0
0.0 0.0 0.0 0.0 0.0 0.0 0.0 0.0
0.0 0.0
00000000: 1f21 dcb7 1691 1ab8 2cc5 0ab7 0000 0000
00000010: 0000 0000 0400 0080 0000 0000 834b c8b7
00000020: 0000 0000 0000 0000 0000 0000 0000 0000
00000030: 0000 0000 0000 0000 0000 0000 0000 0000
00000040: 0000 0000 0000 0000 0000 0000 0000 0000
00000050: 7da8 e637 bc32 0d38 2ec5 3037 0000 0000
00000060: 0000 0000 0400 0000 0000 0000 257b b837
00000070: 0000 0000 0000 0000 024f 08b7 4d26 b8b6
00000080: 63c2 9ab6 0000 0000 0000 0000 0400 0000
00000090: 0000 0000 63ca 79b6 0000 0000 0000 0000
000000a0: 0000 0000 0000 0000 0000 0000 0000 0000
000000b0: 0000 0000 0000 0000 0000 0000 0000 0000
000000c0: 0000 0000 0000 0000

exp_avg_sq f4 [5, 10]
9.330094e-08 2.2383219e-07 2.3257348e-08 0.0 0.0 2.098237e-12 0.0 7.945695e-08
0.0 0.0 0.0 0.0 0.0 0.0 0.0 0.0
0.0 0.0 0.0 0.0 8.61732e-08 2.250512e-07 2.9513775e-08 0.0
0.0 2.2389146e-09 0.0 6.631064e-08 0.0 0.0 6.647199e-08 1.2293405e-07
1.6020838e-08 0.0 0.0 9.070307e-14 0.0 4.7277076e-08 0.0 0.0
0.0 0.0 0.0 0.0 0.0 0.0 0.0 0.0
0.0 0.0
00000000: bc5c c833 8656 7034 73c7 c732 0000 0000
00000010: 0000 0000 7aa6 132c 0000 0000 eca1 aa33
00000020: 0000 0000 0000 0000 0000 0000 0000 0000
00000030: 0000 0000 0000 0000 0000 0000 0000 0000
00000040: 0000 0000 0000 0000 0000 0000 0000 0000
00000050: 380e b933 9aa5 7134 7a85 fd32 0000 0000
00000060: 0000 0000 67db 1931 0000 0000 a966 8e33
00000070: 0000 0000 0000 0000 5dbf 8e33 dbff 0334
00000080: 329e 8932 0000 0000 0000 0000 c33e cc29
00000090: 0000 0000 b20d 4b33 0000 0000 0000 0000
000000a0: 0000 0000 0000 0000 0000 0000 0000 0000
000000b0: 0000 0000 0000 0000 0000 0000 0000 0000
000000c0: 0000 0000 0000 0000

exp_avg f4 [5]
-5.556966e-05 0.0 5.0860053e-05 -8.835655e-06 0.0
00000000: 7813 69b8 0000 0000 9152 5538 d93c 14b7
00000010: 0000 0000

exp_avg_sq f4 [5]
4.859682e-07 0.0 5.214834e-07 2.0382069e-07 0.0
00000000: 7b73 0235 0000 0000 11fc 0b35 ced9 5a34
00000010: 0000 0000

exp_avg f4 [2, 5]
6.965922e-05 0.0 6.0881466e-06 3.11637e-05 0.0 2.3926306e-05 0.0 3.517379e-07
7.580716e-06 0.0
00000000: 0216 9238 0000 0000 c848 cc36 c5b5 0238
00000010: 0000 0000 5ab5 c837 0000 0000 7dd6 bc34
00000020: db5d fe36 0000 0000

exp_avg_sq f4 [2, 5]
7.6575384e-07 0.0 3.6027185e-08 1.6136435e-07 0.0 2.6463007e-07 0.0 1.3934792e-08
4.5789225e-08 0.0
00000000: 348e 4d35 0000 0000 4fbc 1a33 7f43 2d34
00000010: 0000 0000 7b12 8e34 0000 0000 dd65 6f32
00000020: c9a9 4433 0000 0000

exp_avg f4 [2]
0.00014039422 4.9708742e-05
00000000: c936 1339 5b7e 5038

exp_avg_sq f4 [2]
9.368406e-06 5.5087717e-06
00000000: ff2c 1d37 fdd7 b836
