neural_network/lightning_logs/kappa04/version_0/checkpoints/epoch=9-step=18750.ckpt (torch, 121355 bytes, 18 tensors)

layers.0.weight f4 [128, 6]
000000 7b 1d b5 c0 88 9b 83 3f 5b 3e 8a be 3b 9e 47 bf
       -5.6598487 1.0281839 -0.27000698 -0.77975816
000010 1e cb c4 bf 0f f2 2f bd ab db fd be 48 9a 37 3d
       -1.5374486 -0.042955454 -0.49581656 0.04482487
000020 9f 7f 82 be 73 84 bf bd a1 2f 77 3d a4 35 5c bc
       -0.25487992 -0.093514346 0.060348157 -0.013440523
000030 c4 d1 5a bf 26 55 59 3f c0 81 f6 bf a5 cc a9 bf
       -0.85476327 0.8489555 -1.9258347 -1.3265578
000040 6b 1b 9d bf 45 d4 3e 3c 89 68 01 c0 02 3a 61 bf
       -1.2273992 0.011647289 -2.0220053 -0.8797914
000050 08 f0 65 c0 f1 f2 60 be f1 20 32 bf cf eb 48 bf
       -3.5927753 -0.21967675 -0.69581515 -0.78484815
000060 49 59 be bd 0c ee 64 bb d5 62 e1 bf 33 d5 e8 be
       -0.092943735 -0.0034931926 -1.7608286 -0.45475158
000070 75 c6 0b bf 9f 10 fb 3e aa 68 06 be 8e 34 99 3d
       -0.54599696 0.49036118 -0.13125864 0.07480727
000080 cb 28 bc bf 60 70 18 c0 c5 ea c6 3d 65 d2 0a 3e
       -1.4699949 -2.3818588 0.097127475 0.13556822
000090 e7 fb 24 3f 31 83 18 be 0f cc 42 c0 e3 53 2a c0
       0.6444687 -0.14893796 -3.0437047 -2.66137
0000a0 f3 4a 95 3c 46 b0 04 bf a6 a6 89 bf 83 71 02 bf
       0.018224215 -0.5183147 -1.0753982 -0.50954455
0000b0 ff 2d 0d bf 3b 04 5a 3d 31 6b 74 3d 23 03 6a 3f
       -0.5514831 0.05322669 0.05967254 0.91411036
0000c0 af 1a 6f c0 dc 57 36 40 83 fa b4 3f 3a fd d8 bf
       -3.7360036 2.8491125 1.413895 -1.6952279
0000d0 8f 2d 13 bf 0a f4 3e 3e d3 02 b5 bf ab 62 41 bf
       -0.5749139 0.18647781 -1.4141487 -0.7554118
0000e0 bb cd 61 c0 d9 86 62 bf 23 84 44 3f 79 c1 27 bf
       -3.5281818 -0.8848701 0.76764125 -0.6552959
0000f0 3f 67 5f c0 05 2f fe 3f 47 cf be 3f 3e 76 80 bd
       -3.4906766 1.9858099 1.4907006 -0.06272553
000100 bf 34 0d 3e a9 3b f4 3e 4f 9c a1 bf 36 f0 e4 be
       0.13789652 0.47701767 -1.2625827 -0.44714516
000110 4f 53 b2 bf 79 7f c1 3f f7 81 d9 bc 38 ea 76 3f
       -1.3931674 1.5117027 -0.02655123 0.9645114
000120 2d 36 10 c0 73 ce 03 c0 c2 d5 5a bf be fd 83 be
       -2.2533066 -2.0594757 -0.8548242 -0.25779527
000130 73 b4 86 3f 30 7e 0f 3c 71 90 24 3d 96 f7 70 bf
       1.0523819 0.008758113 0.040176813 -0.94127786
000140 be 52 50 c0 81 9b 87 bf 8c 5d 08 be 79 31 53 3f
       -3.2550502 -1.0594331 -0.13316935 0.82497364
000150 c4 16 d4 3e 36 83 a0 3f 17 f3 e9 be b3 78 87 c0
       0.4142362 1.2540042 -0.45693275 -4.233484
000160 c5 2a 27 bf e4 d2 61 be c5 f3 30 3f d4 a2 14 3f
       -0.65299636 -0.22053105 0.6912196 0.58060956
000170 a2 b7 fe bf 36 b8 4c 3f 21 e9 5f 3e c2 5b e4 bd
       -1.989979 0.79968584 0.21866275 -0.11150314
000180 66 f4 94 bd d7 4b 4b bd 64 55 35 be 47 3c 33 3e
       -0.07273178 -0.049632873 -0.17708355 0.17503463
000190 c2 80 1a 3d 47 cc a0 3c 13 80 e2 3e 52 c9 ec 3d
       0.03772045 0.019628657 0.44238338 0.11561836
0001a0 ca 1c f3 3e 75 fe b2 3e 0a 82 95 3e be c1 6f 3d
       0.47482902 0.3495976 0.29200774 0.058534376
0001b0 68 17 17 bd 07 97 08 3f 88 a0 c7 bf 6b e6 88 c0
       -0.036887556 0.5335545 -1.5595865 -4.278127
0001c0 75 8f af 3e 7b 8d 72 3d 1e 66 4a bd b4 66 0b 3f
       0.34289137 0.059216958 -0.049413793 0.5445359
0001d0 fb 46 31 c0 10 6b 66 c0 15 4e a1 bd ba 71 30 be
       -2.7699573 -3.6002846 -0.07876221 -0.17230883
0001e0 3b 58 a3 bd f1 60 54 c0 24 b7 8e 40 8f 66 9d 3d
       -0.07975813 -3.3184168 4.459856 0.07685577
0001f0 4a 74 79 bf ae 0d 84 bd f5 e5 9f bf f0 c6 1b bf
       -0.9744307 -0.06447922 -1.2492052 -0.6085043
000200 9c 51 a3 bf 69 29 13 3d 04 bb af be 38 06 d9 be
       -1.275928 0.035928164 -0.3432237 -0.42387557
000210 88 d2 cd 3f 28 a5 f7 bf a1 fd be bf d4 68 40 3b
       1.6079874 -1.9347277 -1.4921151 0.0029359357
000220 b9 a3 47 40 e4 bc b8 3b b0 61 9e bf 3a 7d ef 3e
       3.1193678 0.005637752 -1.2373562 0.46775228
000230 cc 95 b1 3d b7 5e 23 c0 e0 c0 97 3f 3b fc 05 be
       0.086711496 -2.552656 1.1855736 -0.130845
000240 f8 9a 99 be a0 c1 74 bc 1b b7 77 c0 bb ce 86 c0
       -0.30001044 -0.014938742 -3.8705509 -4.2127357
000250 ab 74 25 be 35 dc 8c ba 8e 74 75 bd c9 ec 3c 3d
       -0.16157787 -0.0010746779 -0.05992561 0.046124253
000260 66 d0 f2 3d c8 e5 5d c0 99 e1 c1 3d 7c 37 40 bf
       0.11856155 -3.4671497 0.094668575 -0.7508466
000270 85 56 63 3f 59 ea 92 be 54 8e e4 bf af 89 e4 bf
       0.88803893 -0.28694418 -1.7855935 -1.7854518
000280 fa 0d 29 3d 60 36 0d bf 3e f2 95 3e 0b 4c 71 bf
       0.041273095 -0.55161095 0.2928638 -0.9425666
000290 09 5f 6c c0 36 ba eb bf c9 cd 22 3e 86 c1 41 bf
       -3.6933005 -1.8416202 0.15898813 -0.7568592
0002a0 cb a6 27 be 96 2d 6e 3d 5d 8c 21 c0 8b 11 af bf
       -0.1637222 0.058148943 -2.524192 -1.3677229
0002b0 fd 6a ca bd 66 bc 5a 3d d0 41 86 bf fa ce ac 3e
       -0.09883688 0.053402327 -1.0488834 0.3375166
0002c0 73 fb 0a c0 a9 92 67 bf d8 97 d0 3d 29 c4 ef bb
       -2.1715972 -0.9045816 0.10185212 -0.0073170853
0002d0 c9 82 ad be 04 55 ce 3e 09 f4 4e be 57 55 ae bf
       -0.33888844 0.40299237 -0.2021028 -1.3619794
0002e0 b3 40 8b 3d 53 1d 03 bc b0 6d d2 3f 16 cd ab bf
       0.0679945 -0.008002597 1.6439724 -1.3421962
0002f0 5f ac 9f bf 6d 8e 80 bf bd 7e 21 3e b6 e6 bd 3e
       -1.2474478 -1.0043465 0.15771003 0.3709008
000300 43 8a ae 3e 6e 51 be bd f0 d5 38 bf f0 b1 58 c0
       0.3408986 -0.09292875 -0.7220144 -3.3858604
000310 9a dc f1 3e 2a 70 30 bd 79 7d 8f 3f 26 eb 8c be
       0.47238618 -0.043075718 1.1210166 -0.27523154
000320 6d 71 12 3f 5c 38 78 3f 6c c6 ba 3f 17 f3 e7 bc
       0.57204324 0.96961 1.4591804 -0.028314156
000330 e3 e6 74 c0 6f 3d 1a bf 7a 80 de 3c 58 10 3b bb
       -3.8265922 -0.6024999 0.027160872 -0.0028543677
000340 62 75 1b bf b9 09 bb be 8f 4e 54 3f 71 8d dd bc
       -0.60725987 -0.36530855 0.8293237 -0.027044984
000350 38 b7 89 bf dc 2d 1e 3f 36 a5 1d be 72 23 3e bf
       -1.0759039 0.61788726 -0.15395054 -0.74272835
000360 fe 06 c7 3e 3a 2f 2f 3e 80 8f 2f 40 3f d6 50 3f
       0.38872522 0.17107859 2.7431335 0.81576914
000370 2c 7e 1d 40 5a 4d 04 bd 89 bc 35 3e 61 93 c4 bf
       2.460826 -0.03230033 0.17747702 -1.5357476
000380 ca 0c b2 c0 89 ca 03 c0 7b c9 05 bf 79 1c 43 3d
       -5.564061 -2.0592368 -0.5226056 0.047634576
000390 8f 16 d8 bf 53 23 86 3f b7 be 50 3f a3 d0 ad c0
       -1.6881884 1.047953 0.8154101 -5.4317183
0003a0 19 cd 96 be f5 b9 2a 3f c5 ab da bf 50 02 ce bf
       -0.29453352 0.6669 -1.708367 -1.6094456
0003b0 37 d8 c5 bf 05 24 20 3f c3 80 ad be ed b6 00 be
       -1.5456609 0.6255496 -0.338873 -0.1256978
0003c0 a3 40 45 bd fe 15 d4 3e 05 78 6a c0 09 64 a7 c0
       -0.048157346 0.4142303 -3.6635754 -5.2309613
0003d0 1b df bf be 93 49 d2 bc 77 df 09 be ee 79 63 bf
       -0.37474903 -0.025669849 -0.13464151 -0.88857925
0003e0 6b f6 33 c0 dd e5 b3 bf fc 59 bc 3d e1 c4 22 b9
       -2.8119152 -1.4054524 0.09196851 -0.00015522867
0003f0 5b 49 9e bc 91 f3 a5 3f f3 aa 32 bf 72 68 f1 c0
       -0.019322088 1.2964956 -0.697921 -7.5439997

layers.0.bias f4 [128]
000000 b7 80 02 be 4d 6f c6 bd 73 b1 97 3d bb 85 e4 be
       -0.12744413 -0.09689198 0.07406893 -0.44633278
000010 7f e2 0c 3f 18 8a fb bd cc 88 d3 be 42 85 7a bf
       0.55033106 -0.12282199 -0.41315305 -0.97859585
000020 7f 1e 10 bf e0 da 58 bf 33 d0 c7 be fc 5c ca bf
       -0.56296533 -0.84708977 -0.3902603 -1.5809627
000030 81 1c d3 3f cb ec d2 bf 2a 87 00 bf 9c e2 d2 be
       1.6493074 -1.6478513 -0.50206244 -0.41188514
000040 60 91 38 be 20 13 46 bf 8c f3 89 3d db d9 d8 3e
       -0.18024206 -0.7737293 0.06735906 0.4235371
000050 8e fd 42 bf 43 2f 9d 3f d6 46 2d 3f 35 b0 6d 3f
       -0.76168144 1.2280048 0.6768621 0.92846996
000060 08 eb d6 3e 6b 56 d7 bf 9f 65 0e 3f 9f 28 61 bf
       0.4197619 -1.6823248 0.5562381 -0.8795261
000070 da 36 01 be 18 25 ab 3d bb 73 b9 be cb 69 58 3d
       -0.1261858 0.083566844 -0.36221108 0.052835267
000080 37 c7 66 bf 16 fd fb 3e c3 12 55 3f 7f c9 00 c0
       -0.9014773 0.49216527 0.83231753 -2.0122983
000090 e3 0d ba 3e 7c 00 51 3f 57 9b 7e bf 29 96 e0 3f
       0.3633872 0.81641364 -0.9945578 1.7545825
0000a0 72 14 5f 3f d7 44 70 3e 1f b3 34 3e ee 46 3b bf
       0.8714057 0.2346376 0.17646454 -0.73155105
0000b0 b9 01 52 bf 70 83 e2 3e e2 dc 1d 3e cc 5b 86 3e
       -0.8203388 0.44240904 0.15416291 0.2624191
0000c0 60 61 f3 bf 80 5d 5c 3f 6f 28 ac bf fd 5c a6 3f
       -1.9014091 0.8608017 -1.3449839 1.2997128
0000d0 49 08 fb be 6f 2d 95 be f6 53 0e bf 2d 64 0f 3e
       -0.4902976 -0.29136226 -0.55596864 0.14003058
0000e0 ea b5 0a c0 36 39 94 bf 01 99 03 3f 30 58 98 3e
       -2.1673532 -1.1579959 0.5140534 0.29754782
0000f0 45 49 f4 be d2 43 62 be ac 41 96 3f ed 7c 82 be
       -0.4771215 -0.22096184 1.1738791 -0.25485936
000100 d6 47 2c bf a7 7b c8 3f 3e 34 53 3f 62 a9 04 3e
       -0.6729711 1.5662736 0.8250159 0.1295524
000110 68 14 fc bd 02 34 8a 3d 81 e6 61 bf 49 5c c6 bf
       -0.1230858 0.06748201 -0.88242346 -1.5496913
000120 a0 55 b9 bf 66 9a a6 3e 4e 21 cc 3d 57 9c 85 3d
       -1.4479256 0.32539672 0.0996729 0.0652396
000130 ca 0f 7c bd 25 65 91 bf 6e c9 e3 bd 12 75 68 bf
       -0.061538495 -1.1358992 -0.11122404 -0.90803635
000140 74 87 d1 3e 7c 07 98 3f 93 4b c6 bf 6e c1 1d bf
       0.40923655 1.1877284 -1.5491813 -0.61623275
000150 1d 3f b7 bf a8 a5 e8 bf 6e 16 ed bd 7f 79 55 3d
       -1.4316136 -1.8175554 -0.11576544 0.05211782
000160 3b c5 13 bd 18 62 0b 3f 1e ac 7f bf b5 5b be bf
       -0.036076766 0.54446554 -0.99872005 -1.4871737
000170 1c a1 f5 bd 3e 82 24 bf 18 c4 af 3f 03 23 06 c0
       -0.1199362 -0.64261234 1.3731718 -2.095887
000180 7b c6 3f 3f f1 c9 83 bd ad fd 33 3f f3 ce 71 bf
       0.7491223 -0.06435002 0.70308954 -0.94456404
000190 45 b5 1b bb 2e b0 3f 3e 8c a2 b3 bf 32 7b 0c be
       -0.0023759168 0.18719551 -1.403398 -0.1371887
0001a0 3d c3 0a 3e 98 fd 40 bf 27 4a 67 bd 47 6f 51 bf
       0.1355104 -0.75386953 -0.0564672 -0.8181042
0001b0 ee 14 05 3f a7 d5 c6 3e 90 6c 23 bd 58 a5 17 bd
       0.5198506 0.3883488 -0.039898455 -0.03702292
0001c0 b7 ec 8a bf fd bd f3 3f a2 06 09 3f 4c 87 7e 3d
       -1.085349 1.9042355 0.53525746 0.062140748
0001d0 b5 2e 48 bf 82 cd 42 bf 0a bd db bf ce 42 ad be
       -0.7819627 -0.7609483 -1.7167065 -0.3384003
0001e0 5a 44 db bf 36 c7 db 3d 44 7f db bf 5c f3 66 bf
       -1.7130234 0.10731356 -1.7148213 -0.90215087
0001f0 e2 57 60 be f2 c7 39 be 7f 19 0c bf 3e 81 0d bf
       -0.21908525 -0.1814268 -0.54726404 -0.5527533

layers.2.weight f4 [64, 128]
000000 81 3b 9d c0 33 02 1d 3e a6 5a 94 3f f3 f1 1f 3f
       -4.9135137 0.1533287 1.1590164 0.6247856
000010 eb a2 12 3b ba 69 26 3f 7f 7b 89 be 11 38 39 3d
       0.0022374939 0.65005076 -0.26852033 0.045219485
000020 33 c5 53 3f 4d a5 6d 3d bf f4 fe bf d9 3c 33 3e
       0.8272278 0.05801897 -1.991844 0.1750368
000030 99 5b 09 3f 54 3d db 3e f4 47 0e 3f a9 0b 22 bf
       0.5365539 0.42820227 0.5557854 -0.6329904
000040 15 f6 97 bd 10 c6 0c bf 15 b4 bc be 16 80 6e 3f
       -0.07419983 -0.5498972 -0.36856142 0.93164194
000050 e0 fe 15 bf fc 6f e3 3e 95 61 91 be 17 ca ea 3e
       -0.58592033 0.44421375 -0.28394762 0.45857307
000060 2c 1a 24 bf 31 fe 29 c0 7f d1 7f 3e 5f 39 a2 3e
       -0.64102435 -2.6561396 0.2498226 0.31684396
000070 e4 7f 20 bd 7a b4 97 bd 63 97 e0 3e 38 eb c5 c0
       -0.039184466 -0.0740747 0.438655 -6.184963
000080 b6 46 c1 be c8 54 bf bf 58 6f 29 c0 12 f5 1b bf
       -0.3774926 -1.4947748 -2.647421 -0.6092082
000090 5e 58 65 be 5c a8 b7 be 07 c5 35 3f bf a9 76 bf
       -0.2239699 -0.35870636 0.71003765 -0.9635276
0000a0 e8 97 42 3f d5 89 48 bf 25 32 d0 3f b3 2e 87 3e
       0.7601304 -0.78335315 1.6265303 0.26402816
0000b0 7e 86 1a bf cc 24 40 c0 7f bd f5 39 46 1b bd 3e
       -0.6036147 -3.002246 0.00046871227 0.3693487
0000c0 d9 eb 0a c0 db 31 79 3e 60 4f 28 3e 82 11 6f 3f
       -2.170645 0.24335425 0.16436529 0.9338609
0000d0 85 d5 cc be a6 c2 98 bf ad 03 26 bf a0 dc 2a 3d
       -0.40006652 -1.1934402 -0.6484936 0.04171431
0000e0 6a 8e f3 bf 8a e6 02 bf ce b7 9d 3e 6e b2 8e bf
       -1.9027836 -0.51133025 0.30804294 -1.1148202
0000f0 9a d2 27 c0 90 66 3b 3e d4 80 a1 3f f6 db 38 bd
       -2.622229 0.18300843 1.261744 -0.045131646
000100 36 b6 17 bf b5 c8 10 c0 3c 32 51 3f 45 bd e6 bf
       -0.59262407 -2.2622502 0.81717277 -1.802651
000110 78 7a 83 be dd b7 ac 3e 84 22 f8 bf 45 8d 00 c0
       -0.25679374 0.33734027 -1.9385533 -2.0086224
000120 71 88 66 c0 e1 21 fd bd 01 0a 79 bc f2 1f 97 bf
       -3.6020777 -0.123599775 -0.015200139 -1.1806624
000130 57 73 3d bd 0a 50 85 bf 5a f2 e3 be a2 65 3e 40
       -0.046252575 -1.0415051 -0.44520837 2.9749532
000140 2a ba 11 3e 4a 62 0e bf 43 bb 9f bf 45 ba ad bd
       0.14231172 -0.5561873 -1.2479023 -0.08482794
000150 71 b8 bf 3d df d3 0a be 81 95 df 3e 27 25 2c be
       0.09361351 -0.13557385 0.4366875 -0.16811047
000160 17 91 87 3e e2 cd fd be b2 ff b3 3d 63 91 75 3f
       0.26477882 -0.4957114 0.087890044 0.9592497
000170 e7 c2 6a 3f 51 74 04 bf f4 fb 32 bf 39 22 9f c0
       0.9170365 -0.51739985 -0.699157 -4.9729276
000180 b2 e1 c2 3f ef 46 59 be 62 f7 db bf fb fd 83 bf
       1.5225127 -0.21218465 -1.718487 -1.0311884
000190 be 3b 3e bf 5e af 8b be 22 11 d0 3f e5 83 c6 3e
       -0.7430991 -0.27282232 1.6255229 0.38772503
0001a0 15 4b 28 3f 9c c7 e4 3e 2c 57 d8 be 7e 75 5e 3e
       0.65739566 0.4468354 -0.42254007 0.21724507
0001b0 63 35 b9 bf 87 9c a7 3f 54 e7 ba 3f 7b 9b e6 be
       -1.4469417 1.3094643 1.4601846 -0.45040497
0001c0 de ab 18 3f b3 85 98 3f fd 40 3a 3f 35 94 10 c0
       0.5963725 1.1915802 0.72755414 -2.2590458
0001d0 1e 58 4c be cd 60 74 be 6d a0 84 be 45 c4 32 c0
       -0.19955489 -0.23865052 -0.25903645 -2.7932293
0001e0 5e e9 3f bf 31 b2 c0 3f 04 3e 00 bf de a2 1a bf
       -0.74965465 1.505438 -0.5009463 -0.60404766
0001f0 85 94 1e 3e 96 33 39 bd 71 51 17 be ef 61 bf bf
       0.15486343 -0.04521521 -0.14777161 -1.4951762
000200 54 23 29 bf be 8d 3b be 51 9b 4e 3f c1 4a 9d be
       -0.6606953 -0.18315789 0.80705744 -0.30721095
000210 f1 f1 18 bf d5 18 88 3e 52 e2 9a be 74 fa 8e bf
       -0.59744173 0.26581445 -0.30250794 -1.1170182
000220 6a f7 05 c0 50 21 fc be 12 27 68 c0 da ce 90 bf
       -2.093226 -0.49244165 -3.6273847 -1.1313126
000230 bf 37 55 3f 51 ff 0e bf e1 c5 45 3f c4 06 84 3d
       0.83288187 -0.5585833 0.77255064 0.06446603
000240 2b 98 41 3d 93 fc 0e bd 6b 25 f4 be 25 8c 98 3e
       0.04726426 -0.034908842 -0.47684798 0.29794422
000250 c5 6d a8 bf c0 cb 8d 3e 61 e4 c5 3f 1c 45 24 3f
       -1.3158499 0.2769451 1.5460321 0.6416795
000260 fb 52 9b bf 90 2b e3 be 9a 4c c1 3e d5 0d 3b bf
       -1.2134699 -0.44369173 0.37753755 -0.7306798
000270 6f d7 fe 3e e5 e6 d2 bd 80 18 3e 3e 49 85 ab be
       0.49773738 -0.10297946 0.18564034 -0.33500126
000280 4f b4 38 3f 0d f3 d0 be e8 58 ce 3e 2c 59 01 c0
       0.7215013 -0.40810433 0.40302205 -2.0210676
000290 ff 7d 92 bb 95 f1 9b 3d 93 3c 06 bf 6c 3b 39 3f
       -0.0044705863 0.076144375 -0.5243618 0.72356296
0002a0 80 0b 11 3f 89 d1 00 bf 27 8b fd 3e 50 2a 90 be
       0.5665817 -0.50319725 0.49520227 -0.28157282
0002b0 62 18 c5 3c 38 b5 c7 3e 4a 90 f4 bd ab 5f dd bd
       0.024059478 0.39005446 -0.119415835 -0.10809263
0002c0 a0 2b c5 bf a9 76 50 3f b9 c5 43 bf 87 06 89 3f
       -1.5403938 0.8143106 -0.76473576 1.0705117
0002d0 02 44 3c 3e d4 d6 08 bf 28 98 d3 be f1 de 77 3e
       0.18385318 -0.534528 -0.41327024 0.24206139
0002e0 b2 9d a8 3f 38 c2 11 c0 a6 b8 b0 3f 7b df 1a 3e
       1.3173125 -2.2774792 1.380635 0.15124314
0002f0 c5 6d 28 bf 60 89 d4 3e c6 09 ce 3e 5a 0b 96 3e
       -0.65792495 0.4151106 0.40241832 0.29305536
000300 7b 48 60 bd ed 57 6a 3f f0 5f 4e 3e 59 f5 c5 bf
       -0.054756623 0.91540414 0.20153785 -1.5465499
000310 75 ed 78 bd 2b 38 7a 3e 9f 8d f5 3f 9b 3c 2f be
       -0.06077333 0.24435489 1.9183844 -0.17112963
000320 0d e6 a5 bf df e6 14 c0 8d 12 f2 3d 3f 7c 0c c0
       -1.2960831 -2.3265913 0.118199445 -2.1950834
000330 3b e4 51 3e e9 8b 84 bf 81 9e a7 bf fe ef 23 3f
       0.2049722 -1.0355197 -1.3095247 0.64038074
000340 17 5e 3c be 07 a5 5e 3f d8 f1 37 bf a5 18 6f c0
       -0.18395267 0.8697056 -0.718534 -3.7358792
000350 ca 2d 5d bf b1 3c 65 3f 2c 35 c5 3d c5 d8 4f be
       -0.86397994 0.8954573 0.09629282 -0.20297535
000360 67 55 c0 3e 8b 02 59 be 02 ee 85 bf a4 7b 43 bf
       0.37565157 -0.21192376 -1.0463259 -0.76360536
000370 a4 49 e6 3d 72 b3 8b bd 5c 06 13 bf c2 5e 4d bf
       0.112445146 -0.06821336 -0.5743158 -0.80222714
000380 8d b4 1d bf c5 fa ea 3e 15 56 33 be 5d a5 a3 be
       -0.61603624 0.45894447 -0.17513306 -0.319621
000390 ad f6 10 bf 08 06 96 3d 0e 41 cf 3f 8d e2 0b 3e
       -0.566264 0.07325369 1.6191728 0.13660641
0003a0 bb 08 b9 3e fc a8 20 3f bd b2 cc 3f ea 05 ee 3e
       0.36139473 0.6275785 1.5992047 0.46488887
0003b0 22 5e 54 bf 0b 93 1a 3f e5 10 d7 3e aa 27 60 be
       -0.82956135 0.6038062 0.42005077 -0.2189013
0003c0 e1 92 97 bf 0b d6 08 40 07 f1 2f c0 9c 73 7b bf
       -1.1841699 2.1380641 -2.7490861 -0.9822328
0003d0 80 fb d7 3f 00 b3 23 be ce 61 b5 bf 5c 1a a7 bf
       1.6873627 -0.15986252 -1.4170473 -1.3054919
0003e0 5b 4e e6 3e 9c 1a bd 3d ad 4b f5 bf 13 a1 c0 bf
       0.44981655 0.09233591 -1.916372 -1.5049156
0003f0 d2 66 4b be 4d 25 d6 bf 76 85 f5 bd ee eb 48 3f
       -0.19863442 -1.6730133 -0.11988346 0.78485

layers.2.bias f4 [64]
000000 95 b6 b3 3d 84 ad 62 3f 7b f5 78 3f 25 e0 0d 3f
       0.08775059 0.88546014 0.97249573 0.5542014
000010 f4 a9 fa 3d 62 70 d0 be 63 49 cf 3e 8f 67 83 be
       0.12239447 -0.4071074 0.40485677 -0.25664946
000020 d3 8a 08 bf e8 b3 ce 3f 67 ea f4 3e 92 19 8e 3e
       -0.5333683 1.6148653 0.47835085 0.27753884
000030 99 af 1d bf b2 67 5e 3f 85 a9 29 3e 89 19 aa bf
       -0.61596066 0.86876976 0.16568573 -1.3289043
000040 97 1f 3c bd d5 64 02 3f da 99 c6 3d f7 34 b5 3e
       -0.045928564 0.5093511 0.096973136 0.3539197
000050 7e 18 98 bf d6 dc fa bf 71 02 70 bf d4 a4 7c 3d
       -1.1882474 -1.9598644 -0.93753725 0.06168063
000060 bc 2e 6f bf f3 f2 43 bd df a1 f2 be 08 5a 50 bc
       -0.93430686 -0.047839116 -0.47389123 -0.012716778
000070 ac e2 43 be 1b 61 a5 3f af 1b 29 bf 86 57 5b 3f
       -0.19129437 1.2920259 -0.66057867 0.85680425
000080 a9 ed 26 bf db e9 00 bf 9e 63 0a 3f 94 2c 21 be
       -0.6520639 -0.50356835 0.54058254 -0.15739661
000090 28 d5 0f c0 f3 94 f9 3d 9a 47 19 3f a6 47 86 3e
       -2.247385 0.12186613 0.5987488 0.26226538
0000a0 e7 64 6f 3f 34 e4 ba bf 46 28 00 bf 80 2b 51 bf
       0.9351334 -1.4600892 -0.5006145 -0.81707
0000b0 70 61 11 3f 75 b3 b1 bd ed 94 c2 3d b6 80 61 3e
       0.567893 -0.08676807 0.095010616 0.22021756
0000c0 c5 a3 b2 3f 60 0e 92 3c 73 b0 2b 3f a6 64 89 3f
       1.3956228 0.01782912 0.67066115 1.073384
0000d0 2d aa 2f bf 6b 89 5e 3f 66 6b 9e 3f e9 73 c0 be
       -0.6861904 0.86928433 1.2376525 -0.37588432
0000e0 7f a5 9f 3e 5c b3 17 bf 0a 35 57 bf a2 db fa 3e
       0.3118095 -0.59258056 -0.84065306 0.48995692
0000f0 62 13 76 3e ab eb 82 3f 7b 45 4d be 07 63 35 3f
       0.24030831 1.022817 -0.20046036 0.7085423

layers.4.weight f4 [2, 64]
000000 e9 2a 71 bf 4b 68 e6 3d 70 5f 88 be 31 77 0e 3f
       -0.942061 0.11250361 -0.26635313 0.5565062
000010 ff ac e0 be ef ac 31 be ee 57 8f be b7 97 10 3c
       -0.43881986 -0.17351125 -0.27996773 0.008825234
000020 bc d3 c2 bf b1 ee 5a 3f a9 63 9f be fe 55 44 3d
       -1.5220866 0.85520464 -0.31130722 0.04793357
000030 81 c3 ff 3c b3 35 bc 3e 7f 0b 7b bf d8 b5 12 3f
       0.031221153 0.3675972 -0.98064417 0.5730872
000040 d6 f1 49 bf 53 86 29 3e cd b7 05 bf d6 87 e9 be
       -0.7888464 0.16555147 -0.5223358 -0.45611447
000050 a3 57 7f bd 55 24 39 3f ad 26 df be 93 37 a3 bf
       -0.062339436 0.72321063 -0.43584195 -1.2751335
000060 73 84 81 be 8e 0d 52 be bb 3b ba be 4d 76 21 bf
       -0.25296363 -0.20512983 -0.36373696 -0.6307114
000070 50 3d 9f be cc f6 e2 3e 37 c6 db 3d 81 57 71 3c
       -0.31101465 0.44328916 0.10731166 0.014730335
000080 26 14 0e 3d dd 8f b0 be 82 26 5f be 4b 48 8c 3e
       0.034687184 -0.3448476 -0.21792033 0.27398905
000090 09 b0 16 3f 57 4a 5b bd a8 dd 57 3f 4a e4 40 be
       0.5886236 -0.053537693 0.84322596 -0.18837085
0000a0 83 78 f2 be 9c 9b 40 3f 04 72 a1 3d db 3e 05 bf
       -0.47357568 0.7523744 0.07883075 -0.52049035
0000b0 f7 15 08 3e 3f 0e 50 3f ac d6 10 3f 48 32 04 3f
       0.13289629 0.8127174 0.56577563 0.51639223
0000c0 35 6e 47 be c9 d1 31 bf 10 25 e6 3e d2 c8 d6 3d
       -0.19475634 -0.6946073 0.4495015 0.10487522
0000d0 a4 90 03 bf 34 13 fb 3e 6a 2d f9 3c de bb d9 be
       -0.5139258 0.49038088 0.030417163 -0.42526144
0000e0 75 d3 70 be 2c f0 c6 be 26 ef 08 3e 91 d0 52 bd
       -0.23518164 -0.38855112 0.13372478 -0.051468436
0000f0 63 e0 44 bf 70 f1 79 bf 98 9f 46 be 69 8b a1 be
       -0.76904887 -0.9763403 -0.19396818 -0.31551674
000100 98 bd 8a 3e 3e 0e eb be 9f 1f 07 bf d3 29 b5 3f
       0.27097774 -0.45909303 -0.52782625 1.4153389
000110 e1 62 67 3e bf c5 3f bf 5d 00 22 bf 68 d2 60 3d
       0.22596313 -0.7491111 -0.63281804 0.05488816
000120 07 7c 5a bc 51 e9 06 3e 2e 5c e7 3e 8f 2f 91 bc
       -0.0133352345 0.1317494 0.45187515 -0.017722873
000130 80 7b 15 bd dc 7e 82 be 2b e2 76 3f dc 10 bd bf
       -0.036494732 -0.2548741 0.96438855 -1.477077
000140 60 c3 d2 3e 8e 6b bc bd 34 59 18 3f e0 38 3e be
       0.41164684 -0.09200202 0.59511113 -0.18576384
000150 de 50 c7 bd 5f 3c 0d bf 53 7a 2f be 44 7b 21 3f
       -0.09732221 -0.55170244 -0.17136507 0.63078713
000160 53 18 15 be 81 a6 e6 3e e4 5d 29 bf ad 2f 40 be
       -0.1456006 0.45048907 -0.6615889 -0.18768187
000170 7c 80 c7 bc 35 39 07 bf 72 c6 97 bd b3 2e 05 3f
       -0.024353258 -0.52821666 -0.07410897 0.5202438
000180 46 53 25 3d 61 96 5d 3e 24 83 0b bf b4 ca 3f bf
       0.04036262 0.21639396 -0.5449698 -0.74918675
000190 bd f4 17 3f 4f dd 06 3f a8 32 50 3d d8 95 ce 3d
       0.59357816 0.5268144 0.05082956 0.10087174
0001a0 5e 73 1b 3f 75 37 f6 3e 82 a2 3b 3b f0 f4 98 bd
       0.6072291 0.48089185 0.0028630798 -0.07468593
0001b0 bd 6f 75 bd 8d 35 cd 3d 8e 2e cb bd dc 0e 1a 3f
       -0.059921015 0.100199796 -0.09920989 0.60178924
0001c0 b9 1f 26 bf 44 9b 2c 3f 76 61 ae 3e 49 ee 1d 3f
       -0.64892155 0.67424417 0.34058732 0.6169172
0001d0 2b a7 05 bf 55 eb 88 be c4 cd 0e c0 60 bc f6 3e
       -0.52208203 -0.26742044 -2.231309 0.48190594
0001e0 d6 0e bb 3e 46 2b 98 3e ae fc 15 3f d3 4b dd 3e
       0.36534756 0.29720515 0.58588684 0.43221912
0001f0 3b 5e 3b 3e af ec 83 be e7 25 85 bf 92 1c 16 bf
       0.18297665 -0.25766513 -1.0402192 -0.58637345

layers.4.bias f4 [2]
000000 42 b4 89 3f ae 9b 11 bf
       1.0758135 -0.56878173

exp_avg f4 [128, 6]
000000 44 6d d9 bc 86 57 96 bd d1 e1 a2 bc 24 f3 0c bd
       -0.02654136 -0.073409125 -0.019883068 -0.034411564
000010 8b d1 db 3d 4a 93 32 bc 8a 28 df b8 2f e9 c5 b8
       0.107333265 -0.010899374 -0.000106410196 -9.437126e-05
000020 08 8b 45 b8 38 ea a3 b7 b3 91 35 39 a3 94 45 39
       -4.7097943e-05 -1.954018e-05 0.00017315782 0.00018842756
000030 f2 73 b4 3c 17 c5 c9 3c d4 ac 92 3b ac e0 a7 3b
       0.022027943 0.024630113 0.004476169 0.0051232185
000040 02 e9 f5 bc 25 2e 13 3d 9b aa 36 3c 22 ef 89 bb
       -0.030018333 0.03593268 0.011149074 -0.004209415
000050 23 9f e1 3a 07 bc 07 3a b1 64 8d bb 2a d6 20 bd
       0.0017213564 0.00051778596 -0.004314982 -0.039266743
000060 8e 5e d5 bc 48 df d6 3b e0 bd 17 ba 4c f2 e4 bb
       -0.026046064 0.006557379 -0.00057884865 -0.006986892
000070 27 33 64 3c 81 2f 2f 3d 35 bc ed b8 6c a8 e4 37
       0.013928211 0.042769913 -0.00011336097 2.7258146e-05
000080 2f d5 b3 b7 c5 c6 8a b7 cc a6 db 37 39 db 1e 39
       -2.1437734e-05 -1.6543441e-05 2.6184505e-05 0.00015149721
000090 7f 1c 23 3c 11 4c 9f 3b 83 3d 20 3b 3c b0 ab 3a
       0.0099555245 0.0048613627 0.0024450726 0.0013098787
0000a0 ce 66 50 bc 13 06 25 bd 6b fc bb 3b 97 09 13 bb
       -0.012719823 -0.040288996 0.0057368777 -0.0022436136
0000b0 45 fe af ba 74 01 3b 3a 12 62 d6 3a 0e d0 23 bc
       -0.0013427219 0.00071337004 0.0016356132 -0.009998335
0000c0 65 e1 6c bc 89 07 ae bc d2 1e c4 bb 83 ff 93 ba
       -0.014458035 -0.021243827 -0.0059851194 -0.0011291358
0000d0 4f 74 23 3d 43 09 bb bc 28 02 c2 b8 60 05 47 ba
       0.039905842 -0.022831565 -9.2510425e-05 -0.00075920485
0000e0 84 bf 8a b8 9f f3 a2 b9 31 c4 6b 3a 5c 53 c4 3b
       -6.616025e-05 -0.0003108056 0.00089937734 0.0059913825
0000f0 de 07 d9 bb 3b ea 4c bc 29 29 92 bb 13 ca 01 bc
       -0.0066232523 -0.012507017 -0.004460473 -0.007921713
000100 03 9b a6 3c 3c 03 56 bd 9b 39 54 bb 39 37 95 bb
       0.020337587 -0.05224918 -0.0032382968 -0.004553702
000110 68 67 20 bb 38 f9 97 ba c1 58 b6 3b cd 8a 47 bd
       -0.0024475697 -0.0011594659 0.0055647795 -0.048716355
000120 26 dd b4 3a 24 cf 47 3b 4c b2 8a 36 11 0f 0a 3b
       0.0013798818 0.0030488456 4.133477e-06 0.002106611
000130 50 75 b9 bb c3 f5 2d 3d 2c f2 03 bc 39 96 8e 39
       -0.0056597367 0.042470705 -0.008053344 0.00027196275
000140 c1 08 85 ba 10 d4 74 b9 b6 0b 99 ba 4a 1f 15 bd
       -0.0010149704 -0.00023348653 -0.0011676464 -0.036406793
000150 c2 a9 7c 3c 3e ea b6 3b 3c ad 49 3b ae 5b 36 3b
       0.015421333 0.005582123 0.0030773422 0.0027825641
000160 c8 2a 9e bc d2 03 99 bd b3 94 b9 bb 0b 5e 20 bb
       -0.019307509 -0.07471432 -0.0056634783 -0.0024470116
000170 d9 47 59 39 37 d8 f1 ba 71 20 f1 3a 7d df 9e bc
       0.00020721498 -0.0018451278 0.0018396509 -0.019393677
000180 d7 50 65 b8 3f 09 ce b8 44 e2 56 b8 24 65 1d b8
       -5.4673143e-05 -9.824568e-05 -5.1232302e-05 -3.752591e-05
000190 dd 2b 1b 39 9d 91 34 39 58 5e cd b8 5d dc 15 b9
       0.00014798292 0.00017220383 -9.7927346e-05 -0.00014291839
0001a0 a9 85 82 b8 b8 e9 6d b8 f3 fe 6b 39 2f d1 b8 39
       -6.223779e-05 -5.672287e-05 0.00022506322 0.0003525107
0001b0 a8 81 83 b9 c4 a2 c4 37 36 89 15 b8 86 46 7f 37
       -0.00025082869 2.3440814e-05 -3.5652156e-05 1.5215604e-05
0001c0 fe 6f 3d 39 50 e1 4f 3a 8d 33 4f 3c 6d e5 da 3b
       0.00018066165 0.00079299975 0.012646568 0.0066801817
0001d0 5d 38 35 3b 54 18 17 3b 73 76 96 bc 11 ea 86 bc
       0.0027652003 0.0023055272 -0.018367028 -0.016469033
0001e0 71 16 4a 3c a6 7c 42 38 fe 1c 65 3b 1c 7d 9f ba
       0.012334452 4.6369292e-05 0.0034959908 -0.0012168023
0001f0 4d f7 01 bc 1e 61 25 3d 9e 9f 06 3d e5 da cc 3b
       -0.007932496 0.04037582 0.032867067 0.00625168
000200 85 d7 ed 3b b1 3a 92 3b f0 25 7c bc 2c f1 81 bc
       0.007258358 0.004462563 -0.015389904 -0.01586207
000210 e3 55 8f bc 84 ef ce ba 6d 6e 60 bb bf 9e 67 bb
       -0.017497009 -0.0015787934 -0.0034245506 -0.0035342423
000220 a0 86 38 3c e8 bc e7 bc 7c e5 fc 3a ab 7e 9f 3b
       0.011262566 -0.02828832 0.0019294466 0.004867395
000230 4b f6 6e 3a ed 68 cb 3a ef 94 f1 bb 65 ca 26 bc
       0.000911568 0.0015518941 -0.0073724906 -0.010180091
000240 8f 82 8a 38 80 cc 95 39 bb 7a a7 38 ea 66 9a 38
       6.604671e-05 0.0002857186 7.986041e-05 7.3624615e-05
000250 0c 79 9f b9 13 d3 b5 b9 95 21 42 3a b8 de 1c ba
       -0.0003041703 -0.00034680273 0.0007405517 -0.00059841154
000260 1d c2 a2 3a 55 b9 04 39 13 50 09 ba e8 4b 27 bc
       0.0012417469 0.00012657543 -0.0005238067 -0.010210969
000270 d6 0c 5d 3d 35 f3 6f 3c 45 68 6c 3c 2c c8 d5 3b
       0.05396732 0.014645387 0.014429157 0.0065241065
000280 1c 1d 4e bd a9 5d a1 bd 2e 44 a0 3b b5 ae b3 b9
       -0.05032073 -0.078791924 0.00489094 -0.00034271707
000290 ae 29 23 3a 09 a4 7e 3a 41 b5 69 bb c6 dc 4c bc
       0.00062241673 0.0009713774 -0.0035661014 -0.012503808
0002a0 56 0e 90 39 44 d9 66 39 58 26 95 38 59 fe e9 37
       0.000274765 0.00022015447 7.112016e-05 2.7894204e-05
0002b0 53 4f b9 b9 50 74 0e ba c4 d0 85 b8 c9 08 21 b9
       -0.0003534505 -0.0005434202 -6.38082e-05 -0.00015357429
0002c0 1e 75 8d b8 36 b9 03 b8 7b 5f 8d 39 8c 35 09 39
       -6.745219e-05 -3.1405325e-05 0.00026964754 0.00013085286
0002d0 a2 b2 68 37 8d d9 20 b7 b8 c5 59 b7 1d 66 33 b5
       1.3869869e-05 -9.587396e-06 -1.2980243e-05 -6.683129e-07
0002e0 dc 20 9b b7 69 8c ab b9 6c ea ad bc f1 8d 2c 3c
       -1.8492741e-05 -0.00032720275 -0.021229945 0.010531888
0002f0 ea 89 4e 3b fe 4c ee bb 44 c5 56 bc 6e a0 c3 3d
       0.0031515309 -0.007272362 -0.013108555 0.09552084
000300 76 72 d3 39 2b 60 91 39 0d 72 df 38 d0 bc a2 b7
       0.00040330336 0.00027728206 0.00010654712 -1.9399828e-05
000310 65 0e 12 ba fc 5d d0 ba 31 ad 82 3c d2 0a a1 3a
       -0.0005571603 -0.001589715 0.015951725 0.001228655
000320 f2 5b 15 3b b6 49 1c bb 79 bc 2e bc a4 bf e1 bc
       0.00227904 -0.0023847646 -0.010665053 -0.027557202
000330 bb 5c c5 3b 1f c0 19 ba 8e b5 a1 3a c7 7e 2d bc
       0.006023017 -0.0005865115 0.0012337433 -0.010589308
000340 aa 45 c2 bb 05 65 a6 bd b0 ac d0 3b c7 b5 6f bb
       -0.0059287148 -0.08124737 0.006368242 -0.0036576854
000350 20 30 f6 ba 00 1a 8e 3a 8e 64 fd 39 62 f1 ba 3a
       -0.0018782653 0.0010841489 0.0004833084 0.0014262612
000360 60 8e 02 ba 69 ad 66 bb e3 09 8c bb 47 d9 0d bb
       -0.0004980322 -0.0035198575 -0.0042736395 -0.00216444
000370 0d 49 be 3b da b9 02 bc 4a 05 88 bb 2b 91 bf 3b
       0.005807048 -0.007978881 -0.004151021 0.005846163
000380 d9 75 f5 ba a7 4f 4c 3a cd 66 8c ba 08 20 b0 bc
       -0.0018727138 0.00077938515 -0.0010711789 -0.021499649
000390 1f b8 b9 bb ad 14 0b bc a0 b3 52 bb d1 c2 83 b9
       -0.005667701 -0.008488816 -0.0032150522 -0.00025131417
0003a0 f7 a2 4a 3c a4 2c 63 bc 22 1f cc 3c 4e ee d9 3c
       0.012367955 -0.013865624 0.024917189 0.02660289
0003b0 f7 1f f3 3b 3c 44 31 3c 63 b0 07 bd 82 98 04 3e
       0.007419582 0.010819491 -0.0331272 0.12948802
0003c0 57 e8 fa 3c bc 2d d6 3c 08 4b 11 3c 5e 30 91 3b
       0.030628366 0.026144855 0.0088679865 0.0044308146
0003d0 c0 94 37 bd be 7c 33 bd 1f df 4f 39 7a 9b 24 39
       -0.044819593 -0.043820135 0.00019824177 0.00015698178
0003e0 9f c3 a5 b7 12 26 65 b7 b1 ec e8 b8 7a 88 9b ba
       -1.9760626e-05 -1.3658328e-05 -0.00011106709 -0.0011866235
0003f0 40 46 55 39 57 9b 92 ba 2a 4c 7d b9 8b 42 6c 3a
       0.00020339433 -0.0011185211 -0.00024156334 0.0009012601

exp_avg_sq f4 [128, 6]
000000 f9 54 f1 3b 2b 6d e3 3c 95 88 3d 3b df 41 56 3b
       0.007364866 0.027762016 0.002892052 0.003269307
000010 df e9 ba 3d a3 c5 9a 3e 52 f7 21 35 f8 bd 01 35
       0.091266386 0.3022891 6.033707e-07 4.8332686e-07
000020 cc e6 71 33 0f 71 93 33 fa 45 dd 35 97 41 e9 37
       5.6322094e-08 6.865786e-08 1.6486149e-06 2.7806307e-05
000030 74 29 44 3c b9 c2 da 3b 54 54 79 3a 33 d8 85 3a
       0.011972774 0.006676045 0.0009511162 0.0010211527
000040 1f f3 b3 3c c5 6a 24 3e d1 f8 d4 3a bd 05 08 3b
       0.021966515 0.16056354 0.001624847 0.0020755373
000050 6e f3 8a 39 d4 77 ba 39 bc ae e9 3b c2 d4 a0 3d
       0.0002650278 0.00035565963 0.0071314257 0.0785308
000060 d0 20 20 3d da 9a 5f 3c a1 5b 19 3b b4 ed 0c 3b
       0.039093792 0.013647759 0.0023400562 0.0021503987
000070 da b4 43 3d 1a a4 de 3d a0 56 68 35 75 b3 c5 34
       0.047779895 0.10871144 8.655279e-07 3.6824682e-07
000080 c6 24 24 33 b7 1d 1f 33 06 b3 ca 35 26 e1 a8 37
       3.821767e-08 3.7047098e-08 1.5102275e-06 2.0132004e-05
000090 87 92 ba 3b 14 0c aa 3a a6 d5 7f 39 d6 4b 5b 39
       0.005693737 0.001297357 0.00024398285 0.00020913719
0000a0 58 87 a5 3b 88 c6 68 3d 99 66 f8 3a 85 69 24 3a
       0.0050515346 0.05682996 0.0018951475 0.0006271827
0000b0 d9 de 06 39 0b d4 f8 38 5c 86 1a 3b bc a3 41 3d
       0.00012862253 0.000118650576 0.002357862 0.04727529
0000c0 32 53 5a 3c 00 da 29 3d cb 6e ca 3b 7b b9 42 3b
       0.013325499 0.041467667 0.0061777583 0.0029712606
0000d0 a1 ad ec 3d 48 e2 ba 3e 26 bd c6 37 f1 c3 a9 37
       0.115565546 0.36500764 2.3691518e-05 2.0237612e-05
0000e0 5e 5b e3 35 4a a4 82 36 54 e7 61 38 05 d7 09 3b
       1.6939409e-06 3.8934277e-06 5.385962e-05 0.0021032703
0000f0 89 d3 de 3a a2 d7 80 3b 6d 39 2d 3a 15 cd 29 3a
       0.0017000298 0.0039319554 0.00066079834 0.0006477398
000100 86 23 25 3c c8 a5 2c 3d 09 81 a1 3b e6 b6 b8 3a
       0.01007927 0.04215029 0.0049287123 0.0014092594
000110 72 de 82 39 7d 83 b6 39 33 fd b8 3b fb fe 11 3e
       0.00024961267 0.00034811712 0.005645418 0.14257424
000120 df 2f 5a 3b 65 f4 93 3a b3 2c c5 39 cc c6 d2 39
       0.0033292694 0.0011288045 0.00037608072 0.00040202437
000130 7a 8d b5 3b 25 ec d8 3d 10 c1 39 3b 20 d8 fd 39
       0.005540547 0.10591916 0.0028343834 0.00048416946
000140 f4 47 76 38 3e ad b8 38 a0 83 05 3b 16 23 74 3d
       5.8717982e-05 8.8060726e-05 0.0020372644 0.059603773
000150 92 15 23 3c 9f e5 a9 3b df 30 3e 3a 33 8a cf 39
       0.009953873 0.0051848437 0.0007255207 0.00039585083
000160 94 9f 87 3c c8 b5 76 3d d9 60 b5 3b 34 59 90 3a
       0.016555585 0.060231954 0.005535227 0.0011012913
000170 26 61 b3 38 4e a3 78 39 2e a9 4b 3b 9d 25 9e 3c
       8.5534804e-05 0.00023711959 0.003107618 0.019305045
000180 e2 9c 01 35 ca 0f 2e 34 4c 3d d9 32 c7 34 f5 32
       4.828454e-07 1.6210757e-07 2.529e-08 2.8545754e-08
000190 f9 7a 13 35 64 d7 ba 36 ce ff 11 36 fa 38 4f 35
       5.4940716e-07 5.5683067e-06 2.1755582e-06 7.719642e-07
0001a0 a0 97 e0 33 f0 22 41 34 d3 24 04 36 4c 23 d3 37
       1.0458393e-07 1.7987236e-07 1.9690967e-06 2.5169596e-05
0001b0 6a 97 38 37 88 55 a1 36 0c 02 2c 35 2f e7 87 34
       1.10025085e-05 4.808131e-06 6.407797e-07 2.5313918e-07
0001c0 30 e3 45 37 8f 60 04 39 b9 af 83 3b c8 b8 f8 3a
       1.1795011e-05 0.00012624472 0.0040187505 0.0018975968
0001d0 d8 03 55 39 a7 29 15 39 bd d3 d0 3b 4e 43 c5 3c
       0.00020314695 0.00014225264 0.0063728974 0.024079945
0001e0 02 8b 8e 3b f2 95 45 39 a2 99 d3 39 83 b5 52 39
       0.004350067 0.00018843243 0.00040359522 0.00020094779
0001f0 0d f2 a5 3b 7a 36 0f 3d 60 8c 8a 3c 7b 28 96 3c
       0.005064255 0.034964062 0.01691264 0.01832985
000200 18 56 52 3b c3 58 5f 3b a1 2d 74 3d 68 0d 03 3e
       0.0032094773 0.0034080006 0.059613828 0.12798083
000210 07 6e af 3c 7d 02 bd 3a ea 5a 0f 3a e0 56 d2 39
       0.02141477 0.0014420297 0.00054685643 0.00040119048
000220 a4 7b b9 3b 2a bd 5a 3e ee 67 5f 39 7b 86 53 39
       0.005660491 0.21361223 0.00021305654 0.00020172626
000230 93 03 0a 38 08 6a e9 37 72 d7 f1 39 2a b3 07 3c
       3.2905093e-05 2.782514e-05 0.0004612762 0.008282462
000240 12 4b 8d 39 49 bb c1 38 49 1d 3d 37 0e 1a 3d 37
       0.00026949547 9.237842e-05 1.1272096e-05 1.1271344e-05
000250 a7 da cb 39 0f 46 9e 3b d3 4d 33 3b 65 6a 46 3a
       0.00038882086 0.004830129 0.002735962 0.00075689546
000260 8f 3c f6 38 92 a4 84 38 23 ac 39 3b 09 91 71 3d
       0.00011741474 6.324904e-05 0.0028331361 0.058976207
000270 b1 71 62 3d 97 6f 8f 3c b4 66 3e 3b 0b 56 2e 3b
       0.055284206 0.017509265 0.0029052915 0.0026601579
000280 ef a8 79 3d 37 42 0f 3e 2b 68 24 3b ce 02 06 3a
       0.060952123 0.13990103 0.0025086503 0.0005112112
000290 db ef e5 38 19 48 de 38 29 8d 18 3b 1b 1e 5b 3d
       0.000109642475 0.00010599214 0.0023277497 0.053495508
0002a0 c7 4e 95 37 60 a2 fa 36 61 08 8d 35 d6 86 9c 35
       1.7798868e-05 7.4694835e-06 1.0507757e-06 1.1662148e-06
0002b0 f3 22 d0 37 a3 85 8b 39 60 8b cd 35 be 30 56 36
       2.4811807e-05 0.00026611713 1.5314254e-06 3.1916857e-06
0002c0 b1 5c 5b 34 44 3c f7 34 a2 de 0c 37 53 cf 9c 38
       2.0429685e-07 4.6051184e-07 8.396486e-06 7.477277e-05
0002d0 06 08 58 36 20 75 15 36 f5 f0 91 34 d0 97 1c 34
       3.2191178e-06 2.2270906e-06 2.7183674e-07 1.4583861e-07
0002e0 f1 44 28 37 53 c0 4a 38 3f 8e 36 3d a2 12 4a 3c
       1.0029632e-05 4.833967e-05 0.04456925 0.012333544
0002f0 26 5a e6 3a be 95 8d 3a f6 fb 1b 3d b2 73 89 3d
       0.0017574474 0.0010802073 0.038082086 0.0671152
000300 3d 27 8c 38 10 d9 9c 37 f0 40 4f 36 cb 19 02 36
       6.683029e-05 1.8697727e-05 3.0883202e-06 1.9386523e-06
000310 13 f3 89 38 f3 ad 1f 3a fb fa 08 3c 83 52 59 3b
       6.577945e-05 0.0006091289 0.00836062 0.0033160753
000320 6b 13 59 3a 15 82 8f 3a 94 e9 1a 3c f0 cc 7a 3d
       0.00082807866 0.0010948802 0.009455103 0.0612306
000330 22 a7 71 3c 05 63 26 3d fe c9 ad 3b 9d 5e 59 3b
       0.01474932 0.040621776 0.0053036204 0.0033167966
000340 aa a0 ff 3d 0f 39 44 3e 85 f7 f6 3b 7b 7b fc 3a
       0.12481816 0.19162391 0.007536831 0.0019262874
000350 76 08 ad 39 54 1b d3 39 04 73 f1 3b 84 37 09 3e
       0.00033003435 0.00040265417 0.0073684473 0.13400084
000360 ec 71 f2 3a 94 43 9c 39 1d 21 24 39 40 3b 15 39
       0.0018497086 0.00029804988 0.00015652594 0.0001423182
000370 5f fc 46 3a a5 32 a2 3c d3 37 1f 3c 62 11 e5 3a
       0.0007590707 0.01979954 0.009717899 0.0017476494
000380 b3 b1 82 39 68 10 b5 39 cc 92 0f 3c e7 ef e0 3d
       0.00024927928 0.00034535234 0.008763026 0.10983258
000390 32 d9 8d 3a fb a3 0f 3b 6d cc ad 39 5a 83 ca 38
       0.0010822176 0.0021917808 0.0003314944 9.656577e-05
0003a0 bb 9c d5 3b 52 67 68 3d 0c 26 18 3d 3b e7 f2 3c
       0.006518928 0.05673916 0.03714566 0.029651275
0003b0 fd 46 b5 3b 56 b6 84 3b 05 6a d1 3d 57 c4 63 3f
       0.005532144 0.0040500565 0.102253 0.88971466
0003c0 bb 75 d5 3c be 8f fc 3b 01 79 84 3a 3b 62 50 3a
       0.026057115 0.007707565 0.0010106863 0.0007949208
0003d0 b5 48 d9 3c dd c2 81 3e c3 c5 6c 37 61 50 03 36
       0.026523927 0.2534398 1.4112741e-05 1.9567308e-06
0003e0 1f cd ea 34 7f 33 ea 34 3f 22 13 37 1f c0 d0 38
       4.3735142e-07 4.3623365e-07 8.769856e-06 9.953998e-05
0003f0 75 a3 25 3b 08 25 de 3a 34 26 96 39 7f c8 56 38
       0.002527443 0.0016948292 0.00028638693 5.1208302e-05

exp_avg f4 [128]
000000 29 3a 0d be e8 4c 3e b9 01 ef 34 3d 57 19 4e 3c
       -0.13791718 -0.00018148462 0.044173244 0.012579284
000010 ad f8 2f bd 87 81 00 b9 25 49 66 3c 01 9c 0d bc
       -0.042961765 -0.00012255284 0.014055525 -0.008643151
000020 7a c9 23 bd 92 14 f2 ba 8f 76 ee bc d9 c0 b5 bc
       -0.039987065 -0.0018469265 -0.029109268 -0.022186683
000030 4b 40 fe 3b 42 23 66 bc 45 ba 81 3c 23 c8 b3 bb
       0.007759129 -0.014046492 0.01583589 -0.0054865046
000040 85 e7 09 b9 48 43 6d b9 f9 92 d4 b9 63 2a b7 3c
       -0.00013151586 -0.00022627146 -0.00040545294 0.022359079
000050 54 2b f0 3c 32 6b 57 3d 22 31 b5 bc 5c df 61 3c
       0.029317535 0.052592464 -0.022118155 0.013786163
000060 97 5f 0c 39 66 9b 77 3b 79 e7 b6 3d d8 77 e3 3b
       0.0001338705 0.0037781834 0.08930869 0.0069417767
000070 aa 6c f3 39 87 a8 8d b9 db 2c 36 38 e3 1c 0d bc
       0.00046429533 -0.00027019178 4.3433956e-05 -0.008612844
000080 17 3d 49 3a e5 0b f4 3c 4d 0b 73 3c f9 6d e3 3b
       0.00076766446 0.029790828 0.014834237 0.0069406
000090 07 6d c6 bb 43 5a f9 bb 04 d4 2e bc 1d 4d 70 3d
       -0.0060554775 -0.007609637 -0.010670666 0.05866729
0000a0 51 01 1c 3d 14 7a 9f 39 b6 1b 6d 39 14 96 f4 b9
       0.038087193 0.000304178 0.00022612404 -0.00046651124
0000b0 8d 33 92 38 1d a8 08 3c 01 cc 7d b9 8f 06 e8 bb
       6.9714246e-05 0.008340863 -0.00024203958 -0.00708086
0000c0 da 18 86 3b ff 00 2b bb f8 1e 84 bb e5 7f 73 3d
       0.004092318 -0.0026093123 -0.004032012 0.05944814
0000d0 99 e2 40 b9 c4 b2 02 ba 6f c9 a7 38 03 e6 f6 b8
       -0.00018394961 -0.00049857446 8.0007005e-05 -0.00011773037
0000e0 8d 6d a0 bd e9 2e d0 bc 10 76 88 bc 22 14 35 bb
       -0.07833395 -0.025412994 -0.01665786 -0.0027630408
0000f0 78 78 c9 ba 1f 0a bd 39 a7 fa 19 3c a4 4d a7 38
       -0.0015370985 0.0003605643 0.009398139 7.977642e-05
000100 d1 a7 5e 3b f4 ef 5e bc 93 42 8c 3c 57 67 19 bc
       0.0033974538 -0.013607014 0.017121589 -0.009363017
000110 f9 ec a2 b9 4e bb 24 b9 82 be 23 bc 3c ad 34 bb
       -0.00031075606 -0.00015710035 -0.009994151 -0.0027569076
000120 13 90 12 bd b8 db 57 bd 98 c0 03 b9 9d 10 46 ba
       -0.03578193 -0.052699775 -0.0001256488 -0.0007555576
000130 bf d2 cb b7 9c 36 88 bc bd fc 0f 3c 77 0e 87 bc
       -2.4297622e-05 -0.016627602 0.008788285 -0.01648639
000140 9d d5 aa 3c fc de 4f 3d 88 6d a6 bd 80 cf 29 bb
       0.020853812 0.050749764 -0.0812636 -0.0025911033
000150 26 b7 90 bc 41 04 bc bb df f5 83 ba 56 81 38 3d
       -0.017665457 -0.005737812 -0.0010067782 0.04504522
000160 5d 27 47 39 e3 d6 90 bc 3d 49 41 ba 2f 2b bc bc
       0.00018992783 -0.017680591 -0.0007373279 -0.02296981
000170 9c 85 66 b9 34 1e b3 b8 08 01 6b 37 e1 85 b2 bd
       -0.00021984283 -8.541011e-05 1.4007332e-05 -0.087169416
000180 d4 5b 24 bd 64 94 eb 3a 28 29 1d 3d 38 2c c9 3c
       -0.040126637 0.0017973301 0.038369328 0.024557218
000190 a0 3b 3d 3c 5f f6 94 b9 ae 6d 15 bd 07 aa 35 b9
       0.01154986 -0.0002841232 -0.03648155 -0.00017324845
0001a0 d0 e8 5e b9 8f 88 a4 3c 4f b6 10 3e 07 ec 18 3b
       -0.00021258299 0.020084647 0.14132045 0.0023334043
0001b0 dc c1 bb b8 e1 dd 65 3b dc 99 6a b9 bf 73 1b ba
       -8.952964e-05 0.0035074877 -0.00022373296 -0.0005930028
0001c0 a3 3e 2d bc 48 f4 98 3c a2 79 3a bc b0 48 22 bc
       -0.010574016 0.01867117 -0.011381539 -0.009905025
0001d0 17 78 5b 3d 28 38 a8 b9 e0 be 7c bb b6 42 1e bd
       0.053581323 -0.00032085297 -0.0038565919 -0.03863784
0001e0 3e 43 78 3c 1c e1 1b ba 1b 2c e8 3b 0d 38 16 bd
       0.015152751 -0.00059463247 0.007085336 -0.036674548
0001f0 3b e4 37 38 87 d1 cf ba 7d 62 54 39 fd 9e 15 bc
       4.3843156e-05 -0.0015855291 0.00020254585 -0.009132144

exp_avg_sq f4 [128]
000000 57 68 f2 3d a5 4a 97 36 86 f9 4b 3d ed 8b 91 3c
       0.118363075 4.5088404e-06 0.04979851 0.017766917
000010 be 2d e9 3d 59 9f 53 36 c8 16 8d 3c 6e da 02 3c
       0.11385678 3.1534203e-06 0.017222777 0.007986648
000020 8b bf 38 3e b0 c3 95 39 cf 6a b3 3c 02 81 a9 3c
       0.18041818 0.00028565293 0.021901516 0.020691399
000030 1f 4a 19 3d c3 0f fa 3b 1a 21 e6 3c 72 9d 18 3c
       0.037424203 0.0076312735 0.028091956 0.009314882
000040 fd 18 ab 35 e5 0d a0 36 17 25 f2 37 20 e2 77 3c
       1.2747765e-06 4.769989e-06 2.886592e-05 0.015129596
000050 3c 3a 87 3c 50 86 11 3e 1b 03 4d 3d 8d 88 20 3b
       0.01650726 0.14211392 0.05005179 0.0024495453
000060 6c e9 9d 3a e8 c1 03 3c da a3 3f 3e 8b f1 1d 3c
       0.0012047715 0.008041836 0.18714848 0.009640108
000070 30 f0 92 38 4a 28 d5 37 25 38 3d 37 aa 5a b4 3d
       7.006561e-05 2.541034e-05 1.127835e-05 0.08806355
000080 78 a2 ff 38 8b e5 e1 3c 73 4c 52 3e cf a9 b4 3c
       0.0001218961 0.027575275 0.20536976 0.022053627
000090 d2 5d 97 3b 44 67 00 3d fd 00 34 3c 81 01 75 3e
       0.0046193385 0.03134848 0.010986564 0.23926355
0000a0 bb bf aa 3d 38 67 0d 38 22 13 11 3c 91 d1 26 38
       0.08337351 3.371315e-05 0.008854659 3.9772658e-05
0000b0 5a 56 09 37 21 32 9a 3e b0 1c 2d 38 8b c2 a2 3b
       8.185942e-06 0.3011637 4.127313e-05 0.004967039
0000c0 d0 81 f4 3b b6 90 a6 3c 1b 9e aa 3b f5 06 81 3e
       0.007461764 0.020332675 0.005206836 0.2520062
0000d0 01 78 f3 37 24 40 ab 36 aa 60 ce 37 9a 25 b3 36
       2.9023739e-05 5.103664e-06 2.4602126e-05 5.338993e-06
0000e0 42 3e 69 3d b8 0d cb 3c 4f 03 3e 3d 85 e1 ce 3a
       0.05694414 0.024786815 0.046389874 0.0015783763
0000f0 8d 13 3c 3a 19 ce ce 35 e1 7c aa 3e 5b a9 06 39
       0.0007174544 1.5408178e-06 0.332984 0.00012842326
000100 cf f3 a0 3a bf a5 26 3e 42 9a bf 3d 09 0f 74 3d
       0.0012279692 0.16274165 0.09355594 0.05958465
000110 57 de 0f 37 d5 a0 13 37 e9 0f b1 3c 8a 15 d0 3c
       8.575232e-06 8.799329e-06 0.021614032 0.025400896
000120 69 69 59 3d 10 ca 24 3d 6b dc c2 37 ad 5a 1b 3c
       0.053079043 0.040231764 2.3229242e-05 0.009482068
000130 b1 22 83 36 b6 aa 3b 3c da eb 02 3b a9 1a 97 3b
       3.908143e-06 0.011454275 0.0019977004 0.0046113324
000140 84 dd 97 3c 26 55 05 3d 87 5d a7 3d 61 67 8d 3c
       0.018538244 0.032551907 0.08172136 0.017261209
000150 ee dc a3 3b 44 f2 05 3d 85 88 af 37 2c 32 c0 3d
       0.005000702 0.032701746 2.0925198e-05 0.093845695
000160 4f bb 80 37 cf 62 f4 3c 95 69 ee 37 ec 80 d0 3c
       1.5346011e-05 0.029832272 2.8420976e-05 0.0254521
000170 3b 0e 32 38 b7 64 df 36 31 f3 d6 3d 3b b7 0f 3d
       4.245176e-05 6.6576426e-06 0.10495604 0.03508685
000180 3a c3 a5 3d 7b af 41 37 71 62 ad 3c 9a 58 c9 3d
       0.08093877 1.1544554e-05 0.021165105 0.098313525
000190 a9 7d ad 3d 82 40 20 37 0c ff 71 3d 87 14 69 38
       0.084712334 9.551763e-06 0.059081122 5.5570647e-05
0001a0 0e 9b c2 39 e8 17 41 3e 7a 35 f3 3d cd 00 d1 3a
       0.00037118088 0.18856776 0.11875434 0.0015945673
0001b0 6f f6 c9 3b 5c 0d 0a 3c 52 56 fe 38 13 5b 28 37
       0.0061634104 0.008426037 0.00012127742 1.0034785e-05
0001c0 f7 85 5c 3b 92 99 ec 3d 19 f2 e8 3c ad 14 e0 3d
       0.0033649185 0.11552729 0.028435754 0.109414436
0001d0 46 e7 c7 3d 1b 3b 94 37 e2 79 8a 3c 86 43 80 3d
       0.09760909 1.7670498e-05 0.016903821 0.06262879
0001e0 9d e6 25 3d 18 41 bd 38 52 2d 59 3b f9 73 e2 3b
       0.040503133 9.024347e-05 0.0033138585 0.0069107977
0001f0 82 09 b6 36 8a 7f 76 38 c7 fe 77 37 11 5d 1c 3c
       5.4251295e-06 5.876975e-05 1.4781667e-05 0.009543673
