neural_network/lightning_logs/version_47/checkpoints/epoch=5-step=11250.ckpt (torch, 13835 bytes, 18 tensors)

layers.0.weight f4 [20, 4]
000000 ce b2 83 bf 58 82 32 c0 b9 3b e7 bd ca c6 f5 3b
       -1.0288942 -2.7892056 -0.11290688 0.007500504
000010 73 84 cc 3e 5d f4 02 c0 f7 f7 30 bf 3d 54 2e bd
       0.399448 -2.0461648 -0.69128364 -0.042560805
000020 80 c8 83 c0 83 f8 5b 40 1f f6 db be 06 59 8d 3c
       -4.118225 3.437043 -0.42961213 0.017254364
000030 ef 36 35 bf 7a b4 cc bf d5 f6 a8 be fd 99 16 be
       -0.70786947 -1.5992577 -0.33000818 -0.1470718
000040 0c bb 8a bf 00 8f cd c0 ad d9 04 3f 6c 8e ec bd
       -1.0838332 -6.423706 0.51894647 -0.11550602
000050 e9 e8 39 bf b5 fe 28 c0 ae 1f 6d be c1 12 f0 bf
       -0.7262102 -2.640546 -0.23156616 -1.8755723
000060 a7 09 2f bf 6d 3e 3f 40 bd e4 f7 3d cf 96 97 be
       -0.68374103 2.9881852 0.12104175 -0.29607245
000070 af 6a 00 40 a2 9e c2 be 81 fb 5a 3e b7 f1 bc bf
       2.0065114 -0.38011652 0.21385004 -1.4761266
000080 25 f6 38 bf d2 ed 8f c0 2e 61 5a 3e 55 4c 64 3e
       -0.72250587 -4.497781 0.21326134 0.22294743
000090 8f f5 7c 3f 35 88 57 c0 32 dd 89 3f 5a 02 23 bf
       0.9881219 -3.3676884 1.0770628 -0.63675463
0000a0 b4 9f 49 bf e1 66 9b c0 c5 24 81 3e 3f c7 77 3d
       -0.7875931 -4.8563085 0.25223365 0.06049275
0000b0 eb 14 2c c0 cf 9c b3 3f 1a 48 e4 be d3 e6 32 3c
       -2.6887767 1.4032229 -0.4458626 0.010919291
0000c0 bc 0f b6 be 15 fc 75 be 00 17 dc be 37 5f ca bf
       -0.3555888 -0.24021943 -0.42986298 -1.5810307
0000d0 10 93 7d 3e d8 11 41 3d b8 b1 1f 3e f9 a6 8a 3c
       0.24763131 0.047136158 0.15595138 0.016925322
0000e0 05 7a 03 3f ad 4b 74 3f d0 e2 38 be 97 d7 10 3e
       0.5135806 0.9542797 -0.18055272 0.14144741
0000f0 2f 2b 63 bd 1c 4b f6 3e b0 ee a0 bf f9 bf 99 3c
       -0.055461105 0.4810418 -1.2572842 0.018768298
000100 e3 3f c9 3f f7 42 85 3f 13 d4 7d 3f e8 6a 11 3e
       1.5722622 1.0411061 0.99151725 0.14200938
000110 c7 1e 1c c0 a4 f4 61 3e 64 7a b5 be 9d 3d 9d 3f
       -2.4393785 0.22065979 -0.3544494 1.2284428
000120 72 60 26 c0 5e 1e d9 bd cd 2b e3 be 44 05 cb bf
       -2.5996366 -0.10601495 -0.44369355 -1.5860982
000130 b0 c3 8c bf a9 c4 3d c0 33 e9 d9 be f4 8c dd 3f
       -1.0997219 -2.9651282 -0.4256073 1.730864

layers.0.bias f4 [20]
000000 fa ee 03 3f c8 2d ca 3f 56 84 b4 3f 96 79 15 40
       0.51536524 1.5795221 1.4102886 2.335546
000010 79 7e 42 3f ba 20 0e c0 92 31 f4 bf 47 58 2c 3e
       0.7597423 -2.2207475 -1.9077628 0.1683055
000020 d9 eb 1b 3f cf bf 78 be 91 5c b1 3f cb e3 c6 3f
       0.6090675 -0.24291919 1.3856374 1.5538267
000030 d8 41 41 3e 4b 88 c6 bf 43 3b 2e c0 4e 45 b9 3f
       0.18872774 -1.5510343 -2.722367 1.4474275
000040 67 96 15 c0 a4 59 73 3f d8 69 9e 3f 2f ac a5 bf
       -2.3373048 0.95058656 1.2376051 -1.2943171

layers.2.weight f4 [10, 20]
000000 b7 35 f5 be e2 8d ec be 64 77 91 3f 89 96 9c bf
       -0.47892544 -0.46201998 1.136456 -1.223344
000010 17 13 90 bf dc fc 18 c0 c9 f0 94 bf c4 c4 b8 c0
       -1.1255826 -2.3904333 -1.1635982 -5.7740192
000020 41 88 22 bf ba c4 7b c0 30 c3 ae bf 61 a7 65 3f
       -0.63489157 -3.9338822 -1.3653316 0.89708525
000030 d8 ab 39 c0 a9 72 95 3f f3 bb 80 3e cf c6 c1 3f
       -2.9011135 1.1675617 0.25143394 1.5138797
000040 40 6c f2 be 14 65 13 be a1 29 f3 bf bf 67 58 bf
       -0.47348213 -0.14394027 -1.8997079 -0.84533304
000050 d5 8b a9 bd e6 5b 06 3c 3b 47 a5 3c 82 8f 6f be
       -0.08278624 0.008200621 0.020175567 -0.23394588
000060 a6 34 28 bf dc c1 13 c0 26 b7 01 c0 ed a8 9e c0
       -0.65705335 -2.3087072 -2.0268035 -4.958121
000070 18 1f 0c bf de 1d 3d c0 2d 55 16 bf 12 ee dd 3e
       -0.54734945 -2.954948 -0.5872372 0.43345696
000080 3b b2 12 c0 cd 05 c5 3f 2a af c7 3e 8f aa 9d 3f
       -2.2921283 1.5392395 0.39000827 1.2317675
000090 7f e9 e8 3d 69 fb 8c be d3 6e 99 bf 85 8f 06 bf
       0.11372661 -0.2753556 -1.1986946 -0.52562743
0000a0 27 72 0a 3f 14 cf 0d 3f 9b b8 03 c0 c7 ce 88 3f
       0.5408043 0.553941 -2.0581424 1.0688103
0000b0 6e 3a 8e 3f 45 13 90 3e 17 9e 0a c0 96 b1 21 3f
       1.1111581 0.281397 -2.165899 0.631616
0000c0 62 e0 8c 3f aa 32 89 bf 51 e6 d1 3f 36 37 61 bf
       1.1005976 -1.0718586 1.6398412 -0.8797487
0000d0 b9 89 4e c0 34 b5 9b be 53 d0 6b bf bc 7b 6f bf
       -3.227156 -0.30411685 -0.9211475 -0.9354818
0000e0 48 ff f2 be d5 eb 90 3e 56 b7 25 c0 7f 89 a3 3f
       -0.4746039 0.28304926 -2.589315 1.2776335
0000f0 69 43 33 3f fd 81 01 3e e6 8c ea bf 61 c9 3e 3f
       0.70024735 0.12647243 -1.8324249 0.7452603
000100 bc 2b 29 40 95 a7 95 3f 3e 07 1a c0 b3 a8 1a be
       2.6432943 1.1691767 -2.406692 -0.15103416
000110 78 0c a1 bf 7d 10 dc 3e cd 4e dd 3f a7 fb 3c bf
       -1.258193 0.4298133 1.7289673 -0.7382149
000120 e5 5b 8c 3d 47 12 07 bd 6c b5 92 be d0 4d 15 be
       0.06853465 -0.032976415 -0.2865404 -0.14580464
000130 3a a7 f8 bf 4c fe 73 c0 b0 37 b5 3e bb 3c ed 3e
       -1.9426033 -3.812396 0.3539405 0.46335396
000140 c9 20 29 3e 59 e1 9d 3f 98 e7 0c 40 a8 6e a9 3f
       0.16516413 1.2334396 2.2016354 1.3236895
000150 40 44 bf 3e 44 91 0e c0 0e 74 0c bf dc e9 6b 3e
       0.37356758 -2.2276163 -0.54864585 0.23038429
000160 55 26 7b 3f 85 86 40 bf 7f f2 93 3f f5 5c 84 3f
       0.98105365 -0.7520526 1.1558379 1.0340868
000170 8d 17 0c be 2f ad 52 bf d5 5c 90 bf 5b c1 d5 3f
       -0.13680859 -0.8229551 -1.127833 1.6699632
000180 f4 56 35 c0 26 6a bd bf 71 c0 fd 3e 80 f0 db bf
       -2.8334322 -1.4798019 0.49560884 -1.718277
000190 3d fb 45 3d 1d 91 01 be 21 78 08 40 b8 be cc 3e
       0.048335303 -0.12653013 2.132332 0.39989257
0001a0 0b d1 91 3c 6c 07 6e 3f 4e 6f 24 c0 4a 72 11 c0
       0.017799875 0.92980075 -2.5692935 -2.2726007
0001b0 b9 d4 7a 3e 22 04 72 bf 9a 74 c8 bd 8c 55 07 3f
       0.2449521 -0.94537556 -0.09787865 0.5286491
0001c0 86 1a 26 3f 47 9c 1a bd 7f 9e 99 bf 58 a5 12 bf
       0.6488422 -0.037746694 -1.2001494 -0.57283545
0001d0 e4 e2 90 bf 79 48 03 3e 17 cb 5a bf 43 90 af bf
       -1.1319242 0.12820615 -0.8546614 -1.37159
0001e0 72 2f 06 bf 00 30 97 bf bb 0c d5 bf 75 83 1f bf
       -0.52416146 -1.1811523 -1.664451 -0.6230996
0001f0 bd 4e 66 3b 72 79 76 3f fe d4 fe 3d fe cb b0 3e
       0.0035142147 0.9627906 0.12442969 0.34530634
000200 c5 3a a9 3d 9b 6e bb be 0f d2 83 3e df 0d b2 bf
       0.082631625 -0.36607823 0.257462 -1.3910483
000210 17 6d 16 bf 68 85 bf 3f 10 1e 18 3f 0b 3d 4b 3f
       -0.5876021 1.4962587 0.5942087 0.7939002
000220 66 95 04 c0 30 14 09 c0 57 db ef bd bc 3a 62 3d
       -2.0716186 -2.1418571 -0.11711758 0.055231795
000230 66 f5 01 bd 6b a4 0c 3f ef f2 b8 3f f3 47 31 3f
       -0.03172817 0.5493838 1.4449137 0.6925041
000240 e9 10 8e be 85 31 85 bf 63 10 0e c0 03 c4 ac be
       -0.27747276 -1.0405737 -2.2197502 -0.33743295
000250 df 2f 63 3d 84 fb f6 be a3 91 34 3e ba 4d 2c 3f
       0.055465575 -0.48238766 0.17633681 0.673061
000260 a4 0d 5a bf d7 a5 20 3d 87 86 67 bf c1 f0 81 3f
       -0.85177064 0.039220657 -0.9043965 1.0151597
000270 8c d6 f3 bf 57 bc 8c 3e af 9e 24 c0 5a 81 b7 bf
       -1.904985 0.27487442 -2.5721853 -1.433635
000280 af 57 10 3f 85 72 50 3e e7 a0 46 c0 ac 18 6a 3f
       0.56383795 0.20356186 -3.1035707 0.91443896
000290 d2 7c 11 40 6c ea 36 c0 93 ee 32 bf f0 6b 19 bf
       2.2732434 -2.858058 -0.69895285 -0.59930325
0002a0 0d d7 cc 3e 7f 6a 87 3f e4 12 e7 3f 08 21 97 bf
       0.4000782 1.0579375 1.805264 -1.1806955
0002b0 8d 82 8a bf f9 c5 c5 be e9 4f 96 bf 4a 8c 40 bf
       -1.0821091 -0.38627604 -1.1743137 -0.75214064
0002c0 54 40 29 bf d0 ef 00 c0 68 4e 90 bf af f7 27 c0
       -0.6611378 -2.014637 -1.1273928 -2.6244924
0002d0 68 02 87 3e b2 37 78 3f 9e d1 ef 3f 59 20 8f 3f
       0.26369023 0.96959984 1.8735845 1.1181747
0002e0 84 13 38 3f 79 6f a1 3e 88 c4 10 bf 61 0d 01 c0
       0.7190478 0.3153036 -0.5654988 -2.0164416
0002f0 b0 fd d6 3e 98 06 de bf c0 f8 40 3f 5d f7 52 3f
       0.41990423 -1.7345762 0.7537956 0.82408696
000300 1d 96 86 be ad 13 56 bf 9f c4 99 bf 3b dc 99 be
       -0.26286402 -0.8362377 -1.2013129 -0.30050835
000310 e3 94 83 bf 72 72 aa be a2 fc 13 c0 e1 84 6d bf
       -1.0279812 -0.3329044 -2.3122945 -0.9278088

layers.2.bias f4 [10]
000000 0f 01 d4 be bc a4 83 bf 5f 17 0b 3f a5 cc 6d be
       -0.41407058 -1.0284648 0.54332536 -0.23222597
000010 7e 50 e9 3f 8c 85 a4 3f 2f 3b 07 c0 ee fe e8 3f
       1.8227689 1.2853255 -2.1129873 1.8202798
000020 89 7b 9d 3f 26 18 14 40
       1.2303325 2.313974

layers.4.weight f4 [3, 10]
000000 6f 0f ef 3e ad 3c 45 be 1f c2 c0 bf 1a ff a9 bf
       0.46691462 -0.19261427 -1.5059241 -1.3280976
000010 d6 78 f4 3e 44 e0 04 3f f5 a1 05 bf eb 9e 31 3f
       0.4774844 0.519047 -0.5220025 0.69383115
000020 f6 b2 49 40 3f 59 ee be f4 df 8c c0 7c 77 57 c0
       3.151548 -0.46552464 -4.402338 -3.3666677
000030 48 b9 29 3e 09 83 99 be 6c d8 04 c0 15 40 d1 3f
       0.16574585 -0.29982784 -2.0757093 1.6347681
000040 c6 af ef 3f e0 e6 03 40 6a 0f 1d 3f 3e 2b 0b 40
       1.8725517 2.0609665 0.61351645 2.1745143
000050 c7 88 8b 3a d9 7d db 3a a5 5b 0e bb a0 33 05 ba
       0.0010645621 0.001674588 -0.0021722105 -0.000508124
000060 a7 ac 25 38 73 83 a8 3a 2c 7f 10 bc fb a0 b6 3b
       3.949986e-05 0.0012856558 -0.008819383 0.0055733896
000070 21 29 14 bb 30 28 73 3a
       -0.0022607523 0.0009275703

layers.4.bias f4 [3]
000000 21 f9 b6 be b6 6e 98 bf d1 00 95 3a
       -0.35736945 -1.1908786 0.0011368041

exp_avg f4 [20, 4]
000000 09 ce ab 38 b4 83 b8 38 59 71 ba 39 c6 9f 90 38
       8.1922924e-05 8.798335e-05 0.00035561135 6.896215e-05
000010 59 0d 04 3b e0 91 89 3a 4b 15 0a 3c 57 3a c7 3c
       0.0020149557 0.0010495745 0.008427928 0.02431981
000020 ea 4f 52 bc f8 64 53 bc f5 3f 2e be 74 6f 1d bd
       -0.012836436 -0.012902491 -0.17016585 -0.038436368
000030 70 ff 72 3c f0 c7 7d 3c 1f ff 25 3d 5a 95 2b 3c
       0.014831409 0.015489563 0.040526506 0.01047262
000040 a2 7d 15 3b e2 92 a0 3b bb d8 cd 3c e4 df c6 bc
       0.0022810479 0.0049003223 0.02512776 -0.024276681
000050 ec 90 9a 3a bf 0a 83 3b 5f f9 3f 3d a2 50 7f bd
       0.0011792458 0.003999084 0.04686868 -0.062332757
000060 cc e9 b8 ba 4f 5d a3 bb 86 c5 65 bc 5c 0a d2 3b
       -0.0014107763 -0.0049854885 -0.014024144 0.0064099263
000070 64 fa 92 bb 2f a4 a9 bb 77 e1 24 3c 2c 86 fc b9
       -0.0044854153 -0.005177043 0.010063521 -0.0004816515
000080 25 59 1c 3b c7 71 e0 3a 3f 52 dd 3c 25 bd 22 3d
       0.0023856845 0.0017123752 0.027016757 0.039731164
000090 50 20 14 bc e3 62 13 bc ad 60 96 bc 7f 88 36 bb
       -0.009040907 -0.008995744 -0.018356645 -0.0027852354
0000a0 96 ff 80 3b e2 9c c9 39 88 66 47 3c df 49 94 bc
       0.003936718 0.00038454594 0.012170441 -0.01810163
0000b0 ab 95 d1 bb 59 1a 15 bc 8c 3c 9d bd c0 e7 c7 bc
       -0.0063960156 -0.00910052 -0.07677564 -0.0244025
0000c0 91 1e 79 bb c5 5e 50 bb 0e 52 3d bc 09 0c 82 3a
       -0.0038012604 -0.0031794768 -0.011555208 0.00099218
0000d0 ea be 05 b9 d5 9d 03 b9 a5 f8 d6 b9 51 7d 80 b9
       -0.0001275499 -0.0001255193 -0.00041002515 -0.0002450743
0000e0 00 19 58 b9 ef aa 42 b9 5d a8 be b8 2a 2a 62 b9
       -0.00020608678 -0.0001856496 -9.091266e-05 -0.00021568747
0000f0 8a d3 10 b9 77 a2 44 b9 78 6f 32 ba ac 5b 4d ba
       -0.00013811715 -0.0001875254 -0.0006806771 -0.00078337896
000100 2f 28 bc bb fd a8 c6 bb d7 04 6b 3d 5a 53 df 3c
       -0.005742095 -0.0060626254 0.057377663 0.027261425
000110 a0 08 4b 3c d4 12 6c 3c 42 d4 bd 3d cb f9 82 3d
       0.012392193 0.014408786 0.092690006 0.063953005
000120 3b c7 29 3c ed 4d 3c 3c db ef 06 3e c6 5c 9c bc
       0.010362442 0.011493188 0.13177435 -0.019087207
000130 17 ba ec 3b 14 81 d8 3b 48 47 b5 3d 91 4a a0 3d
       0.007224332 0.006607184 0.088514864 0.078267224

exp_avg_sq f4 [20, 4]
000000 f6 04 5c 36 94 1a f5 35 be 55 53 39 0d 92 37 39
       3.2785442e-06 1.8261658e-06 0.0002015447 0.00017506648
000010 6c fc 22 3a cf 6a 9d 39 f3 d8 cb 3c f8 e7 f1 3c
       0.00062174234 0.00030024952 0.024883723 0.029529557
000020 46 cf 2a 3c 35 fa 57 3c 5f d6 14 3f 9c 89 e1 3e
       0.010425394 0.013182213 0.58139604 0.440503
000030 69 5d 85 3b cc da 59 3b df 18 2e 3e 27 b7 0c 3e
       0.0040699732 0.0033241985 0.17001675 0.13741742
000040 96 97 bd 3a 66 dc 56 3a bf 57 b4 3d 7a 6f 5b 3d
       0.0014464732 0.0008196294 0.08805799 0.05357311
000050 e5 28 0b 3b 0d bf f4 3a ff 9e d6 3d a9 54 13 3e
       0.0021234092 0.001867266 0.10479545 0.14387764
000060 fe 08 1f 3a 85 cf 89 3a de 29 a0 3c 32 6b 81 3c
       0.00060667086 0.0010514116 0.019551214 0.015798185
000070 d7 97 01 3b 6a a9 21 3b 36 ba d1 3d eb db e2 3b
       0.0019774341 0.002466763 0.10240595 0.006923189
000080 c0 73 90 39 a6 5d 2c 39 0d c9 91 3c 39 47 93 3c
       0.0002755206 0.00016438085 0.017796064 0.017978298
000090 ce a5 a0 3b 4e da 5b 3b 8d 00 51 3e 51 57 af 3d
       0.004902578 0.0033546868 0.20410366 0.08561576
0000a0 a6 be e9 3a 06 26 91 3a 6d 83 cb 3d da 14 96 3d
       0.0017833307 0.0011073954 0.09937177 0.07328196
0000b0 88 ad db 3a f3 82 00 3b 0f c5 bc 3d f7 72 9d 3d
       0.001676009 0.0019609302 0.092172734 0.076879434
0000c0 bf 1e 16 3a 44 c8 8c 39 16 af ad 3c 57 61 05 3c
       0.00057266274 0.0002685209 0.021201652 0.008140883
0000d0 ae 44 40 37 03 0c 51 37 f9 67 21 39 5c 85 2d 39
       1.14600825e-05 1.2460167e-05 0.0001539289 0.00016548246
0000e0 42 cc 66 36 83 90 31 37 ac 5b c3 38 e2 72 d8 38
       3.4391564e-06 1.0583669e-05 9.3154e-05 0.00010321081
0000f0 7c 3b c8 36 b5 ff ec 36 4d 95 e2 38 02 9d 1b 39
       5.9673894e-06 7.0631163e-06 0.00010804329 0.00014840442
000100 75 ae 29 3c 30 74 29 3c 1a 21 cc 3e b1 61 a1 3e
       0.010356535 0.010342643 0.39869004 0.31519845
000110 84 23 31 3b ca 23 d0 3a 99 ec df 3d 40 a5 03 3d
       0.0027029226 0.0015879807 0.10933799 0.032140017
000120 af 1e d1 3a ac 6f a5 3a 8f 00 c1 3d 86 44 a1 3c
       0.0015954579 0.0012621782 0.09423935 0.019685995
000130 d6 33 0e 3b 25 99 df 3a ab ce f6 3d 32 d7 30 3e
       0.0021698377 0.001705919 0.120511375 0.1726959

exp_avg f4 [20]
000000 22 5b 28 39 d1 65 90 3b 4e f7 a5 bd 05 cb 94 3c
       0.00016055678 0.0044066687 -0.0810381 0.018163214
000010 89 22 6a 3c 31 64 b6 3c 2d 2b d1 bb 29 71 20 3c
       0.01429046 0.022264572 -0.006383321 0.0097926045
000020 33 41 94 3c d8 2c b7 bb 4b f9 49 3c c5 02 11 bd
       0.018097496 -0.0055900626 0.0123275025 -0.03540303
000030 ef 3e a5 bb 06 3c 42 b9 b9 48 d8 b7 69 72 ab b9
       -0.0050429027 -0.00018523642 -2.578307e-05 -0.00032700904
000040 fc 11 05 3d 67 aa 3b 3d 68 71 8c 3d 70 a8 3a 3d
       0.032487854 0.045816805 0.06857568 0.04557079

exp_avg_sq f4 [20]
000000 e9 f8 63 38 15 dd e5 3b 0e 43 05 3e 57 5b 27 3d
       5.4352833e-05 0.0070148804 0.1301386 0.040858593
000010 cd 68 b8 3c 15 58 d6 3c 91 9c 7d 3b 01 b8 d2 3c
       0.02251091 0.026165048 0.0038698057 0.025722506
000020 ef 82 9b 3b f7 58 4b 3d f6 95 cd 3c bb 16 af 3c
       0.004745833 0.04964539 0.025095921 0.021373143
000030 d8 41 b2 3b c2 92 ee 37 5d a9 a7 37 bc e3 e6 37
       0.005439978 2.844015e-05 1.9986817e-05 2.7524184e-05
000040 c6 69 ba 3d 82 b4 dd 3c c0 c5 c9 3c f6 95 fb 3c
       0.09102206 0.027063612 0.024630427 0.030711155

exp_avg f4 [10, 20]
000000 4e bc 80 39 a2 7a 25 39 73 e9 53 bc 77 c5 a5 39
       0.0002455436 0.0001578131 -0.012934077 0.00031618375
000010 25 f9 0d 3a d3 08 1c 3a df 30 12 bb 7a d0 b2 3a
       0.00054158486 0.00059522426 -0.0022306961 0.0013642453
000020 83 11 c8 39 1c 36 8e 3a 0d b9 11 3a fa 26 82 bb
       0.0003816002 0.0010849866 0.0005558886 -0.0039719315
000030 81 ac 1a 3a d5 f3 c4 38 77 ca 37 39 76 d7 d5 38
       0.0005900339 9.3914256e-05 0.00017527664 0.00010196764
000040 d1 68 8b bc de 39 14 bc dd 5d 28 3a 32 e5 8c 3a
       -0.017017754 -0.009047 0.0006422678 0.0010749458
000050 2a 5a d8 b6 ac 3f 05 37 05 79 7a 38 41 4d d0 39
       -6.447798e-06 7.9422425e-06 5.9717353e-05 0.0003973041
000060 e1 41 26 39 da f0 04 b9 17 f4 aa 39 ff 25 8c 3a
       0.00015855535 -0.00012678225 0.00032606788 0.0010692476
000070 53 93 13 39 7c b9 54 3a 8c e5 bb 39 97 26 56 37
       0.00014073895 0.00081147975 0.00035838445 1.2764379e-05
000080 29 d7 92 39 29 72 b1 b6 69 7d 54 b7 05 16 ee b6
       0.00028007597 -5.288301e-06 -1.2665384e-05 -7.095516e-06
000090 3d 9b 22 3a e3 40 c5 39 86 84 bf 39 58 24 bd 34
       0.0006202942 0.00037623112 0.00036529097 3.5230437e-07
0000a0 82 6d 26 b9 c7 b8 95 3a aa d4 76 3b c2 07 a6 3c
       -0.00015871788 0.0011422866 0.0037663379 0.020267371
0000b0 13 37 d8 3b 38 c7 c0 ba 86 4a 95 b9 8c 6a fe 3b
       0.0065983622 -0.0014707809 -0.0002847502 0.007764166
0000c0 57 f5 54 3c 63 71 1a 3c e2 0e b3 3c a7 bf c2 3b
       0.012997947 0.009426448 0.021857683 0.005943257
0000d0 37 2b b0 b9 1d 50 8b b9 0d 8e 14 ba 98 c9 55 b9
       -0.00033601534 -0.00026571835 -0.0005666919 -0.00020388362
0000e0 5b 95 7c 3c 23 3e 44 3d ee fd 27 3b 5c bd 91 3c
       0.0154164685 0.04791082 0.0025633532 0.017790489
0000f0 e0 a8 19 b8 e4 ba a3 3a a2 5f de 3b 83 e2 89 3c
       -3.663532e-05 0.0012491611 0.0067863027 0.016831642
000100 26 74 df 3b c3 9e 1f 3c f1 67 21 3a ae 08 20 3d
       0.006819266 0.009742442 0.0006157151 0.039070778
000110 4f c6 e8 b9 eb 37 f7 3c 62 a0 09 3c a6 e6 c3 3b
       -0.0004439824 0.030178031 0.008400055 0.005978423
000120 48 d1 bb 3c 51 bd 0b b9 f8 2d b7 b9 12 f5 17 b9
       0.022926942 -0.00013326599 -0.0003493873 -0.00014491778
000130 21 a5 06 3b 00 53 18 ba 26 39 16 3d 21 77 0e ba
       0.0020545202 -0.0005810708 0.036675595 -0.00054346217
000140 f8 5d f6 36 c6 6c f9 39 db 55 00 bc 19 f6 29 3c
       7.3423107e-06 0.00047574023 -0.00783297 0.010373616
000150 3d 19 ac 3b 95 9b 85 bc 89 df 4f 3b 22 a5 45 3c
       0.005252032 -0.016309539 0.003171893 0.0120632965
000160 78 df da 3b 52 56 a0 3c 0d 4d 63 3c dd cd 1d bb
       0.0066794716 0.01957241 0.013873351 -0.0024079003
000170 db 9b 2d bc 0e 62 9c b8 c8 ef 4c b9 03 66 9d b8
       -0.010596241 -7.456924e-05 -0.00019544282 -7.5053445e-05
000180 a5 9c 97 ba e3 e9 c1 ba 20 b3 35 bc 01 31 3e ba
       -0.001156707 -0.0014794435 -0.01109007 -0.0007255227
000190 bf b7 10 b9 31 25 ed b9 74 e4 12 3c d1 c1 db bb
       -0.00013801361 -0.00045231872 0.0089656 -0.0067064543
0001a0 35 90 a6 bb 6e fd 31 b9 4b 3e 71 3a 9b da 35 3a
       -0.005083109 -0.00016974445 0.0009202703 0.0006937177
0001b0 2f 35 7d bb 21 22 2c bc 39 53 07 bc a4 87 1b 3b
       -0.0038636436 -0.010506184 -0.008259588 0.002373197
0001c0 c1 12 a2 b9 5a 0a 88 37 06 9b 92 38 aa 67 f4 37
       -0.0003091302 1.6217284e-05 6.990698e-05 2.9135339e-05
0001d0 20 3a ac 3b f3 01 b2 ba 54 fc 22 ba c5 a3 d3 3b
       0.0052559525 -0.0013580903 -0.00062174094 0.006458732
0001e0 2f 09 8a 36 0e c5 da 36 eb a8 08 b6 04 7a d6 b8
       4.1137896e-06 6.5198465e-06 -2.0363902e-06 -0.000102270424
0001f0 d3 bf ff b7 3f 95 ef 38 fc 33 2f b9 38 16 05 ba
       -3.0487694e-05 0.00011424207 -0.00016708666 -0.0005076858
000200 ec aa da b7 79 94 d1 b9 e7 c8 a9 b8 90 30 49 38
       -2.6067217e-05 -0.00039974207 -8.095969e-05 4.796736e-05
000210 74 0b 44 b8 d2 07 15 36 db a2 b4 36 92 ba 76 36
       -4.6740708e-05 2.2207282e-06 5.383377e-06 3.6765455e-06
000220 99 36 ce b9 68 6d 87 b8 2b af 40 b8 59 88 80 38
       -0.0003933206 -6.45768e-05 -4.5939505e-05 6.128912e-05
000230 c8 51 22 b9 03 ec 03 bb 1d d2 b6 3b 1b 7b db bc
       -0.0001547999 -0.0020129688 0.0055792467 -0.0267921
000240 ba ed 7d bc 24 41 f5 39 9b d6 4a 3a 3e 40 25 bc
       -0.015498573 0.00046778575 0.0007737667 -0.010086117
000250 00 ba 5f bc 6a 18 e4 bc 15 a4 fe bc 53 87 3c bb
       -0.013655186 -0.027843673 -0.0310841 -0.0028767183
000260 5f f6 37 b9 7c 41 42 39 05 6b f0 39 76 a0 1e 39
       -0.0001754402 0.00018525677 0.00045856103 0.0001512783
000270 ad 04 93 3b 29 fd c8 bc cc fc a7 bb 8c b2 5c bb
       0.0044866414 -0.024534779 -0.0051265713 -0.0033675758
000280 fa 05 e8 b8 f7 47 09 bb d4 c2 87 bb d2 db bb bc
       -0.00011063735 -0.0020947435 -0.0041430984 -0.022931967
000290 c8 3f 62 bc e9 ff ee b8 5a a6 f8 b7 0e c6 11 bc
       -0.013809152 -0.00011396391 -2.9641367e-05 -0.008897318
0002a0 ed 46 bd bb 91 ca aa bc 6e a5 b3 bc c5 0e cd bb
       -0.0057762773 -0.020848544 -0.021929469 -0.006257864
0002b0 de ce 3b bb b9 90 29 39 f7 c0 cd 39 83 e3 ef 38
       -0.0028657238 0.0001617101 0.00039244417 0.000114387854
0002c0 7b 04 fc 3b 29 6d a5 bc 84 ec 39 bc 47 ec 1e bb
       0.007690964 -0.020193653 -0.011347894 -0.002424972
0002d0 c6 9b d7 b7 27 a4 16 ba cb 19 6e 3b 4c 72 0d bc
       -2.5702535e-05 -0.00057465065 0.0036331292 -0.0086332075
0002e0 f8 a1 12 bc c9 e2 da 39 96 4e 4e ba 43 9e 0f bb
       -0.008949749 0.00041749168 -0.00078699866 -0.00219144
0002f0 fd 5d 4a bb 11 be 5b bc 75 42 39 bc 43 06 a2 3a
       -0.0030878775 -0.013412015 -0.0113073485 0.0012361485
000300 7b 24 b1 38 db d3 a1 38 9d b9 34 39 c2 a1 9d 38
       8.446813e-05 7.7165394e-05 0.00017235284 7.516473e-05
000310 2e 23 c3 bb 68 df 8b bc c5 c7 01 bb 48 ac 2a 3b
       -0.0059551215 -0.017074302 -0.001980291 0.002604263

exp_avg_sq f4 [10, 20]
000000 3d af bd 34 1c 45 fe 34 82 76 64 3a 46 5a 26 37
       3.5331496e-07 4.736147e-07 0.0008715169 9.9153895e-06
000010 1a f3 f9 35 12 91 23 37 c1 80 02 39 35 0e 3b 38
       1.8622698e-06 9.749334e-06 0.0001244573 4.4597506e-05
000020 1e de 5d 35 95 93 8d 37 e5 35 fb 35 41 4f f9 38
       8.265214e-07 1.6877233e-05 1.8716643e-06 0.000118880074
000030 e7 fa 68 37 53 0b de 34 6d 87 26 35 60 d9 f5 35
       1.3886695e-05 4.1358962e-07 6.203689e-07 1.8317187e-06
000040 93 90 24 3b 87 8b 90 3b 79 af a1 37 d7 eb 07 39
       0.0025110587 0.004411164 1.9274406e-05 0.0001296246
000050 58 96 64 32 4b 40 2b 34 c6 e1 89 36 6c 44 69 36
       1.3305531e-08 1.5949006e-07 4.1092017e-06 3.4759532e-06
000060 c1 48 15 35 fb a3 dd 35 90 23 d7 35 4c 54 c0 37
       5.5612696e-07 1.6513508e-06 1.6029098e-06 2.2927437e-05
000070 ee 32 95 34 03 56 13 37 49 a7 4b 35 cb fe 22 35
       2.779047e-07 8.781909e-06 7.5866825e-07 6.0720475e-07
000080 c1 6f cf 36 8a 78 c4 34 ee d0 04 33 1e 7e 51 35
       6.1820906e-06 3.659555e-07 3.0923665e-08 7.804209e-07
000090 2c c9 bb 38 3e a1 58 38 98 13 17 37 9e 42 d6 35
       8.954326e-05 5.164858e-05 9.004863e-06 1.5963631e-06
0000a0 e3 cf 39 36 2f a3 fe 38 bd 03 84 39 50 a5 29 3b
       2.7688154e-06 0.00012142059 0.00025179787 0.0025885887
0000b0 3e 93 a9 39 e3 cd 83 37 bf ae fb 35 6b 65 82 3a
       0.00032343896 1.571229e-05 1.8751815e-06 0.0009948438
0000c0 df 1a 22 3a a1 21 e3 3a 86 07 ad 3a d8 ce 92 39
       0.00061838137 0.0017328748 0.0013201095 0.000280014
0000d0 59 a9 0e 37 d6 6d ef 34 f8 88 fd 35 b4 96 35 35
       8.503289e-06 4.4597135e-07 1.8889832e-06 6.7647056e-07
0000e0 71 ba 11 3b c0 1a 54 3c 18 81 95 38 07 90 17 3b
       0.0022236372 0.012945831 7.128919e-05 0.0023126618
0000f0 ec 39 0b 37 98 95 99 39 c3 5f a1 39 5b ab 92 3b
       8.298532e-06 0.0002929389 0.0003077966 0.0044759936
000100 e4 e1 80 3a 45 fa 3a 3b f0 c4 18 38 9f e7 f6 3c
       0.0009832946 0.002853052 3.6423036e-05 0.030139742
000110 7f 55 30 38 2d 97 55 3c a9 81 3b 3a 76 0a 88 39
       4.2041294e-05 0.013036531 0.0007152805 0.00025947735
000120 cf a2 1f 3c 30 38 c4 34 de 4f 09 36 d7 d2 69 34
       0.009743406 3.6548727e-07 2.046108e-06 2.1776519e-07
000130 a8 e6 2f 39 0a 5c 26 38 35 ab 78 3c 21 42 16 37
       0.00016775227 3.9663202e-05 0.015177538 8.956094e-06
000140 e1 d2 d3 37 87 02 51 3a ca f4 14 3b ad 8f 68 3c
       2.5251358e-05 0.0007973094 0.0022728913 0.014194411
000150 6b 5a 2a 3b f4 1c ee 3b fb 9d 77 3a fc 27 c2 3d
       0.0025993835 0.007266635 0.0009445843 0.09480283
000160 db a8 e8 39 fe f0 1e 3d 7d 38 24 3b d9 03 8c 3a
       0.00044376295 0.038804047 0.0025058084 0.0010682299
000170 ed 33 e2 3c 0b fa c6 35 2e ae 02 37 72 5e 9a 35
       0.02761265 1.4824922e-06 7.789158e-06 1.1501381e-06
000180 b2 d8 39 3b b5 1f 3d 3b 3a 29 2f 3d 83 55 08 39
       0.002835792 0.002885801 0.042763926 0.00013001826
000190 27 cf 3f 36 f4 1c eb 38 b2 dd 16 3a 2c cb 25 3b
       2.8581796e-06 0.00011211066 0.0005755081 0.0025298102
0001a0 af 60 81 39 e3 2a 9c 37 ec 35 c4 37 93 20 0e 39
       0.00024676832 1.861662e-05 2.339013e-05 0.0001355431
0001b0 b7 f6 1b 3a 44 4a a2 3a 1d 87 9f 3a 19 9a b8 39
       0.0005949544 0.0012381752 0.0012171004 0.00035210027
0001c0 10 21 ec 36 06 b4 09 35 6a ee 00 36 1f 11 2e 36
       7.037197e-06 5.1298446e-07 1.9212262e-06 2.5937986e-06
0001d0 b9 16 42 3b e3 2c 69 3c 67 17 f8 36 e5 22 dd 3a
       0.0029615595 0.014231893 7.3937003e-06 0.0016871361
0001e0 c4 19 61 32 7a aa 80 33 1e 79 63 34 cd 4f c0 35
       1.3102582e-08 5.991474e-08 2.1185085e-07 1.432834e-06
0001f0 83 0c 29 34 e2 a5 10 36 27 77 96 34 ca 61 a7 37
       1.5743903e-07 2.1554229e-06 2.8026372e-07 1.9953488e-05
000200 8a 5a 86 33 79 e6 b7 36 5f bd 58 34 11 40 bb 33
       6.25633e-08 5.4806555e-06 2.018546e-07 8.71952e-08
000210 20 f9 e4 36 b1 8f 5f 2f ae b6 ec 31 cb 04 8e 2f
       6.8239315e-06 2.0332781e-10 6.8892723e-09 2.5833055e-10
000220 e5 e6 8c 35 69 8c cd 35 df 92 05 37 47 1b 84 34
       1.0498012e-06 1.5314555e-06 7.961614e-06 2.4606763e-07
000230 a0 99 83 36 99 c1 48 39 bc 73 99 3a 55 de bb 3b
       3.9219885e-06 0.00019145607 0.0011707465 0.005733291
000240 c7 b0 17 3a 79 cd fd 37 c5 64 44 38 af c7 44 3b
       0.0005786535 3.0255631e-05 4.682389e-05 0.0030026247
000250 23 53 8a 3a e9 fa 98 3b 0a bb 1c 3b f7 a3 44 3a
       0.0010553341 0.0046685827 0.0023915195 0.00075012393
000260 97 85 91 37 48 62 8f 35 fb 86 8b 36 71 46 4f 36
       1.7347555e-05 1.0682934e-06 4.1582366e-06 3.0886406e-06
000270 fa 01 91 3b f6 3e ba 3c 4f 59 43 39 88 2b 5b 3b
       0.0044252845 0.0227351 0.00018629919 0.0033442695
000280 f3 ae c3 37 b4 72 6d 3a ff 76 9b 3a db 0e 91 3c
       2.3327279e-05 0.00090579246 0.0011861025 0.017707279
000290 8c f5 41 3b 04 a5 7a 38 8a e4 16 38 d3 0a 22 3d
       0.002959582 5.9758328e-05 3.597563e-05 0.039561104
0002a0 4e 2b 57 3a 43 15 03 3d 45 93 9a 3b ab 55 98 3a
       0.0008208052 0.0320027 0.004717263 0.0011622211
0002b0 8b a9 4b 3b b6 c7 0b 36 4d 67 29 37 a3 43 f1 35
       0.0031076397 2.082886e-06 1.0097237e-05 1.7975584e-06
0002c0 51 48 cb 3b 20 92 a0 3b b9 8d 07 3c 82 c9 1b 38
       0.006203689 0.004900232 0.008273535 3.714255e-05
0002d0 7f 74 98 36 d8 39 52 39 ab 14 c5 3a d6 f7 a5 3b
       4.543515e-06 0.00020048709 0.0015036067 0.0050649447
0002e0 8a 7a 06 3a dd f8 1f 38 32 35 aa 39 64 d7 55 3a
       0.0005129954 3.8140326e-05 0.0003246456 0.0008157401
0002f0 32 20 a1 3a 68 ce 3b 3b b5 5a 1f 3b 86 eb 45 3a
       0.001229292 0.0028656963 0.002431554 0.00075500493
000300 e6 8c 6e 37 ee 4b 92 35 32 f7 91 36 6b 29 a5 36
       1.4218711e-05 1.0899946e-06 4.350114e-06 4.922205e-06
000310 3a 4c e9 3b 7d eb eb 3c 85 0d 16 38 dd 3c 92 3b
       0.0071196826 0.028798813 3.5775378e-05 0.004462822

exp_avg f4 [10]
000000 22 d4 18 bc 4f 55 04 3a 2d 96 c1 3c 94 be 32 3c
       -0.00932792 0.00050481124 0.02363118 0.010909695
000010 a3 b2 d2 3b 5c 31 7d ba 59 3c 6f b9 83 b6 75 bc
       0.0064299866 -0.0009658539 -0.00022815297 -0.0149971275
000020 20 fc 4a bc c4 b1 e1 bb
       -0.012389213 -0.0068876464

exp_avg_sq f4 [10]
000000 49 87 43 3a 03 4a c6 37 f7 09 6b 3b 2b 61 27 3b
       0.0007458819 2.3637904e-05 0.0035864094 0.0025540094
000010 5f 98 35 3c 9a c5 87 3b de df c4 35 17 c2 03 3c
       0.011083691 0.004143429 1.4668292e-06 0.00804188
000020 05 f5 85 3c 11 8f 0b 3c
       0.016352186 0.008517996

exp_avg f4 [3, 10]
000000 e4 aa af 3b 82 6a 30 3b 7a a0 8c bd 1b 80 2c bd
       0.005360948 0.0026918952 -0.06866546 -0.04211436
000010 eb f6 2f bd ff 0a 6b 39 ce e4 93 3a 2b e3 9a bc
       -0.04296009 0.00022415443 0.0011283399 -0.01890715
000020 bf 6b c2 bb 5d 3d df bc 59 f0 af 3b 18 4e 3c 3b
       -0.0059332545 -0.02725094 0.005369228 0.002873307
000030 a1 cf dd bc 78 f9 4b bb c4 17 1c bd d1 fc e2 3b
       -0.027076544 -0.0031124037 -0.038108602 0.0069271107
000040 1c 32 90 3a eb e5 97 ba cf fb 3a bd 50 bf 0d 3b
       0.0011001262 -0.0011588907 -0.0456503 0.0021628924
000050 19 e4 3c bb fd 9d 92 bb 26 5c 11 bd de 92 87 bc
       -0.002882248 -0.0044744 -0.03548827 -0.016549524
000060 70 dc 5c bb 5d 95 5b bb a9 2e 69 b9 31 ca 9f bc
       -0.0033700727 -0.0033505776 -0.00022237994 -0.019505592
000070 13 2d c8 bb a9 70 97 bc
       -0.006108889 -0.018486338

exp_avg_sq f4 [3, 10]
000000 57 b5 a0 39 ec e9 43 39 10 cf 85 3c e7 72 00 3d
       0.00030652687 0.00018683792 0.016334087 0.03135958
000010 47 27 e3 3c 33 0f aa 3a 38 15 5a 37 db 8f ac 3b
       0.02772869 0.00129745 1.2998753e-05 0.0052661723
000020 fc 50 27 3c b1 d0 d8 3b 5e ef a4 39 a0 dc 42 39
       0.010212179 0.006616675 0.0003145886 0.00018583471
000030 14 a8 8d 3c d7 0f f2 3c d4 41 d4 3c 4b 4e b7 3a
       0.01729206 0.029548569 0.025910296 0.0013985125
000040 f1 8f 67 37 5d 19 a9 3b 22 99 0e 3c f8 ca e0 3b
       1.3802187e-05 0.0051604942 0.008703502 0.0068601333
000050 4d b8 0e 3b d0 a1 b1 3a 61 d7 a3 3d 8c 17 27 3e
       0.0021777332 0.0013552252 0.08000065 0.16317576
000060 77 95 33 3e 37 4c de 3b aa 42 e7 38 3b 47 fc 3c
       0.17537485 0.006783988 0.000110273555 0.030795684
000070 8a 03 37 3d 9a 1f 1d 3d
       0.04468111 0.038360216

exp_avg f4 [3]
000000 88 fa 3f bc c4 9c 6d bc f8 48 c0 3b
       -0.011717446 -0.014502708 0.0058680736

exp_avg_sq f4 [3]
000000 e2 d7 81 3b 0c 41 85 3b 21 6e 16 3d
       0.003962503 0.004066592 0.03672612
