lightning_logs/version_125/checkpoints/epoch=37-step=304.ckpt (torch, 10635 bytes, 18 tensors)

layers.0.weight f4 [10, 4]
0.40009487 -0.1460838 0.21332426 -0.42767122 -0.27373633 0.295503 -0.34166005 0.29476008
0.02339603 -0.27951315 0.22767383 0.29717544 0.16677873 -0.53264004 0.0010045642 -0.09518301
-0.30439273 -0.52180713 0.09408789 0.063413255 0.121499546 -0.18497302 0.08294789 0.2876577
-0.14021072 0.5155398 0.1900785 -0.17927836 -0.054579962 0.24552573 0.4303115 -0.5143894
-0.24462411 -0.64734274 0.1462855 -0.37848398 -0.48151806 0.03293244 0.23561428 -0.29910764
00000000: 3cd9 cc3e fe96 15be ad71 5a3e b9f7 dabe
00000010: 2b27 8cbe 2b4c 973e 11ee aebe cbea 963e
00000020: 08a9 bf3c 591c 8fbe 5423 693e 6127 983e
00000030: 0bc8 2a3e 195b 08bf 95ab 833a 4fef c2bd
00000040: 5dd9 9bbe 2795 05bf 27b1 c03d cfde 813d
00000050: c1d4 f83d 9169 3dbe 95e0 a93d df47 933e
00000060: 6693 0fbe 6bfa 033f f0a3 423e bf94 37be
00000070: 3d8f 5fbd 196b 7b3e ca51 dc3e 06af 03bf
00000080: be7e 7abe 41b8 25bf decb 153e a7c8 c1be
00000090: 8989 f6be 2be4 063d df44 713e a324 99be

layers.0.bias f4 [10]
-0.23733123 0.18282457 0.04883855 -0.019663153 0.006037503 0.42841056 -0.1856735 -0.16762765
0.43696278 0.43278
00000000: f506 73be 5d36 3b3e ee0a 483d 9f14 a1bc
00000010: 3fd6 c53b a158 db3e 3221 3ebe 95a6 2bbe
00000020: 96b9 df3e 5795 dd3e

layers.2.weight f4 [5, 10]
-0.0117056575 -0.023008732 0.22538596 0.25284323 -0.2130098 0.31710616 0.0659434 0.35439998
-0.08728656 -0.07935745 0.2120167 0.09507214 0.20283101 -0.17301923 -0.22994216 -0.14467144
0.14287046 0.22094527 0.05063082 -0.25009343 -0.24446943 0.25726578 0.22645889 0.27719003
0.31693015 0.3248193 0.15958966 0.21405351 0.017671535 -0.067331605 -0.04902954 0.17234892
-0.09959031 0.19959395 0.10427095 0.26403978 -0.027675815 0.17898962 -0.32765803 0.06624294
0.1985522 -0.022173405 -0.08306714 -0.10674035 0.12116587 0.3003041 0.45406824 0.052952427
0.07324689 -0.15001665
00000000: 16c9 3fbc cf7c bcbc 94cb 663e ab74 813e
00000010: 3e1f 5abe bd5b a23e 550d 873d ea73 b53e
00000020: 4cc3 b2bd 2986 a2bd e81a 593e 2fb5 c23d
00000030: efb2 4f3e f42b 31be f575 6bbe c024 14be
00000040: a24c 123e 7a3f 623e 4362 4f3d 3f0c 80be
00000050: 3256 7abe 57b8 833e d7e4 673e daeb 8d3e
00000060: ab44 a23e b74e a63e 796b 233e d830 5b3e
00000070: e5c3 903c 27e5 89bd 33d3 48bd 3c7c 303e
00000080: 01f6 cbbd 5b62 4c3e 028c d53d 3930 873e
00000090: 64b8 e2bc 0e49 373e cbc2 a7be 61aa 873d
000000a0: 4551 4b3e 00a5 b5bc 1b1f aabd af9a dabd
000000b0: d025 f83d 76c1 993e a27b e83e a5e4 583d
000000c0: 7702 963d f79d 19be

layers.2.bias f4 [5]
0.19277988 -0.21552889 -0.19804536 0.0023218659 0.1551179
00000000: 1768 453e 9bb3 5cbe 67cc 4abe 722a 183b
00000010: 3ad7 1e3e

layers.4.weight f4 [2, 5]
-0.123419695 0.15419313 -0.31470934 0.33009863 -0.017071184 0.27766153 -0.36980304 -0.3353262
0.33150586 0.14494348
00000000: 77c3 fcbd cee4 1d3e 9521 a1be b002 a93e
00000010: ded8 8bbc a729 8e3e d356 bdbe e0af abbe
00000020: 23bb a93e 106c 143e

layers.4.bias f4 [2]
0.120230734 -0.12142858
00000000: 883b f63d 8caf f8bd

exp_avg f4 [10, 4]
-6.8957377e-07 8.402344e-07 -1.8413273e-07 -1.8026205e-06 4.288359e-18 4.9854825e-18 1.2181972e-16 5.620236e-17
5.320089e-06 2.4585568e-06 9.639874e-05 3.0511921e-05 9.822209e-20 2.0499558e-19 4.873907e-18 2.5467582e-18
-7.37118e-07 5.7822394e-06 6.4027074e-05 2.6696463e-05 5.957216e-06 -6.0358984e-06 -3.1201107e-06 -1.016071e-05
3.8000035e-06 -2.0785378e-06 1.4654791e-05 -6.2822673e-06 5.1817046e-06 -5.1426955e-06 -1.4309601e-06 -8.359433e-06
2.1690962e-06 6.2342256e-06 0.00010542634 3.884526e-05 -2.823729e-06 2.7910968e-07 -3.1183485e-05 -8.17874e-06
00000000: 261b 39b5 788c 6135 05b6 45b4 92f1 f1b5
00000010: 6836 9e22 8dee b722 d672 0c25 0598 8124
00000020: 3783 b236 affd 2436 ae29 ca38 daf3 ff37
00000030: 9ceb e71f 1d04 7220 c0d0 b322 e7ea 3b22
00000040: 5dde 45b5 0f05 c236 4646 8638 38f2 df37
00000050: 19e4 c736 f987 cab6 1863 51b6 eb77 2ab7
00000060: 9003 7f36 027d 0bb6 d9dd 7537 44cc d2b6
00000070: 81de ad36 6b8f acb6 6a0f c0b5 7e3f 0cb7
00000080: ca90 1136 972f d136 5618 dd38 c8ed 2238
00000090: 4b7f 3db6 8bd8 9534 03cb 02b8 6c37 09b7

exp_avg_sq f4 [10, 4]
3.8494337e-09 5.0240883e-09 2.5156762e-06 2.9510636e-07 4.8346205e-10 6.3408756e-10 3.670878e-07 6.910971e-08
1.19784875e-08 1.6285677e-08 8.462954e-06 1.287743e-06 5.1175553e-11 6.1347684e-11 3.224426e-08 4.2282124e-09
8.519136e-10 1.4729519e-09 5.2437304e-07 7.7980424e-08 1.1589677e-08 1.6929285e-08 7.834999e-06 1.2389088e-06
6.0789196e-09 8.439823e-09 4.238864e-06 6.296156e-07 2.7670444e-09 4.2083874e-09 1.8846273e-06 3.0796494e-07
1.234908e-09 1.6868218e-09 8.317729e-07 1.2080591e-07 8.538942e-09 1.17944925e-08 6.0573834e-06 8.859449e-07
00000000: fa43 8431 59a0 ac31 fdd2 2836 1c6f 9e34
00000010: 9ee4 0430 f24b 2e30 2a14 c534 7769 9433
00000020: f2c9 4d32 95e4 8b32 1cfc 0d37 83d6 ac35
00000030: 8d12 612e ade7 862e f07c 0a33 c047 9131
00000040: 172c 6a30 e370 ca30 a4c2 0c35 3176 a733
00000050: f01b 4732 e46b 9132 1173 0337 9548 a635
00000060: bede d031 bcfe 1032 913b 8e36 db02 2935
00000070: 5c26 3e31 5e99 9031 4df3 fc35 6156 a534
00000080: 76b9 a930 c4d5 e730 0047 5f35 e0b6 0134
00000090: aab2 1232 baa0 4a32 8740 cb36 acd1 6d35

exp_avg f4 [10]
-7.693539e-08 7.088491e-17 5.227536e-05 2.9145974e-18 3.3574015e-05 1.0605985e-08 7.471731e-06 6.690214e-07
5.618286e-05 -1.7170318e-05
00000000: ae37 a5b3 1173 a324 3e42 5b38 300f 5722
00000010: d3d1 0c38 9e35 3632 aeb5 fa36 cd96 3335
00000020: e3a5 6b38 fa08 90b7

exp_avg_sq f4 [10]
8.338817e-07 1.2434315e-07 2.8319503e-06 1.062375e-08 1.7192117e-07 2.6133714e-06 1.4154011e-06 6.2967064e-07
2.7792146e-07 2.0231014e-06
00000000: ead7 5f35 2f83 0534 890c 3e36 bf83 3632
00000010: 5599 3834 6161 2f36 d0f8 bd35 a306 2935
00000020: 3c35 9534 9ec4 0736

exp_avg f4 [5, 10]
8.338111e-06 5.1588813e-17 -1.1351281e-05 -3.801698e-18 -1.7264045e-06 -1.0899295e-05 -5.055592e-06 2.243562e-06
8.964325e-06 -8.63992e-06 2.0522477e-18 0.0 2.696325e-18 5.313819e-20 3.0788672e-18 3.5337412e-18
1.0213587e-18 3.573159e-18 3.244699e-18 4.9248688e-18 1.0961544e-06 4.3617895e-17 0.00010389639 -4.195229e-18
2.6821137e-05 0.00012185336 1.5109405e-05 4.9589868e-05 6.224481e-05 0.0001039765 -1.5355223e-06 -2.568404e-17
-0.00010584117 5.6917376e-18 -2.7388502e-05 -0.00012423327 -1.5245929e-05 -5.092927e-05 -6.4188185e-05 -0.000106062835
3.220513e-06 2.7603189e-17 -1.49059015e-05 -1.1579222e-18 -3.368944e-06 -1.6508278e-05 -3.5394526e-06 -4.0723203e-06
-2.6326259e-06 -1.3834834e-05
00000000: eae3 0b37 52e9 6d24 6171 3eb7 0642 8ca2
00000010: cfb6 e7b5 1edc 36b7 34a3 a9b6 1a90 1636
00000020: 7c65 1637 2df4 10b7 dd6d 1722 0000 0000
00000030: 24f4 4622 21f0 7a1f 282e 6322 3e5f 8222
00000040: d7b9 9621 88d3 8322 a26a 6f22 12b2 b522
00000050: 941f 9335 ec26 4924 f3e2 d938 d1c6 9aa2
00000060: f4fd e037 868b ff38 667e 7d37 b7fe 4f38
00000070: 6e89 8238 f50d da38 2518 ceb5 bae4 eca3
00000080: 0cf7 ddb8 f1fc d122 5cc0 e5b7 9d44 02b9
00000090: c4c8 7fb7 e39c 55b8 c59c 86b8 0d6e deb8
000000a0: fe1f 5836 3098 fe23 5c14 7ab7 10e1 aaa1
000000b0: 0416 62b6 427b 8ab7 5587 6db6 f7a4 88b6
000000c0: 2bac 30b6 291c 68b7

exp_avg_sq f4 [5, 10]
1.1756024e-07 2.6908484e-07 4.54304e-06 3.5095022e-09 3.1236416e-06 7.4976374e-06 5.7202755e-08 1.3736267e-06
2.2760707e-06 5.5855053e-06 1.0956773e-09 0.0 1.8913362e-09 7.34578e-13 2.4660756e-09 3.2485767e-09
2.7138222e-10 3.3214569e-09 2.738878e-09 6.3097763e-09 1.2036986e-07 2.2509946e-07 3.2396733e-06 4.1827573e-09
2.641768e-06 5.459464e-06 4.4799044e-08 1.0275444e-06 1.6456753e-06 4.3243394e-06 2.1145162e-07 3.260395e-07
4.177869e-06 8.050441e-09 4.1345033e-06 7.1725294e-06 4.2911616e-08 1.3025849e-06 2.1402225e-06 6.5177614e-06
1.36098235e-08 4.2104872e-08 7.8276975e-07 3.0981673e-10 4.523128e-07 1.2773816e-06 1.1085041e-08 2.3567613e-07
3.8584108e-07 8.466175e-07
00000000: 6d75 fc33 bd76 9034 6b70 9836 d12b 7131
00000010: c19f 5136 3794 fb36 18af 7533 745d b835
00000020: 99be 1836 206b bb36 b896 9630 0000 0000
00000030: bdf8 0131 ecc3 4e2b a977 2931 913d 5f31
00000040: a731 952f b03f 6431 da36 3c31 61cd d831
00000050: 043f 0134 deb2 7134 2a69 5936 ecb7 8f31
00000060: 3b49 3136 7030 b736 1269 4033 28ea 8935
00000070: f9e0 dc35 cb19 9136 610b 6334 870a af34
00000080: 9f2f 8c36 374e 0a32 1dbb 8a36 8fab f036
00000090: d24d 3833 7ad4 ae35 bea0 0f36 25b3 da36
000000a0: a3d0 6932 ccd6 3433 871f 5235 d452 aa2f
000000b0: 66d5 f234 7f72 ab35 8770 3e32 290e 7d34
000000c0: 9825 cf34 1d43 6335

exp_avg f4 [5]
-1.0536324e-05 5.4245413e-18 0.00015962624 -0.0001629227 -2.0128979e-05
00000000: 2bc5 30b7 5821 c822 5861 2739 3bd6 2ab9
00000010: a7da a8b7

exp_avg_sq f4 [5]
1.1214039e-05 7.655094e-09 8.274475e-06 1.1604781e-05 1.8156537e-06
00000000: ee23 3c37 7683 0332 99d2 0a37 28b2 4237
00000010: 63b1 f335

exp_avg f4 [2, 5]
-0.00017711376 8.62191e-20 -8.491122e-05 -2.764402e-05 -0.000109373745 -0.00010630496 -4.1177303e-20 -6.22449e-05
-3.086314e-05 -5.8315072e-05
00000000: 9db7 39b9 4094 cb1f 5d12 b2b8 15e5 e7b7
00000010: 955f e5b8 0af0 deb8 4e74 429f 7a89 82b8
00000020: 0b73 01b8 5597 74b8

exp_avg_sq f4 [2, 5]
2.6410438e-05 1.933886e-12 2.2912121e-05 2.4312976e-05 2.1205044e-05 6.3370444e-06 4.4110259e-13 4.460186e-06
3.371509e-06 4.377626e-06
00000000: fc8b dd37 cb15 082c 6833 c037 b8f3 cb37
00000010: 7ce1 b137 cca2 d436 9551 f82a b5a8 9536
00000020: 1542 6236 85e3 9236

exp_avg f4 [2]
-0.00031288923 -0.00018069438
00000000: 480b a4b9 c778 3db9

exp_avg_sq f4 [2]
0.0001604538 3.0995994e-05
00000000: 7d3f 2839 b201 0238
