neural_network/lightning_logs/version_26/checkpoints/epoch=0-step=1875.ckpt (torch, 13835 bytes, 18 tensors)

layers.0.weight f4 [20, 4]
0	0xbf0c16f1	-0.54722506
1	0xbeaaf821	-0.33392432
2	0xbe5684e6	-0.20949134
3	0xbd37a183	-0.044831764
4	0xbf52e6e3	-0.82383555
5	0x3dc842c9	0.09778363
6	0xbecf08af	-0.40436313
7	0x3e6190c0	0.22027874
8	0xbd0a9c99	-0.03384075
9	0x3eaebc0d	0.34127846
10	0xbf017dad	-0.5058239
11	0xbe6f3663	-0.2336059
12	0xbf096b06	-0.5367893
13	0x3d130d3d	0.035901297
14	0xbe68da2c	-0.22739476
15	0xbe820f5b	-0.2540234
16	0xbda8a0f5	-0.08233825
17	0x3f11c9f1	0.56948763
18	0xbea72bfc	-0.32650745
19	0x3e5a08f8	0.21292484
20	0xbeb1ce3b	-0.34727654
21	0xbe26ccbf	-0.16289042
22	0xbec9d943	-0.3942357
23	0xbeaa6734	-0.33281863
24	0xbef5056b	-0.47855696
25	0xbf1b3a77	-0.60636085
26	0x3e9e74c7	0.3094847
27	0xbd5b61e8	-0.053560168
28	0xbe515f4a	-0.20446506
29	0xbf061069	-0.5236879
30	0x3c8a7058	0.016899273
31	0xbe69b94a	-0.22824588
32	0xbf8123f0	-1.0089092
33	0x3f1cc190	0.6123285
34	0xbf132080	-0.57471466
35	0xbc923a66	-0.017850112
36	0x3f541cd9	0.8285652
37	0xbf0872c0	-0.53300095
38	0x3e9c9964	0.30585778
39	0xbca3b39f	-0.019983111
40	0xbd233709	-0.039847407
41	0x3d916b76	0.07100575
42	0xbd4f94fd	-0.050679196
43	0xbe4c15ee	-0.1993024
44	0x3cc10147	0.02356018
45	0x3f1d9595	0.6155637
46	0xbf15d4b8	-0.5852771
47	0x3ce1cfaa	0.027564842
48	0xbf7fda96	-0.9994291
49	0x3c5f155a	0.01361593
50	0xbee2f9ce	-0.4433121
51	0x3dfd26a8	0.12360889
52	0xbf4d2faf	-0.80150884
53	0xbef694cd	-0.481604
54	0x3dd55ac3	0.10417702
55	0x3dd0a402	0.10187532
56	0xbefabe0a	-0.48973113
57	0x3e754715	0.23952897
58	0x3d0bd6e0	0.034140468
59	0x3aca9ad3	0.0015457518
60	0xbee33d96	-0.44382924
61	0xbe7c8828	-0.24661314
62	0xbeaeea29	-0.34163025
63	0x3e0be13c	0.13660139
64	0xbe52f7ec	-0.20602387
65	0xbf0b061c	-0.543062
66	0xbe7ddbc5	-0.24790867
67	0x3e88b4d9	0.26700476
68	0xbed62af7	-0.41829655
69	0x3e14b6e2	0.1452289
70	0xbc92956a	-0.017893512
71	0x3b4534b1	0.003009122
72	0xbf70e5bf	-0.94100565
73	0x3e59a89e	0.21255729
74	0xbdd4ba76	-0.10387127
75	0x3d0ac21a	0.033876516
76	0xbd0e7ed8	-0.034788936
77	0x3df9753d	0.121805646
78	0xbea0d0df	-0.31409356
79	0xbd9e2831	-0.0772251

layers.0.bias f4 [20]
0	0x3e9b85fc	0.3037566
1	0xbe32bd78	-0.17455089
2	0xbe2eef39	-0.17083444
3	0x3d112901	0.035439495
4	0x3e6ee4b5	0.23329432
5	0x3cd95476	0.026529532
6	0xbd941f3f	-0.07232522
7	0xbf15af81	-0.5847092
8	0x3e46c287	0.19410144
9	0xbf53d5e6	-0.8274826
10	0xbd8db7a9	-0.06919796
11	0x3e3eb94c	0.18625373
12	0x3e29ee75	0.1659487
13	0x3e4689ae	0.19388458
14	0x3eaf35cc	0.3422073
15	0x3d44f457	0.048084583
16	0xbd827cbb	-0.06371447
17	0x3f00a74e	0.50255287
18	0x3db18f55	0.086699165
19	0x3de049a5	0.109515466

layers.2.weight f4 [10, 20]
0	0x3e50083a	0.20315638
1	0xbd9a7f04	-0.075437576
2	0xbca7311d	-0.020409161
3	0x3e91d0af	0.28479525
4	0xbd494803	-0.04914094
5	0x3d2eeea1	0.042708043
6	0xbec597a2	-0.3859225
7	0x3eb70d37	0.3575227
8	0x3d7b4e9c	0.061354265
9	0xbe7d6c1b	-0.2474827
10	0xbe84ed49	-0.25962284
11	0x3e3d2b7c	0.18473619
12	0x3df02e72	0.11727609
13	0xbe8ab0dd	-0.2708806
14	0xbe136ec1	-0.14397718
15	0x3e229f30	0.15881038
16	0xbe5ce467	-0.21571504
17	0xbecb564c	-0.39714277
18	0x3e34df79	0.17663373
19	0xbd9dedae	-0.077113494
20	0xbe0ef4bb	-0.13960545
21	0xbd11718e	-0.035508685
22	0xbe8d5169	-0.27601174
23	0xbea1de0a	-0.31614715
24	0x3e1d0f95	0.15337975
25	0xbdcf048c	-0.10108289
26	0x3e115cc3	0.14195542
27	0xbdac149c	-0.084023684
28	0x3c617d44	0.013762776
29	0xbdad00c1	-0.084474094
30	0xbde5c67c	-0.112194985
31	0x3e53ec37	0.20695578
32	0xbd50c7e6	-0.050971888
33	0x3e095ece	0.13415071
34	0x3d853582	0.065043464
35	0xbe15d05f	-0.14630269
36	0xbdb2b223	-0.08725383
37	0x3dcaad9d	0.09896395
38	0xbd12af2f	-0.0358116
39	0x3e0cc33e	0.13746354
40	0x3cc35f16	0.023849051
41	0xbdd0af01	-0.10189629
42	0x3de12cca	0.10994871
43	0xbd828570	-0.063731074
44	0x3e30adc7	0.17253791
45	0x3df81ac6	0.12114482
46	0x3d1ab09f	0.037766095
47	0xbe4e61e9	-0.20154537
48	0x3e555095	0.20831521
49	0x3d8e93d0	0.06961787
50	0xbd6ae966	-0.057351492
51	0x3cb76f7a	0.022392023
52	0x3e1affe9	0.15136684
53	0xbd75280d	-0.05985265
54	0xbce2ab04	-0.027669437
55	0x3e85d4b0	0.2613883
56	0xbdfb2e71	-0.12264717
57	0x3d8724c1	0.06598807
58	0xbde822a5	-0.11334733
59	0xbdda80e8	-0.10669118
60	0x3e8086de	0.25102895
61	0x3eb6deb7	0.35716793
62	0xbb6b6211	-0.0035916606
63	0x3db4d5a5	0.08829812
64	0x3ac3523e	0.0014901829
65	0xbe0df0dc	-0.13861412
66	0x3c967795	0.018367568
67	0xbda879ce	-0.082263574
68	0x3ef6cd22	0.4820338
69	0xbede956e	-0.4347338
70	0x3d1ad23d	0.037798155
71	0x3ebf584d	0.37372056
72	0x3efd5a30	0.4948287
73	0xbd99467a	-0.074841455
74	0x3ddd1d3a	0.1079659
75	0x3e76b1ee	0.24091312
76	0xbda4357b	-0.08018013
77	0x3e088b29	0.13334335
78	0x3e82c42e	0.25540298
79	0xbdb4ede9	-0.0883444
80	0xbc82cfc8	-0.015968218
81	0x3e8c06af	0.2734885
82	0x3e63811b	0.22217219
83	0xbd0e5f10	-0.034758627
84	0xbe773a6b	-0.24143378
85	0xbe6f867f	-0.2339115
86	0xbe4933de	-0.19648692
87	0x3e332efb	0.1749839
88	0x3e5e8cfa	0.21733466
89	0x3c0f9b9f	0.00876513
90	0xbe4dcedd	-0.20098443
91	0x3c3a9e7b	0.011390324
92	0x3c984d26	0.018591475
93	0x3ca90e9c	0.02063685
94	0x3d623f84	0.055236354
95	0xbe23431f	-0.15943573
96	0xbe454079	-0.19262876
97	0x3b1ef69d	0.002425588
98	0x3ea5d828	0.32391477
99	0xbe51cfd1	-0.20489432
100	0x3e1c2585	0.15248688
101	0x3e00200e	0.12512228
102	0xbe66f1f3	-0.22553234
103	0xbcc62b20	-0.024190485
104	0xbcfe9057	-0.031074686
105	0x3e0817ad	0.13290282
106	0xbe2dff21	-0.16991855
107	0x3bf6eb4f	0.007535375
108	0xbe025905	-0.12729271
109	0x3e451b48	0.19248688
110	0xbd8effdf	-0.06982397
111	0xbe5e4b76	-0.21708474
112	0xbcf3ca95	-0.029759685
113	0xbe7ecff8	-0.24884021
114	0x3dcdf102	0.10055734
115	0x3e809c4b	0.25119242
116	0xbd39b316	-0.045336805
117	0xbe2ecdf2	-0.1707075
118	0x3e6bcd1d	0.23027463
119	0x3e13be2c	0.14428014
120	0x3de5244f	0.11188566
121	0xbd6f01b3	-0.05835123
122	0xbf154163	-0.583029
123	0xbe4f9449	-0.2027141
124	0x3db4cf94	0.08828655
125	0x3e1ec05a	0.15503064
126	0xbe3838d9	-0.17990436
127	0xbdeebe3f	-0.1165738
128	0xbe3aa1fc	-0.18225855
129	0xbe57b5f9	-0.21065511
130	0xbe08e47a	-0.13368407
131	0xbe0694d8	-0.13142717
132	0xbe3df48a	-0.18550315
133	0xbd2de6d7	-0.042456474
134	0xbd1042c4	-0.035219923
135	0xbcce7ac4	-0.025205024
136	0x3e05556f	0.13020872
137	0x3d9bf19f	0.07614445
138	0x3dd5cf57	0.104399376
139	0xbe348935	-0.17630465
140	0x3d9c89e9	0.07643492
141	0x3e8f3cf6	0.27976197
142	0xbe876520	-0.2644434
143	0x3d7157b0	0.058921516
144	0x3d8585c6	0.06519656
145	0xbd20903d	-0.039200056
146	0xbe3d1716	-0.18465838
147	0x3de523a2	0.11188437
148	0x3e776048	0.24157822
149	0xbd16e510	-0.036839545
150	0x3db6e2a1	0.08929945
151	0x3e56c928	0.20975173
152	0x3e972c68	0.29526067
153	0xbcc7592f	-0.024334518
154	0xbe4f1193	-0.20221548
155	0x3d2de151	0.042451207
156	0xbc9ecb5e	-0.019384082
157	0x3dafef0d	0.08590517
158	0x3eaed97f	0.3415031
159	0x3dbfe73c	0.09370276
160	0x3e72af30	0.23699641
161	0xbe02f717	-0.1278957
162	0x3ea4149e	0.3204698
163	0x3c8e67fe	0.017383572
164	0x3d9ccc98	0.07656211
165	0x3e2a41f9	0.16626729
166	0x3e03aad3	0.12858133
167	0xbd4bb6e9	-0.049734984
168	0x3e6a8695	0.22902901
169	0xbdc8980a	-0.09794624
170	0xbca030bd	-0.01955449
171	0x3ea3712f	0.3192229
172	0xbcb9bd1e	-0.022673186
173	0x3c83ca85	0.01608778
174	0x39ee54b0	0.00045457995
175	0xbd558c1a	-0.052135564
176	0x3dd3da74	0.10344401
177	0x3dc31c59	0.09526891
178	0xbb6040c4	-0.003421829
179	0x3e3a8c91	0.18217684
180	0xbe0cb243	-0.13739876
181	0x3e20ebca	0.15714946
182	0xbcf7172f	-0.030162422
183	0xbdd9c8ca	-0.106340006
184	0x3e2c6251	0.1683438
185	0xbe80eeb6	-0.25182122
186	0xbd9ca341	-0.07648326
187	0xbc799059	-0.015232169
188	0x3e324b16	0.17411456
189	0x3d626c80	0.055279255
190	0xbe76646f	-0.2406175
191	0x3e2ea0d9	0.17053546
192	0xbc59872e	-0.013276858
193	0xbe156d6c	-0.14592522
194	0x3df66168	0.120302975
195	0x3d498800	0.049201965
196	0x3dedfc66	0.11620407
197	0x3ddd7444	0.108131915
198	0xbcb4c505	-0.022066602
199	0x3d91ad75	0.071131624

layers.2.bias f4 [10]
0	0x3d018376	0.03161951
1	0x3c8d4e58	0.017249271
2	0xbe316c20	-0.17326403
3	0x3e869b56	0.26290387
4	0xbdcf99df	-0.101367705
5	0xbe20dc61	-0.15709068
6	0xbe39f4b2	-0.1815975
7	0xbd93aa77	-0.07210248
8	0x3d54b162	0.051926978
9	0xbda54249	-0.080692835

layers.4.weight f4 [2, 10]
0	0x3b87dd49	0.0041462523
1	0xbd7c43a4	-0.061587945
2	0xbd9db1d8	-0.07699937
3	0xb92c0cd0	-0.00016407971
4	0x3c117417	0.008877776
5	0xbc0bc675	-0.008531203
6	0xbe2a8d8e	-0.16655561
7	0xbdd57a00	-0.1042366
8	0x3b59781b	0.003318316
9	0xbe251716	-0.16122088
10	0x3d8bf0ea	0.0683306
11	0xbdf5dda9	-0.12005169
12	0xbdc512bc	-0.09622714
13	0xbe923ab5	-0.28560415
14	0x3e00561e	0.12532851
15	0xb953b8e1	-0.00020191401
16	0x3d60b50f	0.05486017
17	0xbdb606ed	-0.0888804
18	0xbe1b0c1c	-0.15141338
19	0x3e0e78f4	0.13913327

layers.4.bias f4 [2]
0	0x3caf0cf2	0.021368477
1	0x3e22fa53	0.15915804

exp_avg f4 [20, 4]
0	0xb5a3b582	-1.2197272e-06
1	0xb5bec29a	-1.421274e-06
2	0xb6b9b166	-5.5340815e-06
3	0x365735ab	3.2068735e-06
4	0xb4f6ba0a	-4.5956432e-07
5	0xb4aaabdc	-3.1790012e-07
6	0xb66e7c39	-3.553707e-06
7	0x366a44b3	3.4908705e-06
8	0xb443c3af	-1.823198e-07
9	0xb4bea1a0	-3.5507856e-07
10	0x344369b2	1.8199242e-07
11	0x353db0e9	7.0665425e-07
12	0xb4f1023f	-4.4891382e-07
13	0x328291c1	1.5200273e-08
14	0x3771fdf5	1.4423848e-05
15	0xb7047a85	-7.896339e-06
16	0x38a8fc75	8.057888e-05
17	0x38bca3ce	8.9950496e-05
18	0x394bb00e	0.00019425174
19	0x388a5f32	6.598084e-05
20	0x357b5892	9.3633673e-07
21	0x34f4d399	4.56025e-07
22	0x37039547	7.842965e-06
23	0xb75d9869	-1.3208112e-05
24	0xb7f2ac24	-2.8928807e-05
25	0xb7d11d6b	-2.492844e-05
26	0xb984f261	-0.00025357588
27	0x38368498	4.351567e-05
28	0x34cbf801	3.7992143e-07
29	0x34a10b66	2.999688e-07
30	0x3637fb48	2.741539e-06
31	0xb60281de	-1.9447102e-06
32	0x35a1ce8c	1.2055548e-06
33	0x35d9720a	1.620095e-06
34	0x3788f7e0	1.632789e-05
35	0xb7a55d32	-1.971293e-05
36	0x37f70e2b	2.9451292e-05
37	0x382e978c	4.162597e-05
38	0xb88d4ac9	-6.737334e-05
39	0xb9ed7fe8	-0.0004529946
40	0x370b1cf6	8.291789e-06
41	0x36780ba0	3.6961646e-06
42	0x3827d923	4.0018127e-05
43	0xb7b791c8	-2.1883185e-05
44	0xb5c7b5a5	-1.4879521e-06
45	0xb59d157f	-1.1703668e-06
46	0xb72426c8	-9.784191e-06
47	0x36fa62be	7.4620757e-06
48	0xb5babe6f	-1.3913503e-06
49	0xb5c02f89	-1.4318949e-06
50	0xb700a0d9	-7.666845e-06
51	0x36aac78f	5.0896265e-06
52	0xb6a0dc08	-4.7939866e-06
53	0xb6b2f32e	-5.333123e-06
54	0xb857eb72	-5.147927e-05
55	0xb79678cc	-1.7937644e-05
56	0xb7456ea0	-1.1767872e-05
57	0x372f0517	1.0431998e-05
58	0xb90bf06b	-0.00013345636
59	0x39422bc6	0.00018517589
60	0xb4b58451	-3.381015e-07
61	0xb4c6bbd1	-3.7017028e-07
62	0xb5fa8f0c	-1.8668084e-06
63	0x35ffc34e	1.9055822e-06
64	0x35473dd2	7.422324e-07
65	0x353bdbe7	6.998293e-07
66	0x36c12a0b	5.7567427e-06
67	0x369642cf	4.478126e-06
68	0xb832c4b4	-4.26217e-05
69	0xb79106f1	-1.728858e-05
70	0xb99bd14a	-0.00029719836
71	0x39968d4d	0.00028715507
72	0xb54e8a64	-7.6942365e-07
73	0xb55960f5	-8.097989e-07
74	0xb688e8c1	-4.080212e-06
75	0x362ac3d1	2.5445954e-06
76	0xb3eb92c4	-1.0969737e-07
77	0x330789c2	3.1557427e-08
78	0xb5a5a448	-1.234127e-06
79	0x3579bf9e	9.303857e-07

exp_avg_sq f4 [20, 4]
0	0x2fe5e39e	4.181659e-10
1	0x2fc02b89	3.495553e-10
2	0x32d89491	2.521327e-08
3	0x32b20e71	2.0728494e-08
4	0x2dd071e9	2.3697449e-11
5	0x2dd3f423	2.4096341e-11
6	0x2fc8cfe1	3.6527495e-10
7	0x2f2ee36c	1.5906004e-10
8	0x320433f4	7.695224e-09
9	0x3212ff72	8.5564e-09
10	0x33b018f3	8.200177e-08
11	0x33afa593	8.17919e-08
12	0x311f712e	2.320188e-09
13	0x314a04b3	2.939754e-09
14	0x335f0479	5.19253e-08
15	0x33886717	6.3517454e-08
16	0x3301e09d	3.0239438e-08
17	0x3313fb19	3.4454477e-08
18	0x3522afd4	6.0605566e-07
19	0x34d61297	3.9874132e-07
20	0x311f0571	2.3140638e-09
21	0x3119f142	2.240157e-09
22	0x33812c17	6.0150505e-08
23	0x33ae7672	8.1240515e-08
24	0x32d7a070	2.5102253e-08
25	0x32e797f4	2.696104e-08
26	0x3511d3f5	5.432515e-07
27	0x3447609e	1.8568468e-07
28	0x306c13bc	8.5884344e-10
29	0x304e68e7	7.509144e-10
30	0x3303839c	3.0620512e-08
31	0x330c031d	3.259912e-08
32	0x2f154b48	1.3578216e-10
33	0x300aa697	5.0440846e-10
34	0x3181cd69	3.7777466e-09
35	0x317bc471	3.6636971e-09
36	0x348eb0f5	2.6578314e-07
37	0x3489ce5c	2.5668385e-07
38	0x36386f50	2.748293e-06
39	0x35abb998	1.2794508e-06
40	0x329dfe27	1.839278e-08
41	0x32a74aa5	1.9475303e-08
42	0x34acce4d	3.21876e-07
43	0x33bd7a20	8.823213e-08
44	0x343672e7	1.6991872e-07
45	0x344f20ee	1.9290357e-07
46	0x35b11811	1.3194532e-06
47	0x356fab5f	8.9283816e-07
48	0x2e863384	6.1027655e-11
49	0x2e8cd405	6.404125e-11
50	0x309073b3	1.0510263e-09
51	0x3038c227	6.7214717e-10
52	0x314f22bd	3.014221e-09
53	0x3159bdb8	3.1685499e-09
54	0x33a93479	7.8792205e-08
55	0x338d4106	6.577652e-08
56	0x33dd4be3	1.0304918e-07
57	0x3400ccf8	1.1995496e-07
58	0x36047f4d	1.9743632e-06
59	0x352e7b35	6.499934e-07
60	0x2d9369f2	1.6759014e-11
61	0x2d94acaf	1.6902339e-11
62	0x308151c6	9.409227e-10
63	0x30a9a560	1.2343371e-09
64	0x312b208c	2.4902276e-09
65	0x311c022e	2.2702227e-09
66	0x33bcf36a	8.798709e-08
67	0x33c04bf2	8.954511e-08
68	0x34983f78	2.8358386e-07
69	0x34b14b6a	3.302369e-07
70	0x36b7b89a	5.4753154e-06
71	0x361834e9	2.2680563e-06
72	0x2dc6dc2a	2.2607766e-11
73	0x2dd30352	2.3989397e-11
74	0x2fb57e3a	3.3013398e-10
75	0x2f20aac7	1.4612588e-10
76	0x2f223d8a	1.4755677e-10
77	0x2ec09fb2	8.759517e-11
78	0x3175c6f5	3.5765286e-09
79	0x31c5b1b1	5.7536558e-09

exp_avg f4 [20]
0	0xb64f4b5a	-3.0889264e-06
1	0xb60b8b39	-2.0793652e-06
2	0x3302494f	3.0334657e-08
3	0x36b26b72	5.3173217e-06
4	0x38b087ed	8.417652e-05
5	0x368e6ed8	4.2448337e-06
6	0xb908f2ae	-0.00013060376
7	0x35ce98d5	1.5392676e-06
8	0x370c2e2c	8.3554005e-06
9	0x3802f231	3.1219974e-05
10	0x37a955cc	2.0186322e-05
11	0xb6ba95fb	-5.560692e-06
12	0xb690e18e	-4.3177924e-06
13	0xb7d9ccc0	-2.596376e-05
14	0xb8acea9a	-8.245297e-05
15	0xb593a141	-1.0999285e-06
16	0x364bdf9b	3.0379513e-06
17	0xb9358697	-0.00017311644
18	0xb6192e23	-2.2825632e-06
19	0xb534cdc0	-6.735463e-07

exp_avg_sq f4 [20]
0	0x31c97332	5.862966e-09
1	0x2ea406a8	7.459039e-11
2	0x32900d5f	1.6769887e-08
3	0x3233b226	1.0459678e-08
4	0x3408a393	1.2725495e-07
5	0x3273c82a	1.4189974e-08
6	0x33f38ac6	1.1340812e-07
7	0x31ed98bb	6.9149713e-09
8	0x3064dd44	8.3260354e-10
9	0x3501d862	4.8371123e-07
10	0x338fa8e0	6.6896746e-08
11	0x3483f8b2	2.45816e-07
12	0x2f741f5d	2.2202813e-10
13	0x32900d71	1.6769919e-08
14	0x34d46123	3.9558753e-07
15	0x2f6e2bcf	2.1661538e-10
16	0x32abbb5d	1.9992223e-08
17	0x3595481a	1.1122349e-06
18	0x2e9206d7	6.640526e-11
19	0x3067ef19	8.437709e-10

exp_avg f4 [10, 20]
0	0xb1c58fa4	-5.7497846e-09
1	0xb3025803	-3.034803e-08
2	0xb28a311b	-1.6087645e-08
3	0x33476b80	4.643107e-08
4	0xb2d59ba7	-2.4867246e-08
5	0x316b426a	3.4234753e-09
6	0x350c7740	5.2327596e-07
7	0xb234e097	-1.0528445e-08
8	0xb2cebff2	-2.4068843e-08
9	0xb404e1da	-1.2375622e-07
10	0x34c8b937	3.7387665e-07
11	0xb2875650	-1.5755319e-08
12	0xb2c9514e	-2.3436453e-08
13	0x346139eb	2.0975828e-07
14	0x3532a146	6.654485e-07
15	0xb2ac31e9	-2.0046132e-08
16	0xb2caf6db	-2.3628152e-08
17	0x355a3412	8.12871e-07
18	0xb20b46c0	-8.1069516e-09
19	0xb201bfc0	-7.552387e-09
20	0x35c585f7	1.4716633e-06
21	0x36ff18c7	7.6024767e-06
22	0x36afd927	5.2406863e-06
23	0xb64cddbf	-3.0527442e-06
24	0x381d5ff7	3.752109e-05
25	0x366970ed	3.4785437e-06
26	0xb91cd097	-0.00014955025
27	0x364cf51c	3.0541041e-06
28	0x36d850fb	6.446729e-06
29	0x379b5d93	1.8521014e-05
30	0xb84d4a5c	-4.894506e-05
31	0x369fe8c7	4.765668e-06
32	0x36c83fb0	5.9678787e-06
33	0xb880346a	-6.1132785e-05
34	0xb9333584	-0.00017090706
35	0x36a532f7	4.9233163e-06
36	0x36ba0d5b	5.5447867e-06
37	0xb95be2e7	-0.00020969995
38	0x360bee92	2.085148e-06
39	0x3621e19f	2.4122198e-06
40	0x313abc93	2.7173754e-09
41	0x33860bcd	6.242008e-08
42	0x333c9154	4.3904336e-08
43	0xb3f424e7	-1.1368848e-07
44	0x35a22255	1.2079933e-06
45	0xb2b6770a	-2.1241721e-08
46	0xb5e9a002	-1.7406421e-06
47	0x323db332	1.1041992e-08
48	0x34b71cb0	3.410728e-07
49	0x34ed6fe3	4.4226098e-07
50	0xb4a8135c	-3.1306524e-07
51	0x334e5ad5	4.8045724e-08
52	0x333f5962	4.4551946e-08
53	0xb53435c8	-6.713349e-07
54	0xb5c4f6b7	-1.4674941e-06
55	0x331da3a4	3.670324e-08
56	0x332d169a	4.0300257e-08
57	0xb5fa4153	-1.8645463e-06
58	0x32696251	1.35847396e-08
59	0x32ac3e8d	2.005188e-08
60	0x362f783c	2.6147018e-06
61	0x37584842	1.2891427e-05
62	0x36d19b02	6.2467307e-06
63	0xb79fa382	-1.9030416e-05
64	0xb536a14d	-6.8035007e-07
65	0xb5b55737	-1.3510934e-06
66	0xb956ec4e	-0.0002049666
67	0x36939356	4.3980936e-06
68	0x37211e9e	9.603476e-06
69	0x3820bb97	3.832168e-05
70	0xb93025e6	-0.00016798786
71	0x36d1b8bf	6.2501927e-06
72	0x3728ad04	1.0053864e-05
73	0xb8ad469f	-8.262437e-05
74	0xb98bdc36	-0.00026676216
75	0x37101e2e	8.590096e-06
76	0x3726359e	9.906855e-06
77	0xb9aa9053	-0.00032532457
78	0x36713e5f	3.5948103e-06
79	0x36480043	2.9802475e-06
80	0xb24172dd	-1.1260195e-08
81	0xb37fd50d	-5.9565583e-08
82	0xb30d1412	-3.2847375e-08
83	0x33c61ed9	9.2257046e-08
84	0xb3597c51	-5.0637315e-08
85	0x31dade31	6.3698953e-09
86	0x358f4840	1.0675358e-06
87	0xb2b4577d	-2.0994543e-08
88	0xb349257e	-4.683306e-08
89	0xb4842e29	-2.4620502e-07
90	0x353e4412	7.087957e-07
91	0xb308b120	-3.1826062e-08
92	0xb345894f	-4.599252e-08
93	0x34e241b4	4.2143586e-07
94	0x35b4ac91	1.3461269e-06
95	0xb3293b3d	-3.9402256e-08
96	0xb340e607	-4.4912692e-08
97	0x35db2f22	1.6330489e-06
98	0xb286451e	-1.5631084e-08
99	0xb2841c06	-1.5379566e-08
100	0x303f2077	6.953153e-10
101	0x319d37f4	4.5756625e-09
102	0x31bb9ae4	5.4600253e-09
103	0xb1e815a4	-6.754549e-09
104	0x3327049e	3.8886917e-08
105	0x30014f25	4.70424e-10
106	0xb42777bf	-1.559665e-07
107	0x31236600	2.3777602e-09
108	0x31a87add	4.9034115e-09
109	0x3326ce1c	3.8837342e-08
110	0x32620ca2	1.3157804e-08
111	0x31982fa4	4.4291983e-09
112	0x316eb749	3.4737744e-09
113	0xb3756be4	-5.7141634e-08
114	0xb4379a20	-1.7099273e-07
115	0x314a76d3	2.9462413e-09
116	0x310e00c1	2.0664148e-09
117	0xb4540698	-1.9746437e-07
118	0x304d4e84	7.4690143e-10
119	0x3125f31f	2.4148858e-09
120	0xb0211453	-5.860034e-10
121	0x32e3608f	2.6470188e-08
122	0x3389e172	6.420568e-08
123	0xb321756d	-3.759253e-08
124	0x357448a8	9.100281e-07
125	0x32002744	7.459509e-09
126	0xb5ec85b9	-1.7622289e-06
127	0x32a4d140	1.9187269e-08
128	0x336dabce	5.5337118e-08
129	0x350bb7cc	5.2048995e-07
130	0x35722c9e	9.021695e-07
131	0x3352f114	4.9113694e-08
132	0x329c3f73	1.8189644e-08
133	0xb52f1c79	-6.5234013e-07
134	0xb5db134c	-1.6322388e-06
135	0x3274f68a	1.4258726e-08
136	0x31eb8246	6.8542105e-09
137	0xb5ff737d	-1.9032592e-06
138	0xb016463a	-5.466948e-10
139	0x32eb29a4	2.7376537e-08
140	0x3235965a	1.0569773e-08
141	0x339a8077	7.1945514e-08
142	0x339247cc	6.8117146e-08
143	0xb3e84686	-1.081617e-07
144	0x35144b3f	5.5243794e-07
145	0xb0a2613b	-1.1814686e-09
146	0xb60797b9	-2.0204882e-06
147	0x33066392	3.1289865e-08
148	0x33a411f9	7.640114e-08
149	0x350f8c50	5.347583e-07
150	0xb430532e	-1.6421538e-07
151	0x337a8844	5.8331594e-08
152	0x3369596e	5.4330876e-08
153	0xb54fb466	-7.7376023e-07
154	0xb6154388	-2.2242039e-06
155	0x3344d69f	4.5830003e-08
156	0x334875b9	4.6673197e-08
157	0xb631dbe6	-2.6503053e-06
158	0x327a867e	1.4582495e-08
159	0x330266b1	3.036138e-08
160	0x35c36f41	1.4561011e-06
161	0x36e66e6d	6.8673894e-06
162	0x364f561c	3.0895526e-06
163	0xb7227c4e	-9.684894e-06
164	0xb59e9c52	-1.1817413e-06
165	0xb539d04b	-6.9220977e-07
166	0xb8d2672b	-0.00010032797
167	0x3618d511	2.2773786e-06
168	0x36a7bcaf	4.9989535e-06
169	0x3772548b	1.4444008e-05
170	0xb8c1c250	-9.239151e-05
171	0x36545e99	3.1645525e-06
172	0x36b5211f	5.398076e-06
173	0xb82bc7ff	-4.0955838e-05
174	0xb90bd6b0	-0.0001333605
175	0x369a3730	4.5959823e-06
176	0x36b4d42b	5.3891176e-06
177	0xb92b2732	-0.00016322432
178	0x36054c38	1.986291e-06
179	0x35c90d56	1.4979548e-06
180	0xb6437ec2	-2.9131047e-06
181	0xb68959b7	-4.0933623e-06
182	0xb671c766	-3.6027864e-06
183	0xb65c3dbd	-3.281849e-06
184	0x38f639e2	0.000117409756
185	0xb6a45890	-4.897891e-06
186	0x3792db08	1.750655e-05
187	0xb69d7b19	-4.693295e-06
188	0xb5f836f5	-1.8493434e-06
189	0x37354cfe	1.0806367e-05
190	0x3512ceb9	5.469006e-07
191	0xb59a63a3	-1.1502892e-06
192	0xb690aafa	-4.3114387e-06
193	0x36c9ff50	6.019989e-06
194	0x38fd989c	0.00012092406
195	0xb66fb136	-3.5716926e-06
196	0xb5bfc1f4	-1.4287057e-06
197	0x38f63047	0.000117391864
198	0xb5eb2124	-1.751851e-06
199	0xb5dbf5d8	-1.6388321e-06

exp_avg_sq f4 [10, 20]
0	0x2c154d77	2.1217175e-12
1	0x2cebecbc	6.7053845e-12
2	0x2d935fa2	1.6754435e-11
3	0x2c95ebdd	4.261021e-12
4	0x3299eb1e	1.7918463e-08
5	0x2d03523a	7.464746e-12
6	0x2feb7efd	4.2836482e-10
7	0x2cbfabe8	5.447632e-12
8	0x2b6b4f8b	8.359916e-13
9	0x3188c59d	3.980587e-09
10	0x304f82cd	7.549204e-10
11	0x303d46a8	6.885821e-10
12	0x2ca3d25b	4.656093e-12
13	0x311a7695	2.2477356e-09
14	0x30703a13	8.739402e-10
15	0x2c25fae3	2.358718e-12
16	0x2f495fc4	1.8314866e-10
17	0x30ab27b9	1.2453177e-09
18	0x2bea5122	1.6649219e-12
19	0x2bf18606	1.7161279e-12
20	0x32168e31	8.76348e-09
21	0x30440e49	7.1324685e-10
22	0x30dd8d95	1.6120106e-09
23	0x3181e0bf	3.779945e-09
24	0x35cb15b8	1.5131e-06
25	0x310f44a1	2.084825e-09
26	0x3541df00	7.222261e-07
27	0x3082e483	9.523692e-10
28	0x2e9a9fc4	7.031489e-11
29	0x35b36642	1.33663e-06
30	0x345a85bf	2.0351489e-07
31	0x33bb49b0	8.72127e-08
32	0x303b1a46	6.806754e-10
33	0x35e1250c	1.6774588e-06
34	0x35337303	6.685006e-07
35	0x302d4ec5	6.304897e-10
36	0x33e370f7	1.05910594e-07
37	0x34ce094b	3.8377252e-07
38	0x2f06e8fe	1.2270004e-10
39	0x2eef0f54	1.08711845e-10
40	0x321a1d89	8.970695e-09
41	0x2facd072	3.1434727e-10
42	0x30e0746d	1.6331235e-09
43	0x2f980afb	2.765644e-10
44	0x35daef27	1.6311868e-06
45	0x3001a549	4.716481e-10
46	0x34e30fd8	4.2293573e-07
47	0x2f312536	1.6111276e-10
48	0x2da76947	1.9032454e-11
49	0x35d145da	1.5592043e-06
50	0x33b57fbf	8.451706e-08
51	0x33f25d15	1.1285935e-07
52	0x300d195c	5.133154e-10
53	0x3605c4fb	1.9933202e-06
54	0x3527de79	6.253609e-07
55	0x301ef932	5.7834193e-10
56	0x3418c7d8	1.4228806e-07
57	0x3492e53f	2.7361418e-07
58	0x2e676160	5.2609805e-11
59	0x300115e0	4.6961013e-10
60	0x30169e59	5.479471e-10
61	0x31212849	2.3451483e-09
62	0x335ae069	5.096118e-08
63	0x33b9cf64	8.652458e-08
64	0x35bf8803	1.4270194e-06
65	0x32cab118	2.3596428e-08
66	0x361ef673	2.3687287e-06
67	0x32179394	8.822912e-09
68	0x2fa13c22	2.9328456e-10
69	0x35435e55	7.278043e-07
70	0x35bc85df	1.4046053e-06
71	0x32f0e558	2.804397e-08
72	0x30cf0218	1.5061827e-09
73	0x352fd14b	6.549714e-07
74	0x354c2d65	7.606198e-07
75	0x309049a4	1.0498309e-09
76	0x3285c40f	1.5572395e-08
77	0x35473c8c	7.4221384e-07
78	0x2fe7b569	4.2147555e-10
79	0x31a2744f	4.7280433e-09
80	0x323682b3	1.0623512e-08
81	0x2ecf2088	9.419049e-11
82	0x30c08ebe	1.4010408e-09
83	0x2ee7c160	1.0539014e-10
84	0x34db29bb	4.0822292e-07
85	0x2e9226e7	6.646222e-11
86	0x346db63b	2.213864e-07
87	0x2d5d084f	1.25642404e-11
88	0x2be6ed19	1.6408291e-12
89	0x353a159f	6.932186e-07
90	0x330d09b8	3.283796e-08
91	0x32ba2591	2.1670333e-08
92	0x2fdb9ca6	3.9947173e-10
93	0x358da39b	1.0552934e-06
94	0x34bf59ee	3.5641955e-07
95	0x2ffeb0b1	4.6327878e-10
96	0x337ca257	5.882097e-08
97	0x339b5977	7.2340235e-08
98	0x2da295cc	1.8483791e-11
99	0x2cd79310	6.1269947e-12
100	0x2bd4d566	1.5122736e-12
101	0x2c8308b5	3.7242106e-12
102	0x2e6e6dbb	5.4212395e-11
103	0x2c26d4e3	2.3708195e-12
104	0x327ad292	1.4599793e-08
105	0x2c7e0392	3.6097553e-12
106	0x31052c2e	1.937916e-09
107	0x2c03cba1	1.8729256e-12
108	0x2aabdd51	3.052927e-13
109	0x3206bff2	7.84347e-09
110	0x31744084	3.5543346e-09
111	0x2ee9f5d2	1.063928e-10
112	0x2bd7a1e0	1.5321598e-12
113	0x31d9d2eb	6.33951e-09
114	0x3104e334	1.9337678e-09
115	0x2ba11be7	1.1447483e-12
116	0x2e845abe	6.018784e-11
117	0x30d0c74f	1.5190639e-09
118	0x2b2c34e4	6.1180076e-13
119	0x2b8a5c5c	9.831125e-13
120	0x3087c73f	9.879172e-10
121	0x2bf13c31	1.7140786e-12
122	0x2c5636ed	3.044172e-12
123	0x2c32e524	2.542252e-12
124	0x32b093d6	2.0556325e-08
125	0x2c2d8693	2.4659482e-12
126	0x30eeefc8	1.7384929e-09
127	0x2b2fdb70	6.247702e-13
128	0x28d1192f	2.3214583e-14
129	0x32e1d4a7	2.629015e-08
130	0x2e811801	5.870505e-11
131	0x30cbd53d	1.48308e-09
132	0x2f695443	2.1221162e-10
133	0x33326b8a	4.154166e-08
134	0x32801a8a	1.491323e-08
135	0x2f8a9e1a	2.5214392e-10
136	0x32063714	7.81235e-09
137	0x319bc62b	4.533623e-09
138	0x2a7acf42	2.2276367e-13
139	0x2aa206f6	2.878181e-13
140	0x3183f5fc	3.840567e-09
141	0x2f75c939	2.2354109e-10
142	0x31b7be27	5.347619e-09
143	0x31a21c81	4.718061e-09
144	0x355f8ae9	8.3276115e-07
145	0x320a6275	8.055044e-09
146	0x34d9099c	4.0426391e-07
147	0x31410327	2.8086988e-09
148	0x2d8b2eb2	1.5823207e-11
149	0x353c7335	7.0203106e-07
150	0x348ac82d	2.585015e-07
151	0x336e468e	5.5477862e-08
152	0x2fb45af4	3.2806435e-10
153	0x35717195	8.994478e-07
154	0x34969148	2.8045383e-07
155	0x2fc7962c	3.6304593e-10
156	0x33883305	6.342274e-08
157	0x34114b03	1.3531466e-07
158	0x2e2fc249	3.9962953e-11
159	0x31101966	2.0969195e-09
160	0x31ca3f8d	5.8861986e-09
161	0x30a3158b	1.1865934e-09
162	0x334269a5	4.5265228e-08
163	0x33926a2f	6.8179695e-08
164	0x35cbee50	1.5194037e-06
165	0x330d701b	3.293108e-08
166	0x36025270	1.9419494e-06
167	0x32bff9c8	2.2348914e-08
168	0x2eff8140	1.1619017e-10
169	0x35b58fc2	1.352739e-06
170	0x35977347	1.1283927e-06
171	0x33b497e2	8.4095305e-08
172	0x30465419	7.215149e-10
173	0x35e892ba	1.732805e-06
174	0x3544a3db	7.325413e-07
175	0x301eddd1	5.7795285e-10
176	0x33c6f011	9.263761e-08
177	0x34e9357f	4.3438556e-07
178	0x2f74f3bb	2.2278261e-10
179	0x32afdfba	2.047442e-08
180	0x3232d04d	1.0408326e-08
181	0x3003b766	4.791815e-10
182	0x31d9a520	6.3343037e-09
183	0x32d5516e	2.4833493e-08
184	0x35d4c93b	1.5853797e-06
185	0x3195c6a5	4.359054e-09
186	0x35778a6e	9.221611e-07
187	0x32486d5b	1.1666397e-08
188	0x2f30676e	1.6043852e-10
189	0x35cba1ca	1.5171765e-06
190	0x34aaaac4	3.1789216e-07
191	0x33a50b00	7.685412e-08
192	0x2fe1c33d	4.1065987e-10
193	0x3607c4bf	2.023109e-06
194	0x35369ffd	6.8033097e-07
195	0x2fd771dc	3.9189174e-10
196	0x33e43201	1.0626173e-07
197	0x3497cb7c	2.8273996e-07
198	0x2ede967d	1.0122123e-10
199	0x3247499c	1.1600061e-08

exp_avg f4 [10]
0	0x36152392	2.2223435e-06
1	0xba182d4b	-0.0005805089
2	0xb6a4b125	-4.908203e-06
3	0xba6ecb1d	-0.0009109246
4	0x3693d66d	4.405904e-06
5	0xb4f154c0	-4.4951412e-07
6	0xb6832c68	-3.909274e-06
7	0xb6d823f1	-6.4414858e-06
8	0xb9f6722b	-0.00047005838
9	0x39acc002	0.00032949453

exp_avg_sq f4 [10]
0	0x32b634f3	2.1211667e-08
1	0x36359c31	2.7062017e-06
2	0x35a94327	1.2611025e-06
3	0x37042106	7.875502e-06
4	0x3500c14d	4.7965005e-07
5	0x324f62b0	1.2071425e-08
6	0x3224350f	9.5581205e-09
7	0x3566e455	8.6013944e-07
8	0x368ec364	4.2546762e-06
9	0x3613fe13	2.2052598e-06

exp_avg f4 [2, 10]
0	0xb7305c21	-1.0511868e-05
1	0x39d9fbcd	0.00041577072
2	0xb70bd94c	-8.335639e-06
3	0x3a9f18b5	0.00121381
4	0xb6514429	-3.1183101e-06
5	0xb724898f	-9.80719e-06
6	0xb6e1219b	-6.7094347e-06
7	0xb6e41aa0	-6.798029e-06
8	0x39d96bbb	0.0004146973
9	0xb934af8a	-0.00017231531
10	0xb72f1bbf	-1.0437273e-05
11	0x399f9e83	0.00030444944
12	0xb69e1056	-4.7106687e-06
13	0x3a97c028	0.0011577653
14	0xb6c5e417	-5.8976107e-06
15	0xb71e6eb0	-9.443305e-06
16	0xb6fafaba	-7.479769e-06
17	0xb6a11890	-4.8010334e-06
18	0x39bc7869	0.00035947867
19	0x36f458ee	7.2821194e-06

exp_avg_sq f4 [2, 10]
0	0x3217b9dc	8.831616e-09
1	0x3629b64e	2.5289078e-06
2	0x3503f313	4.915502e-07
3	0x372c93e6	1.0286434e-05
4	0x3134ce97	2.631088e-09
5	0x3286eca1	1.570726e-08
6	0x30a75dd5	1.2177518e-09
7	0x34cb41bf	3.7859533e-07
8	0x3619cce4	2.2918039e-06
9	0x34dacf07	4.0756296e-07
10	0x324227a6	1.1301301e-08
11	0x36bc50a2	5.6122235e-06
12	0x35b67798	1.3594863e-06
13	0x372393b2	9.749945e-06
14	0x34d62ad5	3.989177e-07
15	0x326601ca	1.3388169e-08
16	0x31396283	2.697704e-09
17	0x35bc1ed0	1.4016059e-06
18	0x36b20a1d	5.3059907e-06
19	0x36b30292	5.334915e-06

exp_avg f4 [2]
0	0x3b53b9d6	0.0032306812
1	0x3b616589	0.0034392795

exp_avg_sq f4 [2]
0	0x3904123e	0.00012595297
1	0x390ef3e6	0.00013633035
