neural_network/lightning_logs/version_30/checkpoints/epoch=0-step=1875.ckpt (torch, 13835 bytes, 18 tensors)

layers.0.weight f4 [20, 4]
-0.59663874 -0.04727334 0.0012373579 -0.25238258 0.19492635 0.57314354 -0.45228514 -0.027888652
-0.6484837 -0.60756195 -0.31015676 -0.0221116 -0.3815769 0.5884755 -0.33452424 -0.41131535
1.042144 -0.75574917 0.22081913 -0.0037814605 -0.13733892 -0.21789728 -0.12362732 0.13006939
0.25453955 0.3230543 0.2344313 0.028580092 -0.4026128 -0.18687361 -0.21264507 -0.21455261
-0.5222547 -0.17125247 -0.004426941 0.28622448 0.98403394 -0.08362775 -0.055063616 -0.013745418
0.22373007 0.124039605 -0.47520888 0.29828414 -0.43900314 -0.24684507 0.25805527 0.0014322078
0.8521218 -0.23905386 0.20938347 0.0075860624 0.120104685 -0.17705835 -0.17332906 0.023041854
-0.5143623 -0.18504909 -0.08748229 -0.047355555 0.2659682 -0.086119294 -0.35629693 0.011193758
-0.964934 -0.49808893 -0.20715827 0.040015116 -0.5007446 -0.4891513 -0.03162893 0.19098163
0.5509759 -0.060385033 0.033920765 -0.003910734 -0.6243064 0.0020259183 -0.21931754 0.0031613405
00000000: 51bd 18bf b1a1 41bd d72e a23a 4a38 81be
00000010: c69a 473e 89b9 123f eb91 e7be be76 e4bc
00000020: 0703 26bf 2e89 1bbf decc 9ebe 6323 b5bc
00000030: 0c5e c3be 55a6 163f c346 abbe ed97 d2be
00000040: f964 853f c778 41bf 691e 623e 61d2 77bb
00000050: 93a2 0cbe 7720 5fbe 5230 fdbd e930 053e
00000060: 0253 823e 6067 a53e c20e 703e cc20 ea3c
00000070: 4423 cebe cc5b 3fbe a1bf 59be aeb3 5bbe
00000080: 7cb2 05bf cf5c 2fbe df0f 91bb 048c 923e
00000090: a6e9 7b3f 0745 abbd 638a 61bd 7634 61bc
000000a0: 7f19 653e 7a08 fe3d 944e f3be b3b8 983e
000000b0: 05c5 e0be f4c4 7cbe d21f 843e ebb8 bb3a
000000c0: a724 5a3f 89ca 74be 9f68 563e 8194 f83b
000000d0: 72f9 f53d c94e 35be 2c7d 31be 45c2 bc3c
000000e0: 3fad 03bf 827d 3dbe ea29 b3bd e6f7 41bd
000000f0: fc2c 883e 505f b0bd 8d6c b6be 0666 373c
00000100: ea05 77bf 8305 ffbe 4c21 54be e4e6 233d
00000110: cc30 00bf 0a72 fabe 568d 01bd b090 433e
00000120: c20c 0d3f 4c56 77bd 80f0 0a3d 9d25 80bb
00000130: 8bd2 1fbf 45c5 043b c794 60be 7e2e 4f3b

layers.0.bias f4 [20]
-0.2786241 0.54265827 0.47790325 -0.109667 -0.5706238 0.17916164 -0.76415265 -0.254931
-0.4972524 -0.12910101 -0.031650268 -0.22122334 -0.79337627 0.040796086 0.06026814 0.15334669
0.23832852 -0.38015503 -0.19676723 0.19244267
00000000: d1a7 8ebe a7eb 0a3f bcaf f43e 1899 e0bd
00000010: 6714 12bf 2676 373e 829f 43bf 5186 82be
00000020: de97 febe 0e33 04be b6a3 01bd 5f88 62be
00000030: b51a 4bbf cc19 273d badb 763d ea06 1d3e
00000040: 640c 743e aea3 c2be 597d 49be b10f 453e

layers.2.weight f4 [10, 20]
-0.065766595 0.10277622 0.16215722 -0.25385508 -0.5682042 -0.0066643907 -0.3168435 -0.06600456
0.12741823 -0.11051478 -0.097354196 -0.15143096 -0.46916687 0.08032278 0.11922092 0.2716202
-0.020428829 -0.03920778 -0.15756002 0.058889095 -0.042658463 -0.20241006 -0.0007068412 -0.26521495
0.41940922 0.07639545 0.041028302 0.00530118 0.124452025 -0.019336527 0.11222909 -0.01767903
0.08683893 -0.042849217 -0.07794878 0.025590777 0.10855914 -0.077342324 0.05564889 -0.07452149
-0.18690045 0.13445066 -0.019243788 -0.3465118 -0.5438543 0.043038074 -0.19659716 0.1359994
-0.08388064 0.1531894 0.28463516 -0.062435765 -0.18650031 0.04956198 -0.035088345 0.10969032
0.0065476047 0.047887392 0.008736671 0.11939353 -0.09311437 0.21877109 0.26143292 -0.19599892
-1.8338463 -0.569337 -0.57169676 0.02927375 -0.11758874 -0.3838076 0.22320609 0.15222853
-0.29318157 0.4361289 0.55135024 0.53347504 0.6274056 -0.15129268 -0.3070725 0.44903892
0.06020103 -0.19201697 0.3437524 -0.16270643 0.017156426 0.03964335 -0.24225599 0.09783775
0.18509668 -0.3783763 -0.17756376 0.2201889 0.20992614 -0.047667827 0.32267514 -0.14063154
0.3918431 -0.007871907 -0.081151426 0.16252509 0.07086524 0.052305944 0.15083095 -0.3649996
-0.18698147 1.0114769 0.014553741 -0.13801092 -0.37879798 0.08045124 -0.23635049 -0.06527653
0.067706406 -0.042427886 0.090556346 0.29546154 0.38006002 0.09823272 -0.30184323 0.30651566
0.09451212 -0.1494661 0.2627465 -0.2492066 -0.08703333 -0.12630078 0.058922622 0.02445953
-0.11217693 -0.17760508 0.058905102 0.071147926 -0.35514277 0.003907295 0.036316425 0.23220833
0.10022652 -0.07917688 -0.24129395 0.08986207 -0.11754183 0.14942804 0.042263057 -0.08657493
0.21439897 0.016085463 0.13543183 0.026448218 0.07783911 -0.16144872 0.06405121 0.08766844
0.014327853 0.22026989 0.0047162995 0.056757845 0.11887932 0.22671129 -0.20624425 0.07386829
-0.091165766 -0.18682818 -0.22622478 -0.113242835 0.5132928 -0.103452 0.086950056 0.11349391
-0.15204634 0.1611903 -0.25197914 0.00427684 0.40391034 -0.055572186 0.082471065 -0.09181645
-0.25686812 0.087876804 0.12905115 -0.26920173 -0.12737522 -0.030016227 0.2076537 0.031197231
0.07809676 -0.06678968 -0.026081353 0.051211204 0.004706709 -0.07775052 -0.0054047573 0.11524524
0.004207241 0.27572146 -0.07411551 -0.12234778 -0.08914659 0.15375309 0.13667963 -0.040619075
00000000: a3b0 86bd 577c d23d 8b0c 263e 4bf9 81be
00000010: d575 11bf f660 dabb 5039 a2be 662d 87bd
00000020: ed79 023e 9355 e2bd a361 c7bd b810 1bbe
00000030: a436 f0be 4580 a43d 192a f43d ce11 8b3e
00000040: 5c5a a7bc 5698 20bd 6a57 21be b135 713d
00000050: a4ba 2ebd 9544 4fbe 4f4b 39ba 41ca 87be
00000060: cebc d63e 3875 9c3d 4b0d 283d 85b5 ad3b
00000070: b4e0 fe3d a367 9ebc 5dd8 e53d 9dd3 90bc
00000080: 9cd8 b13d a982 2fbd 9ca3 9fbd c0a3 d13c
00000090: 4154 de3d a765 9ebd 17f0 633d b99e 98bd
000000a0: d562 3fbe 6fad 093e 26a5 9dbc ff69 b1be
000000b0: 093a 0bbf b148 303d c450 49be 6d43 0b3e
000000c0: 9dc9 abbd afdd 1c3e b3bb 913e a5bc 7fbd
000000d0: f0f9 3ebe 8101 4b3d ccb8 0fbd 52a5 e03d
000000e0: 4a8d d63b 9225 443d 4124 0f3c 9884 f43d
000000f0: bfb2 bebd 8705 603e 89da 853e f1b3 48be
00000100: 7abb eabf 12c0 11bf b85a 12bf 81cf ef3c
00000110: 5ed2 f0bd 6e82 c4be 2390 643e cce1 1b3e
00000120: e51b 96be 4a4c df3e 4a25 0d3f d291 083f
00000130: a79d 203f 78ec 1abe 9b38 9dbe 6ee8 e53e
00000140: 5b95 763d 19a0 44be 5100 b03e 849c 26be
00000150: a28b 8c3c 1161 223d f411 78be 295f c83d
00000160: fc89 3d3e 8aba c1be 46d3 35be 3379 613e
00000170: e1f6 563e 573f 43bd ad35 a53e b701 10be
00000180: a99f c83e 2cf9 00bc b832 a6bd fa6c 263e
00000190: cc21 913d c23e 563d 6e73 1a3e 3ae1 babe
000001a0: 1278 3fbe 1378 813f d072 6e3c bc52 0dbe
000001b0: cff1 c1be 9fc3 a43d dd05 72be b4af 85bd
000001c0: a8a9 8a3d ddc8 2dbd 9b75 b93d bc46 973e
000001d0: 3a97 c23e 3c2e c93d 328b 9abe 9fef 9c3e
000001e0: 928f c13d a40d 19be b686 863e 0430 7fbe
000001f0: 883e b2bd fe54 01be d958 713d 5a5f c83c
00000200: 05bd e5bd 1bde 35be 7a46 713d 01b6 913d
00000210: 46d5 b5be c408 803b 88c0 143d 05c8 6d3e
00000220: 9043 cd3d 7d27 a2bd c315 77be 9b09 b83d
00000230: c5b9 f0bd aa03 193e 071c 2d3d 324e b1bd
00000240: 678b 5b3e a9c5 833c a4ae 0a3e efa9 d83c
00000250: 1c6a 9f3d d052 25be 482d 833d 838b b33d
00000260: 5fbf 6a3c 6e8e 613e 308b 9a3b ea7a 683d
00000270: 0077 f33d 0127 683e b131 53be 4248 973d
00000280: 1eb5 babd e34f 3fbe 78a7 67be dceb e7bd
00000290: 2867 033f a4de d3bd df12 b23d 7f6f e83d
000002a0: 09b2 1bbe 120f 253e 6903 81be bc24 8c3b
000002b0: 56cd ce3e a99f 63bd 97e6 a83d 430a bcbd
000002c0: 3884 83be c1f8 b33d fc25 043e cfd4 89be
000002d0: a66e 02be 97e4 f5bc 2ca3 543e 5691 ff3c
000002e0: 32f1 9f3d 07c9 88bd 90a8 d5bc d7c2 513d
000002f0: bd3a 9a3b aa3b 9fbd 641a b1bb b205 ec3d
00000300: e5dc 893b 5d2b 8d3e dfc9 97bd 7991 fabd
00000310: 7d92 b6bd 7371 1d3e bff5 0b3e 3060 26bd

layers.2.bias f4 [10]
-0.07154598 0.06646312 -0.13196981 -0.23339562 0.07456828 -0.26955518 -0.0444385 -0.023485648
-0.34226975 -0.17386016
00000000: b386 92bd d11d 883d 1823 07be 43ff 6ebe
00000010: 41b7 983d 2303 8abe 2505 36bd f964 c0bc
00000020: fb3d afbe 6608 32be

layers.4.weight f4 [2, 10]
-0.13913961 -0.05832013 -0.09490301 -0.12867545 -0.000717204 -0.20149268 -0.25001588 0.016144127
0.04319763 0.17741801 -0.28180903 0.16204807 -0.1937001 -0.7016992 -0.17289771 -0.114734925
-0.11349298 0.008239359 0.29332078 0.076908484
00000000: 9d7a 0ebe 17e1 6ebd 825c c2bd 7fc3 03be
00000010: bf02 3cba 1954 4ebe 1502 80be b040 843c
00000020: 00f0 303d 11ad 353e 4649 90be eeef 253e
00000030: 5259 46be 8fa2 33bf 190c 31be 25fa eabd
00000040: 026f e8bd 60fe 063c 242e 963e 3282 9d3d

layers.4.bias f4 [2]
0.0052860263 0.037775606
00000000: 6736 ad3b 98ba 1a3d

exp_avg f4 [20, 4]
6.189147e-08 -3.598485e-07 -1.8844642e-06 3.40639e-06 0.0001281756 8.696103e-05 0.0002359292 0.000259136
8.61923e-07 6.8530693e-07 8.298146e-07 9.007836e-07 -2.0704503e-05 -1.9140778e-05 -8.120892e-05 0.000100076584
-0.00020098513 -0.00011339646 -9.4379255e-05 -0.0004991126 -3.989007e-06 -2.479668e-06 -7.1357376e-06 -1.4911572e-05
-5.5675522e-05 -5.8414345e-05 -0.00013646779 -0.00013381106 -4.0496232e-07 -2.587478e-07 -6.571044e-07 -4.5630787e-07
-9.0919673e-07 -1.0538255e-06 -8.057252e-06 -1.1195197e-05 -5.7965808e-05 -4.2501877e-05 -9.201919e-05 -2.6894908e-05
-5.691281e-07 -2.1385779e-07 -6.6630464e-06 -1.3537086e-05 6.1534683e-07 2.8263087e-06 -3.9168463e-05 -1.9912186e-06
-0.00013598026 -8.979995e-05 -0.00017046736 -0.00021540964 2.4386478e-07 1.444786e-07 1.9486237e-07 7.5912953e-07
-1.051094e-07 4.0299255e-08 -6.916667e-07 5.901711e-07 3.1031922e-07 1.7292598e-07 5.9350793e-07 -1.6487036e-07
8.674135e-07 6.7074694e-07 1.0597104e-06 -1.2413277e-07 -2.6526217e-07 -1.877588e-07 -7.9468765e-07 1.5887264e-07
-5.6753976e-05 -4.2499032e-05 -6.78653e-05 -0.00010324992 1.1836827e-06 9.104834e-07 2.2459026e-06 3.7565949e-06
00000000: 32e9 8433 3431 c1b4 b2ed fcb5 5699 6436
00000010: e066 0639 d95e b638 c363 7739 a5dc 8739
00000020: e65e 6735 eff5 3735 6dc0 5e35 61cd 7135
00000030: 95ae adb7 8290 a0b7 b54e aab8 35e0 d138
00000040: 89bf 52b9 43cf edb8 7aed c5b8 e1d6 02ba
00000050: 4fd9 85b6 5f68 26b6 856f efb6 b72c 7ab7
00000060: 2385 69b8 ed01 75b8 cb18 0fb9 a24f 0cb9
00000070: 9969 d9b4 07ea 8ab4 df63 30b5 7afa f4b4
00000080: 860f 74b5 2b71 8db5 a22d 07b7 01d3 3bb7
00000090: 5020 73b8 0b44 32b8 6dfa c0b8 609c e1b7
000000a0: 2fc6 18b5 c8a0 65b4 2293 dfb6 571d 63b7
000000b0: 502e 2535 9dab 3d36 d148 24b8 e0a0 05b6
000000c0: ec95 0eb9 fb52 bcb8 7cbf 32b9 96df 61b9
000000d0: 85ec 8234 fa21 1b34 5c3b 5134 fcc6 4b35
000000e0: 81b8 e1b3 8015 2d33 f9aa 39b5 406c 1e35
000000f0: f399 a634 88ad 3934 8e51 1f35 3807 31b4
00000100: 34d8 6835 610d 3435 5f3b 8e35 5b49 05b4
00000110: 5b69 8eb4 bf9a 49b4 8552 55b5 9496 2a34
00000120: 1e0b 6eb8 fd40 32b8 e852 8eb8 e187 d8b8
00000130: 07df 9e35 f167 7435 50b8 1636 cf19 7c36

exp_avg_sq f4 [20, 4]
2.155338e-09 2.2805167e-09 3.4244387e-08 3.1089264e-08 4.1438856e-08 3.53354e-08 2.6588086e-07 1.3869861e-07
6.7370736e-12 5.7185506e-12 2.1108175e-10 2.3583982e-10 1.9523393e-08 2.1276362e-08 2.17074e-07 1.7455183e-07
4.5252673e-07 2.9774122e-07 2.9491898e-06 1.4578043e-06 4.612126e-09 3.8487062e-09 1.0065333e-07 6.7246035e-08
1.338967e-08 1.4996466e-08 1.8693622e-07 6.107171e-08 1.9297149e-10 2.0155545e-10 3.7724006e-09 4.585877e-09
4.9256554e-10 5.6348926e-10 1.0558245e-08 9.806315e-09 8.42203e-08 7.419949e-08 1.002266e-06 4.133875e-07
2.6641247e-08 2.3730077e-08 1.990037e-07 2.0200967e-07 1.0484401e-08 1.07397184e-08 2.310257e-07 8.246371e-08
1.10169964e-07 6.545088e-08 5.9812413e-07 3.246203e-07 3.7997973e-12 3.5810172e-12 5.7724422e-11 2.3998728e-11
2.553212e-10 2.324906e-10 1.1905015e-08 1.1655484e-08 2.438561e-11 1.4133156e-11 2.1415318e-10 3.225816e-10
8.271218e-12 7.0303624e-12 1.5796257e-10 1.29625e-10 2.1128328e-10 1.7454745e-10 4.0234096e-09 4.8292597e-09
4.9465804e-08 4.032288e-08 5.311816e-07 2.1592308e-07 1.183049e-11 9.031527e-12 1.3731821e-10 8.592909e-11
00000000: 1b1d 1431 46b7 1c31 1a14 1333 0287 0533
00000010: 81fa 3133 afc3 1733 63be 8e34 2fed 1434
00000020: 2a0a ed2c 2034 c92c 3b16 682f 81a7 812f
00000030: 65b4 a732 37c3 b632 d914 6934 716c 3b34
00000040: cdf2 f234 3ed9 9f34 b2ea 4536 c6a9 c335
00000050: b078 9e31 943d 8431 c126 d833 e668 9033
00000060: 6408 6632 94d1 8032 a3b8 4834 8726 8333
00000070: a52c 542f d19c 5d2f 639e 8131 cd91 9d31
00000080: 3865 0730 08e4 1a30 a763 3532 a178 2832
00000090: 99dc b433 9a57 9f33 9985 8635 8cef dd34
000000a0: b9d8 e432 fed6 cb32 b8ad 5534 ffe7 5834
000000b0: e21e 3432 c881 3832 dc0f 7834 e716 b133
000000c0: 9496 ec33 008e 8c33 c78e 2035 7947 ae34
000000d0: 88b1 852c dffd 7b2c ecdf 7d2e 5518 d32d
000000e0: 445d 8c2f 49a0 7f2f cf86 4c32 5c3d 4832
000000f0: 837f d62d 13a2 782d c376 6b2f 5357 b12f
00000100: 4182 112d e05b f72c 83ae 2d2f 3286 0e2f
00000110: f54e 682f bdea 3f2f 493e 8a31 9eee a531
00000120: 3a74 5433 7a2f 2d33 8696 0e35 7cd8 6734
00000130: ca1f 502d 62e2 1e2d a4fb 162f c7f5 bc2e

exp_avg f4 [20]
-1.7743311e-07 9.737096e-05 4.7735637e-07 -3.844501e-05 -3.848068e-05 -2.5245192e-06 -5.5670684e-05 -2.58635e-07
-3.2820103e-06 -4.181561e-05 -3.9018146e-06 -9.339924e-06 -7.291808e-05 7.1254576e-08 -2.0334889e-07 2.2934128e-07
6.0425e-07 -3.7579989e-07 -2.7284977e-05 1.2054702e-06
00000000: 7184 3eb4 a333 cc38 ae23 0035 0440 21b8
00000010: 5166 21b8 e96a 29b6 f17f 69b8 86da 8ab4
00000020: 8240 5cb6 2b63 2fb8 55ec 82b6 abb2 1cb7
00000030: 99eb 98b8 9e04 9933 1e58 5ab4 da40 7634
00000040: be33 2235 8bc1 c9b4 0be2 e4b7 a4cb a135

exp_avg_sq f4 [20]
6.6805823e-09 5.081454e-08 5.2248306e-11 4.4758597e-08 5.4139866e-07 2.2432541e-08 3.391461e-08 8.1514184e-10
2.1753062e-09 1.8799848e-07 4.015648e-08 4.7898812e-08 1.0587724e-07 1.2477367e-11 2.6106652e-09 5.3982138e-11
3.5173947e-11 9.036055e-10 1.03150704e-07 2.8450853e-11
00000000: 068b e531 2d3f 5a33 5dca 652e 993c 4033
00000010: a254 1135 aeb1 c032 82a9 1133 8210 6030
00000020: 647c 1531 a1dc 4934 8478 2c33 4db9 4d33
00000030: a15e e333 1181 5b2d 4f67 3331 7c6a 6d2e
00000040: 58b2 1a2e 9661 7830 b383 dd33 a041 fa2d

exp_avg f4 [10, 20]
1.6722394e-07 1.3854078e-06 -4.4287923e-08 7.412014e-07 1.3864557e-06 -3.0683864e-07 1.1386824e-06 -2.5901482e-08
-1.3413295e-07 2.497751e-06 -7.266157e-08 -3.5890307e-07 1.5334656e-06 -1.1408475e-08 -2.4867017e-08 -9.4694625e-09
-5.8280698e-08 -6.252505e-08 1.2679093e-06 -2.950149e-08 1.012247e-05 -7.1850474e-05 1.489293e-06 2.9788496e-05
-3.22626e-05 9.007676e-07 -6.331049e-05 2.659626e-06 -2.0937468e-06 -7.329446e-05 -4.78287e-06 4.6597663e-05
-4.9409486e-05 -5.167425e-07 1.2650897e-06 -6.016437e-07 1.1406273e-06 -1.104445e-06 -2.4806945e-05 4.06985e-08
1.3712943e-07 1.0741202e-06 -3.43407e-08 6.163284e-07 1.0657495e-06 -2.3704888e-07 8.6727806e-07 -1.7783234e-08
-1.07172035e-07 1.9312135e-06 -6.0286375e-08 -2.4598614e-07 1.1712816e-06 -9.466507e-09 -1.8712665e-08 -7.7907e-09
-4.5494094e-08 -5.029189e-08 1.0013825e-06 -2.3428466e-08 -1.8422487e-08 2.532172e-06 -5.8479618e-08 3.6425583e-08
2.8850639e-06 -5.141269e-07 2.2861186e-06 -5.4668806e-08 -1.3826103e-07 4.5618717e-06 -1.0558065e-08 -1.34435e-06
3.2916753e-06 4.7533177e-09 -4.2280526e-08 1.3277373e-08 -7.182352e-08 -4.0526743e-08 2.0731761e-06 -2.9425497e-08
-1.8234502e-06 7.60376e-06 -1.8900575e-07 -1.5327656e-06 4.307113e-06 -5.579229e-06 1.9243505e-05 -1.8625524e-07
-1.9124043e-06 8.03146e-06 1.2815351e-06 -3.2861004e-05 1.0136098e-05 7.2097286e-08 -1.7941028e-07 2.3775132e-07
-2.5860197e-07 -2.5419445e-07 1.7990999e-06 1.09779805e-07 3.8976447e-07 1.3875267e-06 -5.883712e-08 1.6713127e-06
1.1391044e-06 -3.4071425e-07 9.785133e-07 -1.6470286e-08 -2.0147888e-07 2.4883855e-06 -1.6009915e-07 1.4871796e-07
1.18264e-06 -2.9150694e-08 -2.573856e-08 -3.0053535e-08 -8.1263465e-08 -1.1368009e-07 1.4604364e-06 -4.6374836e-08
5.16731e-07 1.6835303e-06 -7.435581e-08 2.2050942e-06 1.345333e-06 -4.1401336e-07 1.1605321e-06 -1.9476856e-08
-2.553014e-07 3.027122e-06 -2.092566e-07 2.8367984e-07 1.3811492e-06 -3.8717964e-08 -3.177999e-08 -4.0543117e-08
-1.03148054e-07 -1.4745119e-07 1.8094372e-06 -5.947691e-08 2.1472879e-08 -1.1952246e-08 4.2565112e-08 -1.9584185e-07
-1.7234507e-07 1.3322838e-06 -1.7903939e-06 2.4998201e-09 5.926667e-07 -6.5515096e-08 1.2628321e-07 1.1938278e-06
-1.79615e-07 2.009299e-08 1.0217281e-08 1.0836644e-08 3.982597e-08 5.2978343e-08 -2.2229514e-07 2.2900455e-08
3.8761686e-06 -0.00013725535 4.2654538e-06 3.5460757e-06 -0.00013582749 4.041096e-06 -9.361912e-05 4.423428e-06
2.3797074e-06 -0.0002542397 1.5785156e-07 4.6396954e-06 -0.000136581 5.604259e-07 2.816582e-06 6.218383e-07
4.917179e-06 3.2650096e-06 -0.00012928418 2.5246702e-06 -3.7300464e-07 -1.2046431e-06 5.3334286e-08 -1.5929761e-06
-9.587052e-07 2.9619633e-07 -8.2656067e-07 1.3569367e-08 1.8371223e-07 -2.1647566e-06 1.5107068e-07 -2.121287e-07
-9.827551e-07 2.7954316e-08 2.267682e-08 2.9269481e-08 7.4060864e-08 1.0623606e-07 -1.2984818e-06 4.2783412e-08
00000000: 2b8e 3334 40f2 b935 1637 3eb3 f9f6 4635
00000010: 4116 ba35 95bb a4b4 d4d4 9835 f67d deb2
00000020: 2f06 10b4 099f 2736 1f0a 9cb3 43af c0b4
00000030: 7ad1 cd35 01ff 43b2 269b d5b2 23af 22b2
00000040: 4e50 7ab3 8245 86b3 082d aa35 766a fdb2
00000050: add3 2937 6eae 96b8 b8e3 c735 4fe2 f937
00000060: b451 07b8 47cc 7135 8fc5 84b8 077c 3236
00000070: 4c82 0cb6 aab5 99b8 8a7c a0b6 dc71 4338
00000080: 083d 4fb8 46b6 0ab5 27cc a935 a480 21b5
00000090: a817 9935 713c 94b5 8218 d0b7 79cc 2e33
000000a0: da3d 1334 7d2a 9035 007e 13b3 c471 2535
000000b0: e00a 8f35 8087 7eb4 e5ce 6835 bfc1 98b2
000000c0: 7326 e6b3 ff99 0136 c976 81b3 1410 84b4
000000d0: ee34 9d35 23a2 22b2 96bd a0b2 dcd7 05b2
000000e0: 4965 43b3 8500 58b3 3e67 8635 be3f c9b2
000000f0: 7a3f 9eb2 62ee 2936 052b 7bb3 5a72 1c33
00000100: 059d 4136 8802 0ab5 386b 1936 fdcc 6ab3
00000110: e774 14b4 2e12 9936 dc62 35b2 846f b4b5
00000120: 8de6 5c36 a052 a331 ee97 35b3 811a 6432
00000130: 663d 9ab3 a00f 2eb3 e520 0b36 5ac3 fcb2
00000140: 46bd f4b5 cd23 ff36 81f1 4ab4 6db9 cdb5
00000150: d285 9036 3635 bbb6 1d6d a137 73fd 47b4
00000160: db56 00b6 dcbe 0637 3601 ac35 3cd4 09b8
00000170: 360e 2a37 e7d3 9a33 eca3 40b4 9648 7f34
00000180: fcd5 8ab4 3878 88b4 9a78 f135 16c0 eb33
00000190: d240 d134 0e3b ba35 19b4 7cb3 de51 e035
000001a0: 54e3 9835 69eb b6b4 7655 8335 8b7a 8db2
000001b0: 1856 58b4 23fe 2636 b8e7 2bb4 48af 1f34
000001c0: 33bb 9e35 0e67 fab2 b117 ddb2 3614 01b3
000001d0: 1083 aeb3 4a20 f4b3 3604 c435 ac2d 47b3
000001e0: 7cb5 0a35 a9f5 e135 8aad 9fb3 3bfb 1336
000001f0: 4a91 b435 9045 deb4 94c3 9b35 0f4e a7b2
00000200: 5b10 89b4 8f25 4b36 04b0 60b4 a94c 9834
00000210: ed5f b935 da4a 26b3 787e 08b3 a121 2eb3
00000220: 3e82 ddb3 1353 1eb4 cadb f235 8e73 7fb3
00000230: 5c73 b832 8956 4db2 d6d0 3633 9948 52b4
00000240: da0d 39b4 ecd0 b235 774d f0b5 4dc9 2b31
00000250: bf17 1f35 4eb1 8cb3 7798 0734 9c3b a035
00000260: 32dc 40b4 f498 ac32 1488 2f32 102c 3a32
00000270: 1e0d 2b33 4e8a 6333 06b0 6eb4 a2b6 c432
00000280: 0910 8236 34ec 0fb9 f81f 8f36 1ef9 6d36
00000290: ea6c 0eb9 c098 8736 6255 c4b8 f56c 9436
000002a0: 10b3 1f36 7a4b 85b9 e87d 2934 aeae 9b36
000002b0: 2f37 0fb9 2d70 1635 8304 3d36 67ec 2635
000002c0: 3ffe a436 701c 5b36 7590 07b9 816d 2936
000002d0: 5e41 c8b4 39af a1b5 ab11 6533 3ece d5b5
000002e0: dcac 80b5 ea04 9f34 d1e0 5db5 b51e 6932
000002f0: 6f42 4534 3c46 11b6 fe35 2234 7ec5 63b4
00000300: 35e7 83b5 3120 f032 dbca c232 456c fb32
00000310: 640b 9f33 e423 e433 7f47 aeb5 dcc0 3733

exp_avg_sq f4 [10, 20]
8.853389e-12 2.8742455e-11 7.9754325e-14 1.5251056e-11 3.8786183e-11 8.316142e-12 4.4395675e-11 1.5699821e-12
6.9910453e-12 7.187019e-11 1.09716255e-11 2.5018543e-11 5.017259e-12 3.92074e-14 3.4249147e-14 2.6723408e-14
2.4805014e-13 4.9319377e-12 2.9848313e-10 1.8793538e-14 7.073376e-08 2.3835976e-07 2.9170064e-10 1.5328736e-07
1.0228487e-07 1.2814177e-08 3.6477883e-07 2.5406816e-08 1.389356e-08 2.1807253e-07 2.2964693e-08 2.2918626e-07
2.080797e-08 2.3158928e-10 8.676959e-10 1.3132585e-10 2.3161359e-10 5.9687055e-09 1.4056334e-06 6.25683e-11
5.7627453e-10 4.6747697e-08 1.6332934e-10 1.8253629e-09 3.9355083e-08 1.7873685e-08 8.5901306e-08 1.9739371e-10
2.263785e-08 1.1427959e-07 3.7801247e-08 4.661057e-08 7.594364e-09 7.094774e-11 3.9779163e-11 4.7278292e-11
9.524762e-11 1.0262766e-08 6.125055e-07 2.6167886e-11 7.614377e-12 1.316571e-10 4.682742e-13 4.554397e-11
8.373262e-11 2.948089e-11 4.139153e-11 1.475423e-12 7.640909e-11 2.6564298e-10 9.746294e-11 1.086508e-10
2.1621052e-11 1.4643371e-13 1.5642564e-13 1.5664503e-13 3.1877075e-13 4.940881e-13 6.519895e-10 9.554545e-14
2.4094216e-08 6.042524e-08 9.4941784e-11 4.128601e-08 3.2557377e-08 8.983944e-09 1.3167009e-07 7.765295e-09
1.07274545e-08 2.9655844e-08 7.542746e-09 1.0635841e-07 2.7846117e-09 8.6684236e-11 1.9857477e-10 5.7404e-11
7.8107965e-11 3.9482533e-09 4.7871237e-07 2.2042713e-11 1.631251e-10 4.7852833e-10 4.1392326e-13 1.4519017e-10
2.4959126e-10 1.5551482e-12 8.7212804e-10 1.3220741e-10 4.2260164e-11 8.6995705e-10 2.8289017e-11 4.998644e-10
1.3917287e-10 3.4201946e-13 5.2027787e-12 8.599023e-14 2.59264e-13 3.9029337e-13 2.7868947e-09 1.06396506e-13
9.847341e-09 2.0672221e-08 1.061241e-11 7.469763e-09 7.472287e-09 8.7403923e-10 6.998236e-08 4.29112e-09
5.093523e-10 2.593364e-10 6.501489e-10 4.854124e-08 1.1442946e-11 2.0450834e-11 1.8688035e-11 4.691066e-12
7.393732e-12 7.60351e-11 1.4722252e-07 2.5225367e-12 1.455181e-08 3.864938e-08 1.4833959e-11 2.2346944e-08
8.106869e-09 2.492235e-09 7.262214e-08 7.385677e-09 3.704606e-09 3.388277e-09 2.6610152e-09 5.1380255e-08
1.3045437e-10 2.5449247e-11 1.5177865e-10 7.655445e-12 9.398828e-12 2.3224511e-09 1.7920843e-07 2.6259951e-12
5.3894137e-08 1.7713397e-07 2.6514668e-10 9.121662e-08 2.0227338e-07 1.1417741e-08 2.7763016e-07 2.4297268e-08
1.4745913e-08 3.8293334e-07 2.0663487e-08 1.8953146e-07 5.4205877e-08 1.7428738e-10 1.1284352e-09 8.121242e-11
2.4877025e-10 6.7244708e-09 1.1836845e-06 6.6909596e-11 3.032055e-08 8.7744326e-08 4.3917703e-11 4.9861324e-08
2.3415659e-08 6.7500987e-09 1.8539447e-07 1.3006949e-08 9.644848e-09 1.128268e-08 6.896454e-09 1.2756843e-07
4.9472062e-11 6.7072375e-11 8.008004e-11 1.5208307e-11 2.2170285e-11 5.6187375e-09 5.046431e-07 6.1195662e-12
00000000: 1fc0 1b2d 41d2 fc2d 3d97 b329 5326 862d
00000010: 5c95 2a2e 934c 122d 1641 432e 91f4 dc2b
00000020: bdf9 f52c 520b 9e2e cf03 412d c010 dc2d
00000030: 7487 b02c 0e93 3029 943e 1a29 fcb3 f028
00000040: cba3 8b2a f286 ad2c c417 a42f f346 a928
00000050: 4ce6 9733 d5ef 7f34 375d a02f 4f97 2434
00000060: b4a7 db33 5925 5c32 d2d6 c334 2e3e da32
00000070: 86b0 6e32 5227 6a34 e543 c532 3d16 7634
00000080: 36bd b232 96a2 7e2f ac82 6e30 f164 102f
00000090: 6ea9 7e2f 4a15 cd31 32a9 bc35 d296 892e
000000a0: b767 1e30 a3c7 4833 1f95 332f 3fe0 fa30
000000b0: 5f07 2933 a688 9932 be78 b833 6409 592f
000000c0: 2975 c232 de69 f533 e95a 2233 dd30 4833
000000d0: 5e78 0232 0704 9c2e 5bf3 2e2e a0ee 4f2e
000000e0: a573 d12e 1f50 3032 0f6b 2435 d72c e62d
000000f0: 1bf4 052d 2ec2 102f b6ce 032b f44d 482e
00000100: 4621 b82e 88a8 012e b80a 362e b7a5 cf2b
00000110: 7e06 a82e ed09 922f c252 d62e f6ec ee2e
00000120: 482e be2d a5de 242a 9f1e 302a db5d 302a
00000130: b573 b32a cd12 0b2b af37 3330 3426 d729
00000140: bef7 ce32 21c3 8133 79c7 d02e 7352 3133
00000150: 37d5 0b33 ce57 1a32 3361 0d34 2168 0532
00000160: d84b 3832 e4bd fe32 5995 0132 2767 e433
00000170: 685b 3f31 e39e be2e d455 5a2f 2977 7c2e
00000180: e0c2 ab2e 34a9 8731 dd80 0035 c7e3 c12d
00000190: a25b 332f 7089 0330 a104 e92a 66a3 1f2f
000001a0: d936 892f 1ede da2b 8eba 6f30 145d 112f
000001b0: b7dc 392e c921 6f30 34d5 f82d d566 0930
000001c0: ae05 192f 338a c02a 770e b72c fea1 c129
000001d0: e1f3 912a 34b7 db2a 9283 3f31 6995 ef29
000001e0: 102d 2932 b292 b132 0cb2 3a2d 5d54 0032
000001f0: 775f 0032 0b41 7030 3649 9633 1771 9331
00000200: 7b02 0c30 5b92 8e2f 29b6 3230 a87b 5033
00000210: 734e 492d 2fe3 b32d b761 a42d 5e0d a52c
00000220: 6912 022d f533 a72e 3814 1e34 fb81 312c
00000230: 8aff 7932 71ff 2533 1b7b 822d 73f5 bf32
00000240: 6346 0b32 dd43 2b31 72f4 9b33 1ac5 fd31
00000250: 1e94 7e31 33d7 6831 13dd 3631 30ad 5c33
00000260: a46f 0f2f 9cda df2d e4e1 262f 0fad 062d
00000270: 8f58 252d fe98 1f31 706c 4034 b9c9 382c
00000280: 3b79 6733 3732 3e34 14c4 912f dee2 c333
00000290: 7c30 5934 c227 4432 330d 9534 42b6 d032
000002a0: 3655 7d32 f595 cd34 7d7f b132 0382 4b34
000002b0: fecf 6833 89a1 3f2f 4917 9b30 8796 b22e
000002c0: 4dc3 882f 120d e731 17df 9e35 c122 932e
000002d0: cc39 0233 f46d bc33 f026 412e 1b27 5633
000002e0: 9423 c932 7fee e731 d810 4734 2b75 5f32
000002f0: 7db2 2532 c0d5 4132 daf5 ec31 bef9 0834
00000300: 9794 592e 647e 932e 0e19 b02e 10c6 852d
00000310: 0b03 c32d f00e c131 cf76 0735 2750 d72c

exp_avg f4 [10]
3.1090415e-06 4.7962363e-05 2.380614e-06 1.359538e-06 5.100041e-06 5.8235137e-06 7.652279e-06 -9.869027e-07
-0.00021936995 -5.5006544e-06
00000000: eda4 5036 322b 4938 a3c2 1f36 5f79 b635
00000010: 0521 ab36 9a67 c336 4a62 0037 b875 84b5
00000020: ac06 66b9 4392 b8b6

exp_avg_sq f4 [10]
8.4628526e-10 2.6845737e-06 1.0555257e-06 5.0439106e-09 1.2638e-06 2.7003662e-09 1.1116753e-07 1.4457925e-07
1.8311858e-06 3.896697e-07
00000000: 08a0 6830 a028 3436 96ab 8d35 b54e ad31
00000010: d69f a935 5891 3931 ffba ee33 a43d 1b34
00000020: 11c7 f535 cc33 d134

exp_avg f4 [2, 10]
1.1176158e-05 -0.00016189051 9.572842e-06 2.3438075e-05 -9.490368e-05 1.4239492e-05 8.553727e-06 1.9024866e-06
-0.00011071405 5.3447166e-06 4.161338e-06 -9.3861636e-05 9.33304e-07 9.903816e-06 9.395898e-05 -7.103534e-07
3.0349765e-06 1.4485327e-06 -0.00025828197 -3.7869094e-07
00000000: 3c81 3b37 27c1 29b9 0b9b 2037 e29c c437
00000010: 0607 c7b8 27e6 6e37 fa81 0f37 f158 ff35
00000020: 272f e8b8 c456 b336 9fa1 8b36 95d7 c4b8
00000030: 2a88 7a35 9128 2637 d80b c538 1daf 3eb5
00000040: 80ac 4b36 346b c235 056a 87b9 e34e cbb4

exp_avg_sq f4 [2, 10]
8.965504e-10 6.6526836e-06 2.7923682e-07 4.339818e-09 9.949027e-07 3.309839e-09 2.2441585e-08 1.1545792e-07
2.8310465e-06 1.7640275e-07 6.879257e-10 5.44238e-06 2.0156897e-07 3.0090697e-09 1.2064994e-06 3.3429792e-09
7.2587866e-08 1.3701478e-07 2.4828046e-06 4.200977e-07
00000000: 2071 7630 1e3a df36 04ea 9534 711d 9531
00000010: 9988 8535 4e73 6331 91c5 c032 aaf1 f733
00000020: 02fd 3d36 3869 3d34 7818 3d30 b09d b636
00000030: db6e 5834 1dc8 4e31 01ef a135 50ba 6531
00000040: 9ae1 9b33 561e 1334 429e 2636 ca89 e134

exp_avg f4 [2]
-0.0032401516 0.00034673593
00000000: b958 54bb 1cca b539

exp_avg_sq f4 [2]
0.00011888669 9.3640076e-05
00000000: ce52 f938 a260 c438
