neural_network/lightning_logs/version_31/checkpoints/epoch=0-step=1875.ckpt (torch, 13835 bytes, 18 tensors)

layers.0.weight f4 [20, 4]
0	0x3ef15d43	0.47141466
1	0xbdc8b23f	-0.09799623
2	0xbec876b6	-0.3915307
3	0x3c9e7d8d	0.019346977
4	0x3f5c0c26	0.8595604
5	0xbef7df2f	-0.48412463
6	0x3e846d8b	0.25864825
7	0xbd1dcc64	-0.038525
8	0xbe4e6e6c	-0.2015931
9	0x3e65c9a3	0.224402
10	0x3e3179f1	0.17331673
11	0xbb960bbf	-0.004579037
12	0xbf2ab2ca	-0.6667906
13	0xbea198a2	-0.31561762
14	0xbe94d0f8	-0.2906568
15	0x3e37b385	0.17939575
16	0x3e09c679	0.13454618
17	0xbd9cf53e	-0.07663964
18	0xbcf71878	-0.030163035
19	0x3d23b3de	0.039966457
20	0xbe017b10	-0.12644601
21	0x3ebdcc94	0.37070143
22	0xbee81b05	-0.45333114
23	0xbe032f9b	-0.12811129
24	0x3dfca082	0.12335302
25	0xbdb332bc	-0.08749911
26	0xbe330eb3	-0.17486076
27	0x3d49b6da	0.049246646
28	0x3ea04f78	0.3131063
29	0x3eacbf86	0.3373987
30	0xbec3121e	-0.3809976
31	0x3eb40ba6	0.35165137
32	0x3ece629e	0.40309614
33	0xbf054fa3	-0.5207464
34	0xba751c01	-0.0009350181
35	0x3e12ac24	0.14323479
36	0x3e185128	0.14874709
37	0x3ea943ac	0.33059442
38	0xbe601ed9	-0.21886767
39	0xbeb152d8	-0.34633517
40	0xbf7f02fb	-0.9961392
41	0xbee5dbb6	-0.4489419
42	0x3ebc4fb1	0.3677955
43	0xbbe66627	-0.0070312205
44	0xbc430076	-0.011901965
45	0xbf0c5004	-0.54809594
46	0xbe129444	-0.14314371
47	0xbe95e7e3	-0.29278478
48	0xbefd1dc0	-0.4943676
49	0xbf0da012	-0.5532237
50	0xbd8d3949	-0.06895692
51	0x3ca45348	0.020059243
52	0xbe4c4c9f	-0.19951104
53	0x3e723c85	0.23655899
54	0xbeba9bd4	-0.36447012
55	0xbcfbeabb	-0.030751577
56	0xbd86bfb3	-0.065795325
57	0x3eaa5a3b	0.33271965
58	0x3e0da5ba	0.13832751
59	0xbe25edee	-0.16204044
60	0x3f32b5d9	0.6980873
61	0xbf0e037f	-0.55474085
62	0x3e43ae15	0.19109376
63	0xbc7500f6	-0.014953842
64	0xbeef9c37	-0.4679887
65	0xbebff98f	-0.37495086
66	0xbf0eae4f	-0.55734724
67	0xbe5f4e10	-0.21807122
68	0xbdd801ae	-0.105471954
69	0xbc2e3852	-0.010633545
70	0xbe1137d6	-0.14181456
71	0x3db5cd58	0.08877057
72	0x3ec4d901	0.3844681
73	0xbe82ef60	-0.25573254
74	0xbe24e2f8	-0.16102207
75	0xbd9b2ebe	-0.07577275
76	0xbf28952c	-0.6585262
77	0x3ecbba2f	0.39790484
78	0xbe56b334	-0.20966798
79	0xbe47c085	-0.19507034

layers.0.bias f4 [20]
0	0xbe81316d	-0.2523302
1	0xbf56313d	-0.8366888
2	0xbf3c409e	-0.735361
3	0x3ed33aba	0.41255742
4	0xbe6d81fc	-0.23194116
5	0x3e6e8331	0.23292233
6	0x3da36a2f	0.07979237
7	0xbd97e75f	-0.074171774
8	0xbdef0e01	-0.11672593
9	0xbee3f4ee	-0.44522804
10	0xbe63c0ec	-0.22241563
11	0xbef64cf3	-0.48105583
12	0x3e0abd5a	0.13548794
13	0x3ea4a41e	0.3215646
14	0xbe349165	-0.17633589
15	0xbeb7cfb5	-0.35900655
16	0x3e89e5bf	0.26933095
17	0xbe278940	-0.1636095
18	0xbe0e9cff	-0.13927077
19	0xbe5487c9	-0.20754923

layers.2.weight f4 [10, 20]
0	0xbc748966	-0.014925336
1	0x3f12dcb9	0.57368046
2	0xbd6754af	-0.056477245
3	0x3e0c79b9	0.13718309
4	0x3dea3782	0.114363685
5	0xbea3e656	-0.3201167
6	0x3e373931	0.1789291
7	0xbd254f0a	-0.04035858
8	0x3c780e34	0.015140105
9	0xbe171972	-0.147558
10	0xbe92e1df	-0.2868795
11	0x3c778fe5	0.015109991
12	0x3d9fc10d	0.078004934
13	0xbe915b8e	-0.28390163
14	0x3dd69831	0.10478247
15	0x3e110158	0.14160669
16	0x3d8f784d	0.070053674
17	0x3de14cb7	0.1100096
18	0x3e6c43bc	0.23072714
19	0xbe836d71	-0.25669435
20	0x3dfca0d4	0.12335363
21	0xbd4f9cdd	-0.050686706
22	0xbda7e43e	-0.081978306
23	0xbe137c7a	-0.14402953
24	0x3da4a3e6	0.08039074
25	0xbebefc15	-0.37301698
26	0xbe57a72c	-0.21059865
27	0xbe59d8fb	-0.21274178
28	0xbe1ef666	-0.15523681
29	0xbdf80dce	-0.12112008
30	0xbe91d4ec	-0.2848276
31	0xbe32b3d4	-0.17451411
32	0x3e8d46eb	0.2759317
33	0x3e57b0e1	0.21063568
34	0x3cbb1d25	0.022841046
35	0xbcae2f6e	-0.02126285
36	0x3dcd456c	0.10023007
37	0x3e1e86aa	0.15481058
38	0xbd79db39	-0.061000083
39	0x3eb30d5d	0.34971133
40	0x3e1acdac	0.1511752
41	0xbe4dec0e	-0.20109579
42	0x39855c67	0.00025436582
43	0x3db70f18	0.08938426
44	0x3dd0a799	0.10188217
45	0x3da5c019	0.0809328
46	0x3e5f14d4	0.21785289
47	0xbe272e4c	-0.16326255
48	0x3d0415e9	0.032247458
49	0x3e0f0a2e	0.13968727
50	0xbc63e292	-0.013908999
51	0xbdeb46bd	-0.11488102
52	0x3ea1f1a1	0.3162966
53	0x3dd2ab02	0.102865234
54	0x3da28cd9	0.07937021
55	0xbdf84129	-0.12121803
56	0x3ea3667d	0.3191413
57	0x3dd66b5b	0.10469695
58	0xbd994f7d	-0.07485864
59	0xbc361bb1	-0.011115001
60	0x3db24eb0	0.08706415
61	0x3edca723	0.43096265
62	0xbcb53200	-0.022118568
63	0x3dfe325c	0.12411949
64	0xbd0bae4a	-0.034101762
65	0xbc9dceeb	-0.019263705
66	0x3e1376a0	0.1440072
67	0x3c1eaa33	0.009684133
68	0xbdaf836b	-0.08569988
69	0xbeaf5af8	-0.3424909
70	0x3dc9be0c	0.09850702
71	0xbd0b77d5	-0.034049828
72	0xbea93221	-0.33046058
73	0x3d7b79c8	0.061395437
74	0x3ec29271	0.3800235
75	0xbe0bb648	-0.13643754
76	0xbd29c19d	-0.04144441
77	0x3e6ec397	0.23316799
78	0x3e3ef1bb	0.186469
79	0x3e87f0d5	0.26550928
80	0x3e79898c	0.24368876
81	0xbd5100a7	-0.051026013
82	0x3d7896d7	0.060690727
83	0x3ddfff91	0.10937417
84	0xbc18cd44	-0.009326283
85	0xbdacf2c5	-0.08444742
86	0xbe0a0814	-0.13479644
87	0xbdea8db2	-0.114528075
88	0xbe200b1f	-0.15629242
89	0x3db757dd	0.089523055
90	0x3d92a23f	0.07159852
91	0xba451883	-0.0007518606
92	0x3e183d45	0.14867122
93	0x3eb522de	0.35378164
94	0x3e952078	0.29126334
95	0x3c464a89	0.0121027315
96	0x3df0d481	0.11759282
97	0xbd5db058	-0.054123253
98	0xbd194a74	-0.03742452
99	0x3df9942f	0.12186467
100	0x3d2a2510	0.04153925
101	0xbe69cc19	-0.22831763
102	0xbdcadf40	-0.09905863
103	0x3cd2e794	0.02574519
104	0xbe07ae14	-0.1325
105	0xbdcb8873	-0.09938135
106	0xbd9a0493	-0.07520404
107	0xbe46c7a9	-0.19412102
108	0x3d46e36a	0.048556723
109	0xbd9c1921	-0.076219805
110	0xbdb9b025	-0.090668
111	0xbe0617ea	-0.1309506
112	0x3de7e37a	0.113226846
113	0x3dde2841	0.108475216
114	0xbe056e27	-0.13030301
115	0xbd170fff	-0.03688049
116	0x3e1a5f41	0.15075399
117	0x3e80cab2	0.25154644
118	0xbe261218	-0.1621784
119	0x3bd78ee3	0.0065783127
120	0x3f14e35c	0.5815942
121	0x3da3a880	0.07991123
122	0xbe6c32fa	-0.23066321
123	0x3cef9828	0.029247358
124	0x3d0289e6	0.03186979
125	0xbd8dad2d	-0.06917796
126	0x3dc7cc08	0.09755713
127	0x3d8939fa	0.06700511
128	0xbe896f2a	-0.26842624
129	0x3d8017b0	0.06254518
130	0xbd8ab81f	-0.067733996
131	0xbe0b670f	-0.13613532
132	0xbe25e2b3	-0.1619976
133	0x3ec5783d	0.38568297
134	0x3c7d75a9	0.015469947
135	0xbe080730	-0.13283992
136	0xbe48c16e	-0.19605038
137	0x3df8a1de	0.12140249
138	0xbdd0cd24	-0.101953775
139	0x3e0f3fda	0.13989201
140	0xbe3b568e	-0.18294737
141	0x3e7258d3	0.23666696
142	0x3e0134fe	0.12617871
143	0x3b276d02	0.0025547151
144	0xbd912e57	-0.07088917
145	0x3dcd2731	0.10017241
146	0xbe0046a2	-0.12526944
147	0xbe58b797	-0.21163784
148	0x3dc84583	0.09778883
149	0x3dfde1d6	0.123965904
150	0xbd55b73f	-0.05217671
151	0x3d97ebae	0.07417999
152	0x3d26e10b	0.04074196
153	0x3d91683b	0.070999585
154	0xbe2af7a7	-0.16696034
155	0x3e5debd7	0.21671997
156	0x3c6e3dbb	0.014541085
157	0xbda82392	-0.082099095
158	0xbddb0263	-0.106938146
159	0xbe82ec3c	-0.25570858
160	0xbe56ce2b	-0.20977084
161	0xbd323824	-0.04351057
162	0x3e1ed313	0.15510206
163	0xbe8e59a2	-0.2780276
164	0x3b18e105	0.0023327481
165	0xbddb63c9	-0.10712392
166	0x3dedee81	0.11617757
167	0xbdc8bab5	-0.098012365
168	0x3d465f52	0.04843075
169	0x3e03ccf1	0.12871148
170	0xbe8913ed	-0.26773015
171	0xbd0dac86	-0.03458836
172	0x3df7857d	0.12086008
173	0x3e84d88f	0.2594647
174	0x3d17dac5	0.03707387
175	0x3c92cd02	0.017920021
176	0x3e7eb17a	0.2487239
177	0x3e163fd4	0.14672786
178	0xbc54c820	-0.012987167
179	0xbcc4fed2	-0.024047289
180	0xbdd2a2fe	-0.102849945
181	0x3e189658	0.14901102
182	0x3da7fb1e	0.08202194
183	0xbe91d196	-0.28480214
184	0x3bb09157	0.0053884196
185	0xbed2bc41	-0.4115925
186	0x3c6e9012	0.014560716
187	0xbd5b00c1	-0.053467516
188	0xbe6faee0	-0.23406553
189	0x3e235473	0.15950184
190	0xbe3f8183	-0.18701749
191	0xbda9fece	-0.08300553
192	0xbe252e68	-0.16130984
193	0x3c438a49	0.011934825
194	0x3e102434	0.1407631
195	0x3e2b059a	0.16701356
196	0xbeae6d12	-0.3406759
197	0x3e0924e5	0.1339298
198	0xbe18109d	-0.14850087
199	0xbe510a79	-0.20414151

layers.2.bias f4 [10]
0	0x3d4cff2a	0.05004803
1	0xbe9e0e72	-0.30870396
2	0x3e02a937	0.12759863
3	0xbec2b588	-0.38029122
4	0xbe3e3c90	-0.1857779
5	0xbe80b74c	-0.25139844
6	0xbde731dc	-0.11288807
7	0x3e253991	0.16135241
8	0xbdda987b	-0.106736146
9	0xbe2f8d67	-0.17143784

layers.4.weight f4 [2, 10]
0	0xbba6d4c9	-0.005091284
1	0x3d5a1574	0.053243116
2	0x3ddb11a3	0.10696723
3	0xbeade2db	-0.3396214
4	0x3d887f20	0.06664872
5	0x3d03fd2d	0.03222387
6	0x3cfef13d	0.03112089
7	0x3e0d3fe0	0.13793898
8	0xbda308d2	-0.07960667
9	0xbd80d28c	-0.06290159
10	0x3e9071be	0.28211778
11	0xbe1cce63	-0.15313105
12	0xbda95f77	-0.082701616
13	0xbe3159a0	-0.17319345
14	0xbda76c63	-0.0817497
15	0xbde306f1	-0.11085308
16	0xbcec539f	-0.028848467
17	0x3e4e8ee5	0.20171697
18	0x3d8e128c	0.06937131
19	0x3e0ba2f2	0.13636377

layers.4.bias f4 [2]
0	0xbd0af04f	-0.033920582
1	0x3ab8c03a	0.0014095374

exp_avg f4 [20, 4]
0	0xb4ea8bf2	-4.368772e-07
1	0xb569409e	-8.6893294e-07
2	0xb5835c30	-9.787091e-07
3	0x34375d3c	1.7077122e-07
4	0x37f32408	2.8984636e-05
5	0x38a6b6af	7.949524e-05
6	0x38ba1632	8.873305e-05
7	0xb9ca1e0d	-0.00038550832
8	0xb4662c2d	-2.143649e-07
9	0x33eb2ea4	1.0951524e-07
10	0xb2c096a1	-2.242024e-08
11	0x32ee9d11	2.7778272e-08
12	0x340eb21f	1.328958e-07
13	0xb2cd7747	-2.3919382e-08
14	0xb592cd68	-1.0937629e-06
15	0xb6860184	-3.9936876e-06
16	0xb414678e	-1.3821247e-07
17	0x3182605c	3.7944528e-09
18	0xb4d947b2	-4.0471565e-07
19	0x34b3517b	3.3400633e-07
20	0xb53b814a	-6.985107e-07
21	0xb58614e3	-9.989857e-07
22	0xb5bf4d19	-1.4253047e-06
23	0x3437a0f2	1.7101755e-07
24	0xb4e8c05e	-4.3353333e-07
25	0xb3f23b1f	-1.1279757e-07
26	0xb5887b4a	-1.0168671e-06
27	0x353dbb74	7.0680767e-07
28	0x3669cc1d	3.4838515e-06
29	0xb8131dbd	-3.5075227e-05
30	0xb7476fed	-1.1887384e-05
31	0xb785c4b6	-1.5946436e-05
32	0xb77e18ec	-1.5145382e-05
33	0x35b66fef	1.3592634e-06
34	0xb7ac4707	-2.0537072e-05
35	0xb725ac25	-9.874847e-06
36	0xb80670c0	-3.2053096e-05
37	0xb7dfc489	-2.667519e-05
38	0xb8b7d099	-8.764974e-05
39	0x38f0e94f	0.00011487549
40	0x37f37ac0	2.9025017e-05
41	0x37b21424	2.1228632e-05
42	0x395e7522	0.00021215205
43	0xb985cb99	-0.0002551943
44	0x3553baae	7.887528e-07
45	0x35716a0a	8.9933803e-07
46	0x369c4abf	4.657864e-06
47	0xb6d315cf	-6.290829e-06
48	0xb5836578	-9.789792e-07
49	0xb4a6f089	-3.1094922e-07
50	0xb5d34ac4	-1.5742485e-06
51	0x35741f0d	9.094227e-07
52	0xb581c0b7	-9.667336e-07
53	0xb5939faf	-1.0998828e-06
54	0xb5ad448a	-1.2909452e-06
55	0xb3f344b5	-1.1328067e-07
56	0xb766498e	-1.3726194e-05
57	0xb801e97d	-3.097345e-05
58	0x38b3a060	8.565257e-05
59	0xb8ecf83f	-0.000112995964
60	0xb6bb8b57	-5.5892556e-06
61	0x381391f7	3.518347e-05
62	0xb7f1b4cb	-2.8813627e-05
63	0x380add45	3.3107837e-05
64	0xb585add0	-9.959858e-07
65	0xb4f8cf44	-4.6344405e-07
66	0xb5feed5f	-1.8993559e-06
67	0x35851d20	9.917749e-07
68	0xb4977675	-2.821213e-07
69	0xb3ba0901	-8.662938e-08
70	0xb52f7850	-6.536766e-07
71	0x34c520b8	3.6717915e-07
72	0xb692e5a6	-4.3778737e-06
73	0xb5e89687	-1.7329156e-06
74	0xb6ccbf9c	-6.10198e-06
75	0x36cb2969	6.054692e-06
76	0xb4610262	-2.0955625e-07
77	0xb5d0aca5	-1.5547454e-06
78	0xb5822142	-9.695434e-07
79	0xb52271a4	-6.051507e-07

exp_avg_sq f4 [20, 4]
0	0x3010c6cc	5.26694e-10
1	0x301e67b3	5.762743e-10
2	0x31a8b88c	4.910424e-09
3	0x318052e9	3.734716e-09
4	0x3522e8f5	6.06887e-07
5	0x34fef763	4.7491184e-07
6	0x36a5e3cf	4.9439036e-06
7	0x3620c6a0	2.3957473e-06
8	0x3107ba09	1.9750834e-09
9	0x31195f92	2.2318756e-09
10	0x333b510b	4.361304e-08
11	0x32db7ce0	2.5551742e-08
12	0x318bd30c	4.0694257e-09
13	0x319e7d41	4.612645e-09
14	0x33b1dbdc	8.282197e-08
15	0x33af0a48	8.150943e-08
16	0x2c08e6cb	1.9454878e-12
17	0x2c0462d1	1.8813182e-12
18	0x2e95b795	6.808346e-11
19	0x2eb783af	8.345268e-11
20	0x335456d3	4.9439063e-08
21	0x3358976b	5.0429133e-08
22	0x35203288	5.967818e-07
23	0x350c2225	5.220375e-07
24	0x3073fcef	8.8762325e-10
25	0x30ae0f0a	1.2664441e-09
26	0x330bef60	3.258117e-08
27	0x323577cd	1.0562826e-08
28	0x330451f5	3.0808184e-08
29	0x32ee57c3	2.7746756e-08
30	0x34b4c436	3.3670375e-07
31	0x34a879d1	3.1381072e-07
32	0x32657c1d	1.3357774e-08
33	0x3248ed0e	1.1695432e-08
34	0x344390d8	1.8213484e-07
35	0x33ceaf3e	9.624499e-08
36	0x327b1ad1	1.461622e-08
37	0x32810a74	1.502233e-08
38	0x34318634	1.6533232e-07
39	0x3436d1bd	1.7026373e-07
40	0x33633250	5.2898315e-08
41	0x3380062a	5.961586e-08
42	0x35a4405f	1.2237687e-06
43	0x3502ba8b	4.870023e-07
44	0x315be5b4	3.1999265e-09
45	0x31338fc8	2.6129658e-09
46	0x334f9095	4.832744e-08
47	0x335e1283	5.170524e-08
48	0x2f448e29	1.7876602e-10
49	0x2f40f667	1.7549838e-10
50	0x328604c5	1.5601822e-08
51	0x316d65a6	3.454582e-09
52	0x2e45523f	4.4865663e-11
53	0x2e94b74a	6.7628195e-11
54	0x30a2a6b8	1.1834436e-09
55	0x311b29b5	2.2579176e-09
56	0x2f351cad	1.6472042e-10
57	0x2ef562b0	1.11588405e-10
58	0x3184ada5	3.8614467e-09
59	0x3145d953	2.8790808e-09
60	0x34679084	2.1566126e-07
61	0x345449b6	1.9770854e-07
62	0x36510739	3.114763e-06
63	0x358a5521	1.0306577e-06
64	0x2eb3d63b	8.1780326e-11
65	0x2ec72532	9.0560795e-11
66	0x317b12f2	3.6536076e-09
67	0x31b9b1f6	5.4044405e-09
68	0x2dabbb32	1.952358e-11
69	0x2dc5a95b	2.2471516e-11
70	0x2f299f57	1.542707e-10
71	0x2f1b89df	1.414615e-10
72	0x326fc97f	1.3957446e-08
73	0x326006ff	1.3040107e-08
74	0x344adc74	1.8892916e-07
75	0x33ca9b7d	9.434641e-08
76	0x2e906218	6.565787e-11
77	0x2e93fb6d	6.729448e-11
78	0x30a3ecf1	1.1927154e-09
79	0x306f6ba7	8.7100677e-10

exp_avg f4 [20]
0	0xb5126bed	-5.454629e-07
1	0x38f4ed7e	0.00011679063
2	0x329f055a	1.851247e-08
3	0xb537f5bd	-6.853041e-07
4	0xb4168b12	-1.4020432e-07
5	0xb551f74d	-7.821844e-07
6	0xb4c9b6c2	-3.757214e-07
7	0xb70d444a	-8.420155e-06
8	0xb6b927c7	-5.5180603e-06
9	0xb833104c	-4.2692103e-05
10	0x38dede86	0.00010627233
11	0x36206e8c	2.3906205e-06
12	0xb527ae15	-6.246567e-07
13	0xb5401a73	-7.156406e-07
14	0x383b6c4a	4.4685126e-05
15	0x37853f39	1.5884276e-05
16	0xb5529f39	-7.8462796e-07
17	0xb484135a	-2.4600996e-07
18	0xb6469297	-2.9589626e-06
19	0xb540d05c	-7.1828777e-07

exp_avg_sq f4 [20]
0	0x307b8043	9.149554e-10
1	0x35695ce6	8.693445e-07
2	0x3219b4b5	8.94686e-09
3	0x32983ae9	1.7721918e-08
4	0x2d976bc2	1.7214567e-11
5	0x340390ad	1.2252958e-07
6	0x31e7aaf4	6.74242e-09
7	0x3397c857	7.067927e-08
8	0x33205296	3.7328014e-08
9	0x330e20ca	3.3091773e-08
10	0x34809e77	2.3957156e-07
11	0x32304390	1.025991e-08
12	0x317a6a17	3.6440093e-09
13	0x2faaec98	3.109093e-10
14	0x3069b4e9	8.5021995e-10
15	0x35279ff8	6.2445133e-07
16	0x30760603	8.950282e-10
17	0x2e0875ad	3.1027337e-11
18	0x3325bf2d	3.859093e-08
19	0x2f8efefc	2.6010827e-10

exp_avg f4 [10, 20]
0	0xb590f30c	-1.0799572e-06
1	0xb8687ef1	-5.5431334e-05
2	0xb4db407a	-4.0838842e-07
3	0xb758a658	-1.2913333e-05
4	0xb4db6a3e	-4.086923e-07
5	0x33f442a1	1.1374255e-07
6	0xb4c009f3	-3.5770026e-07
7	0x3839b99e	4.4280307e-05
8	0xb7efbca1	-2.8578857e-05
9	0x38069844	3.2089898e-05
10	0xb8a8f30d	-8.056136e-05
11	0xb65b386e	-3.266639e-06
12	0xb628c6db	-2.51497e-06
13	0xb31beaee	-3.6302417e-08
14	0xb805804e	-3.1829164e-05
15	0xb838bf14	-4.4046974e-05
16	0xb6568a56	-3.1969007e-06
17	0xb53f23af	-7.120497e-07
18	0xb60a2611	-2.058576e-06
19	0xb58436dc	-9.850733e-07
20	0x32b7a2fd	2.1378122e-08
21	0x34826cad	2.429346e-07
22	0x32171448	8.793968e-09
23	0x33f90c65	1.15972206e-07
24	0x320ad80e	8.081782e-09
25	0x32180fa5	8.851122e-09
26	0x32034216	7.64023e-09
27	0xb44fe32c	-1.9361022e-07
28	0x334e81cf	4.8081173e-08
29	0xb4823b1b	-2.4257392e-07
30	0x345b055c	2.0397914e-07
31	0x32819154	1.5083664e-08
32	0x32be5959	2.2159542e-08
33	0x32150582	8.674194e-09
34	0xb4990d3c	-2.85081e-07
35	0xb4532b8e	-1.9666751e-07
36	0x331820c7	3.542007e-08
37	0x32870d2a	1.5722055e-08
38	0x3294391b	1.7255436e-08
39	0x328d84f5	1.6475022e-08
40	0x35cb542e	1.5149178e-06
41	0xb89dcbef	-7.524329e-05
42	0x35967663	1.1210326e-06
43	0x37450bc8	1.1744858e-05
44	0x351ad647	5.7681285e-07
45	0x35c552b2	1.4701711e-06
46	0x353ad38d	6.9598246e-07
47	0x347bc9c8	2.3449604e-07
48	0xb79fdeb1	-1.9057976e-05
49	0xb7da38c1	-2.6014053e-05
50	0x3854d65c	5.0744376e-05
51	0x35e4039e	1.6988377e-06
52	0x364a7c21	3.0172598e-06
53	0x35d455f5	1.5820248e-06
54	0xb8ff50c0	-0.000121743884
55	0xb921acf0	-0.00015418581
56	0x3696dacc	4.4958197e-06
57	0x360075c5	1.9142037e-06
58	0x3477ac46	2.306634e-07
59	0x363e518b	2.835967e-06
60	0x3409bb3f	1.2827239e-07
61	0xb75e47fe	-1.3248993e-05
62	0x339ab56a	7.204183e-08
63	0x34a70adc	3.1114075e-07
64	0x33559b29	4.9734044e-08
65	0x33bd34fd	8.810637e-08
66	0x3383274f	6.107313e-08
67	0xb49ce7a0	-2.9225794e-07
68	0x35973855	1.1266771e-06
69	0xb4db2032	-4.0815354e-07
70	0xb516792f	-5.60557e-07
71	0x341bcee6	1.4510769e-07
72	0x34601bbf	2.087172e-07
73	0x33d705bd	1.00127615e-07
74	0xb71026e0	-8.59212e-06
75	0xb73845d9	-1.0983517e-05
76	0x349b6b88	2.894924e-07
77	0x341de04a	1.470336e-07
78	0x327fa19b	1.4879698e-08
79	0x34312318	1.6497177e-07
80	0xb4c68d1e	-3.698305e-07
81	0x369df57b	4.7075423e-06
82	0xb3c4bf20	-9.161727e-08
83	0x31d3225c	6.1448144e-09
84	0xb3c0c51a	-8.976549e-08
85	0xb4a0b2c1	-2.9932383e-07
86	0xb3f5b329	-1.14412906e-07
87	0xb51843c1	-5.672301e-07
88	0xb38a6578	-6.444583e-08
89	0xb73c97e5	-1.1241039e-05
90	0x3791785a	1.734139e-05
91	0xb2d82b48	-2.5165392e-08
92	0x3406fbdd	1.257135e-07
93	0xb45fbc3b	-2.0836971e-07
94	0x374dec21	1.227393e-05
95	0x3744948f	1.1717099e-05
96	0xb42ba07e	-1.5984003e-07
97	0xb4336224	-1.6706377e-07
98	0xb3d1c628	-9.768365e-08
99	0xb440b605	-1.7947612e-07
100	0x3286065c	1.5602545e-08
101	0x3438cd7d	1.7211092e-07
102	0x31d4e24d	6.1957395e-09
103	0x33ac1292	8.012752e-08
104	0x31c8b3b5	5.8411964e-09
105	0x31e0549d	6.5288774e-09
106	0x31bd87c8	5.5160605e-09
107	0xb4218c18	-1.5045259e-07
108	0x333f7751	4.457917e-08
109	0xb42dfaf8	-1.6203182e-07
110	0x342f91e3	1.6351218e-07
111	0x32697f2c	1.35913005e-08
112	0x328b4ac1	1.6215724e-08
113	0x31d4d4ac	6.19419e-09
114	0xb42917ef	-1.5748059e-07
115	0xb3e9ece0	-1.0892995e-07
116	0x32e1fa7e	2.6307358e-08
117	0x32407db2	1.1204451e-08
118	0x3254cb9e	1.2386321e-08
119	0x324daa18	1.1971245e-08
120	0x3170d96e	3.504819e-09
121	0x32bbebc5	2.187688e-08
122	0x311b1019	2.256462e-09
123	0x3304425a	3.079399e-08
124	0x30bc52dc	1.370235e-09
125	0x311c4e58	2.274552e-09
126	0x30c80ebf	1.4556106e-09
127	0xb2701ad2	-1.3975937e-08
128	0xb338b8c0	-4.3008868e-08
129	0xb3a6bf9f	-7.764833e-08
130	0x3404559a	1.23246e-07
131	0x30ffc428	1.8609443e-09
132	0x31b4b7d1	5.259587e-09
133	0x3132fa72	2.604477e-09
134	0xb48a5063	-2.5762992e-07
135	0xb456e81c	-2.0014744e-07
136	0x3203ec1e	7.67889e-09
137	0x317bef76	3.6661425e-09
138	0x315a57b1	3.1773022e-09
139	0x319bf055	4.5384163e-09
140	0xb574e41c	-9.1229026e-07
141	0xb875dc17	-5.8617527e-05
142	0x349527cf	2.7782377e-07
143	0xb6e1f301	-6.733812e-06
144	0xb4c8006d	-3.7253213e-07
145	0x35566938	7.9874326e-07
146	0xb483d2b0	-2.4553947e-07
147	0x3819114a	3.6494144e-05
148	0xb87d9217	-6.0455957e-05
149	0xb51f0346	-5.923688e-07
150	0x375e5e19	1.325414e-05
151	0xb5ab33ac	-1.2755531e-06
152	0xb54d2c3d	-7.6432826e-07
153	0x354957c7	7.500607e-07
154	0xb9303f25	-0.00016808191
155	0xb911d2cd	-0.00013906807
156	0xb547ed5e	-7.447869e-07
157	0x323449c9	1.0494156e-08
158	0xb5b64d97	-1.3582638e-06
159	0x355e9415	8.291693e-07
160	0xb2105473	-8.401105e-09
161	0xb34b3cc3	-4.7319883e-08
162	0xb1c01a57	-5.59093e-09
163	0xb3a37338	-7.611237e-08
164	0xb1625306	-3.2934522e-09
165	0xb1c1a4b6	-5.6357647e-09
166	0xb172c3fd	-3.5327041e-09
167	0x32f9a1b2	2.9060946e-08
168	0x33f70275	1.1502281e-07
169	0x3450693b	1.9409792e-07
170	0xb4a85ff7	-3.1362262e-07
171	0xb193e7d0	-4.304617e-09
172	0xb25e26f1	-1.2930955e-08
173	0xb1dfb5fd	-6.510844e-09
174	0x3532a1ca	6.65456e-07
175	0x350afb31	5.177454e-07
176	0xb2a164d6	-1.8788722e-08
177	0xb21b1343	-9.026567e-09
178	0xb2039e72	-7.66123e-09
179	0xb241db7b	-1.1283983e-08
180	0xb4af4cec	-3.2652258e-07
181	0xb825cc35	-3.9529248e-05
182	0x32cd095b	2.3869395e-08
183	0x3308cef4	3.185319e-08
184	0xb3e8e179	-1.0844355e-07
185	0x3398afb1	7.11001e-08
186	0xb3e4f648	-1.0661876e-07
187	0xb46f39db	-2.2279657e-07
188	0xb49a2222	-2.870957e-07
189	0x3772a271	1.4462145e-05
190	0x332c57c7	4.0126704e-08
191	0xb23f7618	-1.1144515e-08
192	0x3405102b	1.2392472e-07
193	0x3396daf0	7.024744e-08
194	0x37e50200	2.7299859e-05
195	0xb7fdcc3e	-3.0255058e-05
196	0x34213f14	1.5017241e-07
197	0xb37a0f81	-5.822176e-08
198	0xb58b484c	-1.0377348e-06
199	0x34992d9f	2.8531664e-07

exp_avg_sq f4 [10, 20]
0	0x320d2c61	8.217371e-09
1	0x3473ff15	2.2723937e-07
2	0x3405d3d5	1.2463654e-07
3	0x340e6d73	1.3264598e-07
4	0x2fc6f070	3.618683e-10
5	0x329da101	1.8350422e-08
6	0x338f8aa4	6.684175e-08
7	0x34ac6436	3.211041e-07
8	0x35964571	1.1196081e-06
9	0x33fb9954	1.17159885e-07
10	0x3520ed2b	5.994977e-07
11	0x32c884aa	2.3343393e-08
12	0x2ff565a4	4.463746e-10
13	0x2f8f9862	2.6119823e-10
14	0x316b6dd8	3.425944e-09
15	0x35e9dd6f	1.7424298e-06
16	0x30e62c80	1.674735e-09
17	0x2fed7ec6	4.3200127e-10
18	0x33a8d50c	7.8618626e-08
19	0x3069ccda	8.505602e-10
20	0x2fc89e64	3.649233e-10
21	0x2f033ab1	1.1935232e-10
22	0x2e19e8f3	3.4995073e-11
23	0x2cea0b9c	6.651969e-12
24	0x293272d5	3.962354e-14
25	0x2e46d54a	4.5209426e-11
26	0x2c8b0796	3.95146e-12
27	0x2e4bf30d	4.637273e-11
28	0x2e84b65a	6.035057e-11
29	0x2eae6baf	7.9317324e-11
30	0x2f0f5176	1.3034715e-10
31	0x2ce6cf5e	6.5600156e-12
32	0x2a874e70	2.4035244e-13
33	0x2960cb37	4.9914252e-14
34	0x2a473ddc	1.7696212e-13
35	0x2f24bd0f	1.498288e-10
36	0x2afbd744	4.4735927e-13
37	0x29d95974	9.6522535e-14
38	0x2d431803	1.1089798e-11
39	0x2a78d3e5	2.210034e-13
40	0x3162da85	3.3011542e-09
41	0x34952d6f	2.778647e-07
42	0x349c3cfe	2.9101642e-07
43	0x33c3d955	9.1199276e-08
44	0x2fdfa74d	4.0682338e-10
45	0x333c3de7	4.382846e-08
46	0x318dfd6c	4.132451e-09
47	0x34806c39	2.39206e-07
48	0x35374857	6.827808e-07
49	0x34bbe26a	3.4996202e-07
50	0x3579bd6a	9.303536e-07
51	0x33a2f520	7.588301e-08
52	0x2feb96f8	4.285352e-10
53	0x2f63952c	2.0698526e-10
54	0x30e18905	1.6409848e-09
55	0x35dc39c7	1.6408093e-06
56	0x30a1a581	1.1761331e-09
57	0x2fa93877	3.0781042e-10
58	0x343a3802	1.7342975e-07
59	0x3028c956	6.140416e-10
60	0x2c2829ae	2.3897373e-12
61	0x30d49c2f	1.546942e-09
62	0x2ebc5b28	8.565443e-11
63	0x3077899a	9.005362e-10
64	0x2b149996	5.2793306e-13
65	0x2c3694fe	2.5946463e-12
66	0x30f7ba03	1.8024483e-09
67	0x30c0a042	1.4015387e-09
68	0x31dbffb9	6.402811e-09
69	0x2e40db79	4.3850677e-11
70	0x2e551bd2	4.8455302e-11
71	0x2c57921d	3.0634447e-12
72	0x2b218294	5.7379904e-13
73	0x2b08f46e	4.865612e-13
74	0x2d8d0e34	1.6036152e-11
75	0x31618ad1	3.2820717e-09
76	0x2c71754a	3.4313268e-12
77	0x2b8d4891	1.0038794e-12
78	0x2cc26ef8	5.5261316e-12
79	0x2c167fb5	2.1387174e-12
80	0x2d1c694e	8.890956e-12
81	0x32e5333d	2.668241e-08
82	0x332dbe00	4.0452505e-08
83	0x2eee1e2b	1.0828346e-10
84	0x2d88a64f	1.5535266e-11
85	0x31631766	3.3046148e-09
86	0x2f3706d3	1.6646177e-10
87	0x2eaa113e	7.733768e-11
88	0x3131d476	2.587766e-09
89	0x3360e372	5.2360924e-08
90	0x339a7256	7.1919814e-08
91	0x322e8ac5	1.01596855e-08
92	0x2e055052	3.0312038e-11
93	0x2c3401f2	2.5580618e-12
94	0x2f4177dc	1.759583e-10
95	0x33185424	3.5466783e-08
96	0x2da089c1	1.8251069e-11
97	0x2c87e6e2	3.862564e-12
98	0x32d1afb9	2.4410712e-08
99	0x2c8e9a71	4.053029e-12
100	0x2be7ab5b	1.6461098e-12
101	0x2dd94624	2.4701192e-11
102	0x2eadb54f	7.899336e-11
103	0x2fa0373b	2.9143074e-10
104	0x29f83b03	1.1023649e-13
105	0x2c58ddc2	3.0818546e-12
106	0x3100f526	1.8765802e-09
107	0x2fb3bfde	3.269624e-10
108	0x32595386	1.26500534e-08
109	0x2e3586da	4.1274408e-11
110	0x2f85060a	2.419685e-10
111	0x2cf1ace7	6.868828e-12
112	0x29e03859	9.957373e-14
113	0x2a9e1785	2.8082758e-13
114	0x2b3f7958	6.802523e-13
115	0x3191ac3c	4.239636e-09
116	0x2c11a49e	2.069712e-12
117	0x2b767e86	8.7572343e-13
118	0x2d7925d5	1.4162412e-11
119	0x2bc39e23	1.3899475e-12
120	0x2eec97c1	1.07589944e-10
121	0x3163c2e6	3.3143635e-09
122	0x31aa4748	4.955755e-09
123	0x2f5a6e9a	1.9866278e-10
124	0x2c183d99	2.1634693e-12
125	0x304acc35	7.377737e-10
126	0x3014372c	5.392049e-10
127	0x2f64dd64	2.0815133e-10
128	0x31b40f61	5.240438e-09
129	0x320adbd3	8.0826394e-09
130	0x3209582a	7.994496e-09
131	0x30c1593b	1.4067959e-09
132	0x2d96e91d	1.7156549e-11
133	0x2aea6ead	4.1643547e-13
134	0x2c1477d1	2.1098576e-12
135	0x3215a1b3	8.709708e-09
136	0x2d23fcf6	9.321646e-12
137	0x2bc1636d	1.3741071e-12
138	0x3108af71	1.9890332e-09
139	0x2bd2acfe	1.4969412e-12
140	0x31eb5586	6.849123e-09
141	0x34e80c15	4.3222158e-07
142	0x353fd404	7.146157e-07
143	0x341669e2	1.4008359e-07
144	0x301545ba	5.430497e-10
145	0x33567b44	4.9937867e-08
146	0x33b8ee4c	8.6115136e-08
147	0x34c85cf3	3.7320532e-07
148	0x35992ce0	1.1412449e-06
149	0x358244b1	9.705747e-07
150	0x35b04539	1.3133168e-06
151	0x34062176	1.2491896e-07
152	0x3128e261	2.45759e-09
153	0x2fa62183	3.0219036e-10
154	0x316fc3e8	3.4890437e-09
155	0x36224988	2.4182682e-06
156	0x3112147b	2.1257438e-09
157	0x301c32e8	5.682481e-10
158	0x347d15fc	2.3570459e-07
159	0x30813bb6	9.402956e-10
160	0x2e95bd0d	6.809318e-11
161	0x3305f290	3.1187085e-08
162	0x33b8d585	8.607007e-08
163	0x31479fb3	2.904909e-09
164	0x2dca568d	2.3003177e-11
165	0x31146b54	2.1597844e-09
166	0x321c09d8	9.082633e-09
167	0x31cfccf4	6.0477934e-09
168	0x3376bdfb	5.7449125e-08
169	0x33fb0630	1.1689224e-07
170	0x33af5bbe	8.16576e-08
171	0x323ccaa4	1.0989115e-08
172	0x2f00bab8	1.1707868e-10
173	0x2d125f1b	8.320257e-12
174	0x2ddc11d8	2.5019029e-11
175	0x33e6fdcb	1.0756374e-07
176	0x2dc6b789	2.25915e-11
177	0x2d90236d	1.6386637e-11
178	0x3301651f	3.0127122e-08
179	0x2d50f2e4	1.1877364e-11
180	0x2ebe37e5	8.6501285e-11
181	0x33644f1f	5.3157347e-08
182	0x33aa7585	7.9376186e-08
183	0x2ee55bb2	1.0430003e-10
184	0x2e47e965	4.5454657e-11
185	0x3198e948	4.4503032e-09
186	0x30f23e1d	1.7625471e-09
187	0x2fc39af6	3.55804e-10
188	0x322c2dbc	1.00221165e-08
189	0x33dd7b69	1.03135626e-07
190	0x34036e61	1.2240481e-07
191	0x326b2451	1.3687058e-08
192	0x2eda9cfe	9.94138e-11
193	0x2d6ae749	1.3352716e-11
194	0x2f94f1d9	2.7092886e-10
195	0x3427b8d8	1.5620333e-07
196	0x2e8f9e89	6.5310486e-11
197	0x2d9dbd45	1.7932886e-11
198	0x3314e49c	3.4666854e-08
199	0x2dd30a29	2.3992435e-11

exp_avg f4 [10]
0	0x39387596	0.00017591412
1	0xb63131ee	-2.6404118e-06
2	0xb98523aa	-0.0002539431
3	0xb79ac983	-1.8452067e-05
4	0x37d649cf	2.5545158e-05
5	0xb6003947	-1.9106826e-06
6	0xb50e78da	-5.3074984e-07
7	0x38859696	6.369983e-05
8	0x35ad8c23	1.293029e-06
9	0x378481a9	1.5796004e-05

exp_avg_sq f4 [10]
0	0x36d794de	6.4248297e-06
1	0x310308f8	1.9068107e-09
2	0x36ad3ef9	5.1631328e-06
3	0x3238bb23	1.075276e-08
4	0x33808f9f	5.986589e-08
5	0x319c036b	4.540586e-09
6	0x328cd527	1.6395076e-08
7	0x37104073	8.598075e-06
8	0x345d681b	2.0620102e-07
9	0x34add990	3.238206e-07

exp_avg f4 [2, 10]
0	0xb9bb5cc1	-0.00035736526
1	0x3634d2de	2.694483e-06
2	0x36d8393c	6.4439646e-06
3	0x363e0c88	2.83195e-06
4	0xb810febe	-3.4569523e-05
5	0x36841db2	3.9373635e-06
6	0x3620945d	2.3928217e-06
7	0xb94db91a	-0.00019619279
8	0xb52cb535	-6.4338684e-07
9	0x37d261c7	2.5079482e-05
10	0xb855ab9f	-5.0942992e-05
11	0xb61d66bf	-2.345463e-06
12	0x388438ec	6.304853e-05
13	0xb6e25f50	-6.7464207e-06
14	0xb7e6ca7c	-2.7512426e-05
15	0xb5dbe64a	-1.6383794e-06
16	0xb4a7a192	-3.1223732e-07
17	0x38bdd8fd	9.0526395e-05
18	0xb4d0af27	-3.887046e-07
19	0xb7e5d3a8	-2.7397487e-05

exp_avg_sq f4 [2, 10]
0	0x36866667	4.0054324e-06
1	0x30896295	9.996081e-10
2	0x3663beb3	3.3936637e-06
3	0x31830b64	3.8138968e-09
4	0x3521d1dc	6.028256e-07
5	0x30569a87	7.8072343e-10
6	0x35bc152a	1.4013251e-06
7	0x37765cb5	1.4684328e-05
8	0x360e2f3e	2.1187147e-06
9	0x35bb0ea5	1.3936848e-06
10	0x3665143d	3.413544e-06
11	0x3064e087	8.326499e-10
12	0x365215ae	3.1305058e-06
13	0x31942437	4.311484e-09
14	0x35239971	6.094552e-07
15	0x2fee77b9	4.3377016e-10
16	0x35bbc5fc	1.3990207e-06
17	0x377797cb	1.4757689e-05
18	0x35ba6f9f	1.3890566e-06
19	0x3572528e	9.027216e-07

exp_avg f4 [2]
0	0xba76dd1b	-0.00094171026
1	0x3a506cef	0.00079508027

exp_avg_sq f4 [2]
0	0x390ec2e1	0.00013614773
1	0x38eb6585	0.00011224583
