lightning_logs/version_25/checkpoints/epoch=0-step=1875.ckpt (torch, 13515 bytes, 18 tensors)

layers.0.weight f4 [20, 4]
00000000: e120 74bd aebf 473e 843d 783e f75a eabd
00000010: 11d2 15bc e213 5b3e 0b4b 843d 6841 913c
00000020: e6dc 30be 6c4d 9bbe 1f31 113e 6dcc b1be
00000030: ce1d a0be 1d8e 71be 89d8 41be 0614 bebe
00000040: c7f5 a63e 8415 bebd b15f 213e f1f2 d03e
00000050: bec4 fe3e 81b9 b8bd b456 813d 1fc8 c0be
00000060: 6631 0d3e 5f58 843d 7795 d83e 13dd 89be
00000070: 4ff2 1ebf ec03 aebd ac9e 923e 9cb6 d0bd
00000080: 7f7a c83e e675 b53e f0f0 96bd fa46 3bbe
00000090: 4bc1 5c3b ed13 01bf be1c c93e 76f7 3e3e
000000a0: eb5a 7f3e 34a5 82be 7fea 81be 0a75 48bd
000000b0: 4a85 7a3d f4c6 21be 0b11 0c3e 012f ee3d
000000c0: c993 b1bd 68f2 673e 63b2 5bbe a816 e03e
000000d0: 9837 25bc 0bac 8c3e e750 b3be b64d ffbe
000000e0: 4453 7bbe 026f a2be ed1a 373e 143d 09bd
000000f0: 5f35 b53d fda1 393d 3562 cc3e eda1 02be
00000100: 7b47 cd3e ec34 b63e c0fa 3a3e a311 97be
00000110: 9195 02bf 29d6 b83e a268 babe 734c 02be
00000120: d972 74be 50d6 dbbd 624c a63d 2ac7 733e
00000130: 9fae 6cbd 347d 8bbd d2f7 8d3e 97db a03e
-0.05960167 0.19506714 0.24242216 -0.114431314 -0.009144322 0.21394303 0.06459626 0.017731383
-0.17271766 -0.30332506 0.14178894 -0.34726277 -0.3127274 -0.23589368 -0.18930258 -0.37124652
0.32609388 -0.092814475 0.1575916 0.4081035 0.49759477 -0.09019757 0.063153654 -0.3765268
0.13788375 0.06462168 0.42301533 -0.2692648 -0.62088484 -0.08496842 0.28636682 -0.1019108
0.39155957 0.35441512 -0.07370174 -0.18288794 0.0033684548 -0.5042103 0.3927974 0.18649086
0.24937026 -0.25516665 -0.2537422 -0.048939742 0.06116227 -0.15798551 0.13678376 0.11630059
-0.08670766 0.22651064 -0.21454768 0.43767285 -0.010084055 0.27475008 -0.3502266 -0.49863976
-0.24543482 -0.31725317 0.17881365 -0.033505514 0.0884807 0.0453205 0.39918676 -0.12757082
0.40093598 0.3558725 0.18259716 -0.29505643 -0.5100947 0.3610089 -0.36407954 -0.12724476
-0.23871936 -0.10734236 0.081200376 0.23806444 -0.05778372 -0.0681099 0.27728134 0.31417534

layers.0.bias f4 [20]
00000000: ec78 91be 507f 02bf ffe1 c2be 8418 043d
00000010: 2a95 04be c6b6 8a3d a7d0 dc3e ae20 ca3e
00000020: 5a2a 1d3d c248 03bf d603 2c3d 9742 ff3d
00000030: bf6e 9b3e 05c7 bbbe c2c1 f93e f941 0d3e
00000040: 2be0 e53d bbc5 2d3e b49f 993e 102f f2bd
-0.2841257 -0.50975513 -0.38063046 0.032249942 -0.12947527 0.067731425 0.4312794 0.39478058
0.038370468 -0.51282895 0.041995846 0.12463873 0.3035793 -0.36675277 0.48780638 0.13794698
0.11224397 0.1696996 0.30004656 -0.11825383

layers.2.weight f4 [10, 20]
00000000: 5011 33bd 3c46 1dbc 1878 373e 5395 f3bd
00000010: c496 06be 0b66 e6bc 4a09 473e 1575 4f3e
00000020: 3e5f 143d 2196 5b3e 7b29 063d f7ed 20be
00000030: 7770 983d 3525 803d 0715 b23d 291b 92bd
00000040: bab8 4d3b 07f7 8cbd 5fd2 803e b807 fb3d
00000050: 169b e93e a2cc 76bc 9f7e 8bbe 9df3 943c
00000060: 1892 5ebe ccf6 9ebd 2be9 81bb ec81 92bd
00000070: e383 e9bd f427 50be 37eb 9d3d 7854 5cbe
00000080: dad5 f0be 42f0 ad3d 7991 35be 5086 e43d
00000090: ef22 0dbe 3e66 aebd dea3 57be 0331 043e
000000a0: 6e94 a63c d27a 2d3d b5a9 79bc 2660 873d
000000b0: 752a e93d d83f 8c3d 47ea 6dbe 7179 73be
000000c0: f855 063e 3920 adbd f9c4 3abe 38a4 54be
000000d0: 9b8c 4c3d c39c 1fbe 3cc3 7bbc d355 24bd
000000e0: aa4d e33c c533 24be 25ce 7cbe 7825 20be
000000f0: 7e4d 18be b464 35be 7462 8abd 23ca 2c3e
00000100: 815b 10be 5cc5 b5bd 1925 fb3d f7d2 2b3d
00000110: 424e a43d 9eb1 06be 23d1 4b3e b594 4a3e
00000120: dd44 213d 5512 eebd 1621 21bd 99de 0c3e
00000130: 9b87 fdbd 9883 c53d 145c 55bd a3ee 893d
00000140: 6653 013f 1226 c73e 20ee 873e 48ff fc3d
00000150: b981 91bd c33d e9be 9107 27bd e259 afbb
00000160: 659d 1fbe bf47 803e 5859 683e 455e 7dbe
00000170: 2137 5ebf 0015 0b3f 85b4 41be d9f3 28be
00000180: fa9a c8bd a22f 603e 188b d6b9 3585 9f3e
00000190: a859 ab3e d59a 813e 41ef 46be a861 1d3d
000001a0: 6237 103e 3c44 67bd ca1b 0bbe 96e3 6d3d
000001b0: 94c9 0b3e 5240 763d a9a5 843d fd82 04be
000001c0: c50a 01be 99b3 4a3d 6e6b 5bbd ba66 bf3d
000001d0: 043d 31be df5f 31be e058 8bbe 9fe5 bdbd
000001e0: d657 01bf 1f7a ffbd 74a6 b7bc b2ba 79be
000001f0: 27e6 8ebb fbf2 033e a442 46be aa13 3fbe
00000200: 794f 043e 9a65 a93d c142 853e 6100 b2bc
00000210: dd12 08bc c11e 903d f610 c83d 3b94 04bd
00000220: c4fd 6b3d acda 803e 85a5 173e 66a3 a9bd
00000230: 3b8e 2d3f bf48 233e 69c1 5dbe 384d 303d
00000240: fc1b a33d 96b8 323e b535 52be 6769 5cbe
00000250: 951d c63d 5276 cdbd d775 5f3e 2090 963d
00000260: f233 153e 7ea8 efbd 3c99 013e 4648 c3bd
00000270: 9317 d1bd 328c 543e 6954 23be e662 2c3e
00000280: 9e3e 91bc ccfa 26be dd0e 363e 415d 0e3d
00000290: 5249 53be fa63 47be 0419 183e 09de 15be
000002a0: 04f1 debd 2432 093d 848b ad3d fd31 303e
000002b0: 11e1 72be 01f7 7a3d 0be6 37be d058 6fbe
000002c0: 60bc 80be 32cf be3d 946e 18be 6aa9 a03d
000002d0: 37f1 57be 0fb1 143e 6173 023e ba9f 1bbe
000002e0: d968 d63d 732a a3bd 97f8 88be 9a87 ae3d
000002f0: 637b ec3d 3cf9 96be 383b be3b 7f72 82be
00000300: 3e6d aa3b 2010 dcbd 0bbb 86be 1cf9 143e
00000310: d93b c5bd 3f59 e73d 6cd4 abbd 7fff 4cbd
-0.043717682 -0.009599265 0.17916906 -0.11893716 -0.1314345 -0.02812483 0.19437137 0.20259507
0.036223643 0.21443988 0.032754403 -0.15715776 0.07443326 0.06257097 0.08695417 -0.07134087
0.0031390623 -0.06883054 0.251605 0.122573316 0.45626134 -0.015063437 -0.27245042 0.01818257
-0.21735418 -0.077619165 -0.0039645634 -0.07153687 -0.114021085 -0.20327741 0.07710879 -0.21516597
-0.47038156 0.08493091 -0.17731275 0.111584306 -0.13782857 -0.08515595 -0.21058604 0.12909321
0.020334449 0.04235346 -0.015238215 0.06610136 0.11385051 0.06848115 -0.23233901 -0.23776795
0.13118732 -0.084534116 -0.18239202 -0.2076577 0.04993878 -0.15587144 -0.015366372 -0.04012091
0.027746994 -0.16035374 -0.24688013 -0.15639293 -0.14873311 -0.17714196 -0.0675706 0.16873984
-0.14097406 -0.08875534 0.12262935 0.04194924 0.08022739 -0.13153693 0.19903998 0.1978329
0.039372314 -0.1162459 -0.039338194 0.1375679 -0.1237938 0.0964424 -0.052089766 0.067349695
0.5051788 0.38896233 0.26548862 0.123533785 -0.07104821 -0.45554933 -0.0407787 -0.005351291
-0.15587385 0.25054738 0.22690332 -0.24742992 -0.8680287 0.5432892 -0.18916519 -0.1649927
-0.097951844 0.2189317 -0.00040920894 0.31156316 0.3346684 0.2531344 -0.19427206 0.03842321
0.14083627 -0.056461558 -0.1358482 0.05807837 0.13651115 0.060119934 0.0647691 -0.12940593
-0.12601765 0.049487684 -0.05356925 0.093457654 -0.17308432 -0.17321728 -0.27216244 -0.092723124
-0.5052465 -0.124744646 -0.022418238 -0.24387625 -0.0043609324 0.12885658 -0.19361359 -0.18659845
0.12920941 0.08271332 0.26027492 -0.021728696 -0.008305279 0.07037116 0.0976886 -0.032367926
0.057615057 0.25166833 0.14809234 -0.08283119 0.6779515 0.15945719 -0.21655811 0.04304239
0.07964322 0.17453226 -0.205283 -0.21524583 0.09673611 -0.100323334 0.21822296 0.073517084
0.14570597 -0.11702059 0.1265611 -0.095352694 -0.102095746 0.20756605 -0.15950169 0.16834602
-0.017730054 -0.16306609 0.17779107 0.034756903 -0.20633438 -0.19471732 0.14853293 -0.14635481
-0.10885814 0.033495083 0.08473876 0.17206569 -0.23718669 0.061270718 -0.17958848 -0.23373723
-0.2514372 0.09316863 -0.14885932 0.07844813 -0.2108811 0.14520667 0.12739326 -0.1519765
0.10469217 -0.07967081 -0.2675216 0.08521958 0.11546972 -0.29487026 0.0058053993 -0.2547798
0.005201011 -0.10745263 -0.26314577 0.14548153 -0.09630556 0.11296319 -0.08390126 -0.050048348

layers.2.bias f4 [10]
00000000: 82bc 6b3e 1d88 553c e27f 69be 52ed 6e3e
00000010: 5b8a 57be 5418 6fbe 0e05 82bc b9e9 a83d
00000020: c80d c9bd 15fd 233b
0.23021129 0.01303294 -0.2280269 0.23332718 -0.21048872 -0.23349124 -0.01587155 0.08247704
-0.09817082 0.0025022675

layers.4.weight f4 [2, 10]
00000000: 80b9 253b 7e14 523e 208a 653b 005e eabd
00000010: ae40 043f f808 853e 3c38 2ebe 8e70 8ebd
00000020: 1624 523e a69b 66be 939d b5bd 4723 d13d
00000030: 8dc2 753e c089 4cbe 8fb4 9cbe c8dd 803e
00000040: d64e 08be bcd3 a5bd 0297 29be 70ff 1f3e
0.0025287569 0.2051563 0.0035024956 -0.1144371 0.51661193 0.25983405 -0.17013639 -0.06955062
0.20521578 -0.22520313 -0.088679455 0.10211807 0.23999996 -0.19974422 -0.30606505 0.25169206
-0.13311324 -0.08097026 -0.16561511 0.15624785

layers.4.bias f4 [2]
00000000: b3f9 513d adbe 353e
0.051263522 0.17748518

exp_avg f4 [20, 4]
00000000: 68d0 b8b6 1261 c3b6 403d 16b8 bcde be36
00000010: 325e 1fb3 b507 03b3 fb8b 9fb4 0218 5834
00000020: 1a41 d733 3e27 85b3 50bc 0c35 c0a9 1f34
00000030: d299 db35 6002 9c35 9b0a 6437 14fd 67b7
00000040: 0012 fcb3 a877 2eb4 20ff abb5 b847 f636
00000050: 4168 b6b5 e13a a6b5 115f 44b7 6cd4 3a37
00000060: d666 5636 d9d0 2d36 7d7b bf37 41a4 e3b7
00000070: 6e1b 0636 8191 f535 80b4 4e37 5b94 84b7
00000080: e433 d135 c86a cf35 ac70 6e37 108d 24b7
00000090: 641f 43b5 20ce 23b4 a6f0 1bb7 08eb 8cb6
000000a0: 550f c432 9045 0732 44fb 7c34 e416 b4b4
000000b0: e46a 3236 a078 ea35 642f d737 81d9 6fb7
000000c0: 400a 03b3 44df 50b5 581e 1336 d8df 15b6
000000d0: dee6 02b5 aa7f edb4 6806 93b6 27d1 a936
000000e0: b24e 35b5 5e17 67b5 f2fa 7bb6 8857 51b6
000000f0: 5af0 2936 e0e9 0f36 061a b137 a31d 1eb7
00000100: 4f59 dbb5 2ed1 45b5 02b3 8cb7 90d2 8137
00000110: b4d3 dc31 1045 c9b0 3e1a d333 cbfb 0ab4
00000120: 42b7 5a34 3070 3f35 36da 2eb6 791d aeb6
00000130: f2b8 34b5 76a2 61b5 2406 52b6 5a47 31b7
-5.507889e-06 -5.8227533e-06 -3.581983e-05 5.688371e-06 -3.7105742e-08 -3.0507824e-08 -2.9717907e-07 2.0125302e-07
1.00235596e-07 -6.200433e-08 5.2428095e-07 1.4869784e-07 1.6361539e-06 1.1623597e-06 1.3592328e-05 -1.3827597e-05
-1.17379386e-07 -1.6248543e-07 -1.2814744e-06 7.3397205e-06 -1.3590399e-06 -1.23851e-06 -1.1704645e-05 1.1135922e-05
3.1948343e-06 2.5900574e-06 2.2826478e-05 -2.7136995e-05 1.9983522e-06 1.829627e-06 1.2320583e-05 -1.580471e-05
1.5586816e-06 1.5453779e-06 1.4212139e-05 -9.808005e-06 -7.268884e-07 -1.5255546e-07 -9.29475e-06 -4.1996864e-06
2.2824375e-08 7.873851e-09 2.3560739e-07 -3.3544268e-07 2.6586285e-06 1.7469465e-06 2.5652065e-05 -1.4296152e-05
-3.0510137e-08 -7.781093e-07 2.192237e-06 -2.2333024e-06 -4.876473e-07 -4.4237578e-07 -4.381687e-06 5.060941e-06
-6.754227e-07 -8.608821e-07 -3.7547984e-06 -3.1194377e-06 2.5322865e-06 2.1444794e-06 2.1112162e-05 -9.424434e-06
-1.6342764e-06 -7.3692615e-07 -1.6772658e-05 1.547605e-05 6.4269106e-09 -1.4644304e-09 9.8302266e-08 -1.2943853e-07
2.0369501e-07 7.13163e-07 -2.6055036e-06 -5.189035e-06 -6.7324356e-07 -8.4055443e-07 -3.1296013e-06 -1.0566635e-05

exp_avg_sq f4 [20, 4]
00000000: f3f2 6b30 4f6e 8330 8bdb a933 6c34 3933
00000010: ab33 832e 2b93 cc2e f958 af31 38e1 af31
00000020: 5525 4030 fc28 3d30 dad6 6433 1ce9 2633
00000030: 40e4 1430 6758 1130 2d36 3c33 41a7 1e33
00000040: af6a c331 f5ad f531 918a 1535 4c13 e332
00000050: c122 0130 ab1a 1130 6cec 3733 fa2a ad32
00000060: 8620 e631 7deb 0d32 5b3a 2735 57c0 6534
00000070: 0a6d e731 6a0a f031 94f2 1435 478c 9c33
00000080: 4f6f a531 e94d cd31 5f99 e734 7fbe c633
00000090: 5776 2d30 cc70 4e30 9268 6d33 c759 1832
000000a0: a9d9 5a2d 9ac4 882d f8e1 bf30 1d5f 5d31
000000b0: d3c2 f631 ed98 0d32 d972 3435 7e62 c133
000000c0: 2266 4930 c8e0 5230 d8e8 8b33 81d9 7733
000000d0: 41f6 b92d 212a 042e 35db 2131 0993 8831
000000e0: 33f7 1531 4076 1e31 eb98 3534 23c7 7733
000000f0: ac9a 2032 7b5a 3732 eeb2 5c35 9d38 d633
00000100: fa38 8030 93fc 9530 e64d b933 5bb8 af32
00000110: 7ee7 8d2f 90d6 b32f f8d9 aa32 6fd7 d732
00000120: 24e6 9930 1f17 bd30 9c19 ec33 40d4 8b32
00000130: 82f5 9430 f7d3 a330 7838 d533 6dab 8133
8.5837754e-10 9.562856e-10 7.9096104e-08 4.3121346e-08 5.9663684e-11 9.302988e-11 5.1032853e-09 5.1187747e-09
6.9902245e-10 6.881604e-10 5.3280793e-08 3.88619e-08 5.416645e-10 5.287632e-10 4.3821434e-08 3.693936e-08
5.6873755e-09 7.150215e-09 5.5708466e-07 2.6435053e-08 4.6979315e-10 5.278859e-10 4.2823032e-08 2.0159394e-08
6.6975785e-09 8.260824e-09 6.2297266e-07 2.139726e-07 6.735381e-09 6.9861033e-09 5.5487294e-07 7.2898324e-08
4.8147863e-09 5.9751426e-09 4.3138695e-07 9.2547445e-08 6.3105204e-10 7.510266e-10 5.527597e-08 8.8679775e-09
1.2440196e-11 1.5548719e-11 1.3961303e-09 3.2213798e-09 7.1816912e-09 8.2420515e-09 6.722235e-07 9.0051785e-08
7.3268513e-10 7.671699e-10 6.515046e-08 5.7706988e-08 2.1141424e-11 3.0050743e-11 2.3553188e-09 3.974837e-09
2.182287e-09 2.3059243e-09 1.691257e-07 5.7690283e-08 9.348394e-09 1.0672575e-08 8.2216764e-07 9.9754494e-08
9.32942e-10 1.0912963e-09 8.6289035e-08 2.0456516e-08 2.5812236e-10 3.2712366e-10 1.9889725e-08 2.5127262e-08
1.1197625e-09 1.3758131e-09 1.0994265e-07 1.627825e-08 1.0838195e-09 1.1920055e-09 9.928857e-08 6.038213e-08

exp_avg f4 [20]
00000000: 0095 8eb7 ec80 19b4 8ecd 0835 0423 f436
00000010: 801c 3cb4 49bc bbb6 192f 3837 49bb c336
00000020: 34fc dc36 e7df 9eb6 f22c fd33 eaf8 5037
00000030: c6cf ec35 7cc1 0bb6 073a e4b5 58f8 2937
00000040: 4ebe 06b7 7c2f 5733 02d4 01b6 824e 15b6
-1.6997103e-05 -1.4296137e-07 5.096307e-07 7.275843e-06 -1.7519233e-07 -5.5949536e-06 1.097822e-05 5.8332557e-06
6.5858712e-06 -4.7348326e-06 1.1789406e-07 1.2455721e-05 1.764384e-06 -2.0825237e-06 -1.7004212e-06 1.0131007e-05
-8.031331e-06 5.0101775e-08 -1.9345903e-06 -2.2248428e-06

exp_avg_sq f4 [20]
00000000: a8e3 8e32 0c7d 7b30 8c62 4132 44cf 1d32
00000010: 070a f733 2382 1a32 3ae3 0a34 8c98 0134
00000020: fa7f c533 cc69 3e32 b719 cc2f db24 1734
00000030: ded8 6932 372e 0f30 44d5 1e33 3bfd 3c34
00000040: 0cf9 9832 5d8b 9031 bffa c332 a392 ae32
1.6634502e-08 9.149097e-10 1.12564855e-08 9.1857295e-09 1.1503658e-07 8.9935694e-09 1.2934916e-07 1.2069557e-07
9.196806e-08 1.1083511e-08 3.7125655e-10 1.4076379e-07 1.3611695e-08 5.208877e-10 3.6981206e-08 1.7600989e-07
1.7808382e-08 4.2067954e-09 2.2815014e-08 2.0322949e-08

exp_avg f4 [10, 20]
00000000: 5447 1b37 bdb1 26b3 4e32 1737 88da cd36
00000010: fa5e 91b7 8601 c637 5175 ef37 eb00 5437
00000020: 69ab 1737 9bf6 03b7 30cf 0e32 5b48 b3b6
00000030: 7a8a 2ab7 35ca e835 d422 fd36 64b5 8437
00000040: 604a d337 9ab4 3d33 5ebc 60b7 587e 7cb7
00000050: 5cd3 90b4 5e3e 6c31 6859 85b4 46c8 fcb3
00000060: 5bb4 dcb4 328f d4b4 b908 beb5 e884 67b5
00000070: 4b20 23b4 252e 82b4 b192 9d31 b720 c6b4
00000080: aae5 ebb3 526c b3b2 ef74 4ab5 046d 89b5
00000090: 3499 44b5 800d cd31 70e6 ceb4 3b93 f2b4
000000a0: 0c75 86b4 2e6e 9830 3cc4 83b4 288c 31b4
000000b0: 4ae9 f134 f698 29b5 6640 53b5 6b99 bdb4
000000c0: 2012 82b4 20ce 5a34 a03b 13af 71c2 0f34
000000d0: 783a 9134 1103 45b3 e043 68b4 7eaa ecb4
000000e0: 2780 37b5 e42a 90b0 3280 ba34 da74 d134
000000f0: 6e24 fd37 11e8 8ab4 bba4 ef37 435a 8a37
00000100: f04c 89b6 197f 7c38 eead 0439 3fc4 9138
00000110: 3c87 c137 c014 b435 51c9 85b4 a4bb 5337
00000120: 6878 27b7 3a1d 8436 e689 6738 58c7 af38
00000130: f610 ac38 1da9 91b4 80f1 3f35 20d4 fb35
00000140: 1c0c 04b4 38ca dd31 e61d 99b3 eeb4 ae33
00000150: 0ab7 10b6 be21 ed34 aff4 fcb5 fc5b c2b5
00000160: d0cc 3634 9f3b 97b5 f1c8 5632 26e0 adb5
00000170: ee1e 7db5 8200 6033 8138 c7b5 e1f0 dfb5
00000180: 68fb aab4 8453 9d32 6ab9 f7b5 948d 0eb6
00000190: a84f f9b4 a69e a631 3f22 eab4 d3e6 78b4
000001a0: a575 95b4 4f5f 5bb5 cc63 11b6 335f a8b5
000001b0: 5263 a8b4 2c78 52b4 f156 c131 f425 d1b4
000001c0: 00fc a431 d859 54b3 ccd8 8cb5 845d c9b5
000001d0: 6b96 a9b5 5633 ec31 88ce a0b4 fe33 c1b4
000001e0: 229f 9134 1596 50b1 6409 8834 8f93 0b34
000001f0: 34b7 8234 637f f234 1ebd b035 ec5f 5035
00000200: 4a2c 3a34 1fa9 2734 fc26 7fb1 9e04 9334
00000210: 90fc 0e33 8cc9 e132 da2b 3135 4e8b 7835
00000220: 410b 4635 51f6 9fb1 14b0 8234 e20e 9b34
00000230: 32c2 b334 3454 8531 612f 6934 3e6b 4834
00000240: 082b 20b7 6393 9e34 be03 77b6 fc8f a5b5
00000250: bcf5 de33 b666 5db6 33b2 4033 8cc3 7fb6
00000260: 18a5 f5b6 3a7d 2a34 e0dd d5b5 84bb 8ab6
00000270: 00c6 fc31 3773 8233 7280 bcb6 c033 04b7
00000280: 003d 7fb1 4a0a 2331 1cce 8932 b922 8633
00000290: 8ab2 7cb5 af1d 9c34 fc77 23b5 a0d6 09b5
000002a0: b730 f033 9b7e 02b5 c022 ac31 4c29 11b5
000002b0: 16fc e3b4 a801 fa32 245a 14b5 fc28 1db5
000002c0: 80c1 5ab1 8cb7 0032 6873 56b5 b850 76b5
000002d0: 40f4 e632 0903 38b1 d0f9 ca31 469d 60b3
000002e0: 9d66 8335 9868 8ab4 78c2 4435 1a2c 1e35
000002f0: dcc9 d4b3 5e5e 0835 1a06 bab1 a709 1a35
00000300: b0ff e834 7e4f ecb2 9c3a 2635 f246 3535
00000310: 0865 8f33 fad6 09b2 6fd2 5f35 9da2 8035
9.255327e-06 -3.881154e-08 9.012014e-06 6.1349165e-06 -1.7329574e-05 2.3604149e-05 2.854565e-05 1.2636398e-05
9.040211e-06 -7.865626e-06 8.312597e-09 -5.343039e-06 -1.0165031e-05 1.7344197e-06 7.544042e-06 1.5820093e-05
2.5187794e-05 4.4169248e-08 -1.3395298e-05 -1.5049787e-05 -2.6975874e-07 3.4377972e-09 -2.4838232e-07 -1.1771094e-07
-4.110942e-07 -3.9592265e-07 -1.4158642e-06 -8.624761e-07 -1.5192306e-07 -2.4247962e-07 4.5859783e-09 -3.6904177e-07
-1.0984816e-07 -2.0887601e-08 -7.5421025e-07 -1.0239023e-06 -7.323863e-07 5.96782e-09 -3.8538155e-07 -4.5183137e-07
-2.5044608e-07 1.109077e-09 -2.454343e-07 -1.6535398e-07 4.5059488e-07 -6.3179994e-07 -7.869734e-07 -3.531562e-07
-2.4227575e-07 2.037782e-07 -1.3390755e-10 1.338865e-07 2.7050896e-07 -4.5870426e-08 -2.1631377e-07 -4.4082475e-07
-6.83593e-07 -1.0489569e-09 3.4738474e-07 3.9014304e-07 3.0176914e-05 -2.5873354e-07 2.8567729e-05 1.6492913e-05
-4.091875e-06 6.019985e-05 0.00012653295 6.9506925e-05 2.3070366e-05 1.3417084e-06 -2.4919657e-07 1.26202685e-05
-9.98201e-06 3.937309e-06 5.520312e-05 8.381781e-05 8.204758e-05 -2.71314e-07 7.1504473e-07 1.8762694e-06
-1.2297863e-07 6.454936e-09 -7.130056e-08 8.135417e-08 -2.1564215e-06 4.416924e-07 -1.8846675e-06 -1.4480897e-06
1.7024581e-07 -1.1267729e-06 1.2502128e-08 -1.295474e-06 -9.4294853e-07 5.2154526e-08 -1.48431e-06 -1.66849e-06
-3.184789e-07 1.8315184e-08 -1.8456897e-06 -2.1242058e-06 -4.6437822e-07 4.849272e-09 -4.3610814e-07 -2.3180773e-07
-2.783901e-07 -8.172255e-07 -2.1664773e-06 -1.2544682e-06 -3.1364704e-07 -1.9601492e-07 5.6269234e-09 -3.8956898e-07
4.8016773e-09 -4.944181e-08 -1.0493909e-06 -1.5002884e-06 -1.2635259e-06 6.87434e-09 -2.9952594e-07 -3.598688e-07
2.712414e-07 -3.0353295e-09 2.5338807e-07 1.2999065e-07 2.4347685e-07 4.51687e-07 1.3168062e-06 7.7625623e-07
1.7338712e-07 1.5614613e-07 -3.7129544e-09 2.7384243e-07 3.3291656e-08 2.62851e-08 6.600145e-07 9.2589914e-07
7.3777124e-07 -4.655512e-09 2.43425e-07 2.8881828e-07 3.3482644e-07 3.8803822e-09 2.1717052e-07 1.8665466e-07
-9.546762e-06 2.953703e-07 -3.6808046e-06 -1.2335363e-06 1.03823794e-07 -3.2991352e-06 4.4865555e-08 -3.8111784e-06
-7.3207884e-06 1.5878041e-07 -1.5934311e-06 -4.13455e-06 7.3566753e-09 6.074554e-08 -5.6177896e-06 -7.879862e-06
-3.7142058e-09 2.372547e-09 1.6042627e-08 6.246177e-08 -9.4137124e-07 2.9078862e-07 -6.089683e-07 -5.13488e-07
1.1184732e-07 -4.861301e-07 5.0098095e-09 -5.4076804e-07 -4.2465462e-07 2.9104584e-08 -5.526547e-07 -5.85467e-07
-3.1833167e-09 7.492314e-09 -7.988915e-07 -9.17596e-07 2.6886596e-08 -2.677725e-09 5.907374e-09 -5.2297104e-08
9.790125e-07 -2.5780605e-07 7.329868e-07 5.8923763e-07 -9.908737e-08 5.080127e-07 -5.414006e-09 5.7383517e-07
4.3399405e-07 -2.7510165e-08 6.1925107e-07 6.7530993e-07 6.677334e-08 -8.02333e-09 8.3380195e-07 9.58407e-07

exp_avg_sq f4 [10, 20]
00000000: 3c0f c031 c0c6 8e2b 9aba c632 e1b2 b931
00000010: 35e4 6b33 9915 e432 9b81 3334 b20b a933
00000020: c61f f831 03a5 9a32 2e56 f02b cd88 9132
00000030: 4cd0 9732 22dd 6b2f d9a6 4533 ebec f033
00000040: c7f2 2a33 33d1 c82e cbe2 f432 dedc 7333
00000050: 5fbd 472c 937e db2a 00b3 d633 7083 9c31
00000060: 0df9 c132 e07c eb32 f8b8 9234 762a 5434
00000070: 89f6 0033 9bf4 b731 de92 a02c ab8b 8431
00000080: 7d7a b52d 6fcd 292e 66c3 ff32 6219 8c34
00000090: 4bb8 9e32 8e86 6e30 3bf5 2131 496e 6733
000000a0: 34f1 8b2c 791b 9726 eafd 472d be4a 3f2c
000000b0: eba4 442e baad 932d a078 f52e 47b2 682e
000000c0: ad50 872c 15b2 802d 5483 b426 42dc 712d
000000d0: c4ba 6d2d b284 252a 6297 182e 492e a82e
000000e0: 717d e62d a695 3429 6e06 cd2d 5952 482e
000000f0: 5598 6133 73b4 832d 55ff ca34 0b84 8533
00000100: d9b0 2c35 522a a034 8639 0636 7cb0 8e35
00000110: 2bda fa33 c07d 6034 393e e52d 6e8b 4b34
00000120: dc7c 5134 dbd4 0c31 09f8 0435 f682 c735
00000130: 766d d734 9521 3531 7bd2 ac34 258b 3a35
00000140: 7e8f 342d 090a e226 583e 1f2f fd3c bc2d
00000150: cf82 ef2e bf6a be2e 8272 1b30 6508 ae2f
00000160: e584 452e d707 2c2e 42b9 8d28 1b0a 192e
00000170: 6fff dd2d a4d5 da2b 3e87 f02e 9125 ee2f
00000180: 2075 d42e 4504 192c 5f45 682e 7e09 152f
00000190: 99d1 132d 9afc 842b 0754 e234 ab7c bd32
000001a0: 0f33 bc34 c388 0234 d828 c735 014d 9135
000001b0: c7d7 0a34 f50d b233 3eae a22d 12dc 7133
000001c0: 02c4 b232 4d8b 052f 9557 8334 009e c835
000001d0: 458d ab33 4379 9531 64af 8933 e86c 0535
000001e0: c621 922c 6eb9 082d eaba 052e f25f 912d
000001f0: 6f66 9e34 ac70 fd2d 7709 5133 e39d 1f33
00000200: c654 142e 3e33 bd33 039b 6b2c 8d58 8e33
00000210: faad f033 a821 862e 100f a133 20bc 9733
00000220: 95c7 282e 746c f12c 6f3d 1334 c26c 7934
00000230: 890c 052e c3f9 252c 3cf0 9c2e 9ab9 ab2d
00000240: 1f5c 7634 7b2a 1f2e 2b04 4133 7eba 1433
00000250: b86b 2e2e 2f08 9233 a654 3d2c e1de 5833
00000260: a1f5 b833 ba54 512e 8c40 8133 e185 8633
00000270: 8ed6 a42e 0cee b92c cf66 de33 4eaa 4534
00000280: b820 1231 d2fd a82b 0977 7134 57e3 6633
00000290: 262a 4131 2678 c533 eca7 2135 f9eb 9734
000002a0: fbb0 6333 7bca 7831 2b51 962b 2d9f 2931
000002b0: ee43 252e 0a01 5530 861b 5e33 f4d9 c434
000002c0: 44be e133 10fe 8630 4e39 5f30 1243 1133
000002d0: 7463 2e30 134f 832c e83d c335 49e0 4534
000002e0: c421 5134 af23 1d35 faae 5436 5883 0e36
000002f0: 5826 ee34 9de4 4133 a652 552f 8ba4 0933
00000300: eeda 1432 829d 2831 4af0 8634 e9b8 3a36
00000310: ee4d ce34 799e 0833 a2bc 0433 4c05 cf34
5.5896674e-09 1.0144871e-12 2.313509e-08 5.404545e-09 5.4922754e-08 2.6552515e-08 1.6717824e-07 7.871803e-08
7.221362e-09 1.8002998e-08 1.7076945e-12 1.6942431e-08 1.7673436e-08 2.1451688e-10 4.6019384e-08 1.1218966e-07
3.9802014e-08 9.132108e-11 2.8508472e-08 5.6778724e-08 2.8384723e-12 3.8990043e-13 9.9977115e-08 4.5551403e-09
2.2581412e-08 2.7414387e-08 2.7329202e-07 1.9759486e-07 3.0026545e-08 5.3538094e-09 4.563779e-12 3.857584e-09
2.0631713e-11 3.8608613e-11 2.9774764e-08 2.60955e-07 1.8477428e-08 8.677511e-10 2.356798e-09 5.3884182e-08
3.9773965e-12 1.0485176e-15 1.1368221e-11 2.7184223e-12 4.4711717e-11 1.6789115e-11 1.11627374e-10 5.2909035e-11
3.8458876e-12 1.4631e-11 1.2525606e-15 1.3748171e-11 1.3513361e-11 1.4700982e-13 3.4695254e-11 7.6479774e-11
2.620368e-11 4.0097828e-14 2.3308657e-11 4.5547874e-11 5.252544e-08 1.4973111e-11 3.781121e-07 6.2173136e-08
6.433234e-07 2.9833114e-07 2.000104e-06 1.0631188e-06 1.1681217e-07 2.0907373e-07 2.6061918e-11 1.8956572e-07
1.9510065e-07 2.0493676e-09 4.953477e-07 1.486477e-06 4.0126514e-07 2.6358056e-09 3.219064e-07 6.949288e-07
1.0263677e-11 1.568462e-15 1.4483115e-10 2.140021e-11 1.0891698e-10 8.6591616e-11 5.6551397e-10 3.165638e-10
4.4910648e-11 3.9115235e-11 1.5734487e-14 3.4797148e-11 2.5238226e-11 1.5549129e-12 1.093796e-10 4.331864e-10
9.6614494e-11 2.1744978e-12 5.2812307e-11 1.3554843e-10 8.402523e-12 9.449275e-13 4.2156918e-07 2.2059188e-08
3.505488e-07 1.2156947e-07 1.4838542e-06 1.0825753e-06 1.2930751e-07 8.29131e-08 1.8494647e-11 5.6312338e-08
2.0811061e-08 1.2145769e-10 2.4464376e-07 1.4947145e-06 7.988505e-08 4.3502566e-09 6.411463e-08 4.970484e-07
4.153319e-12 7.771879e-12 3.0406712e-11 1.65272e-11 2.9504324e-07 2.8812806e-11 4.8670213e-08 3.716367e-08
3.3726598e-11 8.810319e-08 3.3481557e-12 6.6284976e-08 1.1207517e-07 6.099593e-11 7.4998866e-08 7.065705e-08
3.8376042e-11 6.8616727e-12 1.3712791e-07 2.3229498e-07 3.0251832e-11 2.3586556e-12 7.136733e-11 1.9522873e-11
2.2944049e-07 3.6190145e-11 4.4940105e-08 3.462855e-08 3.9658693e-11 6.8001434e-08 2.6905505e-12 5.0494126e-08
8.612847e-08 4.759635e-11 6.0187716e-08 6.264214e-08 7.495969e-11 5.2844448e-12 1.0356381e-07 1.8409011e-07
2.1264395e-09 1.2007567e-12 2.2488179e-07 5.3757812e-08 2.8109155e-09 9.195382e-08 6.022153e-07 2.8297634e-07
5.301352e-08 3.6203847e-09 1.068067e-12 2.4683218e-09 3.757699e-11 7.7490425e-10 5.1713435e-08 3.6666427e-07
1.0511988e-07 9.821992e-10 8.120836e-10 3.3821443e-08 6.344216e-10 3.732023e-12 1.4546649e-06 1.8428649e-07
1.9476926e-07 5.8538984e-07 3.1692311e-06 2.12361e-06 4.4358853e-07 4.5144237e-08 1.94016e-10 3.204745e-08
8.664513e-09 2.453675e-09 2.5134278e-07 2.7823792e-06 3.842719e-07 3.1809098e-08 3.0905206e-08 3.8560609e-07

exp_avg f4 [10]
00000000: 3453 ea36 5e9c 85b5 6e02 5eb4 35dd 8e38
00000010: 3cfa 0fb6 4972 b4b5 3287 6535 f139 b1b6
00000020: ce92 5bb5 db3a 7335
6.9834296e-06 -9.954781e-07 -2.0676245e-07 6.812291e-05 -2.1454316e-06 -1.3444306e-06 8.5505883e-07 -5.2817563e-06
-8.1797486e-07 9.06102e-07

exp_avg_sq f4 [10]
00000000: fb29 b733 9161 0434 d493 882e 0cc4 8835
00000010: b4ea 902f 09be 5e35 b83b e133 7604 c033
00000020: 3acd 3634 a9af a635
8.529238e-08 1.2328952e-07 6.2108235e-11 1.0189847e-06 2.6360214e-10 8.297798e-07 1.0488242e-07 8.941508e-08
1.7024732e-07 1.2419088e-06

exp_avg f4 [2, 10]
00000000: 0024 beb9 81ef 3236 a371 9736 5d34 40b9
00000010: 7f1e 4436 2a61 2836 69ae d735 fbe1 a836
00000020: bb9d 4436 e0e8 3c36 74c8 78b8 3403 69b5
00000030: d80e d434 08c5 3db8 0853 4835 680d 6e34
00000040: ac0e 8535 68e6 bd36 382f 5535 68c3 5435
-0.00036266446 2.6663477e-06 4.5133797e-06 -0.00018330054 2.9224027e-06 2.5090508e-06 1.6069508e-06 5.0330978e-06
2.9298087e-06 2.8149734e-06 -5.9314494e-05 -8.6803925e-07 3.9498877e-07 -4.524461e-05 7.462663e-07 2.2170354e-07
9.913542e-07 5.6594617e-06 7.9417396e-07 7.926051e-07

exp_avg_sq f4 [2, 10]
00000000: 873d 0737 1f96 9932 7058 4430 aac2 8b35
00000010: 7af3 bb2f e862 4432 e473 fb32 ba5e b133
00000020: 71fb 9931 f0ac fd34 8fc2 9937 fc49 5434
00000030: 6b2b b430 1a90 d735 0c39 8130 924c 8f34
00000040: a23d 8034 22f4 1335 7619 8432 bb36 3036
8.0609525e-06 1.7879811e-08 7.143006e-10 1.0412962e-06 3.4188102e-10 1.143119e-08 2.9272947e-08 8.2594354e-08
4.4814716e-09 4.725075e-07 1.832962e-05 1.9770954e-07 1.3109064e-09 1.6060687e-06 9.402199e-10 2.6691538e-07
2.3886702e-07 5.511703e-07 1.53784e-08 2.62579e-06

exp_avg f4 [2]
00000000: bcf4 ebb9 b24f 8fb8
-0.00045005034 -6.833616e-05

exp_avg_sq f4 [2]
00000000: c950 1137 4338 ac37
8.661483e-06 2.0530197e-05
