neural_network/lightning_logs/version_52/checkpoints/epoch=9-step=18750.ckpt (torch, 121419 bytes, 18 tensors)

layers.0.weight f4 [128, 6]
-2.4843397 -0.32893598 -3.0261655 0.25226644 -0.9389385 -0.83568203 -0.76733977 0.5934032
0.7187476 0.43258116 1.3510355 0.8434081 -1.0503706 1.0430573 0.51842976 -1.5840486
0.71229136 0.06698258 -1.5843618 -0.5794948 -0.0393454 -0.4651624 -0.23500615 0.7973
0.9172165 -1.6470202 0.106663354 -0.13088821 -0.14312989 0.20748362 -0.2162046 -0.12445779
-0.044338204 -3.0956879 0.12461228 -0.03776673 -0.9144369 -0.30585507 -0.79266924 -0.30784133
0.93089104 1.0978888 -0.35867208 0.24266331 -0.29207817 0.090168335 -0.026594495 0.05266727
0.7187782 -0.8786801 -0.6333163 -1.6012214 0.905723 0.14146768 0.55289453 1.1673685
-0.62452817 1.1648035 1.3181813 -0.2584249 1.790512 -0.6660782 -0.714459 0.16442785
-0.69119215 0.11732131 -1.0000194 -0.32192126 0.87820846 1.6495425 0.6054512 -0.6908585
0.77506214 -1.177769 -0.34519926 0.8482759 0.6888616 -1.025992 -0.009297062 -1.5314163
-0.21694392 0.9270068 0.7841336 1.1713864 0.07257255 0.29583204 0.12655257 0.090147175
0.14072075 0.020743273 -4.345923 0.33482972 -2.2937517 1.2395116 0.13850945 -0.018708685
0.5696686 0.4583513 0.08588249 0.3847193 0.75179094 -0.09149984 0.0028149327 -1.8773608
-0.06736301 -1.2343848 0.85769755 0.013406195 -0.068549015 -0.4705858 -0.34577373 -2.1935723
0.2989349 0.07487197 0.11286996 -0.27921438 0.14646998 -0.15093412 0.6077836 -0.1455071
-2.3132005 -0.18714525 0.09112973 0.4277407 0.15104158 -0.26685977 -0.123657316 -1.2185385
-0.19137399 -1.5835388 1.1749312 -0.031224834 -0.8191747 1.7314893 -0.36881217 0.4974535
0.9368015 -0.639658 -0.08992811 0.22399943 -0.56615984 0.060191013 0.5557936 -0.20228848
-0.11800858 -2.0834823 -0.055693977 0.9594317 3.4085221 -0.39648932 0.14648378 -0.46071583
-0.7977626 0.3029735 0.16361101 0.015272604 -0.09480301 -0.0570285 0.110386655 -0.45382535
0.21070644 -0.123801425 -0.31642285 -0.5377768 -0.6495481 -4.3484683 -0.24211757 0.06710297
0.7786981 0.2504937 -1.0270693 1.5150522 1.6163081 -0.16266765 0.44280586 -1.930222
-1.2715399 1.1177534 0.49566615 0.978988 -3.1541972 1.8498969 0.58759296 -1.8089572
0.23449646 0.5453807 1.6314435 -0.8669023 0.10801711 0.16762306 2.1431227 0.23287424
-0.9593924 -0.35891202 -0.91918534 -4.8804607 0.3494582 -0.5227806 0.13475697 -0.8233572
-2.139921 -1.6668435 0.012922435 0.012405043 0.30437785 0.91233 -0.7623737 0.4138574
0.47524443 -0.045765903 -2.2945378 1.150696 0.3862157 -4.182136 0.12912202 0.47320044
-1.581391 -1.3592503 0.733833 1.1685984 3.1185884 0.17185812 0.41403028 2.3900745
-4.1442866 -0.41990703 -0.25664684 0.08764605 0.8782777 -2.067275 0.44586107 -0.7294168
0.50559527 0.3676926 -3.2948396 0.12867492 -0.17709875 -0.08228262 -0.4991231 -0.16536835
0.44616988 0.9759874 -1.1217704 -0.55850804 -0.70315504 0.7489956 -0.7247441 -0.29510584
-0.6836075 -0.680389 -0.74035907 0.17618535 1.2874554 0.3723432 -0.9417748 -0.7421105
00000000: 6cff 1ec0 4c6a a8be b2ac 41c0 1129 813e
00000010: 465e 70bf 42ef 55bf 6170 44bf 46e9 173f
00000020: d8ff 373f 477b dd3e bbee ac3f 98e9 573f
00000030: 8b72 86bf e782 853f d0b7 043f 1bc2 cabf
00000040: ba58 363f 2a2e 893d 5ecc cabf c559 14bf
00000050: a428 21bd c429 eebe 74a5 70be da1b 4c3f
00000060: b3ce 6a3f 8fd1 d2bf 5172 da3d 8f07 06be
00000070: a490 12be 9676 543e bd64 5dbe bae3 febd
00000080: fa9b 35bd c01f 46c0 b934 ff3d 49b1 1abd
00000090: 8918 6abf 0999 9cbe 5fec 4abf 619d 9dbe
000000a0: e04e 6e3f 9f87 8c3f dea3 b7be bb7c 783e
000000b0: 458b 95be 2daa b83d b3dc d9bc a3b9 573d
000000c0: d901 383f 2ef1 60bf 0421 22bf d3f4 ccbf
000000d0: 76dd 673f e7dc 103e 7f8a 0d3f 556c 953f
000000e0: 14e1 1fbf 4818 953f 2aba a83f 4550 84be
000000f0: 7f2f e53f 1a84 2abf c9e6 36bf c65f 283e
00000100: f8f1 30bf 2846 f03d a300 80bf ddd2 a4be
00000110: 45d2 603f 3524 d33f dafe 1a3f 1adc 30bf
00000120: 796a 463f 22c1 96bf f5bd b0be 9c28 593f
00000130: 3c59 303f b553 83bf b452 18bc 7305 c4bf
00000140: 8c26 5ebe 5150 6d3f fbbc 483f fdef 953f
00000150: eba0 943d 4c77 973e ff96 013e 159f b83d
00000160: 1a19 103e cced a93c cd11 8bc0 cd6e ab3e
00000170: d4cc 12c0 51a8 9e3f 6cd5 0d3e f542 99bc
00000180: cdd5 113f 06ad ea3e 29e3 af3d eef9 c43e
00000190: 5f75 403f 4564 bbbd bc7a 383b 5c4d f0bf
000001a0: 9ef5 89bd 5200 9ebf 1192 5b3f a8a5 5b3c
000001b0: 6d63 8cbd 9ff0 f0be 4109 b1be 7d63 0cc0
000001c0: ff0d 993e 7a56 993d 5e28 e73d 30f5 8ebe
000001d0: 3afc 153e 798e 1abe b597 1b3f d0ff 14be
000001e0: 7a0b 14c0 01a3 3fbe 39a2 ba3d d400 db3e
000001f0: a5aa 1a3e d8a1 88be 0c40 fdbd 12f9 9bbf
00000200: 8bf7 43be 66b1 cabf 2564 963f 39cb ffbc
00000210: 6fb5 51bf 71a1 dd3f f3d4 bcbe 3ab2 fe3e
00000220: 39d2 6f3f a0c0 23bf 3b2c b8bd 1b60 653e
00000230: daef 10bf da8a 763d 7d48 0e3f b624 4fbe
00000240: 7bae f1bd c657 05c0 5e1f 64bd 519d 753f
00000250: 3a25 5a40 a600 cbbe d8ff 153e f2e2 ebbe
00000260: 2b3a 4cbf 581f 9b3e a589 273e f239 7a3c
00000270: 1528 c2bd b796 69bd 6612 e23d cc5b e8be
00000280: 6ec3 573e 9a8b fdbd 2d02 a2be beab 09bf
00000290: c948 26bf a726 8bc0 abed 77be 486d 893d
000002a0: c258 473f b640 803e 0277 83bf 3bed c13f
000002b0: 2fe3 ce3f 5992 26be 73b7 e23e 8411 f7bf
000002c0: d2c1 a2bf 8b12 8f3f f4c7 fd3e f59e 7a3f
000002d0: 5ede 49c0 6cc9 ec3f 7e6c 163f e98b e7bf
000002e0: d71f 703e 129e 0b3f 24d3 d03f 4fed 5dbf
000002f0: 1338 dd3d 61a5 2b3e ec28 0940 9676 6e3e
00000300: be9a 75bf 51c3 b7be bb4f 6bbf bc2c 9cc0
00000310: 2fec b23e f3d4 05bf bbfd 093e 8ac7 52bf
00000320: 77f4 08c0 215b d5bf 9fb8 533c 853e 4b3c
00000330: 6ad7 9b3e 758e 693f ec2a 43bf 1ee5 d33e
00000340: 3d53 f33e 0775 3bbd b5d9 12c0 024a 933f
00000350: 10be c53e 0fd4 85c0 9038 043e 5447 f23e
00000360: 056b cabf eafb adbf 7bdc 3b3f a294 953f
00000370: f496 4740 93fb 2f3e c7fb d33e fbf6 1840
00000380: ff9d 84c0 0efe d6be 3767 83be c67f b33d
00000390: cfd6 603f 3c4e 04c0 e747 e43e 0fbb 3abf
000003a0: b16e 013f 3442 bc3e a7de 52c0 5cc3 033e
000003b0: 6059 35be ca83 a8bd 108d ffbe 5256 29be
000003c0: 6170 e43e 4fda 793f 2c96 8fbf 62fa 0ebf
000003d0: f801 34bf 2dbe 3f3f d488 39bf 1d18 97be
000003e0: e700 2fbf f92d 2ebf 2c88 3dbf ef69 343e
000003f0: 57cb a43f c5a3 be3e 2718 71bf f4fa 3dbf

layers.0.bias f4 [128]
-1.2341069 -0.11558734 -0.8926399 -0.054634932 -0.16972166 -0.14614436 -0.8288822 -0.5890478
0.2501958 -0.7528568 -1.4990826 -1.1801002 -1.6167889 -1.5164349 -0.7216224 0.83173674
-1.1159737 2.1964622 0.3218311 -0.4410445 1.6112871 1.8606911 -1.4953253 -0.43339226
1.4307427 -0.14571017 -0.50078577 0.29671904 0.5330373 -1.4208537 -0.0763161 -0.41312855
1.1416607 0.5119569 -0.85204303 0.19301869 0.9836265 -0.87829417 0.8502633 1.0317355
-1.9021331 0.57983327 -1.0262008 -0.7502677 -1.2729833 -0.33438823 0.81321996 -0.8920323
-0.43113795 0.25902152 -1.0723097 0.1781496 -1.3190634 -0.7385275 0.7622212 1.0286479
-1.2092131 -0.6607105 0.7915804 0.23384847 -0.369967 -0.5911076 -1.0104334 0.6883119
-0.41174054 -0.38448888 -0.95041084 -0.3696942 -0.63574255 -0.71639705 0.7494047 0.86164325
0.71804285 1.5098677 1.4632109 0.30361626 -0.9608802 1.0324072 -1.0182267 -1.8331556
-0.2699136 0.30238333 -0.26963457 -0.29746872 0.29135796 0.40897426 -0.32309458 0.1588661
-1.0110892 -1.9516615 -1.4650627 -2.0708323 0.9066254 -0.9596937 1.1476614 1.0067631
-1.0036395 0.7393385 -1.0809977 -0.96949565 -0.5108918 0.97132635 1.2424583 2.1246355
-0.72537637 1.0190408 0.45557934 0.3024018 -2.0931494 0.8745824 2.4797049 -0.7034743
-1.057897 1.3339434 -1.5709984 0.31352428 -1.5223455 -0.78422195 -0.44365114 -1.2876598
-0.44033778 -0.7516214 -1.031386 -1.6546545 0.10169744 -0.9195219 -0.22430901 0.12166551
00000000: 37f7 9dbf 0eb9 ecbd 0c84 64bf e1c8 5fbd
00000010: 84cb 2dbe dea6 15be a031 54bf d6cb 16bf
00000020: aa19 803e 39bb 40bf f0e1 bfbf 860d 97bf
00000030: f0f2 cebf 8a1a c2bf 3fbc 38bf b3ec 543f
00000040: 3ad8 8ebf d692 0c40 0cc7 a43e 96d0 e1be
00000050: a83e ce3f 202b ee3f d266 bfbf 97e5 ddbe
00000060: 9422 b73f 0c35 15be 7f33 00bf 8feb 973e
00000070: 2275 083f 89de b5bf 9e4b 9cbd 9685 d3be
00000080: f021 923f 9b0f 033f 7e1f 5abf b1a6 453e
00000090: f2ce 7b3f e3d7 60bf dbaa 593f e90f 843f
000000a0: 1979 f3bf f46f 143f 8c5a 83bf 8b11 40bf
000000b0: 1ef1 a2bf ef34 abbe 2f2f 503f 3b5c 64bf
000000c0: 1dbe dcbe 789e 843e 7241 89bf d96c 363e
000000d0: 12d7 a8bf 2310 3dbf ee20 433f bcaa 833f
000000e0: 7fc7 9abf 5324 29bf 03a5 4a3f f975 6f3e
000000f0: 516c bdbe d452 17bf e255 81bf 3535 303f
00000100: a8cf d2be badb c4be 204e 73bf 8f48 bdbe
00000110: 06c0 22bf cc65 37bf fdd8 3f3f a794 5c3f
00000120: a8d1 373f 5843 c13f 7f4a bb3f 9773 9b3e
00000130: 3ffc 75bf eb25 843f 4155 82bf d8a4 eabf
00000140: 1e32 8abe fdd1 9a3e 8b0d 8abe d24d 98be
00000150: df2c 953e 1365 d13e a76c a5be cbad 223e
00000160: 5f6b 81bf 0bd0 f9bf 2d87 bbbf 8488 04c0
00000170: 9a18 683f 7cae 75bf 92e6 923f 9ddd 803f
00000180: 4277 80bf 4a45 3d3f 225e 8abf de30 78bf
00000190: cec9 02bf d8a8 783f e008 9f3f 07fa 0740
000001a0: 44b2 39bf ee6f 823f b241 e93e 69d4 9a3e
000001b0: 29f6 05c0 a2e4 5f3f 7cb3 1e40 e416 34bf
000001c0: 2b69 87bf a8be aa3f 7a16 c9bf 4186 a03e
000001d0: 38dc c2bf c5c2 48bf 3e26 e3be 09d2 a4bf
000001e0: f473 e1be 436a 40bf 7504 84bf b8cb d3bf
000001f0: bf46 d03d ca65 6bbf 43b1 65be c42b f93d

layers.2.weight f4 [64, 128]
-0.7896302 -1.000808 -0.2793628 0.10052844 -0.32450628 -1.5906725 -0.61279356 -0.4313273
-0.10576892 -1.0235349 -0.10291766 -1.1897132 -0.6508083 -0.82822263 -0.30202615 -0.035794027
-1.1383216 2.37313 -0.3059193 -0.44627467 0.021894706 1.0939349 -1.6382072 0.08013356
-3.0844002 -0.23993975 -0.15136145 -0.69172424 0.28290093 -1.152567 -0.43531203 -0.32817668
-0.7838477 0.33962196 -0.6808059 0.3521718 -0.45249417 2.0557785 0.31260595 0.18046051
-0.6087562 0.27312663 -1.3591119 -3.1783242 1.1212593 0.08851825 -1.1865863 -0.5997462
0.05467464 -0.5699532 -2.1765003 -0.116061665 -0.30940828 -0.43653542 0.088935174 -0.31925324
-1.6847587 -0.360822 0.60940343 -5.473159 0.58000684 -0.57632875 1.7639785 -0.2355641
-0.5914997 -0.5054634 -2.7232213 -0.4694942 -0.9053147 0.082725555 -0.94613254 0.4041362
0.73501444 0.60962784 1.0915875 1.8032676 -0.76975274 0.96857196 -1.3387792 0.4586882
0.51396674 0.26737106 -0.5750406 -0.10947626 -0.3374339 0.7620432 -0.9216213 -2.0591655
0.63167256 -1.6861334 -0.7877127 -6.0714746 0.37659907 -0.7876517 1.0159918 -0.2009264
-3.9942794 -1.943192 -0.84950864 -1.4599731 -0.99672186 0.753276 0.6489258 1.7311127
-0.85220474 0.42798075 0.4705658 -0.05763562 0.59150773 -0.9439491 -1.5402237 -3.4470713
-1.6508907 0.6980023 -3.162075 -0.16429134 0.18772213 0.28900313 -1.607396 -0.37547466
-0.69741684 -0.8823762 -1.2533071 0.25938946 -2.941178 -2.3555973 -1.2897028 -3.9737947
0.35020038 -0.09961945 -0.61379033 -0.16198622 0.58276165 0.4564815 0.16178122 0.37443376
-0.105548255 -0.8077609 0.14836334 -0.49523243 -1.1725268 -0.12347362 0.597079 -0.2535971
-0.16231008 0.59422976 0.22995836 -0.027601149 -1.1137961 0.2756566 -0.5211727 0.21030189
0.8446966 0.21410656 0.21515642 0.7276745 -0.11218581 -0.15751982 -0.15982015 0.26561648
0.16496743 0.37704635 0.08654044 -0.067772254 0.7332041 0.23040576 0.32657722 -1.2428495
-0.30711055 -0.3147962 0.079810746 0.15591155 0.13876894 0.13180651 -1.3630083 -0.03852154
-0.0864353 -0.199247 0.2432942 0.81101155 -1.5393658 0.068427525 -1.4234685 1.0769107
0.049878336 -0.48269448 -0.5323534 -0.15575273 0.07748072 0.2117826 -0.7194813 -1.3048037
0.1187297 -0.4357689 0.1140174 -0.34441856 0.3596257 0.8894084 0.6060626 0.9285832
-0.25842702 0.60812485 0.022252858 -0.22096586 0.15762779 -1.3780057 0.7264288 0.08220123
0.62954944 0.36286113 -0.10129587 0.38313237 1.366144 0.3709775 0.26820835 -0.782717
0.22870192 -0.58774924 -0.83580005 -2.0524094 0.038970564 0.15700632 -0.5228242 -0.7027477
0.5602594 0.29098606 -1.4333464 0.097900085 0.30491275 0.10438076 -0.2814231 0.44555897
-0.106767245 0.06178306 -0.7757533 -0.19824706 -0.28532493 0.72634125 -0.15562707 0.07140809
0.044973522 0.02054092 -1.3547869 -1.0387388 0.37012297 -0.58156234 1.024103 -0.50909066
0.64328116 0.3987088 -0.8193234 0.11097151 0.75036335 0.801513 1.052849 -0.17954125
00000000: 3425 4abf 7a1a 80bf a408 8fbe dbe1 cd3d
00000010: b025 a6be 289b cbbf 0ae0 1cbf efd6 dcbe
00000020: 609d d8bd 3103 83bf 7ec6 d2bd 8648 98bf
00000030: 5f9b 26bf 6606 54bf 2ca3 9abe c29c 12bd
00000040: 86b4 91bf 5de1 1740 74a1 9cbe 1d7e e4be
00000050: 875c b33c 0f06 8c3f c6b0 d1bf 101d a43d
00000060: d066 45c0 c4b2 75be 7ffe 1abe d714 31bf
00000070: 64d8 903e 5187 93bf 38e1 debe c606 a8be
00000080: 3eaa 48bf eee2 ad3e 4c49 2ebf dd4f b43e
00000090: 51ad e7be e091 0340 e30d a03e a4ca 383e
000000a0: 72d7 1bbf 41d7 8b3e 61f7 adbf aa69 4bc0
000000b0: 6d85 8f3f 0e49 b53d 0fe2 97bf f888 19bf
000000c0: 84f2 5f3d 74e8 11bf c84b 0bc0 bdb1 edbd
000000d0: c36a 9ebe 9281 dfbe a523 b63d 2975 a3be
000000e0: 2ca6 d7bf a9bd b8be dd01 1c3f 1e24 afc0
000000f0: 547b 143f 488a 13bf 0cca e13f b737 71be
00000100: 866c 17bf 0d66 01bf 4249 2ec0 8b61 f0be
00000110: b4c2 67bf 046c a93d be35 72bf f1ea ce3e
00000120: e829 3c3f 9210 1c3f 24b9 8b3f 79d1 e63f
00000130: 840e 45bf 55f4 773f 1e5d abbf 2ed9 ea3e
00000140: 5393 033f dce4 883e dc35 13bf 1735 e0bd
00000150: 23c4 acbe 4315 433f 60ef 6bbf 5ec9 03c0
00000160: 4bb5 213f 38d3 d7bf 8aa7 49bf 8549 c2c0
00000170: 98d1 c03e 8ba3 49bf 050c 823f a6bf 4dbe
00000180: 46a2 7fc0 84ba f8bf 6679 59bf 66e0 babf
00000190: 2a29 7fbf b2d6 403f 0020 263f 1a95 dd3f
000001a0: 172a 5abf 4b20 db3e 00ee f03e 5413 6cbd
000001b0: 0d6d 173f a6a6 71bf 0d26 c5bf d19c 5cc0
000001c0: 6350 d3bf 47b0 323f 705f 4ac0 fd3b 28be
000001d0: 3b3a 403e 38f8 933e 27bf cdbf 373e c0be
000001e0: e989 32bf 68e3 61bf 5e6c a0bf b2ce 843e
000001f0: 433c 3cc0 1bc2 16c0 fb14 a5bf a752 7ec0
00000200: 774d b33e 4805 ccbd 5d21 1dbf b7df 25be
00000210: de2f 153f f1b7 e93e faa9 253e c8b5 bf3e
00000220: af29 d8bd 6bc9 4ebf 8fec 173e 1b8f fdbe
00000230: 5c15 96bf bddf fcbd 2bda 183f 7bd7 81be
00000240: 9d34 26be 711f 183f 347a 6b3e ce1b e2bc
00000250: df90 8ebf dd22 8d3e 936b 05bf 6159 573e
00000260: 093e 583f c03e 5b3e f751 5c3e e048 3a3f
00000270: adc1 e5bd e04c 21be e5a7 23be e2fe 873e
00000280: 39ed 283e 380c c13e 1d3c b13d 2ecc 8abd
00000290: 44b3 3b3f 7def 6b3e 2135 a73e b115 9fbf
000002a0: 983d 9dbe f82c a1be d173 a33d 47a7 1f3e
000002b0: 7219 0e3e 49f8 063e 0e77 aebf c3c8 1dbd
000002c0: fe04 b1bd 6807 4cbe 1d22 793e 749e 4f3f
000002d0: f009 c5bf bb23 8c3d 3734 b6bf 36d8 893f
000002e0: 3a4d 4c3d bb23 f7be 5048 08bf a57d 1fbe
000002f0: 36ae 9e3d 8add 583e ed2f 38bf cf03 a7bf
00000300: 8f28 f33d 1a1d dfbe f481 e93d a157 b0be
00000310: dc20 b83e 45b0 633f eb26 1b3f a1b7 6d3f
00000320: 8c50 84be 12ae 1b3f a04b b63c e044 62be
00000330: 2e69 213e 7e62 b0bf 3df7 393f 1e59 a83d
00000340: 272a 213f efc8 b93e 3674 cfbd ed29 c43e
00000350: cedd ae3f c3f0 bd3e 9b52 893e 2460 48bf
00000360: d630 6a3e bc76 16bf fef6 55bf ad5a 03c0
00000370: 999f 1f3d 44c6 203e cfd7 05bf 46e7 33bf
00000380: 296d 0f3f 20fc 943e e577 b7bf d77f c83d
00000390: 861d 9c3e 94c5 d53d b016 90be 4e20 e43e
000003a0: c9a8 dabd 3c10 7d3d c597 46bf 4701 4bbe
000003b0: 1c16 92be 80f1 393f b45c 1fbe 683e 923d
000003c0: 2836 383d 6e45 a83c a869 adbf 65f5 84bf
000003d0: c280 bd3e 45e1 14bf cf15 833f c453 02bf
000003e0: 13ae 243f 8f23 cc3e 2ebf 51bf 0845 e33d
000003f0: d017 403f f52f 4d3f c2c3 863f a9d9 37be

layers.2.bias f4 [64]
1.2006372 -0.60367775 1.2173492 0.79694486 -0.8076069 -1.0231473 -0.52873594 -0.058449794
0.6692914 0.40826333 0.88497 1.4990461 0.9188552 0.48684412 0.052473262 -0.96016216
-0.8802599 0.85818917 0.4514787 1.3329458 0.24599262 1.5247778 -1.3505085 0.67852247
1.3225263 -0.2894184 -1.0046029 1.9059274 0.07613656 -0.38112935 -1.7100352 -1.3012573
0.30466622 1.6936501 1.3803102 0.6946757 -0.7305229 -0.3248832 1.2902851 -0.93022627
-0.76927435 0.5211214 0.770663 0.073347375 2.1458008 0.58188784 0.5201689 1.2618712
2.2309604 1.1910732 1.1198251 -0.22716075 -0.40138724 -0.67820674 0.2945581 1.0946387
-0.015669597 -0.06125778 -0.120984524 1.3324234 1.6488991 0.29590425 -0.85625315 -0.42567134
00000000: 7bae 993f a08a 1abf 19d2 9b3f 9404 4c3f
00000010: 53bf 4ebf 7ef6 82bf 3d5b 07bf 0d69 6fbd
00000020: ae56 2b3f e407 d13e 658d 623f bee0 bf3f
00000030: 183a 6b3f a243 f93e 34ee 563d 30cd 75bf
00000040: b658 61bf 49b2 5b3f 3728 e73e f89d aa3f
00000050: 7de5 7b3e eb2b c33f 76dd acbf a6b3 2d3f
00000060: 8b48 a93f a62e 94be d496 80bf 6ef5 f33f
00000070: 7ced 9b3d 6323 c3be 6fe2 dabf 998f a6bf
00000080: 36fd 9b3e 87c9 d83f 01ae b03f 44d6 313f
00000090: 8c03 3bbf 1757 a6be 1028 a53f 4f23 6ebf
000000a0: 2aef 44bf 3668 053f 2c4a 453f 2637 963d
000000b0: cd54 0940 9af6 143f ca29 053f ff84 a13f
000000c0: 0ec8 0e40 1675 983f 6e56 8f3f d49c 68be
000000d0: a182 cdbe f59e 2dbf 52d0 963e 1f1d 8c3f
000000e0: 875d 80bc 70e9 7abd bcc6 f7bd da8c aa3f
000000f0: 200f d33f c380 973e 6833 5bbf 98f1 d9be

layers.4.weight f4 [2, 64]
-0.0203741 0.15240666 -0.3078405 -0.13315928 0.0047936183 0.6360058 0.02206297 -0.0002561803
-0.06447653 0.74497616 -1.4069902 -0.43041825 0.33826098 -0.34825587 0.18001896 0.047809448
-0.40835562 0.05327807 0.2513149 0.7911705 -0.17544965 -0.84174985 0.3115987 -0.12062853
0.46366772 -0.5575367 -0.12093064 -0.6277319 0.25709423 -0.48849156 0.047515932 0.2519671
0.49118084 -0.68498325 -1.0242925 0.9339306 -0.1899048 -0.041009832 0.37251633 0.6538976
0.2597001 0.17508596 -0.8897916 0.21249188 -0.6198292 0.27330172 -0.30086765 -0.39515555
-0.10122694 1.560084 0.4348427 -0.42651084 0.011217001 0.5023933 0.35141596 -0.38401702
0.5306421 0.09833814 0.018697027 -1.1734437 0.82497513 -0.044776767 0.090389825 0.2816787
0.68317616 0.07736409 -0.9264084 1.0319645 0.00039584644 -0.020878702 -1.1747824e-06 -0.084631205
-0.3767779 -0.7136552 0.45540354 -1.236041 -0.0051172674 -0.27018407 0.2627535 0.8740574
-0.1880755 -0.22912836 -0.13717134 -0.06690339 -0.5685978 -0.30122364 1.1363266 -0.6634829
-0.27970412 0.111627065 -0.040692646 0.004465495 0.1576617 -0.08049344 0.8264493 0.2868208
0.34505764 0.68217695 0.5678421 0.02901789 -0.6669247 0.016640691 -0.57962763 -0.7639624
-0.5301387 0.40371883 0.38032934 0.2890656 -1.2220693 0.09031644 -0.50645256 0.038627066
-1.4386287 -0.016007667 1.1164933 0.38034853 -0.008348295 -0.291744 -0.2774141 0.24060427
-0.41779658 0.5955719 0.37344342 -0.2832457 -0.22033074 0.40697417 -0.47283438 0.39424944
00000000: 96e7 a6bc 7e10 1c3e 459d 9dbe e85a 08be
00000010: c913 9d3b 47d1 223f 67bd b43c f04f 86b9
00000020: 450c 84bd c2b6 3e3f 4118 b4bf c85f dcbe
00000030: 8b30 ad3e 984e b2be e456 383e d7d3 433d
00000040: fd13 d1be 1b3a 5a3d 59ac 803e 268a 4a3f
00000050: 13a9 33be eb7c 57bf dd89 9f3e 170c f7bd
00000060: db65 ed3e baba 0ebf 7caa f7bd 0ab3 20bf
00000070: dba1 833e 911b fabe 11a0 423d d501 813e
00000080: 0e7c fb3e 105b 2fbf 041c 83bf 1316 6f3f
00000090: 6776 42be edf9 27bd 76ba be3e d565 273f
000000a0: 69f7 843e bc49 333e 62c9 63bf 7997 593e
000000b0: 20ad 1ebf 34ee 8b3e 530b 9abe d451 cabe
000000c0: 1250 cfbd d5b0 c73f b4a3 de3e a15f dabe
000000d0: 83c7 373c d99c 003f cbec b33e e19d c4be
000000e0: 29d8 073f 8265 c93d 822a 993c 6733 96bf
000000f0: 9231 533f d867 37bd 4d1e b93d 3138 903e
00000100: a2e4 2e3f 1071 9e3d 1a29 6dbf 6a17 843f
00000110: 9c89 cf39 d009 abbc 37ad 9db5 2053 adbd
00000120: 08e9 c0be 1bb2 36bf a72a e93e 9736 9ebf
00000130: c0ae a7bb 9155 8abe a087 863e 3ac2 5f3f
00000140: dd96 40be a0a0 6abe a576 0cbe a504 89bd
00000150: a08f 11bf fc39 9abe 2673 913f 04da 29bf
00000160: 6135 8fbe bb9c e43d 55ad 26bd 4953 923b
00000170: 1272 213e bfd9 a4bd 2e92 533f 2dda 923e
00000180: 65ab b03e 26a3 2e3f 1a5e 113f edb6 ed3c
00000190: 94bb 2abf 0f52 883c 7a62 14bf 0a93 43bf
000001a0: 2bb7 07bf 3cb4 ce3e 87ba c23e 6800 943e
000001b0: c46c 9cbf d3f7 b83d e0a6 01bf 6a37 1e3d
000001c0: fc24 b8bf 8322 83bc 41e9 8e3f 0bbd c23e
000001d0: 4ac7 08bc 785f 95be 3909 8ebe f760 763e
000001e0: 6fe9 d5be 6677 183f fa33 bf3e 9505 91be
000001f0: 629e 61be eb5e d03e 5917 f2be 10db c93e

layers.4.bias f4 [2]
-0.43825653 -0.43370917
00000000: 2963 e0be 210f debe

exp_avg f4 [128, 6]
-0.0018141394 0.0038915295 0.00386352 -0.0016489753 -0.001987282 -0.029836843 0.0064400756 -0.014715186
-0.017959902 0.004478455 0.023898993 -0.059032172 -5.218045e-05 -3.878969e-05 -9.023607e-05 -3.2433654e-05
-2.015223e-05 -0.00017065756 -0.00945835 -0.021502582 -0.019507932 -0.008627427 0.037981108 -0.060714882
-0.0001871438 -0.0029797303 -0.002632951 -0.0005021114 0.0026647311 -0.007863923 4.7888116e-05 -7.806928e-05
-5.2056523e-05 -2.8009135e-05 0.00015189007 -0.0011500188 -0.0029663008 -0.0063758334 -0.006846197 -0.0054073925
0.007256703 -0.030170059 0.0002488502 0.00019740625 0.00011968188 -6.2379855e-05 -0.00040434411 -0.000690645
0.00010178068 0.00039499978 0.00044870135 0.00026796467 -0.00060429436 7.4261814e-05 -0.013601316 -0.013082325
-0.009771661 -0.019412022 0.015153496 0.0039598276 0.006383786 0.0036342128 0.0032423423 0.0012735557
-0.010069248 0.013187783 -0.0027827302 -0.013916205 -0.0068708607 -0.026723834 0.017159875 -0.015715215
0.012448083 0.010072356 0.008673889 0.0025593967 -0.020244407 -0.05409803 -0.004708125 0.0015519365
-0.0007995121 -0.004761316 -0.005192425 0.01258158 7.312842e-05 9.4954325e-05 7.646755e-05 6.352609e-05
-0.00019614519 -0.00090781215 0.0006207501 -0.0033623816 -0.0015291733 -0.0016635412 -0.0022463128 -0.0070365747
0.0002700927 0.00020562972 0.00015265327 -8.281803e-05 -0.00042965348 3.2925043e-05 -0.052454002 -0.04708406
-0.046843573 -0.029811777 0.10681333 0.05296213 0.00014643083 0.00018375028 0.00018608339 0.00020928966
-0.0001396446 -0.00013374221 8.240517e-05 0.00021714535 0.0002271452 8.429459e-05 -0.00033622037 -0.00027435584
-0.0075455676 0.018406654 0.021437082 0.022078304 -0.023575053 0.19582199 0.010768925 0.007953595
0.00825568 0.0021655704 -0.0085113915 0.04340252 -0.001357878 -0.0041181166 -0.0021162464 -0.0035139513
0.006025912 0.011930548 7.366214e-05 8.724049e-05 5.022624e-05 -9.388974e-06 -0.0001625303 -0.0002410434
0.0034126458 0.0011047616 0.004816044 0.0026401437 -0.0032482017 -0.019617928 4.229084e-05 7.105961e-05
7.23523e-05 7.799657e-05 -0.00010908363 -0.0002196765 5.53189e-05 9.441607e-05 0.00010482889 0.00010064806
-0.00016649309 -0.0007515011 -8.2950355e-05 1.7801749e-05 3.5286987e-05 9.587803e-05 0.00012745186 -0.0005275692
0.009230654 0.0056148227 0.009883101 0.008722871 -0.011204271 -0.012258867 -0.011374566 -0.0017831755
-0.0059110913 -0.008318805 0.009621877 -0.027029166 0.00048238522 -0.01661181 -0.018189367 -0.006789287
0.0172713 -0.053252764 0.0005738318 0.00035611246 0.0010461711 0.00063154986 -0.0010455627 0.0020310606
-0.008362323 -0.008400355 -0.005768865 -0.00055766443 0.014525041 0.026262123 -8.865365e-05 -0.000103372004
-0.00020021832 -0.00029579154 0.00011249651 -0.00040301672 3.2687727e-05 1.3909644e-05 3.071094e-05 -6.610393e-06
-0.00016682 -0.00049198343 0.0009354567 -0.012106501 -0.013024004 -0.003072465 0.016117174 -0.037251886
-0.0007027362 -0.00034013996 -0.0032320407 -0.0043964973 0.0027176305 -0.008466395 -0.00045149392 -0.0073686386
-0.0005177705 -0.004258431 0.0043328376 0.024775662 -0.052869212 -0.03921639 -0.045436412 -0.018242255
0.066327065 -0.03275619 -0.0056837215 0.0088614905 0.0014438236 -0.01412909 -0.021216098 0.1750448
0.0026826395 0.003500269 0.0022514884 0.0021145137 -0.00081763783 -0.006238692 0.0024436885 -0.0053364825
-0.007875546 0.0015527743 0.015338733 0.016225345 0.019375624 0.017172476 0.012809876 0.006846603
00000000: 6bc8 edba 0809 7f3b 1c33 7d3b 6e22 d8ba
00000010: 0f3d 02bb 656c f4bc 4507 d33b f717 71bc
00000020: a520 93bc 01c0 923b d2c7 c33c b8cb 71bd
00000030: 55dc 5ab8 1db2 22b8 1f3d bdb8 5f09 08b8
00000040: 960c a9b7 8af2 32b9 32f7 1abc 2f26 b0bc
00000050: 19cf 9fbc 0d5a 0dbc 1492 1b3d 2bb0 78bd
00000060: 083c 44b9 9447 43bb 968d 2cbb 20a0 03ba
00000070: c5a2 2e3b afd7 00bc 79db 4838 20b9 a3b8
00000080: 4457 5ab8 29f5 eab7 ae44 1f39 3abc 96ba
00000090: 4566 42bb 5eec d0bb 1056 e0bb 7f30 b1bb
000000a0: a3c9 ed3b 3327 f7bc 1c78 8239 d6fe 4e39
000000b0: b8fd fa38 eed1 82b8 26fe d3b9 670c 35ba
000000c0: 1673 d538 f917 cf39 ad3f eb39 9c7d 8c39
000000d0: 8269 1eba 02bd 9b38 0ed8 5ebc 4057 56bc
000000e0: 5119 20bc f605 9fbc 5e46 783c 71c1 813b
000000f0: 142f d13b f92b 6e3b 7a7d 543b 70ed a63a
00000100: 7df9 24bc 9211 583c 775e 36bb cb00 64bc
00000110: f524 e1bb f1eb dabc de92 8c3c 32bd 80bc
00000120: 0bf3 4b3c 8606 253c ed1c 0e3c 8dbb 273b
00000130: 99d7 a5bc e595 5dbd 9d46 9abb 596a cb3a
00000140: 5996 51ba d004 9cbb 3825 aabb f922 4e3c
00000150: 865c 9938 3722 c738 345d a038 4f39 8538
00000160: 53ac 4db9 3efa 6dba d6b9 223a 675b 5cbb
00000170: 8b6e c8ba 2e0b daba e036 13bb 1193 e6bb
00000180: 3b9b 8d39 4f9e 5739 8d11 2039 97ae adb8
00000190: 1d43 e1b9 ff18 0a38 02da 56bd 37db 40bd
000001a0: 0cdf 3fbd d437 f4bc f2c0 da3d d2ee 583d
000001b0: 3a8b 1939 17ad 4039 611f 4339 c474 5b39
000001c0: 906d 12b9 273d 0cb9 f0d0 ac38 83b1 6339
000001d0: d32d 6e39 50c7 b038 bc46 b0b9 6bd7 8fb9
000001e0: cf40 f7bb 8dc9 963c d29c af3c 8fdd b43c
000001f0: 7820 c1bc 8f85 483e 2570 303c cc4f 023c
00000200: d542 073c 3eec 0d3b 5d73 0bbc d7c6 313d
00000210: d3fa b1ba 44f1 86bb b9b0 0abb 524a 66bb
00000220: 0375 c53b 5878 433c 0f7b 9a38 e2f4 b638
00000230: 04aa 5238 5685 1db7 e56c 2ab9 98c0 7cb9
00000240: b2a6 5f3b a6cd 903a e8cf 9d3b 4306 2d3b
00000250: c8df 54bb c7b5 a0bc 7261 3138 d605 9538
00000260: d8bb 9738 1792 a338 d4c3 e4b8 f658 66b9
00000270: 3706 6838 3e01 c638 95d7 db38 0413 d338
00000280: a694 2eb9 6300 45ba a2f5 adb8 f754 9537
00000290: 1d01 1438 2012 c938 99a4 0539 924c 0aba
000002a0: 2b3c 173c 8cfc b73b bbec 213c 5fea 0e3c
000002b0: 1e92 37bc 6ad9 48bc 635c 3abc 71b9 e9ba
000002c0: d4b1 c1bb 994b 08bc 14a5 1d3c 456c ddbc
000002d0: a6e8 fc39 7e15 88bc de01 95bc ab78 debb
000002e0: 8b7c 8d3c 921f 5abd 336d 163a 9bb4 ba39
000002f0: ad1f 893a 988e 253a 430b 89ba 8b1b 053b
00000300: 2002 09bc a4a1 09bc bf08 bdbb 3a30 12ba
00000310: 70fa 6d3c aa23 d73c 91eb b9b8 6cc9 d8b8
00000320: b2f1 51b9 7814 9bb9 1bec eb38 fd4b d3b9
00000330: 2e1a 0938 775d 6937 9fcf 0038 d8ce ddb6
00000340: 67ec 2eb9 73f8 00ba 7039 753a 585a 46bc
00000350: a262 55bc 695b 49bb 2a08 843c 6f95 18bd
00000360: d437 38ba d054 b2b9 a5d0 53bb 7e10 90bb
00000370: 461a 323b a2b6 0abc 7db6 ecb9 9f74 f1bb
00000380: fdba 07ba 4f8a 8bbb 7afa 8d3b 54f6 ca3c
00000390: 638d 58bd 5ea1 20bd 881b 3abd c870 95bc
000003a0: 7cd6 873d 5b2b 06bd 833e babb c92f 113c
000003b0: ae3e bd3a b37d 67bc 62cd adbc f23e 333e
000003c0: 39cf 2f3b c564 653b b58d 133b a793 0a3b
000003d0: bf56 56ba f16d ccbb 4a26 203b a9dd aebb
000003e0: 6f08 01bc 7686 cb3a 4f4f 7b3c 04eb 843c
000003f0: a1b9 9e3c 4bad 8c3c 84e0 513c 7859 e03b

exp_avg_sq f4 [128, 6]
0.0005744927 0.0036741619 0.0016242854 0.0010762485 0.014661737 0.07832825 0.0032923212 0.008700765
0.007810815 0.0045035565 0.022213412 0.067316346 1.50670685e-05 2.342577e-05 2.159958e-05 2.6662565e-06
5.0599137e-05 0.00021161995 0.0014912443 0.004784788 0.003977046 0.0011964187 0.0149329025 0.034066197
0.0069488552 0.002334669 0.0021780652 0.00080777274 0.0068475963 0.018987274 1.21444955e-05 9.341342e-06
5.749537e-06 7.3147345e-07 2.7388069e-05 9.501447e-05 0.000839191 0.0011667996 0.0007973719 0.00024001855
0.0031939105 0.0284611 4.6010355e-06 2.7007875e-06 2.0087916e-06 1.6379059e-06 6.6073e-06 1.6525188e-05
1.5361311e-05 2.5669176e-06 3.3248168e-06 1.788566e-06 9.394953e-06 7.99142e-05 0.00043940204 0.00029056455
0.0002260596 0.00044754756 0.0004869151 0.001581465 0.01097818 0.004978471 0.0024386346 0.0013744347
0.01665146 0.03848747 0.0022041951 0.00380914 0.0033729249 0.0024204426 0.008102172 0.04535226
0.0018689441 0.001283526 0.001568624 0.0013275607 0.004150863 0.03646351 0.0019734043 0.0009006501
0.00097012613 0.00066788075 0.002660312 0.02572328 1.5380632e-06 2.1048315e-06 1.501838e-06 6.512245e-07
5.633058e-06 1.37334355e-05 1.5547874e-05 0.00039513747 0.00023550678 0.0003208328 0.0012863814 0.0054692915
5.1916504e-06 4.519938e-06 3.4069535e-06 1.386585e-06 1.1860275e-05 3.4211214e-05 0.25066268 0.14739212
0.11654032 0.016186533 0.40685484 1.4624754 6.2577924e-06 4.5924685e-06 3.3233464e-06 8.474206e-07
1.2447998e-05 8.10653e-05 6.326576e-06 4.838648e-06 4.430753e-06 2.0052341e-06 1.0051553e-05 6.691114e-05
0.029448377 0.053296786 0.042640116 0.020903863 0.1470952 0.44545338 0.010286699 0.0074486886
0.0060948227 0.0008181115 0.017751697 0.085640594 6.060447e-05 0.00013681193 9.162074e-05 0.00012679117
0.00031656522 0.0023451054 9.551685e-06 1.1889518e-05 1.0021091e-05 3.4039251e-06 3.1510383e-05 0.00017644296
0.0005627454 3.681545e-05 0.00040242882 0.00041618798 0.00037674763 0.0024839719 2.8339086e-06 1.0233733e-06
8.115104e-07 1.8476749e-06 3.9883557e-06 2.0696414e-05 4.2104683e-05 2.9363393e-05 2.2091715e-05 7.4395166e-06
7.6918e-05 7.7235956e-05 4.480133e-06 3.8725866e-06 2.0498383e-06 3.8485953e-07 1.435333e-05 4.221273e-05
0.0040951604 0.0017822965 0.001579947 0.0016277491 0.0036924817 0.015955148 0.0014663476 0.00034898505
0.00045268002 0.00046392152 0.0013838857 0.013300147 0.0012033066 0.019030865 0.013779683 0.003299719
0.051964827 0.059537277 0.00011538268 4.338327e-06 2.9684796e-05 2.8664364e-05 3.1503092e-05 0.00041120063
0.0028221824 0.0027584727 0.0018869312 0.00020395886 0.008019632 0.054202244 1.0648666e-05 3.440438e-06
2.5424674e-06 1.3487781e-06 1.3889254e-05 6.324975e-05 3.3554004e-06 2.519691e-06 1.673967e-06 1.2911477e-06
6.1023925e-06 1.5295887e-05 0.00060580985 0.0041910945 0.0030359516 0.00036484882 0.012551044 0.03331707
3.6530335e-05 2.4905288e-05 0.00022656283 0.0002513066 0.00018588478 0.0018747818 0.0027415263 0.0032889294
0.00048148187 0.0007209835 0.011624693 0.022093369 0.024351668 0.008797967 0.008282834 0.0018177603
0.023370061 0.060912184 0.0029252637 0.02472029 0.016984424 0.0072168196 0.07028498 0.22905119
0.023359455 0.010775081 0.0075206724 0.0022579734 0.030476814 0.12978986 0.006511958 0.011238249
0.007838491 0.0016091194 0.031650025 0.09536827 0.012874311 0.006240665 0.004692471 0.00086583325
00000000: 8d99 163a 35ca 703b f9e5 d43a e810 8d3a
00000010: c837 703c 906a a03d fcc3 573b a78d 0e3c
00000020: ddf1 ff3b 9292 933b e7f8 b53c 27dd 893d
00000030: 91c8 7c37 7582 c437 bf30 b537 f0ed 3236
00000040: 693a 5438 4ce6 5d39 db75 c33a b6c9 9c3b
00000050: e151 823b 26d1 9c3a 22a9 743c ff88 0b3d
00000060: 39b3 e33b 3f01 193b dfbd 0e3b b6c0 533a
00000070: cd61 e03b 338b 9b3c 36c0 4b37 c2b8 1c37
00000080: 26ec c036 795a 4435 6ebf e537 8142 c738
00000090: 28fd 5b3a 4cef 983a b906 513a 7dad 7b39
000000a0: ed50 513b 4127 e93c 9862 9a36 2d3f 3536
000000b0: c7ce 0636 05d6 db35 46b4 dd36 929f 8a37
000000c0: 2adc 8037 4f43 2c36 eb1f 5f36 a90e f035
000000d0: 049f 1d37 9c97 a738 8b5f e639 ea56 9839
000000e0: 690a 6d39 d1a4 ea39 a348 ff39 2949 cf3a
000000f0: d3dd 333c 7122 a33b 80d1 1f3b 6026 b43a
00000100: a568 883c 0aa5 1d3d 4274 103b c4a2 793b
00000110: 4a0c 5d3b 4aa0 1e3b f9be 043c 4bc3 393d
00000120: 5cf7 f43a fc3b a83a 4a9a cd3a 8c01 ae3a
00000130: f603 883b c35a 153d 3b54 013b 9b19 6c3a
00000140: 1050 7e3a b814 2f3a a158 2e3b a1b9 d23c
00000150: 736f ce35 bb40 0d36 c392 c935 cfcf 2e35
00000160: 9a03 bd36 a868 6637 ce6c 8237 742a cf39
00000170: 5ff2 7639 7335 a839 cc9b a83a be37 b33b
00000180: f033 ae36 f9a9 9736 04a3 6436 b31a ba35
00000190: 7efb 4637 037e 0f38 dc56 803e f6ed 163e
000001a0: b1ac ee3d 9f99 843c 474f d03e 6532 bb3f
000001b0: 07fa d136 0119 9a36 a806 5f36 4d7a 6335
000001c0: bfd7 5037 9a01 aa38 e048 d436 ab5b a236
000001d0: e1ab 9436 a991 0636 17a3 2837 a552 8c38
000001e0: b93d f13c bb4d 5a3d 67a7 2e3d 943e ab3c
000001f0: 20a0 163e 7712 e43e 8b89 283c 2114 f43b
00000200: 14b7 c73b 8976 563a 026c 913c 5664 af3d
00000210: 8e31 7e38 2c75 0f39 8324 c038 3ff3 0439
00000220: aaf8 a539 57b0 193b 2d40 2037 1779 4737
00000230: 4220 2837 fd6e 6436 042a 0438 8c03 3939
00000240: 3485 133a 4a6a 1a38 15fd d239 ce33 da39
00000250: 3686 c539 22ca 223b 2e2e 3e36 d75a 8935
00000260: 92d6 5935 a0fd f735 b7d3 8536 369d ad37
00000270: 8f99 3038 6851 f637 9951 b937 f6a0 f936
00000280: 094f a138 bdf9 a138 0d54 9636 44f1 8136
00000290: f48f 0936 b19e ce34 15cf 7037 930d 3138
000002a0: b230 863b f29b e93a 3916 cf3a 325a d53a
000002b0: 90fd 713b 5fb4 823c 7632 c03a fbf7 b639
000002c0: af55 ed39 7e3a f339 8063 b53a dce8 593c
000002d0: 45b8 9d3a 9ee6 9b3c 2ec4 613c 1940 583b
000002e0: 12d9 543d 5cdd 733d 9bf9 f138 f291 9136
000002f0: 9d03 f937 4174 f037 3022 0438 6a96 d739
00000300: 5df4 383b 7ec7 343b e852 f73a cadd 5539
00000310: c664 033c 2c03 5e3d aca7 3237 46e2 6636
00000320: 429f 2a36 aa07 b535 e405 6937 f3a4 8438
00000330: 572d 6136 f617 2936 11ad e035 7f4b ad35
00000340: 27c3 cc36 ab4f 8037 36cf 1e3a 7355 893b
00000350: d1f6 463b 2e49 bf39 e5a2 4d3c 7b77 083d
00000360: 2638 1938 b3eb d037 7f91 6d39 cdc1 8339
00000370: 11ea 4239 3dbb f53a 2eab 333b 148b 573b
00000380: 676f fc39 6200 3d3a 7f75 3e3c 27fd b43c
00000390: 267d c73c 5925 103c b9b4 073c ea41 ee3a
000003a0: 9272 bf3c 0e7f 793d c8b5 3f3b 3582 ca3c
000003b0: eb22 8b3c 127b ec3b 92f1 8f3d 658c 6a3e
000003c0: 545c bf3c f789 303c f96f f63b 82fa 133b
000003d0: 83aa f93c a2e7 043e 4362 d53b a220 383c
000003e0: 046d 003c 16e9 d23a 75a3 013d 7150 c33d
000003f0: c6ee 523c 7e7e cc3b 4dc3 993b 16f9 623a

exp_avg f4 [128]
0.0065001105 -0.034886766 -6.105147e-05 -0.04408976 -0.002521755 -0.00019390431 -0.012189484 0.00035050223
0.0007415257 -0.018799221 0.011807857 -0.014213398 0.02040135 0.0035542129 0.00015467245 0.003333526
0.0004111167 -0.09801017 0.00011762827 0.00037210184 0.025413437 0.015372018 -0.004640826 0.00011048899
0.003966981 0.000108696404 0.00014121576 -0.00013808276 0.016629808 -0.012648553 -0.030067354 0.0014651587
-0.015512199 -8.03058e-05 0.0001515938 -0.025046028 -0.0067964266 -0.0031371934 -0.083731934 0.032053277
-0.007370608 -0.012616878 0.028126175 0.011982323 0.023361238 0.00026606125 -0.005473548 -0.044939466
-0.03800479 0.11148039 -0.06653826 0.0006175988 0.0064844433 0.00018613582 0.04943814 1.4465571e-05
-0.023482513 -0.00084892433 -0.039868597 -0.03558916 0.0005897508 0.0002391712 0.030505216 0.05063237
-0.01426718 0.0007639532 -0.00066764356 -0.0003178798 0.0003695158 -0.0144142965 -0.004053127 2.699453e-05
0.0063684955 -0.0013494467 -0.05046143 0.016220838 0.00021920638 -0.036333438 -0.0030873744 -0.040121764
0.0047622565 3.639198e-05 0.00013025205 0.00017127166 -0.0060032 -0.012816989 6.692761e-05 -0.004670424
0.07194063 0.040189438 0.0014989104 0.013242845 0.008745367 0.000285484 0.0071488726 -0.009568807
-0.027222415 0.03413042 -0.017003844 0.02424232 -0.029772758 -0.059433144 -0.03431628 -0.11147219
0.00031764508 0.0030155045 -0.003511664 -0.00038815467 -0.014649725 -0.00087653985 -0.005090078 -0.011737943
0.003312095 -0.06689134 -0.0060076183 0.0572463 0.016405085 0.03422559 -0.0004905606 0.09216282
0.00032320505 0.00025017708 0.055953704 0.024057565 0.024405913 0.016959464 0.030128505 0.01120958
00000000: e1fe d43b 6de5 0ebd c208 80b8 7797 34bd
00000010: 0744 25bb cb52 4bb9 67b6 47bc 9dc3 b739
00000020: f362 423a d300 9abc be75 413c 50df 68bc
00000030: bb20 a73c cced 683b 922f 2239 4977 5a3b
00000040: 268b d739 8eb9 c8bd 32af f638 aa16 c339
00000050: d72f d03c ebda 7b3c 1212 98bb 53b6 e738
00000060: 73fd 813b f0f3 e338 5113 1439 4fca 10b9
00000070: 3c3b 883c e03b 4fbc d04f f6bc 910a c03a
00000080: e126 7ebc d969 a8b8 27f5 1e39 542d cdbc
00000090: 8fb4 debb 5f99 4dbb a67b abbd 4c4a 033d
000000a0: 2485 f1bb 06b7 4ebc dd68 e63c 8151 443c
000000b0: 1160 bf3c 237e 8b39 735b b3bb 7212 38bd
000000c0: e9aa 1bbd d54f e43d 3645 88bd 5be6 213a
000000d0: 747b d43b 742d 4339 a67f 4a3d 28b1 7237
000000e0: 665e c0bc 598a 5eba 414d 23bd f0c5 11bd
000000f0: 8299 1a3a 08ca 7a39 13e6 f93c e363 4f3d
00000100: e4c0 69bc 0844 483a cd04 2fba 1ba9 a6b9
00000110: 92bb c139 f129 6cbc 18d0 84bb 5072 e237
00000120: d0ae d03b ebdf b0ba a5b0 4ebd 90e1 843c
00000130: c4da 6539 5fd2 14bd 8c55 4abb b856 24bd
00000140: b40c 9c3b 97a3 1838 4594 0839 6397 3339
00000150: 7eb6 c4bb 59fe 51bc 7d5b 8c38 5b0a 99bb
00000160: 9c55 933d ae9d 243d 1677 c43a 85f8 583c
00000170: ba48 0f3c 04ad 9539 1741 ea3b 7cc6 1cbc
00000180: 8b01 dfbc 57cc 0b3d a54b 8bbc d497 c63c
00000190: 00e6 f3bc 2b70 73bd 3a8f 0cbd 884b e4bd
000001a0: 9a89 a639 c59f 453b f223 66bb 3d81 cbb9
000001b0: 6605 70bc 98c7 65ba abca a6bb 8050 40bc
000001c0: bc0f 593b 54fe 88bd 8edb c4bb 197b 6a3d
000001d0: f563 863c 2230 0c3d f798 00ba dcbf bc3d
000001e0: d973 a939 332a 8339 b62f 653d 5f14 c53c
000001f0: e9ee c73c 93ee 8a3c 0ed0 f63c 63a8 373c

exp_avg_sq f4 [128]
0.0135486955 0.029047118 8.14251e-05 0.018648569 0.009185546 3.3378223e-05 0.004275988 7.855098e-06
2.2937724e-05 0.00059538445 0.015141338 0.010393537 0.006017832 0.0037790253 6.276215e-06 0.0016002455
1.5347709e-05 0.6011059 1.7643937e-05 1.3102738e-05 0.17099021 0.032968488 0.00033077504 5.130022e-05
0.0018055956 4.824998e-06 8.553274e-05 1.3738103e-05 0.005365347 0.0020321507 0.06680126 0.00014803621
0.010552301 1.6479662e-05 7.3251476e-06 0.015714485 0.00068084535 0.0067355544 0.036315195 0.07905179
0.034934524 0.03902755 0.023775486 0.0102011785 0.017132193 4.9598652e-06 0.016457604 0.07376294
0.06731585 0.112054676 0.12425646 1.3157906e-05 0.011281768 3.7035202e-06 0.11514915 0.00025123282
0.03362925 0.0006036488 0.046006713 0.030775176 5.9952904e-06 4.1455523e-06 0.019326257 0.06653729
0.0074447114 4.015111e-05 0.0039726337 0.00029475903 2.8222063e-05 0.006648185 0.0812383 0.00012474794
0.004090818 0.0011385672 0.07593857 0.0015248056 1.24278295e-05 0.06512224 0.05809255 0.021582613
0.0008560607 5.0034007e-05 4.112837e-06 5.9223723e-05 0.0036293445 0.025246177 9.040575e-06 0.020212198
0.13302037 0.017892517 0.01569871 0.09684165 0.00026254723 1.3708448e-05 0.0010732398 0.0042176675
0.10867224 0.01847273 0.24505685 0.077897795 0.2762103 0.095094234 0.024145607 0.17466088
1.1624855e-05 0.0001739765 0.000870961 8.47332e-05 0.02810739 0.000567252 0.006084559 0.05905468
0.004486192 0.14627384 0.024317132 0.020084571 0.014706133 0.018578395 3.565485e-05 0.11768639
2.773996e-05 5.8667724e-06 0.018362386 0.01568033 0.14588833 0.026161347 0.074455306 0.0045689507
00000000: 59fb 5d3c 39f4 ed3c c5c2 aa38 e2c4 983c
00000010: f97e 163c 98ff 0b38 961d 8c3b 64c9 0337
00000020: 636a c037 9313 1c3a 6013 783c a749 2a3c
00000030: 3c31 c53b 86a9 773b 4798 d236 54bf d13a
00000040: f4be 8037 14e2 193f 1102 9437 d5d3 5b37
00000050: 0f18 2f3e f709 073d e06b ad39 312b 5738
00000060: bca9 ec3a 6be6 a136 0a60 b338 b47c 6637
00000070: cbcf af3b d52d 053b 19cf 883d 2b3a 1b39
00000080: 8fe3 2c3c ce3d 8a37 8aca f536 aabb 803c
00000090: c27a 323a edb5 dc3b 3ebf 143d e8e5 a13d
000000a0: 8117 0f3d 5adb 1f3d cfc4 c23c d822 273c
000000b0: d058 8c3c eb6c a636 19d2 863c 0611 973d
000000c0: e4dc 893d ec7c e53d 2c7a fe3d c7c0 5c37
000000d0: 2ad7 383c fe89 7836 51d3 eb3d e6b7 8339
000000e0: d3be 093d 2f3e 1e3a 8971 3c3d 391c fc3c
000000f0: 272b c936 061a 8b36 1952 9e3c b444 883d
00000100: c4f2 f33b ed67 2838 de2c 823b e389 9a39
00000110: 6bbe ec37 05d9 d93b 4460 a63d c5ce 0239
00000120: 450c 863b fa3b 953a ae85 9b3d fcdb c73a
00000130: 1f81 5037 cf5e 853d 74f2 6d3d 05ce b03c
00000140: 4369 603a 9bdb 5138 0001 8a36 fd66 7838
00000150: 4cda 6d3b 12d1 ce3c f9ac 1737 0d94 a53c
00000160: 7e36 083e 5493 923c 959a 803c ea54 c63d
00000170: 7ea6 8939 56fd 6537 f4ab 8c3a 5c34 8a3b
00000180: 8d8f de3d 1f54 973c 2ff0 7a3e e188 9f3d
00000190: 706b 8d3e c4c0 c23d 02cd c53c 4dda 323e
000001a0: 5f08 4337 766d 3639 3451 643a cab2 b138
000001b0: 7841 e63c a3b3 143a fb60 c73b 52e3 713d
000001c0: e800 933b cfc8 153e b934 c73c 6688 a43c
000001d0: fef1 703c b831 983c 1b8c 1538 9005 f13d
000001e0: 1cb3 e837 31db c436 b76c 963c 0974 803c
000001f0: c063 153e 5250 d63c 067c 983d 23b7 953b

exp_avg f4 [64, 128]
-0.00018154719 0.0059254025 -2.6944905e-05 0.006087579 8.0512174e-05 -2.7814393e-05 0.0008523971 -1.844048e-05
-1.8617056e-05 -7.210281e-05 5.013897e-06 -0.00016224911 -0.00022100133 0.00033865872 -2.2125809e-05 0.0003525172
-5.7855217e-05 0.0027165448 -5.820135e-06 -5.11288e-05 0.0018359836 0.0006549449 -0.00012975602 -5.788652e-05
-9.858257e-05 -2.693639e-05 -4.1443684e-05 -1.1312972e-05 9.9300574e-05 0.00020699065 0.008191704 5.048007e-06
-0.00012538636 -3.1166528e-05 -4.1873544e-05 0.0059449137 -9.358237e-05 -1.9270346e-05 0.001765565 0.0020177825
0.0008315662 0.003978737 -0.00017458518 -8.7246626e-05 0.00013304649 -1.727414e-05 0.00050829956 0.004766808
0.0022081172 -0.000372517 0.0021965054 -1.5136545e-05 -0.00024423146 -3.0718056e-05 0.0014564801 0.0001013591
0.0036182525 0.0003439828 0.00703748 -0.00016610083 -5.2064093e-05 -2.6126227e-05 8.042386e-05 -0.0011347131
6.48076e-05 -7.2921666e-06 -2.844511e-05 8.0929814e-05 -6.0915187e-05 0.0001991565 -0.0005637848 -2.9258621e-05
0.0023720236 -2.2141173e-06 0.00077260134 4.7427107e-05 -5.8008824e-05 -1.895828e-05 0.00048871926 -0.00010896395
6.3044736e-06 -3.203171e-05 -7.581255e-06 -5.7561345e-05 0.0003726774 -0.00028425595 -1.0748415e-05 2.6987658e-05
0.00017220169 0.00010228477 -0.00020567382 0.00037756958 0.00033310015 -4.341625e-05 1.2604469e-06 0.00014906573
-0.00016804907 -0.00053610373 0.0006385767 -0.000230835 0.006616925 0.0034099203 0.0003589832 0.0008028144
-3.2141983e-05 -1.4746369e-06 -1.9757766e-05 -6.3993226e-05 0.00023154651 -7.811304e-05 0.000105521474 -0.0004397044
-0.00011391251 0.002458273 5.6754958e-05 0.0004182254 -0.00019243693 0.0008052733 -1.3839551e-05 1.7040864e-05
-4.6869238e-05 -1.7826576e-05 -0.0002715042 -0.00019437302 -0.00086947344 4.0785933e-05 -0.0005287522 -0.00019422975
-1.396692e-06 1.4106588e-05 1.7962108e-07 2.1787015e-05 1.0573058e-05 3.8322057e-07 1.048804e-05 8.3147185e-08
3.842056e-07 3.6005213e-06 9.788151e-06 -6.6388757e-06 -5.735951e-06 1.2116318e-05 3.060772e-08 -5.7243506e-06
2.1882636e-08 4.2193037e-06 3.3439932e-07 7.608801e-09 -3.524582e-05 -2.8229208e-06 6.5614756e-07 3.606656e-08
-2.3602695e-06 1.16348275e-07 3.914943e-08 6.2576845e-07 1.6163937e-06 9.843757e-06 4.1105028e-05 3.5214505e-06
-7.867208e-06 4.931573e-07 9.831856e-08 2.6118325e-05 -1.5092302e-06 -3.0188494e-07 9.961978e-06 2.4908427e-06
-1.5926556e-06 1.4758115e-05 7.095623e-06 4.808344e-06 6.4017604e-06 1.11930696e-07 1.7626977e-05 2.0309491e-05
8.778272e-06 -2.5961724e-06 -3.3741003e-06 1.2590775e-07 9.842611e-07 4.571163e-08 4.1406647e-06 5.4216764e-07
1.8908733e-05 3.335327e-06 2.544588e-05 -2.1685612e-05 1.4646214e-07 8.573008e-09 2.6182706e-06 -1.1206518e-05
-1.5763181e-06 3.418121e-07 -1.7548503e-07 1.8436263e-06 2.0028101e-07 7.924229e-06 5.6084343e-07 5.399784e-07
1.0954171e-05 6.4726885e-07 1.2584882e-05 3.6685384e-07 -3.892075e-09 1.0890079e-06 1.3082946e-05 -6.893795e-06
4.096993e-06 5.230888e-07 6.692893e-08 1.9221962e-07 -2.226226e-05 -6.652842e-06 5.034325e-08 -2.8223263e-05
1.3908478e-05 3.0722713e-06 2.3850803e-06 3.3832212e-06 2.0182629e-06 5.143107e-09 4.07063e-06 4.6221626e-06
-8.359903e-06 -2.4501516e-05 -7.979691e-06 -7.925513e-06 3.5278783e-05 1.5373489e-05 4.6528794e-06 6.247214e-06
2.1671646e-08 -6.9012096e-08 4.3803557e-06 -1.17981564e-07 -6.1515525e-06 1.0100437e-06 -3.5499837e-05 -2.800377e-06
6.9428415e-06 1.3004509e-05 -2.094878e-08 6.957229e-06 -2.4540138e-06 1.240707e-05 8.511599e-07 1.9649937e-05
3.5291228e-07 9.836385e-08 -2.114158e-05 -2.7425313e-06 -1.19494525e-05 -4.3028426e-06 -9.209559e-06 -1.8581306e-05
00000000: b45d 3eb9 e129 c23b be07 e2b7 507a c73b
00000010: a5d8 a838 f452 e9b7 6773 5f3a a1b0 9ab7
00000020: d32b 9cb7 e735 97b8 0c3d a836 6a21 2ab9
00000030: 98bc 67b9 018e b139 d09a b9b7 0fd2 b839
00000040: 91a9 72b8 0f08 323b 944a c3b6 2273 56b8
00000050: 63a5 f03a 9cb0 2b3a 1e0f 08b9 2dcb 72b8
00000060: 1dbe ceb8 75f5 e1b7 d1d3 2db8 d8cc 3db7
00000070: 973f d038 a10b 5939 7f36 063c 0d62 a936
00000080: 257a 03b9 ceb8 02b8 60a1 2fb8 8dcd c23b
00000090: a741 c4b8 c1a6 a1b7 886a e73a c63c 043b
000000a0: 77fd 593a 1160 823b da10 37b9 2df8 b6b8
000000b0: 6582 0b39 efe7 90b7 683f 053a e232 9c3b
000000c0: 0fb6 103b 634e c3b9 3ff3 0f3b f7f2 7db7
000000d0: 310c 80b9 43d7 00b8 5de7 be3a c190 d438
000000e0: 3420 6d3b 9758 b439 a99a e63b 5a2b 2eb9
000000f0: 655f 5ab8 a529 dbb7 3ba9 a838 a7ba 94ba
00000100: 51e9 8738 3caf f4b6 699d eeb7 ddb8 a938
00000110: 2f7f 7fb8 aad4 5039 f5ca 13ba 6970 f5b7
00000120: f473 1b3b 3f96 14b6 6688 4a3a 78ec 4638
00000130: 804e 73b8 9908 9fb7 651d 003a 9383 e4b8
00000140: 048b d336 c959 06b8 7c62 feb6 066e 71b8
00000150: ea63 c339 3008 95b9 1754 34b7 8e63 e237
00000160: 0a91 3439 b881 d638 25aa 57b9 88f4 c539
00000170: f2a3 ae39 d819 36b8 a02c a935 874e 1c39
00000180: 5436 30b9 5089 0cba 2866 273a 4c0c 72b9
00000190: cad2 d83b f878 5f3b e935 bc39 f673 523a
000001a0: 31d0 06b8 23ec c5b5 7bbd a5b7 1a34 86b8
000001b0: 4bcb 7239 9ed0 a3b8 694b dd38 2088 e6b9
000001c0: 50e4 eeb8 fa1a 213b 2c0c 6e38 4345 db39
000001d0: e5c8 49b9 fa18 533a 6b30 68b7 faf2 8e37
000001e0: 7695 44b8 488a 95b7 ad58 8eb9 9cd0 4bb9
000001f0: 60ed 63ba 9011 2b38 f69b 0aba 27aa 4bb9
00000200: f975 bbb5 56ab 6c37 dedd 4034 42c3 b637
00000210: f062 3137 6fbd cd34 caf5 2f37 a68e b233
00000220: d144 ce34 7ca0 7136 ca37 2437 82c3 deb6
00000230: 7277 c0b6 3147 4b37 8b75 0333 cc13 c0b6
00000240: 6df8 bb32 8b93 8d36 7e87 b334 dcb7 0232
00000250: e9d4 13b8 6971 3db6 1e22 3035 9ae7 1a33
00000260: 1f65 1eb6 24db f933 4125 2833 7bfa 2735
00000270: ddf2 d835 9d26 2537 3068 2c38 0f52 6c36
00000280: 67fd 03b7 8361 0435 3323 d333 ad18 db37
00000290: c190 cab5 c012 a2b4 5f22 2737 5a28 2736
000002a0: 3bc3 d5b5 9f99 7737 f016 ee36 5c57 a136
000002b0: b4ce d636 8d5e f033 a5dd 9337 4d5e aa37
000002c0: 6446 1337 e739 2eb6 9a6e 62b6 4231 0734
000002d0: f41a 8435 7854 4433 0af0 8a36 7a89 1135
000002e0: 329e 9e37 7bd4 5f36 9c74 d537 7fe9 b5b7
000002f0: 3543 1d34 7d48 1332 8cb5 2f36 a103 3cb7
00000300: e191 d3b5 4c82 b734 f56c 3cb4 8472 f735
00000310: d30c 5734 4ef2 0437 de8c 1635 08f3 1035
00000320: cec7 3737 fabf 2d35 a823 5337 02f4 c434
00000330: 0ebb 85b1 072a 9235 d37e 5b37 4051 e7b6
00000340: e778 8936 636a 0c35 92ba 8f33 ed64 4e34
00000350: d7bf bab7 7a3b dfb6 fd38 5833 ffc0 ecb7
00000360: 7558 6937 382d 4e36 5e0f 2036 4c0b 6336
00000370: 7e71 0736 3fb7 b031 7296 8836 1318 9b36
00000380: 8341 0cb7 9b88 cdb7 83e0 05b7 d2f7 04b7
00000390: 4ef8 1338 51f6 8037 ee1f 9c36 299f d136
000003a0: 7428 ba32 cd33 94b3 f8fa 9236 0d5d fdb3
000003b0: 6f69 ceb6 d690 8735 a9e5 14b8 1cee 3bb6
000003c0: 8ef6 e836 f12d 5a37 dbf2 b3b2 2472 e936
000003d0: a3af 24b6 f627 5037 437b 6435 ebd5 a437
000003e0: e577 bd34 193c d333 3359 b1b7 540c 38b6
000003f0: 827a 48b7 2361 90b6 c182 1ab7 0ddf 9bb7
