lightning_logs/version_18/checkpoints/epoch=0-step=1601.ckpt (torch, 13579 bytes, 18 tensors)

layers.0.weight f4 [20, 4]
0	0xbf3d0053	-0.7382862
1	0x3f249ed6	0.64304864
2	0x3ce5b27e	0.028039213
3	0x3d863457	0.06552952
4	0xbe8bbc8c	-0.27292287
5	0x3e958239	0.29200915
6	0xbe6a2df6	-0.22869095
7	0xbea8160e	-0.32829326
8	0x3e8791aa	0.2647832
9	0xbe6398e7	-0.22226296
10	0x3dec509d	0.11538813
11	0x3e2da861	0.16958763
12	0x3edcf7ec	0.431579
13	0xbe90d210	-0.28285265
14	0x3eac619d	0.33668223
15	0xbee4185a	-0.4454983
16	0x3f3d595c	0.73964477
17	0x3df7e56a	0.12104304
18	0xbeba2f7b	-0.3636435
19	0xbe946c48	-0.28988862
20	0x3e88fde5	0.26756206
21	0xbeb29ccd	-0.34885255
22	0xbe8745c1	-0.26420406
23	0x3e44b00c	0.19207782
24	0x3dcae521	0.09906984
25	0xbebc27d8	-0.36749148
26	0x3d888ad4	0.06667104
27	0xbe6a0691	-0.22854067
28	0x3def0b00	0.1167202
29	0xbf14ad45	-0.5807689
30	0x3defbcec	0.11705956
31	0x3e2b2176	0.16711983
32	0x3e37f1ff	0.17963408
33	0xbd808e39	-0.06277127
34	0x3e84e2c4	0.25954258
35	0xbecabece	-0.39598697
36	0xbe9fd4c2	-0.3121701
37	0xbede6eae	-0.43443817
38	0xbe868708	-0.26274896
39	0xbe65ad44	-0.22429377
40	0xbe8b1ecc	-0.27171934
41	0xbee8680e	-0.45391887
42	0xbeb690ae	-0.35657257
43	0x3eb49c67	0.35275576
44	0xbeaa7f18	-0.3330009
45	0xbf08cfee	-0.53442276
46	0x3e765fc1	0.24059965
47	0xbeeac46f	-0.45852992
48	0xbdc8b302	-0.09799768
49	0x3f0cbb82	0.54973614
50	0x3e277b61	0.16355659
51	0xbec4f80e	-0.384705
52	0x3c208180	0.0097965
53	0x3dcf3282	0.101170555
54	0xbe660b6c	-0.22465295
55	0xbe92e35e	-0.28689092
56	0xbf1513b6	-0.582332
57	0xbe89a6ce	-0.26885074
58	0xbaa33288	-0.0012450973
59	0x3e3e36ee	0.18575642
60	0xbeab430f	-0.334496
61	0x3ea44676	0.32085007
62	0x3ed2c85d	0.4116849
63	0x3e478d2e	0.1948745
64	0x3f21c371	0.63188845
65	0xbe3a5d73	-0.1819971
66	0xbef14b7b	-0.471279
67	0x3eb1a236	0.3469407
68	0xbeeea34d	-0.46608964
69	0x3f1bffb1	0.6093703
70	0x3ef88f84	0.48546994
71	0x3d9a1459	0.07523412
72	0x3e297b03	0.16550831
73	0xbca9f002	-0.020744327
74	0x3ec0019f	0.37501237
75	0xbebf81b1	-0.37403634
76	0xbd9744ca	-0.07386167
77	0x3e205a91	0.15659548
78	0xbed25cbe	-0.41086382
79	0x3ec4d01c	0.38440025

layers.0.bias f4 [20]
0	0xbec33808	-0.38128686
1	0xbe3b0b9b	-0.18266146
2	0x3e7efae2	0.24900392
3	0x3ecfb43c	0.40567195
4	0x3e8f507e	0.27991098
5	0x3da4c65d	0.08045647
6	0xbde1cb71	-0.110251315
7	0x3ec5bf9c	0.3862275
8	0xbef2e6b3	-0.47441635
9	0xbe926428	-0.28592038
10	0xbee0d729	-0.43914154
11	0x3e9825ec	0.29716432
12	0x3e8ad37e	0.2711448
13	0x3e959f77	0.29223225
14	0xbe409aa8	-0.18808997
15	0xbe8c3e57	-0.27391312
16	0xbe1d9a6d	-0.1539094
17	0xbe817ec7	-0.25292036
18	0x3ebb1052	0.3653589
19	0xbcb48385	-0.02203537

layers.2.weight f4 [10, 20]
0	0x3cae2702	0.021258835
1	0x3dc3bc96	0.09557454
2	0xbca0e4ae	-0.019640293
3	0x3dec0c88	0.11525828
4	0xbdfbd54d	-0.12296543
5	0xbee6cd33	-0.4507843
6	0xbdaf0697	-0.08546179
7	0xbe027f1c	-0.12743801
8	0x3cc4e3a9	0.024034338
9	0xbd95ca74	-0.073140055
10	0xbda70ce6	-0.08156757
11	0xbce25976	-0.027630549
12	0x3e301056	0.17193732
13	0xbd6d8aa0	-0.05799353
14	0x3e12cfb9	0.14337052
15	0x3e4f6db2	0.20256689
16	0xbe30c30e	-0.17261907
17	0xbde5343d	-0.11191604
18	0xbd440e4d	-0.0478652
19	0xbe613394	-0.21992332
20	0xbe57a60d	-0.21059437
21	0x3e122334	0.14271241
22	0xbd54294d	-0.0517972
23	0x3d22515f	0.039628383
24	0xbd9a0bfd	-0.07521818
25	0x3cd60201	0.026124002
26	0xbe1fe91f	-0.15616272
27	0x3e347426	0.17622432
28	0x3db847f7	0.08998101
29	0x3c2419d4	0.0100159235
30	0x3d919300	0.07108116
31	0x3e15a372	0.1461313
32	0x3d55223c	0.0520346
33	0x3ddaae51	0.106777795
34	0xbd92ec80	-0.07174015
35	0x3e30ce17	0.17266117
36	0x3d2bce20	0.041944623
37	0x3e243150	0.16034436
38	0x3e24139f	0.1602311
39	0xbe0018bf	-0.1250944
40	0x3e309c5a	0.17247143
41	0x3e19bf90	0.15014482
42	0x3e3ed895	0.18637307
43	0xbe135214	-0.14386779
44	0xbdc128d3	-0.09431615
45	0x3cce50e3	0.025185054
46	0x3e1cbc67	0.15306245
47	0xbc9a4dcf	-0.01883593
48	0x3d6ec3fa	0.058292367
49	0xbdd102ff	-0.102056496
50	0xbe745deb	-0.23863952
51	0xbe14707b	-0.14496033
52	0x3e2a32e3	0.16620974
53	0xbd2c5c99	-0.042080496
54	0x3dc42251	0.09576858
55	0x3e63ee9c	0.22258991
56	0xbe32ef6d	-0.17474146
57	0x3e119331	0.14216305
58	0x3e16fb21	0.14744236
59	0xbe3985ed	-0.18117495
60	0x3d2015eb	0.039083403
61	0xbd1863c7	-0.03720453
62	0x3cb4475d	0.022006685
63	0x3d5a0e0a	0.053236045
64	0xbe0e0bc8	-0.13871682
65	0x3e39e3a5	0.18153246
66	0xbe23e960	-0.16006994
67	0xbe804253	-0.250506
68	0xbe23a599	-0.15981139
69	0x3c58506d	0.013202769
70	0x3e60959f	0.21932076
71	0xbccbdfc3	-0.024886971
72	0x3d8d8daf	0.069117896
73	0xbdda5676	-0.10661022
74	0xbdb8cacd	-0.09023056
75	0xbe674d14	-0.22587997
76	0x3e5afcda	0.21385518
77	0x3e3c9d88	0.18419468
78	0x3e043f0a	0.12914672
79	0xbe3c03b1	-0.18360783
80	0xbdb15241	-0.08658267
81	0xbc6acf5b	-0.014331664
82	0x3e4072c1	0.18793775
83	0xbe40fb3c	-0.18845838
84	0x3e7e20bd	0.24817176
85	0x3ed9d15e	0.42542547
86	0xbe15c504	-0.14625937
87	0x3e4e76e1	0.20162536
88	0xbe963114	-0.2933432
89	0xbdaf3179	-0.08554358
90	0xbdd4b92d	-0.10386882
91	0xbd348fd7	-0.04408249
92	0xbdfd7a00	-0.12376785
93	0x3e28b816	0.16476473
94	0xbe3ddf34	-0.18542176
95	0xbd92588f	-0.071457975
96	0xbcfa0e8d	-0.030524516
97	0xbe21a837	-0.15786825
98	0xbdebe8a2	-0.115189806
99	0x3d254247	0.04034641
100	0xbda42256	-0.080143616
101	0x3deb8c67	0.11501389
102	0xbcdf67d2	-0.027271185
103	0xbe3c76af	-0.18404649
104	0x3d7a0c76	0.06104704
105	0x3e1174a7	0.14204656
106	0x3ddf3384	0.10898498
107	0xbc82722a	-0.015923578
108	0xbd2f7e62	-0.042845137
109	0xbe39c403	-0.18141179
110	0xbdc722d8	-0.09723443
111	0x3af108c4	0.0018389453
112	0xbd864524	-0.06556156
113	0xbda3c674	-0.07996836
114	0x3d4dbedc	0.050230846
115	0x3e1154ab	0.14192455
116	0xbdeca47c	-0.115548104
117	0xbe141f6a	-0.14465109
118	0x3daa6ec9	0.08321912
119	0x3d520122	0.05127061
120	0x3e9a48f6	0.3013379
121	0x3e28496b	0.16434257
122	0xbe2ca89d	-0.16861196
123	0xbdd24919	-0.102678485
124	0xbe8c22b3	-0.27370223
125	0xbf03c9b1	-0.5147963
126	0xbcf8ce16	-0.030371707
127	0xbdac938f	-0.08426582
128	0x3e2cc5e2	0.16872361
129	0xbc644036	-0.013931325
130	0x3e094395	0.13404687
131	0x3cfad86a	0.030620772
132	0x3de905d7	0.11378067
133	0xbcac4042	-0.021026734
134	0xbd432d0a	-0.047650374
135	0x3e3dde5d	0.18541856
136	0xbe960735	-0.29302374
137	0x3e92ab87	0.2864649
138	0x3cd70de9	0.02625175
139	0x3dd30b68	0.1030491
140	0x3db99146	0.09060912
141	0x3e1f6aec	0.15568131
142	0x3d60586c	0.054771826
143	0x3be554ea	0.006998648
144	0x3e2969e6	0.16544303
145	0xbdaabe7e	-0.08337115
146	0x3e1b38cf	0.1515839
147	0xbe51f472	-0.20503405
148	0xbdd5ac67	-0.10433274
149	0x3e10afc4	0.1412955
150	0x3e28d130	0.16486049
151	0x3e168f9b	0.14703219
152	0xbdbe326a	-0.092869595
153	0xbcccd39d	-0.025003249
154	0x3d86a8d6	0.06575172
155	0x3e196494	0.14979774
156	0x3e75f64d	0.24019738
157	0xbd0f9f74	-0.035064176
158	0xbc11e67c	-0.008905049
159	0xbe2df9da	-0.16989842
160	0x3e422269	0.18958439
161	0xbe1d73a9	-0.15376152
162	0xbe594172	-0.21216372
163	0xbe27a59e	-0.16371772
164	0xbe57a9d9	-0.21060885
165	0xbe237edc	-0.15966362
166	0xbca46c0c	-0.020071052
167	0xbe6ec22c	-0.23316258
168	0x3de7f61a	0.11326237
169	0x3cd42860	0.025898159
170	0xbd4e56d0	-0.05037576
171	0xbe5df619	-0.2167591
172	0x3cba59a9	0.022747831
173	0x3b830afd	0.0039991126
174	0x3daaae1f	0.08333992
175	0x3e01b829	0.12667908
176	0x3db9331c	0.090429515
177	0xbdc51bcb	-0.09624442
178	0xbd7713e9	-0.060321722
179	0x3d8f3028	0.06991607
180	0xbd90a680	-0.07063007
181	0x3e5a4692	0.21315983
182	0x3e175c51	0.1478131
183	0xbddfd27b	-0.10928818
184	0x3dff9dcc	0.12481269
185	0x3d07aaab	0.033121746
186	0xbcc9d625	-0.024638245
187	0x3c7b73bc	0.015347417
188	0x3e3ae751	0.18252303
189	0x3d474c40	0.048656702
190	0x3db1c6cb	0.08680495
191	0xbdbdfdb9	-0.092769094
192	0xbe65021f	-0.2236409
193	0x3e03092e	0.1279647
194	0xbcde8ba4	-0.027166195
195	0x3d9009df	0.07033133
196	0xbd4c20bd	-0.04983591
197	0xbd5aeffd	-0.053451527
198	0xbd61eb9a	-0.055156328
199	0x3e8d4d71	0.27598146

layers.2.bias f4 [10]
0	0x3e4947d9	0.19656314
1	0x3e2d2ae4	0.16910893
2	0x3e31b5f7	0.1735457
3	0xbe18aee3	-0.14910464
4	0xbde1bd2e	-0.11022411
5	0xbe403738	-0.18771064
6	0x3d594d20	0.053052068
7	0xbc5d70b1	-0.013515637
8	0xbe41161e	-0.18856093
9	0xbe5fac5a	-0.2184309

layers.4.weight f4 [2, 10]
0	0xbd8ba130	-0.068178535
1	0x3e390add	0.1807055
2	0x3e6ef7e5	0.23336752
3	0x3d180f3b	0.0371239
4	0xbd78759c	-0.060659036
5	0xbd92939e	-0.07157062
6	0xbea24506	-0.31693286
7	0xbe611590	-0.21980882
8	0xbe90a30b	-0.28249392
9	0xbe2e9d18	-0.17052114
10	0x3c9cd179	0.019142853
11	0x3e48d4d9	0.19612445
12	0x3e9e8fce	0.3096909
13	0x3d9eb527	0.07749396
14	0xbe98c64b	-0.29838786
15	0xbd417f10	-0.047240317
16	0x3d98ee44	0.074673206
17	0xbdcdb14a	-0.10043581
18	0xbe3622de	-0.17786738
19	0xbe751189	-0.2393247

layers.4.bias f4 [2]
0	0xbe28b1b2	-0.16474035
1	0xbe8bc847	-0.27301237

exp_avg f4 [20, 4]
0	0x32b51b46	2.1083576e-08
1	0x32df9bdc	2.6031493e-08
2	0xb40dd8d2	-1.3210527e-07
3	0x327443c5	1.4218078e-08
4	0x32b930e5	2.155907e-08
5	0x3306f216	3.1419482e-08
6	0xb22541b4	-9.619203e-09
7	0x3373bfef	5.675241e-08
8	0xb49a9ce5	-2.879889e-07
9	0x31abf537	5.0046327e-09
10	0x3745d33f	1.17913e-05
11	0x365250d8	3.1339496e-06
12	0xb582ff96	-9.76014e-07
13	0xb5c0fedc	-1.4379289e-06
14	0x357b2d1b	9.3570424e-07
15	0xb6262a50	-2.4760557e-06
16	0xb2d918bb	-2.5273371e-08
17	0xb30fe04a	-3.349877e-08
18	0x33a216f1	7.547886e-08
19	0xb33a6d52	-4.3405926e-08
20	0xb31e4d5d	-3.6857603e-08
21	0xb33844f2	-4.2903544e-08
22	0x3487f598	2.5324402e-07
23	0xb26cc499	-1.3781709e-08
24	0x2e49488d	4.5766547e-11
25	0x30ad6695	1.2616562e-09
26	0x32d53821	2.4821988e-08
27	0x3219b0a9	8.94594e-09
28	0xb4a7b766	-3.1239614e-07
29	0xb427c848	-1.5625949e-07
30	0x37118802	8.67434e-06
31	0x3606f1cc	2.01083e-06
32	0x3284fd34	1.5481966e-08
33	0x32b65324	2.1225397e-08
34	0xb32b93a9	-3.9948336e-08
35	0x32fc3dd8	2.9364784e-08
36	0xb1e974e1	-6.79448e-09
37	0xb230cd30	-1.0291203e-08
38	0xb2b11df9	-2.0619142e-08
39	0xb2d5ba05	-2.4881055e-08
40	0xb13f6cd3	-2.7856017e-09
41	0xb204fa11	-7.74027e-09
42	0xb3e4ca6b	-1.0653897e-07
43	0xb33781d6	-4.2726093e-08
44	0x33b78e34	8.547468e-08
45	0xb3a9276b	-7.876846e-08
46	0xb5042ac1	-4.9236047e-07
47	0xb506e755	-5.025552e-07
48	0x35ff3452	1.9014208e-06
49	0x3637ad16	2.7369874e-06
50	0x34708d45	2.2403135e-07
51	0x36aef5a3	5.2142e-06
52	0xb1263f04	-2.4192e-09
53	0xb119a829	-2.2360018e-09
54	0x3260ba00	1.30808075e-08
55	0xb07b68e4	-9.1462327e-10
56	0x3106442c	1.9538318e-09
57	0x317094e6	3.5009236e-09
58	0x329fad33	1.8588798e-08
59	0x3245fdab	1.1524587e-08
60	0x36452f48	2.9382809e-06
61	0x368f92bc	4.2788142e-06
62	0x358f040a	1.0655506e-06
63	0x370c4f57	8.363123e-06
64	0xb2edbdcb	-2.767674e-08
65	0xb31c331e	-3.636807e-08
66	0x33c1ae81	9.019005e-08
67	0xb34065c9	-4.4796057e-08
68	0x36357e84	2.7044744e-06
69	0x367f4477	3.8037813e-06
70	0xb6467598	-2.9572748e-06
71	0x36d6ce40	6.4017077e-06
72	0x35a5eec6	1.236295e-06
73	0x360a4295	2.0602358e-06
74	0x36fc026c	7.510467e-06
75	0x36c52365	5.875178e-06
76	0xb21bfc9c	-9.079624e-09
77	0xb291da60	-1.6979527e-08
78	0xb3e94793	-1.0862927e-07
79	0xb382671e	-6.0723536e-08

exp_avg_sq f4 [20, 4]
0	0x2a2c672b	1.5312462e-13
1	0x2a145d81	1.3177481e-13
2	0x2df7e964	2.8184295e-11
3	0x2c94a7ef	4.2250574e-12
4	0x2a8640ef	2.3848238e-13
5	0x2a6948cd	2.0719815e-13
6	0x2e444c48	4.4632992e-11
7	0x2ce55bc1	6.518758e-12
8	0x30637ffe	8.2764007e-10
9	0x304089e8	7.004517e-10
10	0x343a1823	1.7331381e-07
11	0x32de0cba	2.5849989e-08
12	0x31041a4a	1.9223472e-09
13	0x30e1a00c	1.6416393e-09
14	0x34d6a462	3.998021e-07
15	0x3372dfd3	5.6548583e-08
16	0x2ade88b8	3.952999e-13
17	0x2abcf8b3	3.3568078e-13
18	0x2eaa02a7	7.731176e-11
19	0x2d576eec	1.2245965e-11
20	0x2bfef7b5	1.8116538e-12
21	0x2c07ab81	1.9279858e-12
22	0x3042a198	7.080643e-10
23	0x2f8a40a3	2.514798e-10
24	0x2894b403	1.6509368e-14
25	0x286f0bcf	1.3269726e-14
26	0x2c678273	3.2899488e-12
27	0x2b255d00	5.874884e-13
28	0x30b69b75	1.3286426e-09
29	0x3092f03f	1.069118e-09
30	0x34992f4f	2.8532892e-07
31	0x332f6fa6	4.0846906e-08
32	0x2ea30348	7.412965e-11
33	0x2e5ee350	5.067885e-11
34	0x323ccd67	1.0989743e-08
35	0x3058356c	7.865626e-10
36	0x29e11369	9.9953743e-14
37	0x29bf0949	8.4837146e-14
38	0x2db69a0d	2.0759417e-11
39	0x2c657c79	3.2611954e-12
40	0x2a84a5f8	2.3563074e-13
41	0x2a5b008a	1.9451294e-13
42	0x2e5f234b	5.0735676e-11
43	0x2d010b2c	7.335282e-12
44	0x31574e7a	3.1331227e-09
45	0x31370ace	2.6636147e-09
46	0x3533c193	6.6964384e-07
47	0x33cccff8	9.5373196e-08
48	0x310c6cd1	2.0434536e-09
49	0x30f38296	1.7717692e-09
50	0x34d7c2e9	4.0188687e-07
51	0x3387f9cf	6.331867e-08
52	0x2baff7c2	1.2503264e-12
53	0x2b67d151	8.235817e-13
54	0x2f9d195a	2.8576147e-10
55	0x2dbea59f	2.167405e-11
56	0x2f4f5bda	1.8859173e-10
57	0x2f2a5cf2	1.5494431e-10
58	0x33306748	4.1072127e-08
59	0x31cf7735	6.038045e-09
60	0x317ce4eb	3.6800951e-09
61	0x3156b0bb	3.1241558e-09
62	0x3532907d	6.6520425e-07
63	0x33e2981d	1.0551614e-07
64	0x2abe441e	3.3798046e-13
65	0x2aa320be	2.8977336e-13
66	0x2e8b0550	6.321932e-11
67	0x2d2b5477	9.73898e-12
68	0x3126ecfe	2.4290894e-09
69	0x310f4fa6	2.0854514e-09
70	0x34efb81e	4.4651182e-07
71	0x33975069	7.046112e-08
72	0x30f52247	1.7835838e-09
73	0x30d09a2d	1.5177811e-09
74	0x34c3bd81	3.6459463e-07
75	0x336dc60b	5.536098e-08
76	0x2a023bd0	1.1567071e-13
77	0x29e89417	1.0328559e-13
78	0x2dcd9f41	2.3376525e-11
79	0x2c835818	3.7330243e-12

exp_avg f4 [20]
0	0xb3bf2362	-8.900567e-08
1	0xb274fc9b	-1.4260105e-08
2	0x36f59012	7.318341e-06
3	0x357fe197	9.532318e-07
4	0x337098ee	5.6018443e-08
5	0x3435bc10	1.6925355e-07
6	0x32825f56	1.5177346e-08
7	0x36b60f75	5.425822e-06
8	0xb302dabe	-3.046693e-08
9	0xb22a5435	-9.914449e-09
10	0xb389783d	-6.401431e-08
11	0xb4b49cd1	-3.3641712e-07
12	0xb5229be4	-6.0576554e-07
13	0x321c0de9	9.083558e-09
14	0x32361b99	1.0600069e-08
15	0xb5060370	-4.992389e-07
16	0x338d96e5	6.593272e-08
17	0xb640674b	-2.8670354e-06
18	0x3689dff6	4.1089907e-06
19	0xb3870117	-6.2866256e-08

exp_avg_sq f4 [20]
0	0x2d293cf2	9.62007e-12
1	0x2d862295	1.5249394e-11
2	0x33800b14	5.9624796e-08
3	0x34133f96	1.3713574e-07
4	0x2de8ad7b	2.6452387e-11
5	0x2f88d14f	2.4886979e-10
6	0x2b9edc7e	1.1287774e-12
7	0x33d390bd	9.851781e-08
8	0x31824e20	3.7923797e-09
9	0x2cfa7331	7.118216e-12
10	0x2d99df5a	1.7493274e-11
11	0x3476b413	2.2976046e-07
12	0x3413ccc4	1.3764935e-07
13	0x2edecd3a	1.0131847e-10
14	0x327345fc	1.4160374e-08
15	0x347402af	2.2725247e-07
16	0x2dbde10e	2.1586757e-11
17	0x342404c5	1.5275425e-07
18	0x34069666	1.2534437e-07
19	0x2d0cee16	8.010944e-12

exp_avg f4 [10, 20]
0	0x32bbad7f	2.1848562e-08
1	0x32e0d379	2.6173199e-08
2	0xb610664b	-2.1517214e-06
3	0xb6b0e22f	-5.27154e-06
4	0x32b7b788	2.1387464e-08
5	0x32866aa5	1.564815e-08
6	0xb2003711	-7.463101e-09
7	0xb6781ee8	-3.697287e-06
8	0x31038f3b	1.9144426e-09
9	0x32b0a987	2.0566189e-08
10	0x333d67a4	4.4099252e-08
11	0xb69af0ca	-4.617589e-06
12	0xb6177541	-2.2569004e-06
13	0x2f9cf2f5	2.8548866e-10
14	0xb0506c2c	-7.582368e-10
15	0xb5af1e4e	-1.3047336e-06
16	0x3365cffa	5.350737e-08
17	0xb5f0713c	-1.7914349e-06
18	0xb6aabfb1	-5.0887106e-06
19	0x3329cef3	3.9536598e-08
20	0xb2af84be	-2.0433045e-08
21	0xb3f0a655	-1.12061265e-07
22	0x3705b8c0	7.970433e-06
23	0x36c166f0	5.7638317e-06
24	0xb38a4b49	-6.43982e-08
25	0xb3002d03	-2.984326e-08
26	0xb3411cc3	-4.4962473e-08
27	0x36fe5caa	7.5805774e-06
28	0xb3772c09	-5.754922e-08
29	0xb42719de	-1.5562497e-07
30	0xb3f09077	-1.1202149e-07
31	0xb3ebab60	-1.0974213e-07
32	0x36841c41	3.9371957e-06
33	0xb355656a	-4.9685163e-08
34	0xb2cea2c7	-2.4055579e-08
35	0x371da1b5	9.39558e-06
36	0xb3904617	-6.718272e-08
37	0x3730a76a	1.0529397e-05
38	0x3707160e	8.051762e-06
39	0xb31abedd	-3.602951e-08
40	0xb284a148	-1.5440165e-08
41	0xb41f7af0	-1.4852753e-07
42	0x372e2cd6	1.0381647e-05
43	0x36a7fe5b	5.0065987e-06
44	0xb3af38f8	-8.159435e-08
45	0xb3118d32	-3.388886e-08
46	0xb399d1c8	-7.162777e-08
47	0x371354a2	8.781588e-06
48	0xb3b4f741	-8.4268784e-08
49	0xb468cd6c	-2.1681416e-07
50	0xb412a6fb	-1.3658057e-07
51	0xb658dfb6	-3.2316725e-06
52	0x3691978c	4.338979e-06
53	0xb39da0e8	-7.340151e-08
54	0xb319b9e0	-3.579214e-08
55	0x375b50ea	1.30722565e-05
56	0xb38a0501	-6.427036e-08
57	0x37722665	1.44332635e-05
58	0x370f4f41	8.541917e-06
59	0xb2e8a12b	-2.7081645e-08
60	0x2e182cf0	3.460071e-11
61	0xaf84d9cf	-2.4165422e-10
62	0x328962da	1.5993852e-08
63	0xb1b5b8e7	-5.2888143e-09
64	0xaefb5106	-1.1428551e-10
65	0xade8bf7e	-2.6460386e-11
66	0xaf43cf05	-1.7808695e-10
67	0x32077641	7.884922e-09
68	0xaf447c71	-1.7870307e-10
69	0xafdfabe7	-4.0685608e-10
70	0xaf32239a	-1.6201654e-10
71	0xb2b3d034	-2.0933022e-08
72	0x313483b1	2.6268305e-09
73	0xaf2d6bcc	-1.5772555e-10
74	0xaeaae75f	-7.771805e-11
75	0x32d22c88	2.4467468e-08
76	0x2db6fea8	2.0804095e-11
77	0x32df1e36	2.5974355e-08
78	0x3153cc34	3.0820617e-09
79	0x2e8678e7	6.115091e-11
80	0xafc164d1	-3.517813e-10
81	0x3024ea35	5.999568e-10
82	0xb317b69c	-3.532351e-08
83	0x339ead65	7.3889886e-08
84	0x2f4f8de9	1.8876957e-10
85	0xae94146f	-6.7338905e-11
86	0x30460cb5	7.205004e-10
87	0x322d096c	1.0072068e-08
88	0x302b9df7	6.243392e-10
89	0x30ac7f31	1.2550797e-09
90	0x2f0afdf6	1.2641252e-10
91	0x3404c3b8	1.236466e-07
92	0x327046e4	1.3985957e-08
93	0x301bae76	5.6636595e-10
94	0x2f9f311f	2.8956834e-10
95	0xb3a0713d	-7.4711785e-08
96	0xb02de83c	-6.326706e-10
97	0xb3a14102	-7.5089716e-08
98	0x333397e4	4.181483e-08
99	0xb02dc198	-6.3212147e-10
100	0x2f2c1f8c	1.5654517e-10
101	0x30009808	4.678218e-10
102	0xb3133942	-3.427818e-08
103	0xb32b6fd1	-3.9915736e-08
104	0x2f9e97e6	2.8847963e-10
105	0x2f2d8372	1.5780957e-10
106	0x2efd395e	1.15152984e-10
107	0xb327d835	-3.9079357e-08
108	0x2f50dbe4	1.899561e-10
109	0x30211812	5.8605665e-10
110	0x3013ee04	5.381653e-10
111	0xb299d916	-1.7910263e-08
112	0xb2b97eb9	-2.1594461e-08
113	0x2f329c9c	1.6244645e-10
114	0x2eadde29	7.906593e-11
115	0xb317dc1b	-3.5357612e-08
116	0x2fea1f20	4.2586468e-10
117	0xb32fa7e7	-4.089807e-08
118	0xb346c7db	-4.6282235e-08
119	0x2f967a2e	2.7371655e-10
120	0x33e92b1e	1.0857751e-07
121	0x341eaec3	1.4778475e-07
122	0xb74691b9	-1.1835648e-05
123	0xb7dbc0b0	-2.6196562e-05
124	0x33f2bf30	1.130378e-07
125	0x33ab8a6f	7.987989e-08
126	0xb2dd7199	-2.5779444e-08
127	0xb79f80d3	-1.9014265e-05
128	0x32ad117a	2.0147798e-08
129	0x340c35c5	1.3058077e-07
130	0x34794430	2.3214739e-07
131	0xb7b64303	-2.1727295e-05
132	0xb7402e12	-1.1454818e-05
133	0x32502a5e	1.2116827e-08
134	0x314b8847	2.9617853e-09
135	0xb707b825	-8.0895015e-06
136	0x348e7b92	2.653947e-07
137	0xb731fa73	-1.0608334e-05
138	0xb7d7d11f	-2.5727377e-05
139	0x34508023	1.9418125e-07
140	0x30047d0e	4.8199034e-10
141	0x30a3194c	1.1867001e-09
142	0xb3be9894	-8.875318e-08
143	0xb402a4cf	-1.216715e-07
144	0x305502d2	7.7492956e-10
145	0x2ff6a375	4.4863283e-10
146	0x2f5a81f5	1.9873155e-10
147	0xb3ebaaab	-1.09740846e-07
148	0x2feb745b	4.2828927e-10
149	0x30c10bdf	1.4045972e-09
150	0x30c8ee5f	1.4619664e-09
151	0xb396caba	-7.021795e-08
152	0xb3858075	-6.216661e-08
153	0x2fc1795e	3.5192732e-10
154	0x2f2ffabf	1.600524e-10
155	0xb3b7b1de	-8.5539554e-08
156	0x30b13a61	1.2895037e-09
157	0xb3d8b18d	-1.009058e-07
158	0xb410843a	-1.3459149e-07
159	0x306c7c20	8.603269e-10
160	0x301728a4	5.4991234e-10
161	0x30deb221	1.6203253e-09
162	0xb40020ef	-1.193291e-07
163	0xb4179bf3	-1.4119705e-07
164	0x308bd4b3	1.0174034e-09
165	0x301928b0	5.5718896e-10
166	0x2fd3e04a	3.8540043e-10
167	0xb413bdb6	-1.3759458e-07
168	0x3034d593	6.5787126e-10
169	0x310aaafa	2.0178832e-09
170	0x3101528f	1.88189e-09
171	0xb38e909c	-6.6386946e-08
172	0xb3a3f956	-7.635633e-08
173	0x3017d87c	5.5241123e-10
174	0x2f8e7f86	2.592026e-10
175	0xb4036ff9	-1.2241061e-07
176	0x30d0e689	1.5199514e-09
177	0xb4186ff7	-1.4196836e-07
178	0xb42f6a27	-1.6336763e-07
179	0x30863f3b	9.767754e-10
180	0x2eeee0ab	1.0862896e-10
181	0x309d0b3a	1.1426444e-09
182	0xb3aaf63b	-7.961031e-08
183	0xb31a23f5	-3.5888622e-08
184	0x302a4492	6.1943084e-10
185	0x2f8b92e5	2.5388328e-10
186	0x301ae99f	5.635687e-10
187	0xb38ddf24	-6.606413e-08
188	0x3033eab4	6.5453354e-10
189	0x30e6de36	1.6797859e-09
190	0x308ebd41	1.0385649e-09
191	0x32f21eeb	2.8186568e-08
192	0xb30b3f68	-3.2421127e-08
193	0x301d593b	5.724307e-10
194	0x2f9b8648	2.8289748e-10
195	0xb3d8f1e9	-1.0102287e-07
196	0x2fff86f4	4.648012e-10
197	0xb3ef09d5	-1.1131093e-07
198	0xb3883d1e	-6.344111e-08
199	0x2f4c8100	1.8599522e-10

exp_avg_sq f4 [10, 20]
0	0x2c9320a6	4.181616e-12
1	0x2dc8ac5e	2.2813914e-11
2	0x340f9223	1.3371077e-07
3	0x34805c3c	2.3908967e-07
4	0x2d4df278	1.170674e-11
5	0x2b783a46	8.818817e-13
6	0x2d8f1536	1.6266637e-11
7	0x3415e03c	1.3958282e-07
8	0x2d8d12d3	1.6038204e-11
9	0x2e3c3457	4.2792738e-11
10	0x2de3d1ea	2.5900133e-11
11	0x33849cac	6.1752274e-08
12	0x33acaa3b	8.040339e-08
13	0x2b3c7dea	6.696576e-13
14	0x30f370de	1.7712656e-09
15	0x34464c09	1.8467848e-07
16	0x2dc601be	2.2510768e-11
17	0x3475d45d	2.289466e-07
18	0x34913534	2.7047065e-07
19	0x2d76fd33	1.40397026e-11
20	0x2da8f215	1.9206895e-11
21	0x2eac8589	7.845375e-11
22	0x34d3dfb9	3.9464592e-07
23	0x355db4f4	8.2592237e-07
24	0x2dfd225e	2.8778032e-11
25	0x2c900bbc	4.094029e-12
26	0x2e5f8633	5.0823522e-11
27	0x34d460dc	3.9558552e-07
28	0x2dde52b6	2.5275209e-11
29	0x2f0068ed	1.167881e-10
30	0x2ea27fdf	7.3896216e-11
31	0x3484f412	2.47645e-07
32	0x345c6f9b	2.0529698e-07
33	0x2c1f1ebf	2.2612327e-12
34	0x32663b08	1.3401184e-08
35	0x34f45ba0	4.5515208e-07
36	0x2e7edebf	5.7950752e-11
37	0x35262b2c	6.190264e-07
38	0x35519605	7.8076874e-07
39	0x2e38b429	4.199677e-11
40	0x2e8af7e9	6.319551e-11
41	0x2f8630f6	2.4409247e-10
42	0x359c886e	1.1662612e-06
43	0x362cd504	2.5753989e-06
44	0x2eb4d9f2	8.224167e-11
45	0x2d64631b	1.2982305e-11
46	0x2f2fa27a	1.597388e-10
47	0x3598cbb8	1.1384172e-06
48	0x2ddef668	2.5347904e-11
49	0x2fbc0b71	3.420513e-10
50	0x2f6a9d85	2.1338138e-10
51	0x3555e757	7.9685327e-07
52	0x351d1dbc	5.8530327e-07
53	0x2ce8a2e7	6.6119224e-12
54	0x3350f946	4.8655487e-08
55	0x35afd968	1.310179e-06
56	0x2f35ec7b	1.6545869e-10
57	0x35f414c9	1.8185466e-06
58	0x361a22c5	2.2968027e-06
59	0x2f0a12e1	1.2557734e-10
60	0x2bc5dc1c	1.4058785e-12
61	0x2ccdfee0	5.8547472e-12
62	0x3313b9ae	3.439498e-08
63	0x3386cd15	6.2771655e-08
64	0x2c361e73	2.5880658e-12
65	0x2a721a6d	2.1503086e-13
66	0x2ca871ab	4.787467e-12
67	0x330c841c	3.2716443e-08
68	0x2cda6274	6.206863e-12
69	0x2d2b38d3	9.732842e-12
70	0x2cce0752	5.855685e-12
71	0x329d7a63	1.833286e-08
72	0x329e2fef	1.8415419e-08
73	0x29f7c63a	1.100339e-13
74	0x306c8bce	8.6054974e-10
75	0x332c76c2	4.015488e-08
76	0x2ca9ca64	4.8257388e-12
77	0x3365ed03	5.353378e-08
78	0x338c4496	6.531734e-08
79	0x2c8377ad	3.7365306e-12
80	0x27431f47	2.7078642e-15
81	0x284283ab	1.0797714e-14
82	0x2e64c1b9	5.201326e-11
83	0x2ef72598	1.12389376e-10
84	0x2784dc7d	3.6876414e-15
85	0x262f31ed	6.0782984e-16
86	0x27f59c78	6.8170804e-15
87	0x2e62b6b6	5.154873e-11
88	0x268d3e54	9.800734e-16
89	0x288ab826	1.540094e-14
90	0x282f712d	9.7389926e-15
91	0x2e1593b7	3.4009875e-11
92	0x2de59747	2.6101466e-11
93	0x25ca3819	3.5079427e-16
94	0x2c0f15be	2.0333592e-12
95	0x2e818ced	5.891274e-11
96	0x2805e392	7.4323296e-15
97	0x2eb29233	8.120473e-11
98	0x2ee0e023	1.0226155e-10
99	0x27c59e9f	5.485046e-15
100	0x2713d421	2.0515343e-15
101	0x288bef7e	1.5535963e-14
102	0x2ea2dfd0	7.406664e-11
103	0x2f29ceb7	1.54439e-10
104	0x27f086aa	6.6759385e-15
105	0x26899ec5	9.549319e-16
106	0x27875ea9	3.7572658e-15
107	0x2ed702f8	9.7775954e-11
108	0x26dff302	1.5539601e-15
109	0x28f1a29a	2.6826892e-14
110	0x28b829f0	2.0446291e-14
111	0x2e274f12	3.8041632e-11
112	0x2e5543cd	4.8490812e-11
113	0x261f67e4	5.5305005e-16
114	0x29427183	4.317511e-14
115	0x2ee5be29	1.04474936e-10
116	0x288e635f	1.5808262e-14
117	0x2f14f1dd	1.3546449e-10
118	0x2f3e6401	1.7315928e-10
119	0x28017a8f	7.187514e-15
120	0x2d81e2c2	1.4766303e-11
121	0x2ec4ac3b	8.9436424e-11
122	0x350f69c3	5.3425555e-07
123	0x35770e20	9.2035225e-07
124	0x2e4dcc24	4.6792917e-11
125	0x2c861d4f	3.811763e-12
126	0x2e7c6289	5.7385683e-11
127	0x351b9cb9	5.797006e-07
128	0x2ecc3cad	9.287624e-11
129	0x2f3ddcf6	1.7267951e-10
130	0x2eef61d7	1.08858415e-10
131	0x3471c256	2.2515573e-07
132	0x34ae055a	3.241392e-07
133	0x2c649d18	3.2487953e-12
134	0x31931b54	4.28137e-09
135	0x35464a10	7.3868523e-07
136	0x2ecaad29	9.216656e-11
137	0x35745761	9.1024236e-07
138	0x35921c24	1.0886038e-06
139	0x2e6f7f91	5.445561e-11
140	0x2df73fac	2.8108925e-11
141	0x2ee81d78	1.0555373e-10
142	0x3507a953	5.053782e-07
143	0x359a0e5c	1.1478073e-06
144	0x2e1c447c	3.553112e-11
145	0x2cb2c77d	5.081212e-12
146	0x2e9cbc29	7.1274826e-11
147	0x3503138d	4.8829753e-07
148	0x2dc401d7	2.2283437e-11
149	0x2f22a5e2	1.4792748e-10
150	0x2eca8583	9.209613e-11
151	0x34c26ecf	3.621594e-07
152	0x348d2196	2.6287734e-07
153	0x2c099a8b	1.955466e-12
154	0x32b60528	2.1189933e-08
155	0x3518e56c	5.6958265e-07
156	0x2ea0baaf	7.309119e-11
157	0x35547162	7.914115e-07
158	0x35880a42	1.0135775e-06
159	0x2e77f850	5.6381844e-11
160	0x2731fd4a	2.4700993e-15
161	0x2840c246	1.0700267e-14
162	0x2e78b41b	5.6548637e-11
163	0x2ef8b0a3	1.1309111e-10
164	0x2799a751	4.2647436e-15
165	0x2616d6ae	5.233265e-16
166	0x27fa504f	6.947601e-15
167	0x2e7e8d5a	5.787846e-11
168	0x27dc63c2	6.1170424e-15
169	0x28986762	1.6920225e-14
170	0x28429088	1.08005036e-14
171	0x2e107d93	3.285334e-11
172	0x2e06eb7b	3.067722e-11
173	0x25ac4c4a	2.988894e-16
174	0x2bd2fa15	1.4990809e-12
175	0x2e93d276	6.7221714e-11
176	0x281b577e	8.6232e-15
177	0x2ec51a9e	8.963251e-11
178	0x2ef835a8	1.12872656e-10
179	0x27d85c48	6.0052095e-15
180	0x29a4ea9a	7.32376e-14
181	0x2adc2c40	3.9110555e-13
182	0x30ddeec9	1.6147733e-09
183	0x31136afa	2.1452125e-09
184	0x2a2a399b	1.5119019e-13
185	0x27e38356	6.314755e-15
186	0x2ab054ee	3.1322812e-13
187	0x30c2d2cd	1.4175271e-09
188	0x28f04037	2.6673201e-14
189	0x2b017aec	4.6000595e-13
190	0x2a21d4ca	1.4373499e-13
191	0x300d39ae	5.137747e-10
192	0x2f9e1a24	2.8758607e-10
193	0x28cb46b9	2.2568198e-14
194	0x2fa43355	2.98679e-10
195	0x31091d3a	1.9952737e-09
196	0x2a0dbc7a	1.2588707e-13
197	0x3129c8f1	2.4706959e-09
198	0x30f5801e	1.7862509e-09
199	0x29d1544b	9.296087e-14

exp_avg f4 [10]
0	0xb6b384fa	-5.350096e-06
1	0x37523967	1.253034e-05
2	0x377c1d5a	1.5027204e-05
3	0x328ddb64	1.6514328e-08
4	0xb18515c2	-3.873283e-09
5	0xb38401a7	-6.1470296e-08
6	0xb7e94f91	-2.7812815e-05
7	0xb4361ec5	-1.6961265e-07
8	0xb4681b23	-2.1616556e-07
9	0xb3f4392e	-1.1372536e-07

exp_avg_sq f4 [10]
0	0x34be0557	3.5394143e-07
1	0x358ed5eb	1.0642083e-06
2	0x36549dd0	3.168232e-06
3	0x33b0a052	8.224801e-08
4	0x2f1c176b	1.4196437e-10
5	0x2f8b72eb	2.5365607e-10
6	0x35c11bc9	1.4387707e-06
7	0x35b87552	1.3743213e-06
8	0x2f26a34a	1.5155624e-10
9	0x3176b961	3.5903087e-09

exp_avg f4 [2, 10]
0	0x37a16d5b	1.9243618e-05
1	0x387a1bae	5.9630423e-05
2	0x38057e59	3.182734e-05
3	0xb3fd8b29	-1.1806544e-07
4	0xb49050cc	-2.6880878e-07
5	0xb49bb35e	-2.9001507e-07
6	0x36f3f3df	7.2703547e-06
7	0xb2ff84d1	-2.9746305e-08
8	0xb534328f	-6.71288e-07
9	0xb4c9a6ac	-3.7560437e-07
10	0xb641b94f	-2.8867105e-06
11	0xb7808cd5	-1.5324369e-05
12	0x37409de9	1.1480858e-05
13	0x31be2def	5.53495e-09
14	0x33ab8b7e	7.9881815e-08
15	0x33d5c399	9.9541644e-08
16	0x3734a88c	1.0768079e-05
17	0xb20ffc57	-8.381071e-09
18	0x34974526	2.8176254e-07
19	0x344873b0	1.8668538e-07

exp_avg_sq f4 [2, 10]
0	0x35c701b7	1.4827154e-06
1	0x37194f54	9.137981e-06
2	0x3688a405	4.0722102e-06
3	0x34896036	2.558824e-07
4	0x2f0fc926	1.3077237e-10
5	0x2f17c9a7	1.3805011e-10
6	0x35490ee6	7.4900015e-07
7	0x34ab9f83	3.1967292e-07
8	0x308469b5	9.634308e-10
9	0x2f052839	1.211057e-10
10	0x35cdad98	1.5324213e-06
11	0x378c9b50	1.6761624e-05
12	0x36ba4780	5.5515557e-06
13	0x34eae415	4.3751848e-07
14	0x2f4004f1	1.7464054e-10
15	0x2fca2ab9	3.6773942e-10
16	0x35545d6a	7.911209e-07
17	0x362a739d	2.539927e-06
18	0x310bbbf1	2.0333994e-09
19	0x2f10b163	1.3159744e-10

exp_avg f4 [2]
0	0x38b4d10a	8.6220054e-05
1	0xb7a6744a	-1.9842893e-05

exp_avg_sq f4 [2]
0	0x3784cddd	1.5831489e-05
1	0x3818535d	3.6317262e-05
