lightning_logs/version_126/checkpoints/epoch=49-step=400.ckpt (torch, 10635 bytes, 18 tensors)

layers.0.weight f4 [10, 4]
-0.05316937 0.24874222 -0.26362365 -0.3652507 -0.08484262 0.012892544 -0.3073365 0.35519058
0.43460783 -0.19509509 0.36466777 -0.38197908 -0.09167546 -0.2369402 -0.0011693835 0.25884908
-0.16122465 0.38203892 0.17153014 0.24945831 0.3502272 -0.29593948 0.35721305 0.428416
0.009456913 -0.2811907 -0.04612412 0.358836 0.439577 0.32831544 -0.046955813 0.2885432
-0.42499408 -0.09568013 -0.0024862322 0.26217645 -0.1787082 -0.3272626 0.028164085 0.2908876
00000000: 20c8 59bd 48b6 7e3e aef9 86be 2402 bbbe
00000010: f8c1 adbd 403b 533c 365b 9dbe 8adb b53e
00000020: eb84 de3e 02c7 47be bcb5 ba3e c392 c3be
00000030: 58c0 bbbd 74a0 72be 0046 99ba de87 843e
00000040: 1318 25be 9b9a c33e 99a5 2f3e 0072 7f3e
00000050: fb50 b33e 6185 97be a1e4 b63e 5859 db3e
00000060: 2bf1 1a3c 3af8 8fbe a5ec 3cbd 5ab9 b73e
00000070: 3d10 e13e f618 a83e bd54 40bd efbb 933e
00000080: d398 d9be f2f3 c3bd 0ef0 22bb fe3b 863e
00000090: 48ff 36be f78e a7be 5eb8 e63c 38ef 943e

layers.0.bias f4 [10]
-0.08408922 -0.23752338 -0.51015407 -0.29020816 -0.29690468 0.39251652 0.09049021 0.28860822
0.10972638 -0.036992624
00000000: f836 acbd 5439 73be 7599 02bf 2a96 94be
00000010: e403 98be edf7 c83e ee52 b93d 75c4 933e
00000020: 39b8 e03d 9485 17bd

layers.2.weight f4 [5, 10]
-1.613444e-05 0.2931131 -0.030738316 0.04802721 -0.11044483 0.18420394 0.26405326 0.16704734
-0.059642173 -0.17100048 0.09717984 0.2792207 -0.1919205 -0.2546874 -0.17467433 -0.30008367
0.23193432 0.18845119 0.08183278 0.055353414 0.060200457 0.31506872 -0.24161714 -0.026480308
0.09055989 0.2429437 0.047116835 -0.21786751 0.21760131 0.26185915 -0.005282596 -0.3045288
0.02387401 -0.25100046 -0.13541548 0.30747148 -0.16480961 0.17277414 -0.21587867 -0.25480855
-0.29606685 -0.21835376 0.21816127 0.27480727 0.1721763 0.12695551 0.18568888 -0.23093472
0.07685969 -0.13351437
00000000: 7258 87b7 ec12 963e ecce fbbc 2eb8 443d
00000010: e630 e2bd f59f 3c3e fd31 873e 750e 2b3e
00000020: 5a4b 74bd c01a 2fbe 3906 c73d 04f6 8e3e
00000030: cf86 44be 6366 82be d4dd 32be 91a4 99be
00000040: 3180 6d3e 59f9 403e f297 a73d 43ba 623d
00000050: c194 763d b050 a13e 7c6a 77be 3bed d8bc
00000060: 7777 b93d 3cc6 783e 95fd 403d a918 5fbe
00000070: e1d2 5e3e 6712 863e a119 adbb 33eb 9bbe
00000080: 6e93 c33c 2283 80be 5baa 0abe e76c 9d3e
00000090: dac3 28be b4eb 303e 4c0f 5dbe 4476 82be
000000a0: 1396 97be 2198 5fbe ab65 5f3e 8ab3 8c3e
000000b0: fc4e 303e a000 023e 3a25 3e3e 277a 6cbe
000000c0: 9d68 9d3d feb7 08be

layers.2.bias f4 [5]
0.22490498 -0.1640143 -0.08183308 0.22453026 -0.09180385
00000000: 7e4d 663e 5df3 27be 1a98 a7bd 43eb 653e
00000010: a803 bcbd

layers.4.weight f4 [2, 5]
0.35209456 0.083217494 -0.455206 -0.3698977 -0.10057403 0.42040548 0.21621625 0.12285798
-0.27875823 -0.37175304
00000000: bd45 b43e ef6d aa3d c310 e9be 3b63 bdbe
00000010: c2f9 cdbd 633f d73e cb67 5d3e f79c fb3d
00000020: 66b9 8ebe 6a56 bebe

layers.4.bias f4 [2]
0.13348295 -0.06316198
00000000: c1af 083e 115b 81bd

exp_avg f4 [10, 4]
0.0 0.0 0.0 0.0 0.0 0.0 0.0 0.0
0.00018247686 0.0003748719 0.0037026494 0.00036548707 0.0 0.0 0.0 0.0
5.2386564e-05 0.00011132385 0.00073067454 -0.000120868244 -2.3010927e-05 -5.7879803e-05 -0.00062884646 0.00015672919
-4.2825413e-05 -6.8583446e-05 -0.00014024919 0.00016433012 -5.288647e-05 -0.00010914329 -0.00062621984 8.504533e-05
-5.0390645e-05 -0.00011135812 -0.0008491526 0.00016826457 -4.6146284e-05 -7.502525e-05 -0.00016914646 0.00043111303
00000000: 0000 0000 0000 0000 0000 0000 0000 0000
00000010: 0000 0000 0000 0000 0000 0000 0000 0000
00000020: 4257 3f39 748a c439 26a8 723b d89e bf39
00000030: 0000 0000 0000 0000 0000 0000 0000 0000
00000040: a5b9 5b38 8976 e938 bd8a 3f3a a57a fdb8
00000050: 9707 c1b7 f7c3 72b8 2cd9 24ba ac57 2439
00000060: 709f 33b8 75d4 8fb8 db0f 13b9 0850 2c39
00000070: 6ad2 5db8 dce3 e4b8 e728 24ba 5d5a b238
00000080: 8b5a 53b8 ef88 e9b8 ab99 5eba 2d70 3039
00000090: 328d 41b8 e056 9db8 e85c 31b9 0307 e239

exp_avg_sq f4 [10, 4]
0.0 0.0 0.0 0.0 0.0 0.0 0.0 0.0
2.3517567e-08 6.363968e-08 8.857614e-06 2.0319102e-07 0.0 0.0 0.0 0.0
1.3295767e-09 4.067436e-09 3.272917e-07 3.47512e-08 7.004908e-09 8.201776e-09 5.17115e-06 7.657469e-07
2.5838534e-09 4.538789e-09 1.1330712e-06 2.8159607e-07 2.246639e-09 4.135496e-09 1.332791e-06 2.876548e-07
4.8930073e-09 1.0311064e-08 2.2366125e-06 1.7137255e-07 1.00123625e-08 1.2974634e-08 4.7084263e-06 5.820531e-07
00000000: 0000 0000 0000 0000 0000 0000 0000 0000
00000010: 0000 0000 0000 0000 0000 0000 0000 0000
00000020: ad03 ca32 49aa 8833 2a9b 1437 b92c 5a34
00000030: 0000 0000 0000 0000 0000 0000 0000 0000
00000040: 52bc b630 8cc1 8b31 a1b6 af34 5941 1533
00000050: d3af f031 cbe7 0c32 d783 ad36 ba8d 4d35
00000060: a18f 3131 9cf3 9b31 0814 9835 452e 9734
00000070: 4b63 1a31 3518 8e31 5ae2 b235 fa6e 9a34
00000080: 591f a831 8a24 3132 b618 1636 8702 3834
00000090: d602 2c32 0be7 5e32 13fd 9d36 623e 1c35

exp_avg f4 [10]
0.0 0.0 0.0018907869 0.0 0.00032823018 -0.00033119007 -8.131464e-06 -0.00026367424
-0.0004045719 -2.5708823e-05
00000000: 0000 0000 0000 0000 48d4 f73a 0000 0000
00000010: 4f16 ac39 94a3 adb9 5f6c 08b7 c23d 8ab9
00000020: b91c d4b9 47a9 d7b7

exp_avg_sq f4 [10]
0.0 0.0 2.4851636e-06 0.0 8.504014e-08 1.7616106e-06 3.836733e-07 4.5641838e-07
6.870844e-07 1.552704e-06
00000000: 0000 0000 0000 0000 c9c6 2636 0000 0000
00000010: 509f b633 7b70 ec35 a8fb cd34 aa09 f534
00000020: 1570 3835 8166 d035

exp_avg f4 [5, 10]
0.0 0.0 -0.0005424446 0.0 -0.00021829172 -0.0021299615 0.00046972174 -0.0005635494
0.00020369414 0.00040932902 0.0 0.0 0.0 0.0 0.0 0.0
0.0 0.0 0.0 0.0 0.0 0.0 -0.0004265299 0.0
-7.283306e-05 -0.0021358614 0.0004884784 -0.00047686038 0.00018677705 0.00041863273 0.0 0.0
0.00029465355 0.0 0.00014244537 0.0010434735 -0.00022641085 0.00029746676 -0.000104448925 -0.00019899092
0.0 0.0 0.0005807565 0.0 0.00019656317 0.002455206 -0.0005476495 0.0006163827
-0.00022791896 -0.0004745977
00000000: 0000 0000 0000 0000 d732 0eba 0000 0000
00000010: 3de5 64b9 d396 0bbb fc44 f639 29bb 13ba
00000020: bb96 5539 369b d639 0000 0000 0000 0000
00000030: 0000 0000 0000 0000 0000 0000 0000 0000
00000040: 0000 0000 0000 0000 0000 0000 0000 0000
00000050: 0000 0000 0000 0000 e09f dfb9 0000 0000
00000060: f4bd 98b8 cff9 0bbb 3b0d 003a 1e03 fab9
00000070: 95d9 4339 ef7b db39 0000 0000 0000 0000
00000080: bb7b 9a39 0000 0000 635d 1539 29c5 883a
00000090: b368 6db9 50f5 9b39 970b dbb8 38a8 50b9
000000a0: 0000 0000 0000 0000 e93d 183a 0000 0000
000000b0: 861c 4e39 85e7 203b 2390 0fba be94 213a
000000c0: 88fd 6eb9 6dd3 f8b9

exp_avg_sq f4 [5, 10]
0.0 0.0 1.6937959e-07 0.0 1.5718209e-07 6.1138717e-06 3.575598e-07 7.313331e-07
2.3696177e-07 2.0584243e-07 0.0 0.0 0.0 0.0 0.0 0.0
0.0 0.0 0.0 0.0 0.0 0.0 1.2418894e-07 0.0
1.1251442e-06 4.7028116e-05 1.3936686e-06 5.8412675e-06 1.064938e-06 5.492022e-07 0.0 0.0
5.7479994e-08 0.0 1.4067034e-07 5.0610097e-06 3.3715983e-07 6.9720227e-07 2.2929527e-07 1.6513226e-07
0.0 0.0 2.0570134e-07 0.0 2.4976168e-07 1.1331131e-05 2.4418037e-07 1.2153315e-06
1.852106e-07 1.3999832e-07
00000000: 0000 0000 0000 0000 b5de 3534 0000 0000
00000010: e2c5 2834 c225 cd36 a5f6 bf34 d450 4435
00000020: 8e6f 7e34 8905 5d34 0000 0000 0000 0000
00000030: 0000 0000 0000 0000 0000 0000 0000 0000
00000040: 0000 0000 0000 0000 0000 0000 0000 0000
00000050: 0000 0000 0000 0000 cc58 0534 0000 0000
00000060: a903 9735 0e40 4538 170e bb35 1b00 c436
00000070: feee 8e35 e36c 1335 0000 0000 0000 0000
00000080: ecdf 7633 0000 0000 2b0b 1734 bed1 a936
00000090: e502 b534 6027 3b35 3434 7634 364f 3134
000000a0: 0000 0000 0000 0000 c1de 5c34 0000 0000
000000b0: fc16 8634 d61a 3e37 e517 8334 791e a335
000000c0: 4dde 4634 7252 1634

exp_avg f4 [5]
-0.0021542103 0.0 -0.0023446484 0.0010107316 0.002552542
00000000: a72d 0dbb 0000 0000 aca8 19bb 867a 843a
00000010: 8c48 273b

exp_avg_sq f4 [5]
4.1505314e-06 0.0 3.135029e-05 2.9974522e-06 8.47239e-06
00000000: cb44 8b36 0000 0000 1e7e 0338 d627 4936
00000010: a324 0e37

exp_avg f4 [2, 5]
0.0012045786 0.0 -4.890132e-05 0.0019185148 -2.0315438e-05 -0.003118982 0.0 0.00020107078
-0.0050468803 -0.00010618493
00000000: f3e2 9d3a 0000 0000 641b 4db8 ad76 fb3a
00000010: 126b aab7 d667 4cbb 0000 0000 87d6 5239
00000020: 4d60 a5bb 9aaf deb8

exp_avg_sq f4 [2, 5]
2.766835e-05 0.0 3.9530514e-06 2.7924203e-05 3.9356803e-07 2.3112543e-05 0.0 2.3797293e-06
3.2331074e-05 3.5669632e-07
00000000: 5419 e837 0000 0000 74a4 8436 c53e ea37
00000010: 944b d334 cfe1 c137 0000 0000 70b3 1f36
00000020: 3a9b 0738 f87f bf34

exp_avg f4 [2]
0.0030713 -0.007697666
00000000: dd47 493b b43c fcbb

exp_avg_sq f4 [2]
9.9148165e-05 9.7796204e-05
00000000: c4ed cf38 f017 cd38
