lightning_logs/version_1/checkpoints/epoch=1-step=16.ckpt (torch, 10635 bytes, 18 tensors)

layers.0.weight f4 [10, 4]
000000 fc 3c f3 be 82 2d a9 be 18 f6 d1 3d ca cd ef 3e
       -0.47507465 -0.33042532 0.10252017 0.46836692
000010 54 6c 95 be ac e3 70 be 80 c1 ef 3d 40 ba 35 be
       -0.2918421 -0.2352435 0.11706829 -0.1774683
000020 03 e4 b5 be 5d 61 a7 3e 8a 58 fd bd a6 27 c3 3d
       -0.35525522 0.3269147 -0.12370403 0.09529047
000030 44 23 03 be 88 69 95 3d fc df d6 be 1e 77 f1 3e
       -0.12806422 0.07295519 -0.41967762 0.47161192
000040 ba e3 4b 3d a6 9e c7 3e 88 8d 9a 3e 6a a3 a1 be
       0.049777724 0.38988227 0.30186105 -0.31569988
000050 63 0b da 3e e7 dc f5 3e 79 82 ce 3e 4f 82 a2 3e
       0.42586812 0.48020098 0.40333918 0.31740043
000060 28 38 ee 3e d3 5c 5d 3e 02 3d d5 be 14 3f e7 be
       0.4652722 0.21617441 -0.41648108 -0.45165312
000070 06 d7 f7 3e 37 98 15 3e 7c 04 eb be 5a 88 e5 bd
       0.48406237 0.14608847 -0.4590186 -0.112076476
000080 30 34 f4 bd 34 c6 de be 80 d5 72 3e 30 90 47 3d
       -0.119240165 -0.43510592 0.23714256 0.048721492
000090 14 88 af be 50 9d fb be 18 58 29 be 74 4c ee 3e
       -0.34283507 -0.49143457 -0.16537511 0.46542704

layers.0.bias f4 [10]
000000 84 da 82 be 08 28 ee be f3 8c 55 3e 00 89 6e 3d
       -0.2555734 -0.46514916 0.20854549 0.058236122
000010 f2 46 c2 3e d6 35 85 be 51 20 87 be 24 fd 9f 3e
       0.37944752 -0.26017636 -0.26391843 0.31247818
000020 c8 6b 94 be dc a1 b3 3e
       -0.2898848 0.35084426

layers.2.weight f4 [5, 10]
000000 3f 38 9a be 0a 56 85 3d cb 88 a6 3e 5d b3 b5 3c
       -0.30121037 0.06510551 0.3252624 0.022180254
000010 79 94 03 be f3 28 d1 3d fb 84 8d 3d 04 a9 26 3e
       -0.12849607 0.102128886 0.0691013 0.16275412
000020 f0 1b 90 be af eb 97 3e d7 46 c5 3c 71 63 59 be
       -0.28146315 0.29672 0.02408163 -0.2122934
000030 27 82 fc 3d 9a eb 50 3e db 98 1c be 86 f5 e0 3d
       0.12329512 0.20402375 -0.15292685 0.1098433
000040 c6 43 38 3e 39 58 9e be 2f 39 35 3d e4 57 44 be
       0.17994604 -0.30926684 0.044243988 -0.19174153
000050 35 6d 8f 3b 2d e5 1c 3e d5 ff 83 3e 95 b7 65 be
       0.004377032 0.15321799 0.25781122 -0.22433312
000060 ba cc 74 3e 76 3a 66 3e 25 42 82 3e 84 75 aa bd
       0.23906222 0.22483239 0.2544109 -0.083231956
000070 21 3b 90 3e 8f 7b f7 bd 5c b7 59 3e d8 cb 95 3e
       0.28170112 -0.12084114 0.21261352 0.29257083
000080 e4 29 9a be ac 7e 06 3e de 93 c6 3d 05 bf fe 3b
       -0.30110085 0.13134259 0.09696172 0.007774236
000090 49 42 71 bc 2a ee 6f be 7d 3c 9c bc 8e fc 85 3d
       -0.014725276 -0.23430696 -0.019071812 0.065423116
0000a0 d4 e8 18 3e ed aa 9c 3e 5a 55 d6 bd ed 45 91 3e
       0.14932567 0.30599156 -0.10465498 0.28373662
0000b0 3e 80 75 3e 9c 44 69 3d f2 71 84 be 45 1b 22 be
       0.23974702 0.056950197 -0.25868183 -0.15830715
0000c0 de dd bd bc 6f cc 11 be
       -0.023177084 -0.14238141

layers.2.bias f4 [5]
000000 24 6b 87 3e 06 2d 8d 3e 75 b5 88 3e f8 8a 52 bd
       0.2644893 0.27573413 0.2670094 -0.051402062
000010 cd b4 83 be
       -0.25723878

layers.4.weight f4 [2, 5]
000000 e5 d3 70 3e 82 d1 e2 3e b0 54 a9 3e d8 b1 2c be
       0.23518331 0.44300467 0.33072424 -0.16864717
000010 04 8d e3 3e a6 f1 a4 3e a0 87 2d 3e 08 3d a5 3d
       0.44443524 0.32215613 0.16946268 0.080682814
000020 d9 61 05 be 6a e7 bf 3e
       -0.13025607 0.37481242

layers.4.bias f4 [2]
000000 eb 7f 3e be d1 be f3 3d
       -0.18603484 0.1190163

exp_avg f4 [10, 4]
000000 00 00 00 00 00 00 00 00 00 00 00 00 00 00 00 00
       0.0 0.0 0.0 0.0
000010 00 00 00 00 00 00 00 00 00 00 00 00 00 00 00 00
       0.0 0.0 0.0 0.0
000020 b6 06 1d c1 ef 8d 40 c1 44 e5 23 bf 41 bb 8d be
       -9.814138 -12.034652 -0.64021707 -0.27681926
000030 00 00 00 00 00 00 00 00 00 00 00 00 00 00 00 00
       0.0 0.0 0.0 0.0
000040 72 2e 3f 41 ff 6f 6a 41 81 8b 47 3f 53 8f ac 3e
       11.948839 14.652343 0.7794724 0.33703098
000050 cb 92 b5 3e cf a7 de 3e 3c 84 bd 3c 3a e3 23 3c
       0.35463557 0.43487403 0.023134343 0.0100029055
000060 5c 58 27 40 44 35 4d 40 79 aa 2e 3e 97 0b 97 3d
       2.614768 3.206376 0.17057218 0.073752575
000070 e3 2d 15 c1 9a ee 36 c1 8f b4 1b bf 17 a6 86 be
       -9.323703 -11.433252 -0.60822386 -0.26298591
000080 00 00 00 00 00 00 00 00 00 00 00 00 00 00 00 00
       0.0 0.0 0.0 0.0
000090 00 00 00 00 00 00 00 00 00 00 00 00 00 00 00 00
       0.0 0.0 0.0 0.0

exp_avg_sq f4 [10, 4]
000000 00 00 00 00 00 00 00 00 00 00 00 00 00 00 00 00
       0.0 0.0 0.0 0.0
000010 00 00 00 00 00 00 00 00 00 00 00 00 00 00 00 00
       0.0 0.0 0.0 0.0
000020 22 db 04 40 b8 c6 47 40 f7 bb 10 3c 86 78 d8 3a
       2.0758748 3.1215038 0.008833877 0.0016515411
000030 00 00 00 00 00 00 00 00 00 00 00 00 00 00 00 00
       0.0 0.0 0.0 0.0
000040 30 79 68 40 25 c9 ae 40 0c 42 7d 3c 50 64 3d 3b
       3.6323967 5.462054 0.015457641 0.0028898902
000050 62 8c 1a 3d 21 65 68 3d ae 5d 28 39 bc d0 fb 37
       0.037731536 0.05673707 0.00016056627 3.0018731e-05
000060 3b 14 80 3e d5 97 c0 3e b9 87 8b 3a f8 af 50 39
       0.25015435 0.3761584 0.0010645307 0.00019901979
000070 1c 34 01 40 b7 48 42 40 55 c1 0c 3c 05 85 d2 3a
       2.0188055 3.0356882 0.008591016 0.0016061371
000080 00 00 00 00 00 00 00 00 00 00 00 00 00 00 00 00
       0.0 0.0 0.0 0.0
000090 00 00 00 00 00 00 00 00 00 00 00 00 00 00 00 00
       0.0 0.0 0.0 0.0

exp_avg f4 [10]
000000 00 00 00 00 00 00 00 00 8b c5 c2 be 00 00 00 00
       0.0 0.0 -0.38041338 0.0
000010 11 23 ed 3e 28 38 61 3c 2e 92 cf 3d da 09 b9 be
       0.46315816 0.013746299 0.101353034 -0.3614033
000020 00 00 00 00 00 00 00 00
       0.0 0.0

exp_avg_sq f4 [10]
000000 00 00 00 00 00 00 00 00 4d 67 4c 3b 00 00 00 00
       0.0 0.0 0.0031189502 0.0
000010 89 d5 b2 3b 22 c7 6d 38 d3 0d c5 39 b9 c8 46 3b
       0.0054575843 5.669066e-05 0.00037585068 0.0030332042
000020 00 00 00 00 00 00 00 00
       0.0 0.0

exp_avg f4 [5, 10]
000000 00 00 00 00 00 00 00 00 50 c8 ce bf 00 00 00 00
       0.0 0.0 -1.615488 0.0
000010 e2 50 de c1 46 51 4d c2 dd b8 07 c2 42 8e f5 c1
       -27.789494 -51.32937 -33.93053 -30.694462
000020 00 00 00 00 00 00 00 00 00 00 00 00 00 00 00 00
       0.0 0.0 0.0 0.0
000030 00 00 00 00 00 00 00 00 00 00 00 00 00 00 00 00
       0.0 0.0 0.0 0.0
000040 00 00 00 00 00 00 00 00 00 00 00 00 00 00 00 00
       0.0 0.0 0.0 0.0
000050 00 00 00 00 00 00 00 00 76 63 31 3f 00 00 00 00
       0.0 0.0 0.6929239 0.0
000060 94 7a 46 41 a9 16 b7 41 28 3a 72 41 45 59 5a 41
       12.404926 22.886065 15.139198 13.646794
000070 00 00 00 00 00 00 00 00 00 00 00 00 00 00 00 00
       0.0 0.0 0.0 0.0
000080 00 00 00 00 00 00 00 00 00 00 00 00 00 00 00 00
       0.0 0.0 0.0 0.0
000090 00 00 00 00 00 00 00 00 00 00 00 00 00 00 00 00
       0.0 0.0 0.0 0.0
0000a0 00 00 00 00 00 00 00 00 00 00 00 00 00 00 00 00
       0.0 0.0 0.0 0.0
0000b0 00 00 00 00 00 00 00 00 00 00 00 00 00 00 00 00
       0.0 0.0 0.0 0.0
0000c0 00 00 00 00 00 00 00 00
       0.0 0.0

exp_avg_sq f4 [5, 10]
000000 00 00 00 00 00 00 00 00 f2 27 53 3d 00 00 00 00
       0.0 0.0 0.051551767 0.0
000010 3b 7f 93 41 31 44 79 42 34 12 db 41 84 56 ae 41
       18.437124 62.316593 27.383888 21.792244
000020 00 00 00 00 00 00 00 00 00 00 00 00 00 00 00 00
       0.0 0.0 0.0 0.0
000030 00 00 00 00 00 00 00 00 00 00 00 00 00 00 00 00
       0.0 0.0 0.0 0.0
000040 00 00 00 00 00 00 00 00 00 00 00 00 00 00 00 00
       0.0 0.0 0.0 0.0
000050 00 00 00 00 00 00 00 00 9b 05 1f 3c 00 00 00 00
       0.0 0.0 0.009705926 0.0
000060 32 e1 85 40 0f 23 61 41 18 75 c6 40 b4 70 9b 40
       4.1837397 14.071059 6.2017937 4.8575077
000070 00 00 00 00 00 00 00 00 00 00 00 00 00 00 00 00
       0.0 0.0 0.0 0.0
000080 00 00 00 00 00 00 00 00 00 00 00 00 00 00 00 00
       0.0 0.0 0.0 0.0
000090 00 00 00 00 00 00 00 00 00 00 00 00 00 00 00 00
       0.0 0.0 0.0 0.0
0000a0 00 00 00 00 00 00 00 00 00 00 00 00 00 00 00 00
       0.0 0.0 0.0 0.0
0000b0 00 00 00 00 00 00 00 00 00 00 00 00 00 00 00 00
       0.0 0.0 0.0 0.0
0000c0 00 00 00 00 00 00 00 00
       0.0 0.0

exp_avg f4 [5]
000000 d3 c8 f2 bf 00 00 00 00 f4 4c 58 3f 00 00 00 00
       -1.8967537 0.0 0.8449242 0.0
000010 00 00 00 00
       0.0

exp_avg_sq f4 [5]
000000 c3 fb ac 3d 00 00 00 00 81 92 9b 3c 00 00 00 00
       0.08446457 0.0 0.018990757 0.0
000010 00 00 00 00
       0.0

exp_avg f4 [2, 5]
000000 b4 77 b0 41 00 00 00 00 e8 fe 7d 42 00 00 00 00
       22.058449 0.0 63.49893 0.0
000010 00 00 00 00 52 b0 36 c2 00 00 00 00 1e 62 03 c3
       0.0 -45.672188 0.0 -131.38327
000020 00 00 00 00 00 00 00 00
       0.0 0.0

exp_avg_sq f4 [2, 5]
000000 7d dd 2d 41 00 00 00 00 20 70 cc 42 00 00 00 00
       10.866574 0.0 102.218994 0.0
000010 00 00 00 00 bc 91 39 42 00 00 00 00 5a 72 d9 43
       0.0 46.39232 0.0 434.89337
000020 00 00 00 00 00 00 00 00
       0.0 0.0

exp_avg f4 [2]
000000 12 94 93 40 a6 b3 18 c1
       4.611825 -9.5438595

exp_avg_sq f4 [2]
000000 db 38 05 3f 27 d2 0d 40
       0.5203988 2.2159517
