neural_network/lightning_logs/version_20/checkpoints/epoch=0-step=1875.ckpt (torch, 13835 bytes, 18 tensors)

layers.0.weight f4 [20, 4]
0.4629439 -0.43338108 0.052539695 -0.07406015 -0.5594676 -0.40366575 -0.41095406 -0.3162549
-0.08212163 0.09475238 -0.08265346 -0.11615392 0.17980027 0.056195524 0.007829618 -0.0038050546
0.26610398 -0.3182795 -0.35848612 0.21761401 -0.74093395 0.50707734 0.06296583 0.015384211
0.66081876 -0.17839168 0.27078417 -0.057434425 -0.48924103 -0.4885181 0.10887793 0.014791501
-0.3371019 0.024268653 -0.17029038 0.16220947 0.3507479 -0.04544642 0.07044019 -0.18153839
0.055802975 -0.15046586 -0.2689151 0.29180095 -0.5385625 -0.14687327 -0.16872436 0.29826036
0.08638201 0.08398966 -0.42826614 0.13919434 0.36015996 -0.058494598 -0.061601084 0.023719318
0.09821195 -0.51720035 -0.18628563 -0.14179024 0.58165175 -0.2801717 0.26855993 0.029488407
-0.34867072 -0.3827223 0.009551082 -0.10635414 -0.3304392 -0.38441 0.16476113 0.009996564
0.07939685 0.46208787 -0.51678914 -0.3721403 0.10938139 -0.24517411 -0.43222255 -0.2995471
00000000: fc06 ed3e 20e4 ddbe dd33 573d d9ac 97bd
00000010: 4539 0fbf 47ad cebe 9268 d2be 2aec a1be
00000020: 632f a8bd 890d c23d 3846 a9bd 1be2 edbd
00000030: 901d 383e 472d 663d cc47 003c 395e 79bb
00000040: c83e 883e 88f5 a2be 7e8b b7be 35d6 5e3e
00000050: d9ad 3dbf d2cf 013f 3bf4 803d 0f0e 7c3c
00000060: 6b2b 293f 4fac 36be 39a4 8a3e 5c40 6bbd
00000070: cd7d fabe 0b1f fabe 64fb de3d 0d58 723c
00000080: 9f98 acbe 0ecf c63c 9a60 2ebe 3d1a 263e
00000090: 3b95 b33e 0626 3abd f242 903d 33e5 39be
000000a0: a991 643d b913 1abe 3daf 89be ef66 953e
000000b0: 3bdf 09bf f265 16be 14c6 2cbe 95b5 983e
000000c0: 0de9 b03d c502 ac3d b345 dbbe f688 0e3e
000000d0: e366 b83e 0898 6fbd 6b51 7cbd 044f c23c
000000e0: 5923 c93d 3e67 04bf a9c1 3ebe 7631 11be
000000f0: 21e7 143f aa72 8fbe b080 893e ac91 f13c
00000100: f884 b2be 2df4 c3be 247c 1c3c 33d0 d9bd
00000110: 542f a9be 63d1 c4be 24b7 283e a1c8 233c
00000120: d19a a23d c896 ec3e 4b4c 04bf 2c89 bebe
00000130: 5a03 e03d ec0e 7bbe 464c ddbe 3d5e 99be

layers.0.bias f4 [20]
-0.17492114 -0.13880342 0.25097677 -0.5450914 -0.13207209 0.53015584 -0.72096056 0.35740185
0.22143714 -0.32962132 -0.107701115 -0.43393537 0.059652794 -0.15680282 0.13717087 -0.86325556
0.40857518 0.054533143 0.06748497 0.023160484
00000000: 871e 33be 7c22 0ebe 0780 803e 1c8b 0bbf
00000010: e83d 07be 4bb8 073f df90 38bf 60fd b63e
00000020: 6bc0 623e 20c4 a8be 6792 dcbd c72c debe
00000030: 7d56 743d eb90 20be 8576 0c3e 51fe 5cbf
00000040: c430 d13e 255e 5f3d 8f35 8a3d 0ebb bd3c

layers.2.weight f4 [10, 20]
-0.17877342 -0.048390187 -0.22503991 0.14392905 -0.163751 -0.30186325 -0.058933698 -0.00767327
-0.16949625 0.24454428 -0.14458954 0.0500318 -0.26942465 -0.17173643 0.06323818 0.008313906
-0.0017775806 0.1674444 -0.050052244 0.16122474 0.0257345 0.07274852 -0.097115226 -0.074097976
0.19473577 -0.1649153 -0.11575086 -0.11311515 -0.07936173 -0.13251695 0.11130916 0.25224048
0.1848748 -0.03561846 0.07327737 0.95831174 0.09513857 -0.08715006 0.16595685 -0.16049436
-0.17638485 0.009603097 -0.062294044 -0.011215964 -0.100706205 -0.16015747 -0.059937835 -0.23907655
0.094078004 0.12682723 0.08566476 -0.0060224338 0.07333981 -0.066216 -0.10262594 -0.13637735
-0.21847294 0.15051179 -0.17599039 0.14992476 -0.09885592 0.039374832 0.17732061 0.0618408
-0.05368085 0.08798527 -0.12323519 0.03521055 0.059111543 -0.17976983 0.120654784 -0.07388647
0.26720858 0.08798032 -0.008018589 -0.44497943 0.025778063 0.048001867 -0.24627225 -0.076036885
-0.1676702 0.08640216 0.076026455 0.14235918 0.07703433 -0.2047802 -0.03795127 0.09978892
0.11903884 -0.2814183 0.017031576 0.021667583 0.0749421 -0.121833146 -0.27011445 0.0797579
0.062288824 0.057161257 -0.11740809 0.009696942 -0.018637735 0.015400915 -0.029030714 0.0060300874
0.0775492 -0.1426478 0.11442983 0.09457159 -0.29280388 -0.28628638 -0.04868876 0.010682182
0.20434535 -0.18795748 -0.23902367 0.28639674 -0.12820478 0.054027315 0.0080331005 -0.071324006
-0.3768927 0.07862774 -0.10945063 0.13596909 0.06592227 0.09040356 -0.29341754 0.23444425
-0.45460436 -0.20124793 -0.5410339 0.061440047 0.05617575 -0.15558508 -0.1082234 -0.94542325
-0.0750188 0.10810947 0.21473289 -0.11465891 0.12032991 0.13573281 0.082136825 0.1455738
0.13977064 -0.30256885 0.24341708 -0.24086873 -0.02996261 0.015098586 -0.22791992 0.14848462
-0.1153786 0.046703517 0.07073647 0.7609443 -0.16173384 0.10729782 -0.10467893 0.051732544
-0.016349174 0.12929416 0.041026 -0.13316208 0.26131403 0.22876647 -0.07817224 0.20692736
0.05554395 -0.10502765 -0.079227276 -0.015933715 0.15562183 -0.086287685 -0.14270099 -0.6458631
0.07193739 0.16666158 0.22652994 -0.11272633 0.018236082 0.010378958 -0.0425175 0.12014312
-0.029660128 0.033369415 -0.27140647 -0.29283383 -0.027484234 0.05300525 0.032854915 -0.15471482
-0.14789958 -0.2113822 -0.060068764 0.045799 -0.31161565 0.11702783 0.10578579 0.14621185
00000000: 6110 37be ca34 46bd dd70 66be 2362 133e
00000010: 58ae 27be d28d 9abe 7664 71bd 0e70 fbbb
00000020: 6d90 2dbe d169 7a3e 480f 14be 25ee 4c3d
00000030: 07f2 89be addb 2fbe 0583 813d 0d37 083c
00000040: b5fd e8ba 8b76 2b3e 9503 4dbd 1918 253e
00000050: 28d1 d23c 2dfd 943d 59e4 c6bd aec0 97bd
00000060: d068 473e 8edf 28be c90e edbd eaa8 e7bd
00000070: 6788 a2bd 86b2 07be 0ff6 e33d aa25 813e
00000080: d24f 3d3e aae4 11bd 7212 963d eb53 753f
00000090: 03d8 c23d bb7b b2bd 98f0 293e a258 24be
000000a0: 3b9e 34be 4f56 1d3c 0a28 7fbd 2ac3 37bc
000000b0: 0e3f cebd 5200 24be 6081 75bd 7cd0 74be
000000c0: f8ab c03d ffde 013e 0171 af3d d657 c5bb
000000d0: 2f33 963d 419c 87bd 8d2d d2bd 81a6 0bbe
000000e0: 5fb7 5fbe c31f 1a3e d336 34be e085 193e
000000f0: f974 cabd 8147 213d 8993 353e c74c 7d3d
00000100: 73e0 5bbd 9f31 b43d bb62 fcbd f038 103d
00000110: f21e 723d 9515 38be db19 f73d ca51 97bd
00000120: 90cf 883e 072f b43d 6660 03bc 58d4 e3be
00000130: 842c d33c 9b9d 443d cb2e 7cbe 3ab9 9bbd
00000140: bdb1 2bbe 9ef3 b03d c2b3 9b3d 9bc6 113e
00000150: 2dc4 9d3d e7b1 51be ca72 1bbd 225e cc3d
00000160: a3ca f33d 0f16 90be ce85 8b3c 3780 b13c
00000170: 3e7b 993d a883 f9bd 714c 8abe 1c58 a33d
00000180: 9122 7f3d ec21 6a3d a773 f0bd ecdf 1e3c
00000190: 2aae 98bc 1f54 7c3c d2d1 edbc 0a98 c53b
000001a0: 1dd2 9e3d 4412 12be 305a ea3d c0ae c13d
000001b0: 64ea 95be 2194 92be dd6d 47bd 5204 2f3c
000001c0: e83f 513e ed77 40be 9fc2 74be 98a2 923e
000001d0: 1d48 03be bf4b 5d3d 449d 033c 5212 92bd
000001e0: 14f8 c0be 9507 a13d a727 e0bd 7b3b 0b3e
000001f0: 4102 873d 8025 b93d d33a 96be 2712 703e
00000200: e7c1 e8be f013 4ebe 3381 0abf 8fa8 7b3d
00000210: 8b18 663d b251 1fbe 3ba4 ddbd 4207 72bf
00000220: 75a3 99bd 7f68 dd3d f0e2 5b3e 4ad2 eabd
00000230: 876f f63d 8bfd 0a3e 5a37 a83d 4c11 153e
00000240: 0920 0f3e 4eea 9abe 5442 793e 4ba6 76be
00000250: 2674 f5bc 0f60 773c d763 69be 5a0c 183e
00000260: 9e4b ecbd 304c 3f3d 48de 903d 3fcd 423f
00000270: 8e9d 25be f6be db3d e861 d6bd 81e5 533d
00000280: b4ee 85bc b065 043e e10a 283d a45b 08be
00000290: f4ca 853e c241 6a3e c418 a0bd c4e4 533e
000002a0: 0e82 633d bd18 d7bd e941 a2bd 6c87 82bc
000002b0: 545b 1f3e 99b7 b0bd 3520 12be 4957 25bf
000002c0: e953 933d 55a9 2a3e 77f7 673e 10dd e6bd
000002d0: d663 953c 810c 2a3c d526 2ebd 990d f63d
000002e0: ccf9 f2bc 5eae 083d caf5 8abe 51ee 95be
000002f0: 9e26 e1bc 081c 593d e092 063d 906d 1ebe
00000300: fd72 17be 9374 58be aa0a 76bd bb97 3b3d
00000310: 168c 9fbe 49ac ef3d 38a6 d83d 8fb8 153e

layers.2.bias f4 [10]
-0.18616277 -0.2075794 0.053425767 0.18981989 -0.24193174 -0.21145034 -0.23776746 0.048272725
0.001796707 -0.13692357
00000000: 74a1 3ebe b28f 54be fad4 5a3d 2560 423e
00000010: f4bc 77be 7086 58be 5079 73be 9fb9 453d
00000020: 7c7f eb3a b135 0cbe

layers.4.weight f4 [2, 10]
0.2837772 0.03917223 -0.03339741 -0.10484923 0.16340053 0.08200114 0.13480242 -0.029964117
0.03256889 0.09811518 0.021328095 0.14474027 0.04451272 -0.08636264 0.14579955 0.12859447
-0.22542143 0.23926784 -0.18628004 0.099437125
00000000: 3f4b 913e 0f73 203d b9cb 08bd 31bb d6bd
00000010: 7852 273e 37f0 a73d a509 0a3e 4f77 f5bc
00000020: f566 053d 9df0 c83d 42b8 ae3c cb36 143e
00000030: f852 363d e5de b0bd 7a4c 153e 45ae 033e
00000040: e0d4 66be a102 753e 32c0 3ebe b1a5 cb3d

layers.4.bias f4 [2]
0.017101463 0.10094413
00000000: 5e18 8c3c ccbb ce3d

exp_avg f4 [20, 4]
-1.52194625e-05 -9.768303e-06 -3.3642882e-05 -1.655418e-05 -4.2370615e-07 -4.3412257e-07 -2.8152983e-06 6.601035e-08
-2.0003379e-06 -1.792805e-05 -6.523629e-05 8.675062e-05 -2.7523546e-07 -3.1202643e-07 2.1235776e-07 -5.0442986e-07
-4.460015e-07 -3.4977705e-07 -3.92872e-06 7.803253e-07 6.0712155e-05 3.2393447e-05 -0.000119524 -1.7862047e-05
-5.4947803e-05 -5.08944e-05 -0.00013246237 -4.0943843e-05 -2.4128647e-05 -4.5460216e-05 -0.00034175266 2.3400711e-05
-4.9626115e-06 -1.25373745e-05 -3.911235e-05 -4.2109103e-05 -2.5876934e-05 -1.5139977e-05 -1.40428165e-05 -0.00012579915
-2.0668692e-06 -4.139904e-06 -3.3233928e-06 -7.135987e-06 -3.395091e-07 -2.0012551e-07 -8.4819345e-07 -4.9918566e-07
-1.4586927e-07 -4.5687418e-07 -3.1546397e-06 -8.8218275e-07 9.193168e-07 -1.4948685e-06 -4.5627444e-06 -4.3286946e-05
1.24756625e-05 1.0934062e-05 9.359129e-05 -0.00011957461 -0.00028303298 -0.00024117364 -0.0008424715 0.00020052034
6.7554156e-06 2.5535767e-06 -3.330233e-05 2.0690532e-05 -4.4174525e-05 -5.794434e-05 -0.00039910804 2.0715017e-05
-3.2946205e-06 1.1139437e-05 -7.185798e-06 4.9948445e-05 1.8782216e-06 1.8411598e-06 1.6430113e-05 -2.2994871e-05
00000000: 1857 7fb7 8be2 23b7 c51b 0db8 d5dd 8ab7
00000010: bb79 e3b4 5a11 e9b4 75ee 3cb6 93c1 8d33
00000020: 8b3d 06b6 3264 96b7 77cf 88b8 e2ed b538
00000030: 13c4 93b4 9684 a7b4 7504 6434 2868 07b5
00000040: fb71 efb4 fec8 bbb4 73d3 83b6 8c77 5135
00000050: 2ea5 7e38 33de 0738 f5a8 fab8 74d6 95b7
00000060: c177 66b8 7277 55b8 99e5 0ab9 1ebb 2bb8
00000070: e067 cab7 89ac 3eb8 442d b3b9 a54c c437
00000080: 8284 a6b6 9d57 52b7 910c 24b8 4e9e 30b8
00000090: 4b12 d9b7 b501 7eb7 7099 6bb7 f4e8 03b9
000000a0: 8bb4 0ab6 81e9 8ab6 7407 5fb6 a971 efb6
000000b0: c745 b6b4 15e2 56b4 69af 63b5 c7ff 05b5
000000c0: 3da0 1cb4 4f48 f5b4 4cb4 53b6 23cf 6cb5
000000d0: f8c6 7635 4aa3 c8b5 ad19 99b6 018f 35b8
000000e0: 904e 5137 7071 3737 7146 c438 21c4 fab8
000000f0: 0b64 94b9 8ee3 7cb9 4ed9 5cba c542 5239
00000100: 94ac e236 1d5e 2b36 1bae 0bb8 9490 ad37
00000110: 0948 39b8 4309 73b8 603f d1b9 29c5 ad37
00000120: 2619 5db6 85e3 3a37 891d f1b6 bc7f 5138
00000130: 3417 fc35 c51d f735 66d3 8937 1ce5 c0b7

exp_avg_sq f4 [20, 4]
1.7420145e-08 1.31435005e-08 2.21542e-07 8.8320945e-08 1.6437952e-09 1.3683372e-09 8.189988e-08 1.282771e-07
6.17862e-08 6.0895225e-08 9.626311e-07 3.5123796e-07 9.38248e-12 9.690053e-12 1.2711689e-10 5.7312956e-11
2.9468374e-09 1.6393723e-09 7.618889e-08 1.0670744e-07 2.359622e-07 2.3833094e-07 3.57221e-06 1.3717904e-06
4.1085368e-08 3.4630613e-08 3.773596e-07 2.6066522e-07 3.8924103e-08 3.449486e-08 8.9838005e-07 5.021053e-07
1.8753811e-08 1.4979179e-08 5.4711984e-07 3.8566884e-07 3.552987e-08 3.1461912e-08 6.32932e-07 3.309128e-07
8.782169e-09 6.4460215e-09 1.4727698e-07 1.4645207e-07 1.2825738e-10 1.5257294e-10 3.5569976e-09 5.4001763e-09
2.0327151e-11 1.6187638e-11 4.5130782e-10 3.7646658e-10 3.2351213e-08 3.1526902e-08 4.773923e-07 1.744637e-07
7.304e-09 5.3203695e-09 3.1829308e-07 3.836799e-07 1.1126596e-06 1.0557585e-06 1.0964914e-05 5.9100107e-06
3.4230798e-08 3.4675725e-08 5.3625473e-07 3.34517e-07 6.273551e-08 6.2754204e-08 1.2402699e-06 4.0998043e-07
2.3309852e-08 2.3791682e-08 2.7029182e-07 3.0293222e-07 8.021298e-10 6.0686695e-10 2.031589e-08 2.8548646e-08
00000000: 4ea3 9532 bacd 6132 00e1 6d34 f4aa bd33
00000010: e7eb e130 1610 bc30 efe0 af33 8abc 0934
00000020: 53af 8433 81c5 8233 c133 8135 c791 bc34
00000030: ef0e 252d 1e78 2a2d 39c4 0b2f a710 7c2e
00000040: 5081 4a31 4950 e130 499d a333 0927 e533
00000050: cc5c 7d34 e9e7 7f34 1aba 6f36 5c1e b835
00000060: d775 3033 c3bc 1433 e997 ca34 8ef1 8b34
00000070: 812d 2733 8027 1433 3528 7135 6ac8 0635
00000080: 1118 a132 90ab 8032 cadd 1235 ec0d cf34
00000090: 8199 1833 bd20 0733 c1e6 2935 4fa8 b134
000000a0: 63e0 1632 ce7b dd31 3023 1e34 7040 1d34
000000b0: 3e05 0d2f 77c1 272f 5d6f 7431 748c b931
000000c0: adcc b22d 5263 8e2d ee1b f82f f6f6 ce2f
000000d0: 89f2 0a33 3268 0733 2626 0035 3754 3b34
000000e0: aaf6 fa31 77ce b631 dee1 aa34 90fc cd34
000000f0: b156 9535 96b3 8d35 f2f5 3737 9b4e c636
00000100: 2905 1333 5dee 1433 25f3 0f35 ab97 b334
00000110: 36b9 8633 7dc3 8633 5977 a635 481b dc34
00000120: e83a c832 765e cc32 a01c 9134 b0a2 a234
00000130: de7c 5c30 77d0 2630 1d83 ae32 233b f532

exp_avg f4 [20]
-7.4450754e-06 -1.414967e-06 -3.375242e-05 3.6782362e-07 -2.1207943e-06 -0.00010594106 -3.1924512e-05 -0.00017498131
-1.5335372e-05 1.4629425e-05 -1.3801887e-06 -3.432595e-07 -1.7657651e-06 -1.0955731e-06 4.8506037e-05 -0.00032050896
-2.7801401e-05 -0.0001870167 -1.6543037e-05 9.073884e-06
00000000: b6d0 f9b6 e5e9 bdb5 6391 0db8 4b79 c534
00000010: f852 0eb6 ac2c deb8 afe6 05b8 307b 37b9
00000020: 76a4 80b7 e770 7537 ec3e b9b5 3a49 b8b4
00000030: 3aff ecb5 9b0b 93b5 f672 4b38 fc09 a8b9
00000040: 0e37 e9b7 ea19 44b9 e7c5 8ab7 093c 1837

exp_avg_sq f4 [20]
4.6609966e-08 2.0312761e-08 2.0244474e-07 2.4865278e-11 2.0070582e-08 7.137615e-07 6.78071e-08 1.8549741e-07
1.3240769e-07 1.406212e-07 3.4601026e-08 7.952873e-10 1.1779966e-10 1.01213374e-07 7.901019e-08 1.8434906e-06
1.0565739e-07 2.6283558e-07 5.5984657e-08 5.1354743e-09
00000000: 3330 4833 3c7c ae32 965f 5934 a1b7 da2d
00000010: ad67 ac32 5199 3f35 599d 9133 242d 4734
00000020: f32b 0e34 a9fd 1634 3b9c 1433 5e9b 5a30
00000030: a885 012f a45a d933 50ac a933 db6d f735
00000040: c4e5 e233 d91b 8d34 c873 7033 1c74 b031

exp_avg f4 [10, 20]
-5.000432e-07 -9.728384e-08 -3.028548e-07 1.7741063e-09 2.5983937e-09 1.4496833e-06 2.770702e-07 -1.2063135e-06
1.6445894e-07 4.5052765e-08 -6.7443224e-08 3.8688663e-10 3.5418657e-09 -1.2817489e-08 -1.6399032e-07 1.5574491e-07
-1.4129331e-06 -5.643292e-07 -5.043632e-07 -1.1101189e-07 1.6645525e-07 -6.1188146e-08 1.0001162e-06 -2.7963123e-08
-4.4033776e-08 3.6711626e-06 -6.2938545e-07 2.1051328e-06 2.2215491e-07 5.5293714e-07 -2.3297105e-08 -4.260508e-08
-3.8863792e-08 2.0094426e-09 1.3225892e-07 -2.5276433e-08 1.8033033e-06 1.2565572e-06 2.4603008e-07 -1.1406253e-08
1.2461035e-07 -1.9887744e-10 3.5686085e-07 -8.181571e-09 -1.3579981e-08 8.446625e-07 -2.3565508e-07 8.20558e-07
3.941368e-08 1.6675628e-07 -1.1137129e-08 -1.2250405e-08 -1.2115131e-08 -1.999633e-08 6.6943606e-08 -4.15267e-08
7.7033735e-07 4.65438e-07 1.5881331e-07 1.5895614e-08 1.9187431e-05 5.712386e-06 -4.187937e-05 1.3362613e-06
2.1297196e-06 -0.00023601725 4.003557e-05 -7.252958e-05 -1.6215514e-05 -2.2278778e-05 4.5819615e-06 1.8971444e-06
1.7999197e-06 5.0348904e-06 -2.0263974e-06 7.263014e-06 -5.1847906e-05 -4.8010133e-05 -6.8306886e-06 3.7713771e-06
-6.844515e-08 -1.0131507e-07 8.3065635e-07 -2.6024553e-08 -4.1424343e-08 4.182361e-06 -4.862672e-07 1.4940065e-06
2.8946906e-07 5.54889e-07 -7.2866946e-08 -4.0820332e-08 -3.614275e-08 -2.515822e-08 5.488781e-08 1.5187812e-08
1.1168147e-06 9.604148e-07 1.1418609e-08 -5.989819e-08 5.1130996e-08 -6.7626246e-08 8.079153e-07 -2.3386105e-08
-3.7078397e-08 3.3707179e-06 -5.006497e-07 1.595885e-06 2.1861449e-07 4.828388e-07 -5.159664e-08 -3.6076568e-08
-3.263074e-08 -1.889244e-08 8.612901e-08 -2.155196e-08 1.3082196e-06 9.789154e-07 1.2520104e-07 -2.7845935e-08
-6.295088e-07 3.313722e-08 -1.8864389e-06 4.745942e-08 7.607741e-08 -5.081349e-06 1.1894825e-06 -4.3241007e-06
-2.5340415e-07 -9.2461215e-07 2.733413e-08 7.246206e-08 6.8113856e-08 1.6451361e-08 -3.3306725e-07 1.9286762e-07
-3.989612e-06 -2.4720327e-06 -7.743667e-07 -5.8617736e-08 -3.1417394e-06 4.874179e-06 -1.583303e-05 8.26936e-07
2.667831e-06 -0.000104855986 -8.212057e-05 -4.098668e-06 1.5838493e-06 -3.1114483e-05 1.9432232e-06 3.561529e-06
2.2755382e-06 -1.5972181e-06 1.8257969e-06 -1.2214295e-05 -1.141131e-05 -4.877265e-06 2.7626359e-06 2.959671e-06
-2.6724876e-05 6.275974e-06 -0.00013371924 3.6484257e-06 6.0203074e-06 -0.00043397865 6.941479e-05 -0.00029088245
-2.1603166e-05 -6.569239e-05 4.742834e-06 6.028428e-06 5.3287426e-06 -8.6831443e-07 -2.0522606e-05 5.1787124e-06
-0.00026257703 -0.00016923706 -4.6085366e-05 -8.3601543e-07 -2.380499e-08 -6.444154e-08 5.8180945e-07 -1.7783714e-08
-2.8334037e-08 2.7807896e-06 -3.4571278e-07 1.0706183e-06 1.8896615e-07 3.7762928e-07 -4.7390937e-08 -2.783887e-08
-2.4761945e-08 -1.658052e-08 4.5022123e-08 2.9468328e-09 8.2565595e-07 6.7882206e-07 3.192321e-08 -3.5616406e-08
00000000: b53a 06b5 5bea d0b3 0c98 a2b4 d1d4 f330
00000010: 6d8f 3231 bd92 c235 3dc0 9434 9ee8 a1b5
00000020: 2196 3034 0a80 4133 4ed5 90b3 74b1 d42f
00000030: 2965 7331 ea33 5cb2 5115 30b4 d63a 2734
00000040: 03a4 bdb5 687c 17b5 9363 07b5 6f65 eeb3
00000050: dfba 3234 8a66 83b3 bb3b 8635 8f33 f0b2
00000060: a61f 3db3 185e 7636 0af3 28b5 e845 0d36
00000070: 7a89 6e34 8d6d 1435 e01e c8b2 c8fc 36b3
00000080: 31eb 26b3 7d16 0a31 0e03 0e34 771f d9b2
00000090: 0809 f235 faa6 a835 1e16 8434 3bf5 43b2
000000a0: a2cc 0534 06ab 5aaf 9596 bf34 ee8e 0cb2
000000b0: 634d 69b2 c4bc 6235 6008 7db4 5144 5c35
000000c0: cd47 2933 9e0d 3334 9d55 3fb2 da75 52b2
000000d0: e922 50b2 65c4 abb2 a3c2 8f33 175b 32b3
000000e0: 2ec9 4e35 50e1 f934 4586 2a34 d38a 8832
000000f0: b2f4 a037 06ad bf36 a2a7 2fb8 9759 b335
00000100: 4eec 0e36 667b 77b9 deeb 2738 061b 98b8
00000110: 8d06 88b7 50e3 bab7 c0be 9936 63a1 fe35
00000120: c594 f135 61f1 a836 3efd 07b6 d1b4 f336
00000130: 4477 59b8 7d5e 49b8 2b33 e5b6 c417 7d36
00000140: 1ffc 92b3 8c92 d9b3 45fa 5e35 998c dfb2
00000150: 8cea 31b3 3556 8c36 0788 02b5 ac85 c835
00000160: 5368 9b34 aff3 1435 077b 9cb3 6e52 2fb3
00000170: 603b 1bb3 831b d8b2 c9bd 6b33 5a76 8232
00000180: 76e5 9535 9ae7 8035 932b 4432 61a1 80b3
00000190: 209b 5b33 ec39 91b3 84df 5835 97e2 c8b2
000001a0: 2140 1fb3 7e34 6236 6364 06b5 3132 d635
000001b0: 4bbc 6a34 6e9c 0135 1b9b 5db3 9bf2 1ab3
000001c0: e125 0cb3 ea48 a2b2 edf5 b833 4321 b9b2
000001d0: 1596 af35 4763 8335 006f 0634 dc31 efb2
000001e0: 84fb 28b5 c252 0e33 8c31 fdb5 2fd6 4b33
000001f0: 0060 a333 7580 aab6 4fa6 9f35 be17 91b6
00000200: 9a0b 88b4 dd32 78b5 63cc ea32 709c 9b33
00000210: fd45 9233 ed50 8d32 6ad0 b2b4 0c17 4f34
00000220: 82de 85b6 33e5 25b6 13de 4fb5 e2c2 7bb3
00000230: acd6 52b6 e18c a336 2cd1 84b7 9cfa 5d35
00000240: fd08 3336 21e6 dbb8 2538 acb8 4a87 89b6
00000250: a694 d435 ec80 02b8 5268 0236 9a02 6f36
00000260: 73b5 1836 ff5f d6b5 e70d f535 ffeb 4cb7
00000270: 3473 3fb7 63a7 a3b6 b965 3936 c39e 4636
00000280: 3c2f e0b7 3596 d236 fc36 0cb9 7ad7 7436
00000290: 0c02 ca36 a187 e3b9 c892 9138 9581 98b9
000002a0: 7238 b5b7 55c4 89b8 a224 9f36 cd47 ca36
000002b0: 8dcd b236 1d16 69b5 f627 acb7 cdc4 ad36
000002c0: 7eaa 89b9 3a75 31b9 c94b 41b8 8b6a 60b5
000002d0: ba7b ccb2 1c63 8ab3 a42d 1c35 cdc2 98b2
000002e0: 3563 f3b2 9a9d 3a36 679a b9b4 2ab2 8f35
000002f0: 9fe6 4a34 f9bc ca34 e38a 4bb3 5322 efb2
00000300: 18b4 d4b2 f36c 8eb2 595e 4133 3b81 4a31
00000310: a5a2 5d35 4c38 3635 f11b 0933 a7f8 18b3

exp_avg_sq f4 [10, 20]
7.520638e-11 2.2044788e-12 2.3188386e-10 5.81287e-14 8.4474013e-13 1.1066722e-09 2.6397e-10 5.2313147e-11
1.460488e-11 5.6427182e-11 1.0515938e-11 3.424973e-13 7.802256e-14 4.6398715e-10 4.1764e-12 9.8420334e-12
4.439775e-10 3.7046996e-10 5.571094e-11 2.7406907e-12 1.1997189e-07 1.7291452e-08 3.5049501e-07 4.0966747e-11
6.768674e-11 3.158889e-07 4.6711475e-07 8.7868436e-08 9.060063e-11 6.7984324e-08 5.61626e-09 8.301789e-11
5.1361568e-11 2.1020929e-08 7.442145e-08 1.4559293e-08 6.547899e-07 1.2261013e-07 1.8505918e-07 1.7623401e-08
1.0970858e-08 2.8480238e-10 2.022154e-08 3.744405e-12 7.843809e-11 4.9955393e-08 3.118084e-08 1.892758e-09
2.128469e-09 2.963504e-09 1.2095092e-09 9.408733e-11 2.5816036e-12 3.30027e-08 1.2082402e-09 1.677706e-11
4.3451887e-08 3.7033978e-08 5.6598277e-09 5.2378996e-10 2.470118e-07 5.967126e-09 7.0398943e-07 1.7762476e-10
2.7806373e-09 3.3530214e-06 8.663047e-07 1.4570917e-07 4.8058048e-08 1.5130115e-07 3.153425e-08 1.120439e-09
2.2758213e-10 1.5927508e-06 1.2388926e-08 3.029034e-08 1.4029818e-06 1.2088839e-06 1.4455445e-07 7.316566e-09
2.4420515e-07 1.8252665e-08 1.4501528e-06 2.0467411e-10 1.3713703e-08 2.6021794e-06 8.9633875e-07 2.6412985e-07
1.9220779e-07 2.7556876e-08 1.0656436e-07 1.425655e-10 7.602952e-11 1.125245e-06 2.2391153e-09 1.3038144e-10
2.3580048e-06 3.1631198e-06 3.1072992e-07 2.2016723e-08 3.714977e-08 9.392086e-09 1.6626407e-07 1.9490923e-11
1.1514314e-11 1.4502515e-07 1.8458806e-07 9.0324164e-08 1.32346235e-11 1.0353445e-08 2.306006e-12 3.049404e-11
1.4255753e-11 3.7006218e-09 1.1601151e-09 1.0480159e-11 2.9961868e-07 1.0006451e-07 1.281844e-07 1.05327755e-08
3.8549254e-11 1.2256652e-12 1.15879036e-10 3.0148888e-14 1.10294315e-13 6.3213734e-10 1.5073875e-10 3.426194e-11
1.5065307e-12 4.8988213e-11 2.108035e-12 1.8061693e-13 5.9635395e-14 1.8609635e-10 5.4780906e-12 6.8164406e-12
2.1589901e-10 9.599217e-11 3.80807e-11 3.2549248e-12 2.648481e-07 9.254161e-09 7.095376e-07 1.06984435e-10
2.8650244e-09 1.5723201e-06 1.1688553e-06 1.1947171e-07 3.0773684e-08 1.9241868e-07 2.0714465e-08 4.0180823e-10
2.0990337e-10 6.874e-07 4.193663e-08 3.757082e-08 1.2100827e-06 6.341126e-07 1.9929531e-07 1.018475e-08
3.3124218e-07 9.012107e-09 9.60162e-07 2.3455446e-10 6.540029e-09 4.8025217e-06 1.4142997e-06 2.2198614e-07
8.326396e-08 2.9430262e-07 4.8779572e-08 1.8076154e-09 4.5465537e-10 1.9597144e-06 2.9653611e-08 3.5948567e-08
1.8379404e-06 1.382994e-06 2.3072465e-07 9.402837e-09 9.540558e-09 1.05934775e-10 1.09877014e-07 1.8962078e-11
1.0827956e-08 4.0120895e-07 1.5856655e-08 2.1738493e-10 1.1477586e-07 2.4036334e-11 7.4565044e-08 2.4956748e-10
1.6798533e-10 4.4886764e-07 1.9772609e-11 2.037668e-11 1.3886884e-07 7.1016666e-07 9.923632e-12 4.812908e-11
00000000: 6e61 a52e 5c20 1b2c 81f5 7e2f eae4 8229
00000010: f1c5 6d2b 9119 9830 7a1e 912f 5e13 662e
00000020: 4477 802d 5c2b 782e 93ff 382d 10cf c02a
00000030: f2b0 af29 6314 ff2f abf1 922c 9424 2d2d
00000040: 4714 f42f 03ab cb2f f104 752e e5db 402c
00000050: 9fd1 0034 4e88 9432 ab2b bc34 752c 342e
00000060: 3fd8 942e 7197 a934 c3c7 fa34 2fb2 bc33
00000070: 9f3b c72e c7fe 9133 25f9 c031 eb8e b62e
00000080: fce3 612e 8391 b432 a0d1 9f33 7320 7a32
00000090: d2c4 2f35 d1a6 0334 aeb4 4634 4562 9732
000000a0: 587a 3c32 5f92 9c2f a3b3 ad32 9abe 832c
000000b0: b87c ac2e 898e 5633 b2eb 0533 c011 0231
000000c0: 6c44 1231 84a6 4b31 d23b a630 75e6 ce2e
000000d0: 09aa 352c dabe 0d33 2c0f a630 9592 932d
000000e0: db9f 3a33 4a0f 1f33 5f78 c231 71fa 0f30
000000f0: 0b9d 8434 6507 cd31 c9f9 3c35 ed4c 432f
00000100: 7d15 3f31 7804 6136 018c 6835 3b74 1c34
00000110: 6268 4e33 5875 2234 4670 0733 f1fd 9930
00000120: ad3a 7a2f 80c6 d535 13d7 5432 9518 0233
00000130: 164e bc35 ef40 a235 d336 1b34 3265 fb31
00000140: 4d1b 8334 09ca 9c32 dfa2 c235 a40a 612f
00000150: 8199 6b32 1aa1 2e36 ee9b 7035 bbcd 8d34
00000160: ad61 4e34 36b6 ec32 60d8 e433 9fc0 1c2f
00000170: d130 a72e 2007 9735 efde 1931 1d5b 0f2f
00000180: 373e 1e36 fc45 5436 65d2 a634 491f bd32
00000190: 9b8e 1f33 d55a 2132 5286 3234 a871 ab2d
000001a0: dc8f 4a2d 36b8 1b34 2e33 4634 3cf8 c133
000001b0: 72d3 682d efde 3132 5045 222c 3d1d 062e
000001c0: 34ca 7a2d 074e 7e31 ec71 9f30 715e 382d
000001d0: 47db a034 0ce3 d633 0fa3 0934 a3f3 3432
000001e0: 9a8a 292e 3e7f ac2b 19d2 fe2e 4dc7 0729
000001f0: 585c f829 b6c2 2d30 30bd 252f 84af 162e
00000200: 7d06 d42b d373 572e fc56 142c 495b 4b2a
00000210: 7749 8629 779d 4c2f 41be c02c 0ad5 ef2c
00000220: 2b62 6d2f ca16 d32e 0e7b 272e 830b 652c
00000230: 7230 8e34 3bfc 1e32 0d77 3e35 e242 eb2e
00000240: 0be2 4431 8208 d335 90e1 9c35 2248 0034
00000250: 062c 0433 a59b 4e34 97ef b132 7be5 dc2f
00000260: 8cca 662f c585 3835 d01d 3433 8e5d 2133
00000270: 206a a235 e337 2a35 e1fd 5534 01f9 2e32
00000280: 94d5 b134 aad3 1a32 eade 8035 9bf2 802f
00000290: b4b6 e031 5925 a136 f8d2 bd35 165b 6e34
000002a0: d9ce b233 a500 9e34 b581 5133 d06f f830
000002b0: 0ef3 f92f a383 0336 fbb8 fe32 de65 1a33
000002c0: 27af f635 509f b935 1cbd 7734 1d8a 2132
000002d0: d1e7 2332 faf3 e82e 87f5 eb33 ceca a62d
000002e0: db05 3a32 bd65 d734 2735 8832 6b04 6f2f
000002f0: b27a f633 036d d32d 9120 a033 8033 892f
00000300: abb3 382f e6fb f034 f5eb ad2d 343c b32d
00000310: fa1b 1534 48a2 3e35 1194 2e2d 87ac 532e

exp_avg f4 [10]
8.3423106e-07 5.730568e-06 1.4741042e-06 -0.0003010172 5.872761e-06 5.0064996e-06 -8.941091e-06 -0.0002374935
-0.0007382162 3.958757e-06
00000000: ecef 5f35 3449 c036 d6d9 c535 d8d1 9db9
00000010: a20e c536 81fd a736 b201 16b7 ad07 79b9
00000020: da84 41ba 77d5 8436

exp_avg_sq f4 [10]
1.3092506e-09 4.4769564e-07 4.09566e-08 3.642834e-06 2.9576952e-06 1.723476e-07 8.0279944e-10 1.7899234e-06
5.0571434e-06 4.5820133e-07
00000000: 29f1 b330 d25a f034 42e8 2f33 6977 7436
00000010: d17c 4636 8c0e 3934 fdab 5c30 4d3d f035
00000020: 88b0 a936 b6fe f534

exp_avg f4 [2, 10]
-8.6853385e-07 -5.257046e-07 2.1315557e-06 8.445718e-06 -1.4591652e-06 -2.4750963e-07 -9.869879e-07 5.6572815e-05
-0.00011033128 2.4539136e-06 -1.415338e-05 -1.4355717e-05 -7.554324e-06 0.0011438687 -1.2584901e-05 -1.4274893e-05
-5.337781e-06 -1.3618424e-05 0.0011361841 -1.1038873e-05
00000000: 3125 69b5 251e 0db5 d90b 0f36 15b2 0d37
00000010: 89d8 c3b5 77e1 84b4 a578 84b5 9948 6d38
00000020: a861 e7b8 eaad 2436 4e74 6db7 56d9 70b7
00000030: 267b fdb6 dded 953a bd23 53b7 337e 6fb7
00000040: 311b b3b6 b07a 64b7 03ec 943a 9933 39b7

exp_avg_sq f4 [2, 10]
6.9237194e-09 1.9191798e-07 1.7153562e-08 4.437085e-05 1.0760508e-06 1.6566965e-07 2.3330933e-09 3.1997427e-06
1.4767789e-05 8.348896e-08 4.7371063e-09 1.1959636e-07 4.926754e-09 2.8110875e-05 4.2931725e-07 2.0257655e-08
1.6702633e-09 1.6753073e-06 8.260952e-06 1.0130458e-07
00000000: aee5 ed31 0312 4e34 1559 9332 d61a 3a38
00000010: d36c 9035 ede2 3134 3654 2031 29bb 5636
00000020: 2cc3 7737 8b4a b333 07c4 a231 666a 0034
00000030: 3048 a931 a5cf eb37 ea7c e634 0e03 ae32
00000040: 2a8f e530 1fdb e035 8598 0a37 c88c d933

exp_avg f4 [2]
0.000112626825 0.0039215176
00000000: 1132 ec38 1380 803b

exp_avg_sq f4 [2]
0.00014340685 0.000107804415
00000000: 7c5f 1639 0e15 e238
